code/nnv/examples/NNV2.0/Submission/ARCH-COMP2023/benchmarks/Benchmark10-Unicycle/controllerB.onnx (onnx, 15026 bytes, 5 tensors)

input_Mean f4 [1, 1, 1, 4]
0	0x00000000	0.0
1	0x00000000	0.0
2	0x00000000	0.0
3	0x00000000	0.0

Operation_1_W f4 [500, 1, 1, 4]
0	0xbd1649bf	-0.036691424
1	0xbb5c8f4e	-0.0033654752
2	0xbe035868	-0.12826693
3	0x3d38045f	0.044926044
4	0xbe4d203d	-0.20031829
5	0x3d8ae99a	0.06782837
6	0xbd68852d	-0.05676763
7	0xbdbfc2f5	-0.09363357
8	0xbbe64ff8	-0.007028576
9	0xbe0de2af	-0.13856004
10	0xbebfc610	-0.37455797
11	0x3d4c2ce5	0.049847502
12	0x3d3cdfbd	0.04611181
13	0xbca72d4e	-0.020407345
14	0x3d7cd6af	0.061728176
15	0x3dace862	0.08442761
16	0x3ce77d2e	0.028257933
17	0x3d64eed5	0.05589183
18	0x3c3a1713	0.01135804
19	0xbdc5d368	-0.09659463
20	0x3d7e5f59	0.06210265
21	0x3d5ab16e	0.053391866
22	0xbcdcf223	-0.026970929
23	0x3e2a8676	0.16652855
24	0xbcea1f43	-0.02857936
25	0xbd7a4109	-0.06109718
26	0xbe195b04	-0.14976126
27	0x3c801589	0.015635269
28	0xbc7bc773	-0.015367377
29	0x3d5aa64f	0.05338126
30	0x3d2d1664	0.04225768
31	0xbc1937c0	-0.009351671
32	0xbc2a5496	-0.010396143
33	0x3d15bfff	0.036560055
34	0xbd1cea47	-0.03830936
35	0x3ea39fed	0.3195795
36	0x3df908df	0.12159895
37	0x3dd38ad0	0.10329211
38	0xbdaf857e	-0.085703835
39	0xbe802ee0	-0.25035763
40	0xbb4be79d	-0.0031113394
41	0xba9d7935	-0.0012014272
42	0x3e307add	0.17234369
43	0xbd94426b	-0.07239231
44	0x3d0caa2c	0.034341976
45	0x3d3c014c	0.045899674
46	0x3d5bfff9	0.05371091
47	0x3c6bd570	0.014394149
48	0x3c4cf25a	0.012508953
49	0x3cccea1d	0.025013978
50	0x3d3172b0	0.043322265
51	0xbe323fc9	-0.17407145
52	0xbd63f6d6	-0.055655323
53	0x3af3444d	0.0018559784
54	0x3dbf5b96	0.093436405
55	0x3ba54c13	0.005044469
56	0xbb1eb067	-0.002421403
57	0x3e22c0cf	0.15893863
58	0x3ddd83e7	0.10816174
59	0xbe15c40f	-0.14625572
60	0x3de9aee0	0.11410308
61	0x3deea246	0.11652045
62	0xbe121b12	-0.14268139
63	0x3e2c9803	0.16854863
64	0xbe41f676	-0.18941674
65	0x3d28c55a	0.041203834
66	0x3d86ce93	0.0658237
67	0x3d9ae225	0.07562665
68	0x3d072757	0.0329965
69	0x3eb13052	0.34607178
70	0xbf49d3df	-0.78838915
71	0xbeb3502c	-0.35022104
72	0xbc9c82f8	-0.01910542
73	0x3e0835cf	0.13301776
74	0xbccbfe7f	-0.024901627
75	0x3e4f1915	0.20224412
76	0x3df2e50a	0.11860092
77	0xbb85e9cb	-0.004086708
78	0x3e576995	0.2103637
79	0x3dcee317	0.10101908
80	0x3cf6922d	0.030098999
81	0x3e012a03	0.12613682
82	0xbdae76bd	-0.08518741
83	0x3d895890	0.06706345
84	0xbd8be7fe	-0.068313584
85	0x3e9b55a9	0.3033879
86	0xbf067f43	-0.52537936
87	0xbdcb2acc	-0.09920272
88	0x3dcc47e2	0.09974648
89	0xba7591bf	-0.0009367726
90	0xbb8e91ea	-0.0043508904
91	0x3dc42bbb	0.095786534
92	0x3dcb499a	0.09926148
93	0x3c2ceaba	0.01055401
94	0xbdb275e8	-0.08713895
95	0xbc018db1	-0.007907317
96	0xbbd1d6f9	-0.0064038006
97	0xbdb618bf	-0.08891439
98	0xbd4e28ce	-0.050331883
99	0xbd457ba1	-0.048213605
100	0xbdb8ba5e	-0.09019922
101	0xbcd87d62	-0.026426975
102	0x3d07b0de	0.033127658
103	0x3dfccfd5	0.12344328
104	0x3d269876	0.04067274
105	0x3cd31ac4	0.025769599
106	0xbdae55b2	-0.08512439
107	0x3c80ba3c	0.015713803
108	0x3df6212a	0.12018044
109	0x3e19dc0f	0.15025352
110	0xbd9dba16	-0.07701509
111	0x3c837e58	0.016051456
112	0xbbdeb628	-0.006796617
113	0x3d224fcc	0.03962688
114	0x3d05dae8	0.03267947
115	0xbdaa7508	-0.08323103
116	0xbd546274	-0.051851705
117	0x3df5f3fe	0.120094284
118	0x3d7a3ba6	0.06109204
119	0x3e417874	0.18893605
120	0xbe138f8b	-0.14410226
121	0xbdeb3c5e	-0.114861235
122	0x3e1ab302	0.15107349
123	0x3c698f99	0.014255428
124	0x3d9d7e39	0.07690091
125	0xbd60e92f	-0.05490988
126	0x3d9c439e	0.076300845
127	0xbd1a4927	-0.03766742
128	0x3d013f02	0.03155423
129	0x3dcbbd3c	0.09948203
130	0xbe1360c9	-0.1439239
131	0x3de423c3	0.111396335
132	0x3e147f41	0.14501669
133	0x3e020bed	0.12699862
134	0xbcff88f6	-0.031193238
135	0xbd28a746	-0.04117515
136	0xbca9c406	-0.020723354
137	0xbdb155f2	-0.08658971
138	0x3df9be2c	0.121944755
139	0x3dbd9d9c	0.09258577
140	0x3b7901e9	0.0037995523
141	0xbacf5585	-0.0015818333
142	0xbe0f5b21	-0.13999607
143	0xbbe3e4c3	-0.0069547608
144	0xbdcd25ef	-0.10017001
145	0xbd44412f	-0.047913726
146	0xbd640b92	-0.055675097
147	0x3e0b65b1	0.13613011
148	0x3d0160b5	0.031586368
149	0x3d0090af	0.03138798
150	0x3d237fb9	0.039916728
151	0xbda08847	-0.07838493
152	0x3e263833	0.16232376
153	0x3d919859	0.07109136
154	0xbc9c8315	-0.019105474
155	0xbe2e3122	-0.1701093
156	0x3d607948	0.054803163
157	0xbe09d8ee	-0.13461658
158	0xbe2099cf	-0.15683673
159	0x3d93cf22	0.07217242
160	0x3d85aa2f	0.065266006
161	0xbe4b47f5	-0.19851668
162	0x3db5d977	0.08879369
163	0xbdc97129	-0.09836037
164	0x3e00830f	0.12549995
165	0x3d5e0a72	0.05420918
166	0xbd07856a	-0.033086218
167	0xbdc80578	-0.09766668
168	0xbced1683	-0.028941398
169	0x3eeb48cc	0.45953977
170	0x3def093e	0.11671685
171	0x3c8f525d	0.017495329
172	0xbd673327	-0.056445267
173	0x3df92b00	0.12166405
174	0x3e32e5d4	0.17470485
175	0x3dce74a5	0.10080842
176	0xbc2c8ee6	-0.0105321165
177	0x3d9ca0fb	0.07647892
178	0x3d6538cd	0.055962373
179	0xbd5bb610	-0.053640425
180	0xbc4abd90	-0.012374297
181	0x3ed48531	0.41507867
182	0xbf3f91e7	-0.74832004
183	0x3d89b14c	0.0672327
184	0xbd09ab08	-0.033610374
185	0x3e1ae22b	0.15125339
186	0x3e926c3b	0.28598198
187	0xbddd0842	-0.10792591
188	0x3e091d18	0.13390005
189	0xbda18d81	-0.07888318
190	0x3d4f6ecc	0.050642774
191	0x3ce6ac8d	0.02815845
192	0x3d6cfecc	0.05786018
193	0x3cfb81f4	0.030701615
194	0xbc884c88	-0.016638055
195	0x3e35aa01	0.17740633
196	0x3b0de137	0.002164913
197	0xbd0d5374	-0.034503415
198	0xbd1cd3dc	-0.038287982
199	0xbd27b10d	-0.040940333
200	0xbdbd773a	-0.09251256
201	0xbdbeac96	-0.09310262
202	0x3e0a7c3b	0.13523953
203	0xbd9a8e51	-0.07546676
204	0x3cd6cc0e	0.026220348
205	0x3e45df1f	0.19323395
206	0xbc039bc0	-0.008032739
207	0x3dffac7b	0.1248407
208	0xbc3b0e5e	-0.011417
209	0x3d94c5eb	0.07264312
210	0x3dc389b0	0.09547746
211	0xbd032a5a	-0.03202281
212	0x3d6ff40f	0.05858236
213	0x3e41a75e	0.18911502
214	0xbda13684	-0.07871726
215	0x3e4712bd	0.19440742
216	0x3d2135f2	0.039358087
217	0x3e560e3e	0.2090387
218	0xbf0b0928	-0.54310846
219	0xbe4d2b5a	-0.20036069
220	0x3c9cc6db	0.01913779
221	0xbd1de143	-0.038544904
222	0x3bffa607	0.0078017744
223	0xbe0dbeb5	-0.1384228
224	0xbd3a02af	-0.045412716
225	0x3e01da74	0.1268099
226	0x3e5737d0	0.21017385
227	0x3da00712	0.078138486
228	0x3e378f32	0.17925718
229	0xbb11c9c8	-0.0022245515
230	0xbdf8d5c5	-0.12150148
231	0x3cd562f6	0.026048165
232	0xbd762570	-0.060094297
233	0xbd6617cf	-0.05617505
234	0x3c4461de	0.011986224
235	0x3d72ecb1	0.059307758
236	0x3c575723	0.013143334
237	0xbd99cb7f	-0.07509517
238	0xbcce9d49	-0.025221484
239	0xbd1e123e	-0.038591616
240	0x3d9b1b38	0.07573551
241	0x3e39817f	0.18115805
242	0xbd90cf59	-0.070707984
243	0xbc24805c	-0.010040369
244	0x3d8b47e5	0.06800822
245	0x3f77b0e6	0.967543
246	0x3e08c1fb	0.13355248
247	0xbea099af	-0.3136725
248	0xbe4fc0e4	-0.20288426
249	0x3e0caab2	0.1373699
250	0x3e90a2ef	0.28249308
251	0x3eaf42e5	0.34230724
252	0xbda08158	-0.0783717
253	0xbbbe3abb	-0.005805341
254	0x3d3ad151	0.045609776
255	0x3d91d0f2	0.07119931

Operation_1_B f4 [500]
0	0x3ce299f6	0.027661305
1	0x3d963795	0.0733482
2	0x3f085a08	0.53262377
3	0x3ec4d821	0.38446143
4	0x3ebae24b	0.36500773
5	0x3ec696aa	0.38786823
6	0x3edc128e	0.42982906
7	0x3eb6729c	0.35634315
8	0xbc59ef63	-0.013301703
9	0x3ea740d1	0.32666638
10	0x3ebd53d6	0.36978024
11	0x3eaf9ea2	0.34300715
12	0x3ed81297	0.42201683
13	0x3ec54175	0.38526502
14	0x3f31542d	0.6926907
15	0x3ea04ff1	0.3131099
16	0x3dcccccd	0.1
17	0x3dcf8265	0.10132293
18	0x3ef8a1b0	0.48560858
19	0x3ea23806	0.31683367
20	0x3ebab73f	0.3646793
21	0x3e0c152f	0.13679956
22	0x3ec29143	0.3800145
23	0x3eaaff4e	0.33397907
24	0x3ebc21ad	0.36744443
25	0x3eee2047	0.46509
26	0x3eb81b06	0.35958117
27	0x3e7bef4a	0.24603
28	0x3ec498d8	0.3839786
29	0x3f153d9c	0.58297133
30	0x3ef2dc25	0.47433582
31	0xbd397189	-0.04527429
32	0x3e960187	0.2929804
33	0x3ec95875	0.393253
34	0x3e221fc5	0.15832432
35	0x3ec1b0c0	0.37830162
36	0x3ed25b69	0.41085365
37	0x3eb15f11	0.34642842
38	0x3eb4bf92	0.35302407
39	0x3eaf62c7	0.3425505
40	0x3e762d53	0.24040727
41	0x3eb7ba32	0.35884243
42	0x3f2ca757	0.6744284
43	0x3eb775ab	0.3583196
44	0x3efacc1a	0.48983842
45	0x3da5e257	0.080998115
46	0x3e2bbb40	0.16770649
47	0xbd64aac2	-0.05582691
48	0x3ebf0b37	0.37313244
49	0x3ec13acc	0.3774017
50	0x3c949d0c	0.018141292
51	0x3ed2506d	0.41076985
52	0x3ed8f140	0.4237156
53	0x3dd2933d	0.1028199
54	0x3e381c3f	0.17979525
55	0x3ebb5bce	0.3659348
56	0x3f0172e7	0.5056595
57	0x3ec1baa4	0.37837708
58	0x3d2281a1	0.039674405
59	0x3eb56b98	0.3543365
60	0x3e455676	0.19271263
61	0x3df65680	0.12028217
62	0x3e3dd42b	0.18537967
63	0x3e8d79a8	0.2763188
64	0x3e1222e4	0.14271122
65	0x3ec77733	0.3895813
66	0x3eaf59af	0.3424811
67	0x3d4fcb05	0.050730724
68	0xbd5082f5	-0.05090614
69	0x3da088f7	0.07838624
70	0x3f4045da	0.75106585
71	0x3e4e46c5	0.20144184
72	0x3d5b5000	0.05354309
73	0x3ec9bdb6	0.3940255
74	0x3e052852	0.13003662
75	0x3f519d42	0.8188058
76	0x3ec3ebf1	0.38265947
77	0x3ec833f6	0.39102143
78	0x3ebbe52c	0.36698282
79	0x3eb0ce09	0.34532192
80	0x3eac5de2	0.33665377
81	0x3e16af36	0.14715275
82	0x3eaae77f	0.33379743
83	0x3ea963b8	0.33083892
84	0x3f19d1ce	0.6008576
85	0x3dc5ac8b	0.096520506
86	0x3da523f4	0.08063498
87	0x3ec972ee	0.39345497
88	0x3eceef5f	0.40417
89	0x3ea9081d	0.33014002
90	0x3e99d0d3	0.30042133
91	0x3d7d72c9	0.061877046
92	0x3e4dbba8	0.20091116
93	0x3df19f2c	0.11797938
94	0x3ed2f60c	0.41203344
95	0x3eb1e4e4	0.34744942
96	0x3e8d045a	0.27542382
97	0x3ed06160	0.4069929
98	0xbe7bc8b6	-0.24588284
99	0x3ed8388b	0.4223064
100	0x3e0addb2	0.13561133
101	0x3da87c4a	0.08226831
102	0x3dac3c3c	0.08409926
103	0xbda31506	-0.07962994
104	0x3d6e52a2	0.058184274
105	0xbde27168	-0.11056787
106	0x3db5423c	0.08850524
107	0x3ee365a0	0.4441347
108	0x3dce8e18	0.10085696
109	0x3eb3cac5	0.35115638
110	0x3ed5262b	0.41630682
111	0x3ec3d02b	0.38244757
112	0x3ebeaa78	0.37239432
113	0x3f02954e	0.5100907
114	0x3f3306bf	0.6993217
115	0x3eef9a76	0.46797532
116	0x3de2ef99	0.11080856
117	0x3da4ce59	0.0804717
118	0x3ea325cd	0.31864777
119	0x3eb4a17b	0.3527945
120	0x3e792c2b	0.24333255
121	0xbd584990	-0.05280453
122	0x3ead1192	0.33802468
123	0x3eb619ee	0.35566658
124	0xbd8463dd	-0.0646436
125	0x3dc632f5	0.09677688
126	0x3d72a3b3	0.059238147
127	0x3eacf5cf	0.33781287
128	0x3e813818	0.2523811
129	0x3ead4452	0.33841187
130	0x3d317142	0.0433209
131	0x3e7fc526	0.2497755
132	0x3e77de3d	0.24205871
133	0x3e96740c	0.29385412
134	0x3e75656b	0.23964469
135	0x3ed59ba7	0.41720316
136	0x3d8accd7	0.06777351
137	0x3ec91b69	0.39278725
138	0x3ec58647	0.38579008
139	0x3d93305d	0.07186959
140	0x3eb42665	0.35185543
141	0x3da954df	0.08268141
142	0x3ef3c771	0.476131
143	0x3dfa7900	0.1223011
144	0x3e12d5f3	0.14339428
145	0x3d803176	0.06259434
146	0x3ec9d84d	0.39422837
147	0x3e8067ea	0.2507928
148	0x3f094b84	0.5363085
149	0x3ec534a3	0.3851672
150	0x3eb8dac9	0.3610442
151	0x3dc2b8b1	0.09507883
152	0x3ea2dac1	0.3180752
153	0x3ea2fbc1	0.31832698
154	0x3eea2df4	0.45738184
155	0x3eb4dd29	0.35324982
156	0x3cd2b9af	0.025723306
157	0x3ebc037f	0.36721417
158	0x3d81f75a	0.06346007
159	0xbcd243ea	-0.02566715
160	0x3ed51ee1	0.4162512
161	0x3eaf5969	0.34247902
162	0x3e21b536	0.15791783
163	0x3d0cf034	0.034408763
164	0x3dc93525	0.0982459
165	0x3e8294a6	0.25504035
166	0x3eb888d3	0.3604189
167	0xbc8bde66	-0.017073821
168	0x3eb7d12e	0.3590178
169	0x3d25ab80	0.04044676
170	0x3f01c264	0.5068724
171	0x3da6e731	0.08149565
172	0x3f0e7ce6	0.5565933
173	0x3e9706f7	0.294975
174	0x3ee18831	0.44049218
175	0x3da4bdff	0.080440514
176	0x3f0b1aec	0.54337955
177	0x3ebf0856	0.37311047
178	0x3eb45bef	0.3522639
179	0x3ebd9732	0.37029415
180	0x3eb076d4	0.3446566
181	0xbd4dc734	-0.050238803
182	0x3f06a6a6	0.52598035
183	0x3ec3cf3c	0.38244045
184	0x3ee94a97	0.4556472
185	0x3db28933	0.08717575
186	0x3e20519f	0.15656136
187	0x3dd493e7	0.10379773
188	0x3ea9fac5	0.33199134
189	0x3eb2c786	0.3491785
190	0x3ee0ac1f	0.43881318
191	0x3ea82290	0.3283887
192	0x3f3410bc	0.70338035
193	0x3cd0eeb6	0.025504451
194	0x3eb415f8	0.3517301
195	0x3ed52aa2	0.4163409
196	0x3e07999b	0.1324219
197	0x3ed0b27c	0.40761173
198	0x3eba3d87	0.36375067
199	0x3e957731	0.29192498
200	0x3ef30939	0.47467974
201	0x3da38121	0.07983614
202	0x3ee777c0	0.4520855
203	0x3e12ada2	0.14324048
204	0x3e47f52e	0.19527122
205	0x3db0ab06	0.0862637
206	0x3de33618	0.11094302
207	0x3f08c9a7	0.534327
208	0x3ee36fbe	0.4442119
209	0x3eb6cd5e	0.35703558
210	0x3eed06f9	0.46294382
211	0x3eb2f809	0.3495486
212	0x3daeba48	0.08531624
213	0x3eb465cc	0.35233915
214	0x3dbbb206	0.09164815
215	0x3e330e74	0.17485982
216	0x3ec5e322	0.3864985
217	0x3eab7f62	0.33495623
218	0x3ead52a0	0.338521
219	0x3ea0dd35	0.31418768
220	0x3eb4e4dd	0.3533086
221	0x3ecd7808	0.4013064
222	0x3ebd8c01	0.37020877
223	0x3ecb71be	0.39735216
224	0x3da6c85f	0.081436865
225	0x3dbe7ece	0.0930153
226	0x3eeda084	0.46411526
227	0x3eaaee40	0.33384895
228	0x3ea47e49	0.32127598
229	0x3f06e5ea	0.5269457
230	0x3ec8ea12	0.3924108
231	0x3e3dc9c8	0.18534005
232	0x3eb489de	0.35261434
233	0x3e09b0a1	0.13446285
234	0x3ee7344a	0.4515708
235	0x3ef2f26a	0.47450572
236	0x3d6a9844	0.057274118
237	0x3d35e28b	0.0444055
238	0xbd5fcfa7	-0.054641392
239	0x3eb325cd	0.34989777
240	0x3e1f14c6	0.15535268
241	0x3dbb398d	0.09141836
242	0x3ebd2ac9	0.36946705
243	0x3ebd9687	0.37028906
244	0x3eb238e5	0.34809032
245	0x3ea770fc	0.32703388
246	0x3eacad3b	0.33725914
247	0x3e83beb4	0.25731432
248	0x3ef555d0	0.47917032
249	0x3ddde555	0.10834757
250	0x3eb9ca38	0.36287093
251	0x3d125d20	0.035733342
252	0x3e9491ca	0.29017478
253	0x3e8a7929	0.27045563
254	0x3eb94f15	0.36193147
255	0x3f1fe51e	0.6245898

Operation_2_W f4 [2, 500, 1, 1]
0	0x3d554a79	0.052072976
1	0xbe0f2241	-0.1397791
2	0x3eb6381c	0.35589683
3	0x3dbc9bd3	0.092094086
4	0x3e3f2889	0.18667807
5	0x3d926d50	0.07149756
6	0x3e93e3a9	0.28884628
7	0x3e82da00	0.25556946
8	0xbe890ce3	-0.26767644
9	0x3e68a0e9	0.22717632
10	0x3e164465	0.14674528
11	0x3e57670c	0.21035403
12	0x3e2e206e	0.17004558
13	0x3ea17fcb	0.3154281
14	0xbe435707	-0.19076167
15	0xbd838d3d	-0.064234234
16	0x3d75eb88	0.060039073
17	0x3c8c00c2	0.017090205
18	0x3dd1fb98	0.10253066
19	0x3e60f7c8	0.21969521
20	0x3e5df05f	0.21673726
21	0xbe0d726e	-0.13813183
22	0x3d15852e	0.036503963
23	0xbc0c15be	-0.008550106
24	0x3e835d2e	0.25657028
25	0x3d811e92	0.06304659
26	0x3e06abfd	0.13151546
27	0xbc9b8638	-0.018984899
28	0x3e728e57	0.23687111
29	0x3e76756f	0.24068235
30	0xbdc77243	-0.097385906
31	0xbc418561	-0.011811585
32	0xbdbfef59	-0.09371824
33	0x3db8534d	0.09000263
34	0x3e5e1af6	0.21689972
35	0x3e336be2	0.17521623
36	0x3f3e4938	0.7433047
37	0x3e635fd1	0.2220452
38	0x3e16c6d6	0.14724287
39	0x3df04a98	0.11732978
40	0x3e45102b	0.19244449
41	0x3ddb7c10	0.107170224
42	0xbf6557c6	-0.89587057
43	0xbd0c2571	-0.034215394
44	0x3e39dc58	0.1815046
45	0x3c5379f6	0.012907496
46	0x3d209d82	0.03921271
47	0xbcc6b1f4	-0.024254777
48	0x3b4da7d9	0.0031380563
49	0x3e8184bb	0.25296578
50	0x3c813a48	0.015774861
51	0x3d2c85e5	0.04211988
52	0x3dcc95ad	0.09989486
53	0xbdca14f9	-0.098672815
54	0xbda46d24	-0.080286294
55	0x3dcfb8c7	0.10142665
56	0x3ee31d4e	0.44358295
57	0x3da2ec9f	0.07955288
58	0xbe06f414	-0.13179046
59	0x3e5a1e02	0.2130051
60	0x3dc7a656	0.09748523
61	0x3e61c331	0.22047116
62	0x3feade29	1.8349048
63	0x3edd4a11	0.4322057
64	0x3eb7c529	0.3589261
65	0x3d919768	0.071089566
66	0x3e3daa14	0.18521911
67	0xbcd2b676	-0.02572177
68	0xbd44940a	-0.047992744
69	0xbcd97071	-0.026542874
70	0xbe6292a1	-0.22126247
71	0x3e2afde9	0.16698422
72	0xbd3419f3	-0.04397006
73	0x3e672e7b	0.22576325
74	0x3c41d6ce	0.011830999
75	0x3cef11ba	0.029183257
76	0x3c61bd7f	0.01377809
77	0x3dbef952	0.09324898
78	0x3d8070f0	0.06271541
79	0x3d8c1505	0.06839947
80	0x3d91009f	0.070801966
81	0x3ef60092	0.4804731
82	0xbd2819e9	-0.041040335
83	0x3e3629e0	0.17789412
84	0x3f0432ee	0.5164021
85	0xbfb792d7	-1.4341687
86	0x3d410005	0.04711916
87	0x3d9d3fde	0.07678197
88	0xbf17cf85	-0.59301025
89	0x3d833302	0.06406213
90	0x3da35399	0.07974929
91	0xbd2d27c6	-0.04227426
92	0xbeaa7d1d	-0.3329858
93	0xbdbf6aec	-0.093465656
94	0x3edc80aa	0.43066913
95	0xbf05995c	-0.5218713
96	0x3d9a18ad	0.07524238
97	0x3e627e10	0.22118402
98	0xbfc05468	-1.5025759
99	0x3e896d35	0.2684113
100	0x3f2f716f	0.6853246
101	0xbda47324	-0.08029774
102	0xbc94f46f	-0.018182961
103	0xbd6c756e	-0.057729177
104	0x3ce15e58	0.027510807
105	0xbc9a34ba	-0.01882397
106	0xbd139e64	-0.036039725
107	0x3e77287f	0.24136542
108	0x3db11da6	0.08648233
109	0x3e27f68c	0.16402644
110	0x3e5ee25a	0.21766034
111	0xbedf357c	-0.43595493
112	0x3e1db39a	0.15400544
113	0xbf0b7584	-0.5447619
114	0xbe281f2a	-0.16418138
115	0x3e90e54b	0.28299937
116	0x3f120606	0.5704044
117	0xbdfa052c	-0.12208018
118	0x3e68d82e	0.22738716
119	0x3e4f4462	0.2024093
120	0x3e7398bb	0.23788731
121	0x3d1cf654	0.038320854
122	0x3e4df19e	0.20111701
123	0x3e3f6d0a	0.18693939
124	0xbd688198	-0.056764215
125	0x3efe4e5b	0.49669155
126	0xbdffd8f6	-0.12492554
127	0x3dee2337	0.116278104
128	0x3d1a91fd	0.03773688
129	0x3e1f1e76	0.15538964
130	0xbdebca07	-0.11513143
131	0x3e3eee70	0.18645644
132	0xbe69a20f	-0.22815727
133	0x3e39df59	0.18151607
134	0x3f3e2ee0	0.74290276
135	0xbbb85fdd	-0.005626662
136	0x3d9add45	0.07561735
137	0x3e574453	0.21022157
138	0x3db73ffd	0.08947752
139	0xbdba92f9	-0.09110064
140	0x3e3986fd	0.181179
141	0xbd46b9ce	-0.04851704
142	0x3ec16639	0.37773302
143	0x3db4c10a	0.08825882
144	0x3d2df08b	0.042465728
145	0xbcfaf9c4	-0.030636676
146	0x3e8d209c	0.2756394
147	0xc011c3d7	-2.277578
148	0x3f0f94c6	0.56086385
149	0x3e75a698	0.23989332
150	0x3d389698	0.045065492
151	0x3eb854ca	0.3600219
152	0x3d79ce35	0.06098767
153	0x3e17efcc	0.14837569
154	0x3ebd4247	0.36964628
155	0x3d57b789	0.052665267
156	0xbdcc0aa8	-0.0996297
157	0x3dfc128c	0.12308225
158	0xbe03670a	-0.12832275
159	0xbd9b3913	-0.075792454
160	0x3ecfb498	0.4056747
161	0x3d02757a	0.031850316
162	0x3ec5af3c	0.38610256
163	0xbc2ca06f	-0.010536297
164	0xbc970e3c	-0.018439405
165	0xbdc36ab5	-0.09541837
166	0x3e56204c	0.20910758
167	0x3c42651d	0.011864928
168	0x3e69f920	0.2284894
169	0xbe0c1de0	-0.13683271
170	0x3f03102d	0.5119656
171	0xbe0ecd35	-0.13945468
172	0x3eac2cec	0.33628023
173	0x3e616758	0.22012079
174	0x3e875382	0.264309
175	0xbe34505e	-0.17608783
176	0x3c116ecb	0.008876513
177	0x3dd25884	0.10270789
178	0x3e2a4e8e	0.16631529
179	0x3dbda3bf	0.09259748
180	0x3e53a73a	0.2066926
181	0xbdfb5806	-0.122726485
182	0x3e084323	0.1330686
183	0x3ddcbea2	0.10778548
184	0x3eb60586	0.3555109
185	0x3f153dea	0.582976
186	0x3e0e3738	0.13888252
187	0xbebbb356	-0.3666026
188	0x3e82e1cf	0.25562903
189	0x3d952651	0.07282699
190	0x3ecce366	0.4001724
191	0x3e726dac	0.23674649
192	0x3dda6737	0.10664218
193	0xbc568440	-0.013093054
194	0x3c6a7b4a	0.014311621
195	0x3f2b14c9	0.6682859
196	0x3f1f8955	0.6231893
197	0x3ed47af6	0.41500062
198	0x3dbfa48b	0.09357556
199	0x3e96242d	0.29324475
200	0x3ed93cd4	0.4242922
201	0xbda45a0a	-0.08024986
202	0x3ef55ece	0.47923893
203	0x3e0e1c3e	0.13877961
204	0x3e9872dd	0.29775134
205	0xbe3f6feb	-0.18695037
206	0x3f2ec068	0.6826234
207	0x3e8ca21c	0.2746743
208	0x3e873a42	0.26411635
209	0x3d7f543e	0.0623362
210	0x3e74902e	0.23883125
211	0xbf162568	-0.5865083
212	0x3f093d70	0.5360937
213	0x3e259b1c	0.16172451
214	0xbc846d3e	-0.016165372
215	0x3f0aa673	0.5416023
216	0x3db48230	0.08813894
217	0x3d88f5ee	0.06687532
218	0x3e0827ad	0.13296385
219	0x3e42b1ba	0.1901311
220	0x3e322ddd	0.17400308
221	0x3e6a9e2f	0.22911905
222	0x3e5102c5	0.20411213
223	0x3d1570f3	0.03648467
224	0xbe4ada45	-0.19809826
225	0x3ea3f884	0.3202554
226	0x3f05f371	0.5232459
227	0x3e1730d7	0.14764725
228	0x3e62503e	0.22100922
229	0x3f222f54	0.63353467
230	0x3e8f8785	0.2803308
231	0xbee94167	-0.4555771
232	0x3de72cff	0.11287879
233	0x3d029545	0.031880636
234	0x3e68a081	0.22717477
235	0x3ee0662d	0.43827954
236	0x3cf6ac96	0.030111592
237	0xbd4f092c	-0.050545856
238	0xbd02f8bf	-0.031975504
239	0x3ec3a741	0.38213542
240	0x3e019f3b	0.12658398
241	0xbd1488d3	-0.0362633
242	0x3eac0cb4	0.33603442
243	0x3f02ef21	0.5114613
244	0x3e100e22	0.14067891
245	0x3d910395	0.07080761
246	0x3e600b3b	0.21879284
247	0x3ec198e9	0.37811974
248	0x3e87e418	0.2654121
249	0x3d4eb69e	0.050467126
250	0x3c22e869	0.009943106
251	0xbcf13c2b	-0.029447636
252	0x3d1eefe7	0.038803007
253	0xbf185c05	-0.5951541
254	0x3db3ce7d	0.08779619
255	0x3e8af757	0.2714183

Operation_2_B f4 [2]
0	0x3e8bc732	0.2730041
1	0x3e9bc9df	0.30427453
