code/nnv/examples/Submission/VNN_COMP2025_NH/ViT_vnncomp2023-master/models/ibp_3_3_8/model.onnx (onnx, 303176 bytes, 70 tensors)

0.cls_token f4 [48]
0.42348891 -1.497752 -0.11710057 7.018223 -1.1435457 2.1978455 -3.984732 2.4224877
-0.6295936 1.1451174 1.7002014 -0.52298325 -10.232921 -0.42297462 2.878874 11.565955
1.5867801 27.96908 7.719033 -1.1749552 -0.46569324 2.0856433 -22.458374 -1.8403617
-2.4180424 -1.3127593 0.49452785 0.71231234 1.5798115 6.4517016 -9.456099 0.1296867
-4.819238 -1.2958399 5.8248873 -1.4449223 1.2342191 0.053767145 -0.52194965 0.51582366
11.031039 -3.7278454 2.8561697 -2.9533443 0.021937216 -0.23626244 3.0726388 0.93299377
00000000: 8ad3 d83e 56b6 bfbf 6cd2 efbd 4895 e040
00000010: b55f 92bf 80a9 0c40 d905 7fc0 0a0a 1b40
00000020: 0c2d 21bf 3593 923f 33a0 d93f 3be2 05bf
00000030: 0bba 23c1 2190 d8be 793f 3840 270e 3941
00000040: 9c1b cb3f adc0 df41 5102 f740 ef64 96bf
00000050: 586f eebe 2e7b 0540 c0aa b3c1 f990 ebbf
00000060: 35c1 1ac0 7f08 a8bf c132 fd3e 1a5a 363f
00000070: 4337 ca3f 5774 ce40 2e4c 17c1 97cc 043e
00000080: 3337 9ac0 15de a5bf 7a65 ba40 37f3 b8bf
00000090: e4fa 9d3f f03a 5c3d 7e9e 05bf 050d 043f
000000a0: 237f 3041 0595 6ec0 7ccb 3640 9803 3dc0
000000b0: adb5 b33c c8ee 71be 1da6 4440 aed8 6e3f

0.positions f4 [17, 48]
0.4234742 -1.4977617 -0.1170967 7.0182524 -1.1435349 2.1978655 -3.9847486 2.4224718
-0.6296069 1.1451296 1.700176 -0.52296895 -10.232931 -0.42298532 2.8788779 11.565972
1.5867745 27.969128 7.7190456 -1.174958 -0.46569183 2.0855765 -22.458382 -1.8403602
-2.4180133 -1.312766 0.4945653 0.7123061 1.5798073 6.45171 -9.456114 0.12965739
-4.8191915 -1.2958853 5.8248873 -1.4449172 1.2342136 0.05376754 -0.52194977 0.5157844
11.031037 -3.7278478 2.8561678 -2.953344 0.021904275 -0.2362329 3.072648 0.9329983
-1.3303534 4.718999 -1.2940841 4.194415 -11.6121 0.84595054 2.0743525 -2.5965786
2.8787568 -2.7489676 1.9284985 -2.1108842 14.550479 -1.238687 -4.703004 2.2179408
2.3555305 6.519621 -1.7077929 2.8695257 -3.4601486 -1.9109945 14.170082 5.440181
4.127642 1.3692955 -1.0226195 -10.6783285 5.405725 -0.19906674 7.8508477 4.334475
-4.961725 3.1143854 5.173075 -5.030272 1.6323165 1.1595302 3.0338435 -4.734711
-5.0127172 0.33557215 -5.770242 -1.8519574 0.11317343 -0.6020918 0.47238502 7.4911904
0.14373949 9.225231 -1.570022 -0.37974924 -3.3075738 9.756409 0.1172647 -2.3567038
1.5243609 7.5931 -0.11082365 -2.2222452 9.434437 -0.1868376 5.402956 -2.401945
13.77493 16.095655 2.7443655 -3.1942306 4.382881 -3.6090403 6.0448623 0.45575535
7.644458 -8.150253 1.6574339 -1.3441467 2.1885536 -4.1946206 0.54692554 4.518808
-13.287112 0.51238185 12.1634655 -1.9523184 3.5653229 2.4595149 0.624738 0.90475094
1.5281849 5.731859 -2.0772548 -1.0272583 0.6827793 0.8725796 1.1450757 -5.5552387
1.9714586 9.19261 -1.5767183 1.6230707 -3.5220232 12.023056 -0.16420855 -2.7678943
2.0764422 7.0780625 0.19299318 -2.0059988 11.712022 -0.44544187 4.648591 -1.9061438
13.556597 15.305445 0.92853874 -2.841968 3.5961218 -4.84758 5.7427745 0.0812875
7.1808343 -8.504127 1.6898004 -0.8586807 1.6904833 -4.0926795 1.4294201 6.0521173
-12.466138 1.0814171 12.765956 -3.4058142 3.58183 2.2932045 0.5470471 0.7584202
1.3911072 5.765287 -3.1703975 -1.8406628 0.44958732 1.0052154 1.2573147 -0.11682852
0.8607897 4.2832623 -1.4559337 1.1451305 -11.8108015 0.2176765 1.4423476 -2.3019035
2.913625 -3.5783591 1.1471142 -1.9985179 12.669528 -1.1171325 -4.443642 2.040295
1.589504 5.5070267 0.07091634 3.0426676 -3.7828155 -2.5076036 11.028518 5.791244
4.273297 2.9881277 -1.341577 -11.294218 5.2964406 1.2047136 7.1146564 5.188608
-4.976627 2.8683467 4.428581 -3.902032 1.3786802 1.4265969 2.8086822 -4.9683533
-5.6873913 2.145138 -5.9158335 -0.9190496 1.1328022 -0.53700936 0.2895223 4.8240175
2.516893 0.31600916 0.07906878 4.9228497 -11.549674 -16.823088 -2.5157394 2.2591186
-1.4729625 -0.125865 3.1180575 -0.55290866 3.98944 -1.1388658 -5.0635295 -5.526031
00000000: 9cd1 d83e a8b6 bfbf 65d0 efbd 8695 e040
00000010: 5a5f 92bf d4a9 0c40 1f06 7fc0 c709 1b40
00000020: eb2d 21bf 9b93 923f 5e9f d93f 4be1 05bf
00000030: 16ba 23c1 8891 d8be 893f 3840 390e 3941
00000040: 6d1b cb3f c6c0 df41 6c02 f740 0665 96bf
00000050: 296f eebe 167a 0540 c4aa b3c1 ec90 ebbf
00000060: bbc0 1ac0 b708 a8bf aa37 fd3e b159 363f
00000070: 2037 ca3f 6974 ce40 3e4c 17c1 e8c4 043e
00000080: d136 9ac0 92df a5bf 7a65 ba40 0cf3 b8bf
00000090: b6fa 9d3f 5a3b 5c3d 809e 05bf 720a 043f
000000a0: 217f 3041 0f95 6ec0 74cb 3640 9703 3dc0
000000b0: 9870 b33c 0ae7 71be 44a6 4440 fad8 6e3f
000000c0: 0549 aabf 0a02 9740 8ca4 a5bf a638 8640
000000d0: 29cb 39c1 3790 583f 31c2 0440 582e 26c0
000000e0: 8d3d 3840 16ef 2fc0 0ad9 f63f ba18 07c0
000000f0: c3ce 6841 4c8d 9ebf 027f 96c0 bef2 0d40
00000100: 03c1 1640 bca0 d040 f598 dabf 4fa6 3740
00000110: 1373 5dc0 789b f4bf a8b8 6241 f615 ae40
00000120: a515 8440 1345 af3f 32e5 82bf 6fda 2ac1
00000130: b3fb ac40 27d8 4bbe 253a fb40 05b4 8a40
00000140: 74c6 9ec0 1752 4740 d589 a540 fdf7 a0c0
00000150: bfef d03f 7c6b 943f 7e2a 4240 c182 97c0
00000160: 2e68 a0c0 1dd0 ab3e d3a5 b8c0 f10c edbf
00000170: 79c7 e73d b022 1abf 73dc f13e d5b7 ef40
00000180: 7230 133e 8c9a 1341 7bf6 c8bf 7e6e c2be
00000190: 4aaf 53c0 401a 1c41 7a28 f03d 3cd4 16c0
000001a0: 421e c33f adfa f240 83f7 e2bd 4439 0ec0
000001b0: 74f3 1641 5b52 3fbe 04e5 ac40 78b9 19c0
000001c0: 1d66 5c41 e7c3 8041 afa3 2f40 466e 4cc0
000001d0: 9040 8c40 84fa 66c0 836f c140 c458 e93e
000001e0: 669f f440 7067 02c1 cb26 d43f 000d acbf
000001f0: 4311 0c40 553a 86c0 5003 0c3f 139a 9040
00000200: 0398 54c1 752b 033f 8e9d 4241 92e5 f9bf
00000210: 402e 6440 b168 1d40 d4ee 1f3f c29d 673f
00000220: 909b c33f 646b b740 bef1 04c0 337d 83bf
00000230: a0ca 2e3f 6061 5f3f d791 923f 84c4 b1c0
00000240: c158 fc3f ee14 1341 e8d1 c9bf c8c0 cf3f
00000250: d468 61c0 705e 4041 4926 28be 2e25 31c0
00000260: 6ee4 0440 7d7f e240 01a0 453e 4962 00c0
00000270: 7164 3b41 f510 e4be 42c1 9440 85fc f3bf
00000280: d2e7 5841 1ae3 7441 b7b4 6d3f cee2 35c0
00000290: dc26 6640 601f 9bc0 cfc4 b740 107a a63d
000002a0: 65c9 e540 e710 08c1 614b d83f 80d2 5bbf
000002b0: c261 d83f 3bf7 82c0 3df7 b63f f2aa c140
000002c0: 4d75 47c1 e06b 8a3f 5b41 4c41 dcf8 59c0
000002d0: b43c 6540 ddc3 1240 470b 0c3f d427 423f
000002e0: cd0f b23f 3b7d b840 cbe7 4ac0 d79a ebbf
000002f0: 4f30 e63e e6aa 803f b0ef a03f cb43 efbd
00000300: b75c 5c3f 7c10 8940 095c babf a393 923f
00000310: 0bf9 3cc1 97e6 5e3e d99e b83f 6352 13c0
00000320: d578 3a40 d603 65c0 a3d4 923f 6fcf ffbf
00000330: 63b6 4a41 33fe 8ebf 5132 8ec0 3194 0240
00000340: de74 cb3f 9039 b040 963c 913d 11bb 4240
00000350: a619 72c0 947c 20c0 cf74 3041 df51 b940
00000360: d9be 8840 7c3d 3f40 ccb8 abbf 1eb5 34c1
00000370: 717c a940 0e34 9a3f 44ab e340 1409 a640
00000380: 8740 9fc0 fe92 3740 f0b6 8d40 e4ba 79c0
00000390: 9878 b03f ba9a b63f 73c1 3340 c0fc 9ec0
000003a0: 1cff b5c0 f149 0940 824e bdc0 d646 6bbf
000003b0: aaff 903f 7279 09bf 443c 943e 5a5e 9a40
000003c0: c614 2140 f4cb a13e d0ee a13d fc87 9d40
000003d0: 77cb 38c1 af95 86c1 e001 21c0 6695 1040
000003e0: 098a bcbf c1e2 00be 418e 4740 6c8b 0dbf
000003f0: fc52 7f40 5bc6 91bf 6f08 a2c0 3fd5 b0c0

0.projection.weight f4 [48, 3, 8, 8]
0.41481772 0.5819463 0.5396214 0.110663146 0.0023967242 -0.4795673 -0.51926756 -0.608865
0.44200596 0.38841367 0.113136925 0.17350243 0.0007932597 -0.1764768 -0.14049666 -1.0551344
1.1460565 1.5431477 0.6894241 0.54120374 -0.001638208 -1.1118699 -0.553262 -1.9394027
0.94712245 0.64541125 0.15494734 0.29947513 -0.009100922 -0.53281796 -0.08127655 -1.1405715
1.3145114 0.64131093 0.20685194 0.23775691 -0.008858152 -0.37766728 -0.15015268 -2.0490994
0.28262785 0.19599998 0.060188245 0.041971963 0.01563356 0.0068792477 0.00442334 -0.2944396
0.08530981 0.045846675 0.036286507 0.03809339 0.03812918 0.040982284 0.028958734 0.017558789
0.04308698 0.03540161 0.03608374 0.033374734 0.02952971 0.03569314 0.027469937 0.01440862
0.1482789 0.07179163 0.07123195 0.015393993 -0.003346363 -0.10444027 -0.114831686 -0.26364425
0.6407322 0.2901337 0.11762137 0.13064158 -0.0084833065 -0.17724626 -0.180578 -1.0660911
1.4260389 0.99504244 0.25813147 0.4719201 -0.007937937 -0.9924602 -0.18727833 -2.0337102
1.287876 0.5795158 0.08570868 0.32822493 -0.026278246 -0.7652587 -0.0833294 -1.1258987
1.223311 0.19169511 0.043284316 0.12068092 -0.030871673 -0.32186222 -0.053376343 -1.905861
0.2450856 0.08182552 0.021826763 0.014482033 0.0048964806 0.0004432084 -0.0009572754 -0.22663254
0.031309824 0.030198187 0.027607268 0.026878307 0.024070036 0.030355174 0.020915123 0.0044743833
0.029079225 0.018021325 0.024458144 0.019056486 0.012701133 0.024211599 0.0126507785 0.0027154798
0.80091566 0.79486465 0.7495537 0.22523448 -0.004645316 -0.5593046 -0.6931951 -1.1248788
0.67688483 0.48016804 0.16384296 0.17708206 -0.008934118 -0.19976382 -0.24466194 -1.077554
1.2232331 1.4322698 0.6059 0.3670469 -0.010747715 -0.78495646 -0.60825366 -2.0543296
0.8843351 0.58891916 0.15943441 0.25110543 -0.022568848 -0.5154644 -0.109006114 -1.1336787
0.8320066 0.4242914 0.09456195 0.117121615 -0.027274173 -0.26529935 -0.12010579 -1.3712373
0.31569362 0.08728368 0.024234887 0.017612444 0.0041233664 0.0002652899 -0.0039713816 -0.24586186
0.0217104 0.02268881 0.023663953 0.023396682 0.020632658 0.022848709 0.015553318 0.008086925
0.019727241 0.0104361875 0.018919514 0.019070517 0.013379523 0.018406892 0.009791995 0.0025961832
-0.003701658 -0.0017021663 -0.007195623 -0.007833769 -0.0021584267 0.0007841361 -0.006449272 -0.011849649
-0.0061310697 -0.001956151 -0.005447095 -0.008575003 -0.0038740963 -0.0038085938 -0.006799382 -0.00843443
-0.0050822254 -0.0040408657 -0.0057468563 -0.005911619 -0.0026902803 -0.0014373419 -0.00094714493 -0.003254966
-0.004933011 -0.0064527066 -0.005186757 -0.004851281 -0.0024781567 -0.00026775638 0.0005443141 0.0005929933
-0.009051734 -0.008686449 -0.00479437 0.0004429449 0.0007597316 -0.0022809473 -0.0003420341 0.0012838108
-0.0073517617 -0.004893983 -0.006119372 -0.0028887342 -0.010433691 -0.008446627 -0.0018652995 -0.004461826
-0.009372573 -0.0019806817 -0.0032427532 -0.0032018914 -0.004053709 -0.0013009564 -0.0026981 -0.0074528498
-0.011819624 -0.007816753 -0.0028987962 -0.0039362777 -0.00057417556 0.003104709 0.00020639687 -0.002703295
00000000: fd62 d43e 6ffa 143f a124 0a3f 5ca3 e23d
00000010: 5c12 1d3b d889 f5be b8ee 04bf 94de 1bbf
00000020: 9b4e e23e 28de c63e 55b4 e73d 9faa 313e
00000030: c2f2 4f3a 56b6 34be 5bde 0fbe a50e 87bf
00000040: fbb1 923f dd85 c53f 197e 303f 548c 0a3f
00000050: 24b9 d6ba c151 8ebf 94a2 0dbf 593e f8bf
00000060: 9e76 723f ac39 253f 84aa 1e3e ce54 993e
00000070: 091c 15bc c266 08bf 5274 a6bd 3ffe 91bf
00000080: e941 a83f f42c 243f ffd0 533e 8c76 733e
00000090: c821 11bc 9b5d c1be a0c1 19be 7224 03c0
000000a0: 99b4 903e 38b4 483e f387 763d cbea 2b3d
000000b0: f411 803c 506b e13b aaf1 903b cac0 96be
000000c0: e9b6 ae3d b9c9 3b3d 29a1 143d d107 1c3d
000000d0: 582d 1c3d 0add 273d de3a ed3c 73d7 8f3c
000000e0: f97b 303d 4701 113d 8bcc 133d f2b3 083d
000000f0: 4ae8 f13c f832 123d a208 e13c 2212 6c3c
00000100: 6dd6 173e 7d07 933d 0ee2 913d 1637 7c3c
00000110: a84e 5bbb c8e4 d5bd e02c ebbd 61fc 86be
00000120: 0707 243f 688c 943e 79e3 f03d e8c6 053e
00000130: 91fd 0abc 0b80 35be 70e9 38be ac75 88bf
00000140: 7188 b63f 1abb 7e3f cf29 843e 839f f13e
00000150: 1f0e 02bc df11 7ebf e4c5 3fbe 4f28 02c0
00000160: 1fd9 a43f 265b 143f 0888 af3d 190d a83e
00000170: 7a45 d7bc ffe7 43bf 9ba8 aabd 731d 90bf
00000180: 7495 9c3f b94b 443e e54a 313d 8f27 f73d
00000190: 97e6 fcbc 20cb a4be 27a1 5abd 41f3 f3bf
000001a0: b8f7 7a3e 2394 a73d 0ace b23c 0d46 6d3c
000001b0: a872 a03b 6d5e e839 aaf1 7aba 5c12 68be
000001c0: bb3e 003d 3062 f73c a328 e23c e52f dc3c
000001d0: 862e c53c 6aab f83c 3156 ab3c d99d 923b
000001e0: 8e37 ee3c 75a1 933c 725c c83c 591c 9c3c
000001f0: 6a18 503c 6757 c63c 3645 4f3c 31f6 313b
00000200: cf08 4d3f 407c 4b3f c0e2 3f3f dea3 663e
00000210: bc37 98bb 962e 0fbf 3c75 31bf 07fc 8fbf
00000220: 5348 2d3f 96d8 f53e 73c6 273e 0055 353e
00000230: 6860 12bc e38e 4cbe a988 7abe 4aed 89bf
00000240: e792 9c3f 9e54 b73f 431c 1b3f 92ed bb3e
00000250: 2f17 30bc e8f2 48bf 83b6 1bbf 237a 03c0
00000260: c963 623f 68c3 163f c642 233e e490 803e
00000270: 4ee2 b8bc 7af5 03bf 993e dfbd 621c 91bf
00000280: 62fe 543f b93c d93e b2a9 c13d 75dd ef3d
00000290: 166e dfbc 51d5 87be 06fa f5bd b484 afbf
000002a0: 98a2 a13e c9c1 b23d 3e88 c63c f947 903c
000002b0: 4e1d 873b 9c16 8b39 5d22 82bb 36c3 7bbe
000002c0: 02da b13c e2dd b93c e8da c13c 66aa bf3c
000002d0: d205 a93c 372d bb3c 58d3 7e3c 067f 043c
000002e0: 069b a13c 8bfc 2a3c 19fd 9a3c c639 9c3c
000002f0: c935 5b3c 0dca 963c 9b6e 203c ba24 2a3b
00000300: 8497 72bb 391b dfba 43c9 ebbb 3559 00bc
00000310: 6474 0dbb 7c8e 4d3a 6a54 d3bb 0825 42bc
00000320: 24e7 c8bb c532 00bb 8b7d b2bb 2b7e 0cbc
00000330: 8de4 7dbb 9a99 79bb 5acd debb 9030 0abc
00000340: cc88 a6bb 3d69 84bb 2050 bcbb 41b6 c1bb
00000350: 6a4f 30bb 3165 bcba d249 78ba 4551 55bb
00000360: 18a5 a1bb 3a71 d3bb acf5 a9bb 7ff7 9ebb
00000370: 9268 22bb a761 8cb9 4db0 0e3a 1b73 1b3a
00000380: b94d 14bc 9c51 0ebc 171a 9dbb 0f3b e839
00000390: ba28 473a f27b 15bb 0a53 b3b9 8b45 a83a
000003a0: 0ce7 f0bb b45d a0bb 0385 c8bb eb50 3dbb
000003b0: 12f2 2abc b963 0abc 117d f4ba 8234 92bb
000003c0: 6c8f 19bc 53ce 01bb 5f84 54bb d3d6 51bb
000003d0: fad4 84bb da84 aaba 9bd2 30bb 0937 f4bb
000003e0: 19a7 41bc d711 00bc bbf9 3dbb e4fb 80bb
000003f0: 4584 16ba 6078 4b3b 3d6c 5839 c429 31bb

0.projection.bias f4 [48]
-0.521605 1.4530207 0.19541408 -7.158251 1.1587287 -2.2460701 3.830569 -2.503935
0.61244917 -1.1403248 -1.8012072 0.53381246 9.65945 0.43928936 -2.932502 -11.599703
-1.5163693 -27.979326 -7.581935 1.2217127 0.54134136 -1.948121 22.148018 1.7616073
2.4429286 1.29463 -0.5532154 -0.7137806 -1.5587358 -6.551046 9.36471 -0.036174823
4.6889386 1.3545194 -5.863171 1.4302548 -1.0810039 -0.072387084 0.5041176 -0.5590633
-11.218848 3.640585 -2.92376 2.8964393 0.020143677 0.16350886 -2.9882896 -0.86346465
00000000: e887 05bf 95fc b93f a11a 483e 6410 e5c0
00000010: 3951 943f 9dbf 0fc0 0b28 7540 7940 20c0
00000020: 78c9 1c3f 2af6 91bf f58d e6bf efa7 083f
00000030: 1b8d 1a41 89ea e03e 1dae 3bc0 6298 39c1
00000040: 6418 c2bf a9d5 dfc1 369f f2c0 1561 9c3f
00000050: 5995 0a3f 075c f9bf 242f b141 597c e13f
00000060: f158 1c40 70b6 a53f 869f 0dbf 53ba 36bf
00000070: a884 c7bf 2ba2 d1c0 dad5 1541 0d2c 14bd
00000080: c90b 9640 e460 ad3f 199f bbc0 9712 b73f
00000090: 565e 8abf ae3f 94bd da0d 013f c61e 0fbf
000000a0: 6780 33c1 58ff 6840 e21e 3bc0 435f 3940
000000b0: 5a04 a53c de6e 273e 2340 3fc0 050c 5dbf

1.0.0.fn.0.norm.weight f4 [48]
-0.0011517943 0.725951 -0.0015265354 -0.0019796072 0.73820186 0.0104447305 0.0044447146 0.04016172
0.20651706 0.0010874171 -0.01948052 0.007548654 0.00455158 0.010755332 -0.0009603063 0.45355186
0.4214607 -0.0015603454 -0.0015788308 -0.0032811156 -0.002484345 -0.012370068 0.00097521784 0.24531789
0.004858662 0.0005745474 -0.0016429943 0.3078076 0.26841125 0.0062442888 0.00012629488 0.0022240246
-0.53976226 0.23579821 0.05841073 -0.0007942684 0.0011672884 0.0079572145 0.10939411 0.09518112
0.24932693 0.7296054 0.3015861 0.0028310108 0.00059491425 0.0037106986 0.00061966316 -0.0023942608
00000000: cef7 96ba edd7 393f 0716 c8ba 4cbc 01bb
00000010: ccfa 3c3f 6020 2b3c f8a4 913b 9e80 243d
00000020: 3579 533e aa87 8e3a 9d95 9fbc b35a f73b
00000030: 6c25 953b 2237 303c 11bd 7bba f337 e83e
00000040: b2c9 d73e 8184 ccba c5f0 ceba fc07 57bb
00000050: 65d0 22bb d3ab 4abc c3a5 7f3a 9d34 7b3e
00000060: 6935 9f3b 399d 163a be59 d7ba f598 9d3e
00000070: 336d 893e e49c cc3b 066e 0439 f1c0 113b
00000080: dc2d 0abf 1675 713e 1740 6f3d 7336 50ba
00000090: b3ff 983a fa5e 023c 050a e03d 52ee c23d
000000a0: 8f4f 7f3e 6bc7 3a3f 7e69 9a3e 7b88 393b
000000b0: 05f4 1b3a 312f 733b e470 223a 08e9 1cbb

1.0.0.fn.0.norm.bias f4 [48]
0.00068863464 0.036522686 0.02318554 0.038125187 0.086294875 0.0014327947 -0.0034520586 -0.0045180656
-0.053048506 -0.005434325 0.0010994026 0.0058549796 0.010306215 0.0044022365 -0.006657254 -0.010922674
-0.04551363 -0.0050337077 0.007913379 -0.0010666926 -0.014026406 0.0016139994 -0.01589213 -0.045075193
0.006122551 0.23976405 -0.003382523 -0.035519652 0.07272881 -0.17760694 0.0021904982 -0.003534625
-0.041867733 -0.03351297 0.017177097 -0.0037934342 0.00085207267 0.0034595197 0.034976136 0.020955373
0.03133234 -0.13127665 -0.03407207 -0.020869732 0.003126689 -0.00041242043 0.0002604885 -0.028779298
00000000: 7d85 343a d098 153d 9aef bd3c 2829 1c3d
00000010: 5ebb b03d 9dcc bb3a ef3b 62bb 480c 94bb
00000020: 6449 59bd 6c12 b2bb d419 903a 21db bf3b
00000030: 66db 283c a340 903b 1825 dabb 04f5 32bc
00000040: 806c 3abd cdf1 a4bb 1ea7 013c 44d0 8bba
00000050: 03cf 65bc d58c d33a 3630 82bc c4a0 38bd
00000060: ae9f c83b b584 753e 52ad 5dbb 0e7d 11bd
00000070: d8f2 943d 98de 35be 768e 0f3b 2ba5 67bb
00000080: 807d 2bbd e544 09bd fcb6 8c3c 449b 78bb
00000090: a15d 5f3a 1cb9 623b 2343 0f3d 9aaa ab3c
000000a0: 5756 003d 636d 06be 288f 0bbd 00f7 aabc
000000b0: 23e9 4c3b 223a d8b9 2d92 8839 90c2 ebbc

1.0.0.fn.0.norm.running_mean f4 [48]
-0.7519326 0.98301756 0.18961866 -6.4369216 0.44052404 -2.30792 3.5257497 -2.2044163
1.5589902 -1.2778727 -1.0791572 0.2772949 9.936696 0.2124106 -3.512026 -10.23777
0.020435873 -25.214468 -3.7721252 0.21883248 1.0160302 -2.1570213 20.246416 1.5369437
1.9358268 0.103013076 2.1657412 -0.28992292 -0.7329246 -2.1834886 8.092522 0.7364628
3.8935149 1.7444924 -4.679107 0.9490066 -0.7405413 -0.08775101 0.075090416 -0.95113516
-11.698991 4.447405 -1.279644 1.8680735 0.13590138 -0.03666412 -2.372825 -1.2476904
00000000: a87e 40bf 0aa7 7b3f 652b 423e 43fb cdc0
00000010: 5e8c e13e f6b4 13c0 e2a5 6140 2815 0dc0
00000020: fe8c c73f 5591 a3bf d321 8abf 99f9 8d3e
00000030: b5fc 1e41 2a82 593e 09c5 60c0 e8cd 23c1
00000040: 2269 a73c 3bb7 c9c1 806a 71c0 9f15 603e
00000050: 470d 823f a30c 0ac0 a9f8 a141 92ba c43f
00000060: 2cc9 f73f 85f8 d23d 819b 0a40 c770 94be
00000070: f2a0 3bbf 47be 0bc0 f87a 0141 d388 3c3f
00000080: 592f 7940 874b df3f 3fbb 95c0 19f2 723f
00000090: 1d94 3dbf cdb6 b3bd 01c9 993d 987d 73bf
000000a0: 112f 3bc1 2451 8e40 60cb a3bf 081d ef3f
000000b0: bb29 0b3e 1e2d 16bd 5ddc 17c0 52b4 9fbf

1.0.0.fn.0.norm.running_var f4 [48]
634.5489 56.65565 551.5089 119.61723 71.44458 98.48897 843.3914 153.41173
604.011 2393.1853 209.59119 327.88864 1390.9302 136.33192 2989.9153 97.82091
66.84247 642.15454 22428.496 302.5314 442.21234 76.81338 999.9229 1690.3555
82.982 175.35101 1347.5914 64.73176 223.09027 12019.816 496.33817 4084.004
73.002426 515.74023 137.80843 42.694622 44.62227 195.63086 255.74196 116.07128
12010.662 1436.6229 7027.8804 2287.5933 221.5158 69.76575 71.12594 243.05794
00000000: 21a3 1e44 639f 6242 92e0 0944 063c ef42
00000010: a0e3 8e42 5afa c442 0dd9 5244 6769 1943
00000020: b400 1744 f792 1545 5897 5143 bff1 a343
00000030: c4dd ad44 f954 0843 a5de 3a45 4ea4 c342
00000040: 58af 8542 e489 2044 fe38 af46 0544 9743
00000050: 2e1b dd43 73a0 9942 11fb 7944 604b d344
00000060: c9f6 a542 dc59 2f43 ed72 a844 a976 8142
00000070: 1c17 5f43 44cf 3b46 492b f843 1040 7f45
00000080: 3e01 9242 60ef 0044 f5ce 0943 4bc7 2a42
00000090: 347d 3242 80a1 4343 f1bd 7f43 7f24 e842
000000a0: a6aa 3b46 ef93 b344 0b9f db45 7ef9 0e45
000000b0: 0b84 5d43 1088 8b42 7b40 8e42 d50e 7343

1.0.0.fn.1.query.bias f4 [48]
-0.1857805 -0.029983334 0.6768759 -0.95326215 0.039750885 0.48831874 0.85432565 0.0035823216
0.086499184 1.0307156 -1.6480399 -1.8032799 -1.4703941 -0.038204905 -0.0032609343 -0.03438273
-0.004548111 0.05805804 -1.4540689 0.9770816 -0.004544557 -2.517913 0.064612664 -0.07453667
0.0024225037 0.02311729 0.10400705 -0.0061457283 0.13489427 -0.09103179 -0.093849145 0.055314638
0.01361824 -0.029616946 0.0039361315 -0.0027194468 0.41077042 -0.029077118 0.02747539 0.0068077478
-1.4161602 -0.001455283 0.002675822 -0.0024114838 0.001245427 -0.0019040834 -0.034104355 0.00018259442
00000000: 3e3d 3ebe 9c9f f5bc bd47 2d3f fd08 74bf
00000010: d3d1 223d ea04 fa3e 16b5 5a3f 62c5 6a3b
00000020: 7c26 b13d 7dee 833f f9f2 d2bf e0d1 e6bf
00000030: e035 bcbf bf7c 1cbd 66b5 55bb e8d4 0cbd
00000040: 5208 95bb 44ce 6d3d ee1e babf 0522 7a3f
00000050: 82ea 94bb 7d25 21c0 a553 843d afa6 98bd
00000060: dec2 1e3b 7960 bd3c a601 d53d 1b62 c9bb
00000070: b921 0a3e e06e babd fb33 c0bd 9a91 623d
00000080: 0a1f 5f3c 3d9f f2bc aafa 803b bf38 32bb
00000090: 8050 d23e 2333 eebc 1214 e13c 8713 df3b
000000a0: bd44 b5bf 32bf beba d85c 2f3b fc09 1ebb
000000b0: 983d a33a 7092 f9ba 02b1 0bbd d176 3f39

1.0.0.fn.1.key.bias f4 [48]
0.013920039 -0.010704085 -0.32073846 0.41896945 0.030514315 -0.24997695 -0.24492022 0.037739795
0.013865793 -0.25554612 1.50023 1.5090436 1.620882 0.0066424008 0.043655835 0.00026889166
-0.0053556985 0.025655344 2.5226629 -1.9559605 -0.0033543292 3.6869397 0.008374849 0.027730426
-0.0056570997 -0.017653102 -0.034331184 0.0072145616 -0.0026348077 -0.00527367 -0.004308206 0.016180407
-0.0004837523 -0.00768606 -0.003999301 0.0041893846 -0.20811042 0.00086863764 -0.005132739 -0.002910059
1.9995497 0.0011330851 0.0014423821 0.015990293 -0.0420248 0.0027599237 0.008139262 -0.002339263
00000000: e010 643c 3060 2fbc d537 a4be 2a83 d63e
00000010: 28f9 f93c f5f9 7fbe 5ecc 7abe 0b95 1a3d
00000020: 5a2d 633c f1d6 82be 8907 c03f 5728 c13f
00000030: 1079 cf3f 7fa8 d93b 76d0 323d 07fa 8c39
00000040: db7e afbb 282b d23c 4f73 2140 ea5c fabf
00000050: 4ed4 5bbb d2f6 6b40 aa36 093c eb2a e33c
00000060: 315f b9bb 3d9d 90bc db9e 0cbd 2168 ec3b
00000070: bdac 2cbb c0ce acbb da2b 8dbb c68c 843c
00000080: 22a0 fdb9 58db fbbb 920c 83bb 1b47 893b
00000090: e61a 55be 49b5 633a 8930 a8bb b0b6 3ebb
000000a0: 3ff1 ff3f 0784 943a 500e bd3a 13fe 823c
000000b0: 3222 2cbd d6df 343b 8a5a 053c 524e 19bb

1.0.0.fn.1.value.bias f4 [48]
-0.0033314978 0.00024384611 0.01800886 0.784901 -0.00048801405 0.004537033 -0.042234834 0.011499055
-0.2547973 -0.009922404 0.01863291 0.00063805154 0.19389394 -0.0010481144 0.0024422442 -0.003249084
0.0004754363 0.81368524 -1.490298 0.004368072 0.0032053748 -0.7779663 -0.0038178763 -0.002991437
-0.2686087 -0.35138392 -0.005502954 0.027958266 -0.013542014 -0.04144302 0.0036249263 0.6654281
-0.00032713934 -0.0023311584 0.08097993 0.12321016 0.72581667 -0.4133168 -0.12477955 -0.2775664
-0.009460092 0.3063287 -0.0049137305 0.0005699269 0.69871956 -0.0020611444 -0.002050139 -0.00037067733
00000000: 4255 5abb f1b0 7f39 5187 933c 46ef 483f
00000010: 23dc ffb9 64ab 943b 6ffe 2cbd 8866 3c3c
00000020: cb74 82be 9491 22bc 0ba4 983c ea42 273a
00000030: 228c 463e e260 89ba 0f0e 203b 96ee 54bb
00000040: fb43 f939 ad4d 503f 16c2 bebf 0b22 8f3b
00000050: 4411 523b cd28 47bf 5635 7abb fc0b 44bb
00000060: 1487 89be 98e8 b3be 2052 b4bb bc08 e53c
00000070: 53df 5dbc 28c0 29bd 2c90 6d3b 7f59 2a3f
00000080: e683 abb9 59c6 18bb ced8 a53d 9c55 fc3d
00000090: 1fcf 393f 429e d3be 6c8c ffbd 2f1d 8ebe
000000a0: 80fe 1abc 1ed7 9c3e 5c03 a1bb 2667 153a
000000b0: 49df 323f 4414 07bb a05b 06bb 7857 c2b9

1.0.0.fn.1.out.bias f4 [48]
-0.05292765 -0.03540343 0.25740075 0.14622234 0.041401878 -0.19300449 0.22409886 -0.047194205
0.16369838 0.056316357 0.063526176 0.012218946 0.17963868 0.040285017 -0.142431 -0.22546768
0.109797366 -0.0025955804 -0.008858812 0.1149215 0.003666108 0.013347781 -0.10262956 0.024060156
-0.10700414 -0.12808578 0.082581505 -0.21041314 0.11098979 -0.13407594 0.10763775 0.033326916
0.045300934 -0.014280864 -0.12965758 0.06102897 -0.3261782 0.20011488 0.13392879 -0.19573453
-0.025200512 -0.002991901 0.124660656 0.15139034 -0.022349864 0.19675532 -0.029891385 0.16776204
00000000: aaca 58bd 3003 11bd 08ca 833e 4fbb 153e
00000010: 0495 293d f8a2 45be 2c7a 653e b64e 41bd
00000020: 8ca0 273e fbab 663d 031a 823d f931 483c
00000030: 34f3 373e e701 253d 6fd9 11be 00e1 66be
00000040: 71dd e03d 9d1a 2abb 8d24 11bc f75b eb3d
00000050: 1643 703b a7b0 5a3c 722f d2bd ce19 c53c
00000060: fd24 dbbd eb28 03be 7e20 a93d 8b76 57be
00000070: 9d4e e33d 344b 09be 2e71 dc3d ce81 083d
00000080: 798d 393d 49fa 69bc f5c4 04be 83f9 793d
00000090: d400 a7be eaea 4c3e a124 093e a26e 48be
000000a0: 4e71 cebc c513 44bb 164e ff3d 1206 1b3e
000000b0: 1017 b7bc 3a7a 493e c7de f4bc d0c9 2b3e

1.0.1.fn.0.norm.weight f4 [48]
2.6060083 2.5525186 1.6725663 0.0009044487 2.9632146 -0.004717645 -0.6337872 1.5256039
2.1922948 -0.0022222456 1.4663218 2.0142136 0.0021720058 2.5270941 1.4283336 0.3049676
2.7827368 -0.0034640091 -0.018634751 1.4906253 1.2422314 -0.00013716535 -0.0047672745 1.23806
0.0017902771 0.0013142219 1.9797167 1.9295473 1.9873943 -0.0062253335 -0.010006347 -0.017216967
2.1901217 1.9414079 -0.00030988432 1.5508307 1.7240075 2.0972466 2.070251 1.124962
0.36598358 -0.011771059 2.2375607 1.3737292 2.842383 2.3220048 1.722952 0.001471292
00000000: d7c8 2640 775c 2340 a716 d63f 8618 6d3a
00000010: 4fa5 3d40 7996 9abb e13f 22bf fd46 c33f
00000020: 8f4e 0c40 18a3 11bb 6fb0 bb3f e0e8 0040
00000030: 3658 0e3b e9bb 2140 a3d3 b63f b724 9c3e
00000040: 5c18 3240 6e04 63bb e8a7 98bc cfcc be3f
00000050: 7001 9f3f 0bd4 0fb9 cc36 9cbb c078 9e3f
00000060: bba7 ea3a f841 ac3a 5b67 fd3f 68fb f63f
00000070: f062 fe3f e2fd cbbb a9f1 23bc 990a 8dbc
00000080: f42a 0c40 0e80 f83f f877 a2b9 9f81 c63f
00000090: 47ac dc3f 4a39 0640 fe7e 0440 c1fe 8f3f
000000a0: 3362 bb3e 66db 40bc 3234 0f40 5cd6 af3f
000000b0: 9ae9 3540 ba9b 1440 b189 dc3f 5ed8 c03a

1.0.1.fn.0.norm.bias f4 [48]
-0.020483227 0.17896175 0.066895925 -0.0045366087 -0.618101 -0.018483095 -0.016060863 -0.13162291
-0.5028762 0.0014983771 0.0458697 0.11604011 -0.76474243 -0.06277518 0.2357946 -0.026444167
0.68715394 1.8103391 0.036656704 0.068055846 -0.20823051 0.023271965 -1.0773879 -0.27550843
0.5810085 0.040664636 0.49076724 -0.15017074 0.024695087 -0.002032018 -2.4914267 2.421252
-0.12227092 0.07137265 -0.011578899 0.14681144 0.049046773 -0.21279842 -0.28136525 0.012254192
0.6044562 0.0379149 0.26899597 0.16223726 0.03414033 0.12547183 0.16448346 0.034136496
00000000: 71cc a7bc c041 373e bb00 893d d5a7 94bb
00000010: de3b 1ebf dc69 97bc 1292 83bc 28c8 06be
00000020: 7fbc 00bf 3165 c43a dee1 3b3d 70a6 ed3d
00000030: 29c6 43bf 4690 80bd 2474 713e 70a1 d8bc
00000040: 52e9 2f3f 31b9 e73f 5725 163d dd60 8b3d
00000050: 613a 55be d9a4 be3c d9e7 89bf 710f 8dbe
00000060: f9bc 143f f68f 263d d845 fb3e 5cc6 19be
00000070: 5a4d ca3c 9b2b 05bb 8973 1fc0 cbf5 1a40
00000080: 2d69 fabd d32b 923d 6cb5 3dbc bd55 163e
00000090: 45e5 483d d4e7 59be 1b0f 90be cec5 483c
000000a0: a4bd 1a3f a74c 1b3d d7b9 893e 8621 263e
000000b0: bbd6 0b3d b07b 003e 5a6e 283e b6d2 0b3d

1.0.1.fn.0.norm.running_mean f4 [48]
-0.8502639 0.9440593 0.45794037 -7.48072 0.48677096 -3.6761882 -5.8814654 -2.239462
1.697085 -1.2020875 -0.9709413 0.26561946 27.038061 0.24471597 -3.6319356 -10.46664
0.13656814 -25.224714 -3.747777 0.33034542 1.0107584 -0.6369397 20.648764 1.4916384
0.68918186 -0.28683108 2.2412715 -0.49586716 -0.618146 -2.3222742 8.186252 0.77430636
3.9374175 1.6767608 -4.807287 1.0073087 -1.0489826 0.16732839 0.23958425 -1.1394604
-11.728769 6.3244214 -1.1830065 2.0210223 0.11591466 0.15284961 -2.3931525 -0.7329393
00000000: e5aa 59bf dfad 713f 2977 ea3e 0f62 efc0
00000010: 0b3a f93e ab46 6bc0 f734 bcc0 5853 0fc0
00000020: 153a d93f 01de 99bf 9c8f 78bf 46ff 873e
00000030: f34d d841 d396 7a3e a271 68c0 5c77 27c1
00000040: 85d8 0b3e 37cc c9c1 94db 6fc0 0923 a93e
00000050: 8860 813f 7b0e 23bf ab30 a541 02ee be3f
00000060: 396e 303f 86db 92be fe70 0f40 4de2 fdbe
00000070: d13e 1ebf 24a0 14c0 e3fa 0241 f138 463f
00000080: a6fe 7b40 19a0 d63f 4cd5 99c0 7eef 803f
00000090: 1045 86bf 2258 2b3e 9355 753e d7d9 91bf
000000a0: 0aa9 3bc1 a961 ca40 c26c 97bf 6e58 0140
000000b0: aa64 ed3d 9c84 1c3e 6929 19c0 e9a1 3bbf

1.0.1.fn.0.norm.running_var f4 [48]
634.4211 56.655357 551.43585 123.648094 71.44385 104.39492 706.5458 153.38835
601.96655 2389.5527 210.71982 328.90643 2047.6863 136.38866 2992.9927 97.81838
66.824684 670.5539 22443.098 302.29114 442.6992 105.63821 1009.3398 1690.5238
82.09964 177.3227 1347.7528 64.72992 223.02159 12017.325 495.52005 4083.3691
72.99407 511.46008 137.97415 42.6822 44.580906 196.28192 255.26967 115.959335
12012.675 1491.0402 7020.195 2287.948 221.51183 69.74586 71.18004 245.69432
00000000: f39a 1e44 169f 6242 e5db 0944 d34b f742
00000010: 40e3 8e42 33ca d042 eea2 3044 6b63 1943
00000020: dc7d 1644 d858 1545 46b8 5243 0674 a443
00000030: f6f5 ff44 7f63 0843 e20f 3b45 03a3 c342
00000040: 3da6 8542 73a3 2744 3256 af46 4425 9743
00000050: 7f59 dd43 c346 d342 bf55 7c44 c350 d344
00000060: 0433 a442 9c52 3143 1778 a844 b875 8142
00000070: 8705 5f43 4dc5 3b46 91c2 f743 e835 7f45
00000080: f7fc 9142 e4ba ff43 62f9 0943 93ba 2a42
00000090: d952 3242 2c48 4443 0945 7f43 2eeb e742
000000a0: b3b2 3b46 4961 ba44 8f61 db45 2bff 0e45
000000b0: 0783 5d43 e17d 8b42 2e5c 8e42 bfb1 7543

1.0.1.fn.1.0.bias f4 [96]
-1.6341515 -0.4857589 0.536127 -1.5252786 -0.9551754 0.41462258 -0.47120005 -1.2159286
-0.38935968 -1.9242069 -1.6017454 -1.4327831 0.914474 -0.5807738 -0.2892673 -1.9819498
-0.78048295 -0.20924933 -1.7049184 -1.545692 -0.8355373 -0.5313705 -0.6926901 -0.82834524
-0.54149324 -1.2913224 -1.0305266 -1.7910721 -1.6802074 0.6504068 -1.3910615 -1.7908683
-0.37816346 -1.4554517 -0.780765 -1.665681 -0.48883194 -0.8220569 -0.8088916 -1.4023606
-0.2976422 -0.6011349 -2.0950534 -1.2087879 -1.0127121 -0.48889056 -1.4605225 -0.9154435
-1.4206033 -0.72443116 -1.6003069 0.9154856 -1.911349 0.09639396 -1.4966704 0.5654219
0.31654084 -0.87209415 -1.3800232 -2.9221272 -0.8951956 -0.7843639 -1.621932 -0.41107863
1.9082357 -0.5989145 -1.4468609 -0.69572276 -1.3233023 -1.2066253 -0.8530219 -0.843183
1.8791263 -0.5615109 -0.6021803 -1.510466 -0.87658477 -1.0043777 -0.8311998 -0.39710957
-0.40554544 -1.8806025 -1.9100701 -1.6423264 -1.6969271 -1.5140363 2.428398 -1.0511724
-1.5261003 -2.0944827 -1.4463648 -0.6553639 -0.7537647 -0.7649975 -1.5950636 -1.6358361
00000000: e02b d1bf 64b5 f8be 9e3f 093f 543c c3bf
00000010: 6086 74bf 6949 d43e 2241 f1be 8ca3 9bbf
00000020: 275a c7be 694c f6bf fe05 cdbf 7065 b7bf
00000030: f81a 6a3f 97ad 14bf d81a 94be 88b0 fdbf
00000040: bbcd 47bf 7545 56be c43a dabf 3cd9 c5bf
00000050: c6e5 55bf e607 08bf 2354 31bf 6f0e 54bf
00000060: 4d9f 0abf 0d4a a5bf 4ce8 83bf da41 e5bf
00000070: 0911 d7bf 0f81 263f 4e0e b2bf 2c3b e5bf
00000080: a49e c1be 3e4c babf 37e0 47bf 0935 d5bf
00000090: 2e48 fabe 5272 52bf 8513 4fbf 8d80 b3bf
000000a0: 8f64 98be fae3 19bf 5b15 06c0 90b9 9abf
000000b0: 8da0 81bf dd4f fabe 67f2 babf 815a 6abf
000000c0: 54d6 b5bf 5274 39bf dbd6 ccbf 445d 6a3f
000000d0: 16a7 f4bf 326a c53d e592 bfbf 7dbf 103f
000000e0: a411 a23e 9041 5fbf 9aa4 b0bf 2204 3bc0
000000f0: 8a2b 65bf 13cc 48bf 789b cfbf e678 d2be
00000100: 1141 f43f 7652 19bf bd32 b9bf e31a 32bf
00000110: f861 a9bf b372 9abf a55f 5abf d7da 57bf
00000120: 3687 f03f 2ebf 0fbf 7d28 1abf f356 c1bf
00000130: dc67 60bf 738f 80bf 83c9 54bf f251 cbbe
00000140: a7a3 cfbe 95b7 f0bf 2d7d f4bf c037 d2bf
00000150: e834 d9bf f1cb c1bf df6a 1b40 d18c 86bf
00000160: 4157 c3bf 010c 06c0 7b22 b9bf eec5 27bf
00000170: b9f6 40bf e0d6 43bf 0b2b ccbf 1463 d1bf

1.0.1.fn.1.3.bias f4 [48]
0.16646822 -0.012510954 0.06434037 0.16179395 -0.13583736 -0.04043548 -0.007808535 0.17573169
-0.08338067 -0.13834558 0.0744228 0.0068549747 0.05448713 -0.16939053 0.14408457 0.097103715
0.13273028 0.04340371 -0.02526148 -0.0008865351 -0.09916128 -0.13562012 0.016957091 0.03952676
0.060323 -0.00021885839 0.097150646 -0.21359001 0.008648651 -0.10209497 0.19285184 0.043918353
0.06697738 -0.05527864 0.104532786 -0.12621379 -0.12453863 -0.10957993 0.023567682 0.062585175
-0.021919928 0.23692712 -0.009417254 -0.093581416 -0.0026514942 0.10542872 -0.10005294 -0.1361082
00000000: a576 2a3e bffa 4cbc e2c4 833d 50ad 253e
00000010: f318 0bbe ad9f 25bd bdde ffbb 02f3 333e
00000020: 7cc3 aabd 77aa 0dbe fb6a 983d b29f e03b
00000030: e62d 5f3d b674 2dbe e88a 133e 50de c63d
00000040: 72ea 073e 17c8 313d 2af1 cebc 5d66 68ba
00000050: 1215 cbbd 00e0 0abe 99e9 8a3c d0e6 213d
00000060: 4015 773d 5a7d 65b9 ebf6 c63d 57b7 5abe
00000070: 12b3 0d3c 2b17 d1bd f47a 453e bbe3 333d
00000080: 702b 893d db6b 62bd 4915 d63d 303e 01be
00000090: 1c0e ffbd 716b e0bd 0311 c13c a82c 803d
000000a0: 6c91 b3bc 069d 723e d34a 1abc 9da7 bfbd
000000b0: b1c4 2dbb 03eb d73d 8ee8 ccbd f35f 0bbe

1.1.0.fn.0.norm.weight f4 [48]
0.003134433 0.00055850553 0.0011780267 0.00016780378 0.4890595 -0.0006175544 0.00043582616 0.09704402
-0.007644096 -0.004355893 0.367288 0.00079757685 0.00800941 0.18535003 -0.008082926 0.52799624
0.3770936 -0.0040413914 0.21743238 -0.007634776 -0.10909576 -0.0054737213 -0.015861586 0.19879907
-0.0003409718 -0.0024360581 0.18633457 0.014441007 0.37929407 0.27085304 0.34045315 -0.0033142054
-0.00052235863 0.002476966 0.19133703 0.49744698 -0.0016178478 0.0057696416 0.24219911 0.00036386505
0.91344905 0.003642938 0.13504902 0.0011169671 0.008133688 0.2158449 -0.0005145678 0.09487093
00000000: 0f6b 4d3b ac68 123a 0468 9a3a 7cf4 2f39
00000010: 0266 fa3e 60e3 21ba 997f e439 04bf c63d
00000020: 537b fabb e1bb 8ebb 2c0d bc3e 7a14 513a
00000030: e739 033c 66cc 3d3e 406e 04bc c32a 073f
00000040: 6a12 c13e a66d 84bb 98a6 5e3e 252d fabb
00000050: 996d dfbd e75c b3bb 28f0 81bc fc91 4b3e
00000060: 76c4 b2b9 46a6 1fbb 7dce 3e3e f999 6c3c
00000070: d532 c23e 40ad 8a3e e04f ae3e 2433 59bb
00000080: e5ee 08ba 9854 223b dbed 433e 5fb1 fe3e
00000090: f70d d4ba 430f bd3b 0b03 783e 24c5 be39
000000a0: ccd7 693f 5cbe 6e3b 4a4a 0a3e 3267 923a
000000b0: 2943 053c 7206 5d3e 0fe4 06ba b14b c23d

1.1.0.fn.0.norm.bias f4 [48]
-0.002423752 -0.010136953 -0.0009918367 0.0050523067 0.004366082 -0.06885493 0.016116431 -0.0236949
-0.012906756 0.011316484 0.17139676 0.09650044 -0.0054648337 0.005010679 -0.00863031 0.059267618
0.072790846 -0.0025072596 0.025455367 0.017573796 -0.09523674 0.00722536 0.007499613 0.02630428
-0.07148154 0.0019417147 -0.0665732 -0.00056309946 0.05617311 0.009336498 0.002660939 0.5813607
0.0031548508 0.018462535 -0.027175225 0.029442992 0.015114525 -0.0052813087 -0.027914185 -0.0125292875
0.13794291 0.0057014953 0.03587337 -0.04612576 -0.003942949 0.04401897 0.0054991967 -0.097589515
00000000: d0d7 1ebb 7615 26bc 8400 82ba d28d a53b
00000010: 5a11 8f3b d003 8dbd 9b06 843c cf1b c2bc
00000020: dc76 53bc c668 393c a282 2f3e 06a2 c53d
00000030: 5912 b3bb 9f30 a43b 2566 0dbc 9ac2 723d
00000040: 5e13 953d d650 24bb c687 d03c ecf6 8f3c
00000050: 7b0b c3bd b6c2 ec3b 50bf f53b 137c d73c
00000060: ea64 92bd 2281 fe3a 8857 88bd f79c 13ba
00000070: c615 663d 1cf8 183c 2663 2e3b 0ed4 143f
00000080: 9dc1 4e3b be3e 973c 949e debc 6e32 f13c
00000090: eaa2 773c d40e adbb 4aac e4bc a447 4dbc
000000a0: e840 0d3e 9cd3 ba3b f4ef 123d 5dee 3cbd
000000b0: db33 81bb 3c4d 343d 9b32 b43b 03dd c7bd

1.1.0.fn.0.norm.running_mean f4 [48]
148.3774 24.494308 -2.2837307 -20.06614 -138.86499 6.4225526 -7.1644034 51.082085
38.575962 25.595173 10.250099 -6.4594417 0.94592357 -105.1924 -18.706038 3.5214257
142.70818 -17.053755 -0.22307006 87.88569 -37.75905 8.66592 -18.897566 3.8771455
30.17615 -29.942642 14.063834 -1.7287581 409.66174 -5.039874 21.566109 123.49908
-40.762974 -10.442206 57.64629 -106.14736 94.641396 -74.10034 -6.5869336 -26.878874
-7.251752 8.384192 2.7904737 -9.241821 -21.596077 181.40964 90.79987 22.650276
00000000: 9d60 1443 58f4 c341 a528 12c0 7487 a0c1
00000010: 70dd 0ac3 8d85 cd40 cb42 e5c0 0e54 4c42
00000020: c94d 1a42 eac2 cc41 6800 2441 bfb3 cec0
00000030: 0c28 723f 8262 d2c2 f7a5 95c1 0a5f 6140
00000040: 4bb5 0e43 176e 88c1 7a6c 64be 79c5 af42
00000050: 4409 17c2 9ca7 0a41 372e 97c1 2723 7840
00000060: c168 f141 888a efc1 7705 6141 f247 ddbf
00000070: b4d4 cc43 a646 a1c0 6487 ac41 87ff f642
00000080: 490d 23c2 4713 27c1 cd95 6642 734b d4c2
00000090: 6548 bd42 6033 94c2 29c8 d2c0 ef07 d7c1
000000a0: 5a0e e8c0 a725 0641 1f97 3240 80de 13c1
000000b0: c4c4 acc1 de68 3543 8999 b542 c433 b541

1.1.0.fn.0.norm.running_var f4 [48]
16329.266 20241.463 5925.03 616.5669 13458.278 590.9181 721.78156 8389.569
6390.223 10326.538 1361.5782 2509.8367 3901.8335 10344.974 3549.174 395.84738
16379.798 5469.2505 22660.672 6377.415 2211.8628 568.5528 3486.4673 1642.9071
428.6463 2100.6218 2484.551 1101.5502 30266.65 11984.807 1178.1659 15873.511
868.6892 3976.684 2965.6133 10660.73 7705.916 4202.764 2073.8406 1519.7493
12309.635 2115.948 6982.9365 2367.139 2249.48 28499.582 10319.604 2142.0398
00000000: 1025 7f46 ed22 9e46 3d28 b945 4824 1a44
00000010: 1d49 5246 c2ba 1344 0572 3444 4716 0346
00000020: c9b1 c745 275a 2146 8132 aa44 63dd 1c45
00000030: 56dd 7345 e5a3 2146 c9d2 5d45 77ec c543
00000040: 31ef 7f46 01ea aa45 5809 b146 524b c745
00000050: ce3d 0a45 6123 0e44 7ae7 5945 075d cd44
00000060: ba52 d643 f349 0345 d148 1b45 9bb1 8944
00000070: 4d75 ec46 3a43 3b46 4f45 9344 0b06 7846
00000080: 1c2c 5944 f28a 7845 d059 3945 ec92 2646
00000090: 54cf f045 1d56 8345 739d 0145 faf7 bd44
000000a0: 8a56 4046 2b3f 0445 7e37 da45 39f2 1345
000000b0: ae97 0c45 2aa7 de46 6a3e 2146 a3e0 0545

1.1.0.fn.1.query.bias f4 [48]
-0.15331815 0.03961826 -1.3323442 1.2756666 0.101579644 0.1323799 0.11499158 0.0006044604
-1.9776931 -0.02875914 0.11497037 0.053850748 -0.002005976 -0.15002267 -0.041373037 -0.17811231
-0.15405038 0.0010673999 -0.019347368 2.0151412 -0.19896655 0.087704435 0.032457016 -0.074929625
-0.008757781 -0.031341363 -0.0641192 -0.20351025 1.3787274 -0.16405322 -0.026552096 0.023180692
-0.004916213 -0.06449696 -0.011546758 0.010887642 0.0028449963 -0.009687148 0.028042877 0.07645473
0.0026652496 0.012153243 -0.0032146897 0.00047064357 -0.4870424 0.015923522 0.05858225 0.052884746
00000000: 6fff 1cbe c246 223d 418a aabf 0b49 a33f
00000010: fd08 d03d 998e 073e b580 eb3d a774 1e3a
00000020: 0c25 fdbf 4a98 ebbc 9675 eb3d 9a92 5c3d
00000030: b176 03bb 8b9f 19be c676 29bd 1363 36be
00000040: 62bf 1dbe ffe7 8b3a 5f7e 9ebc 13f8 0040
00000050: e3bd 4bbe 629e b33d a6f1 043d b474 99bd
00000060: cc7c 0fbc cd5f 00bd ed50 83bd fe64 50be
00000070: 247a b03f 91fd 27be c883 d9bc 6fe5 bd3c
00000080: 2f18 a1bb fb16 84bd 9d2e 3dbc 1562 323c
00000090: 1e73 3a3b d8b6 1ebc 2dba e53c 4c94 9c3d
000000a0: 78ab 2e3b 651e 473c 8bad 52bb b6c0 f639
000000b0: 9f5d f9be 0c72 823c f1f3 6f3d ad9d 583d

1.1.0.fn.1.key.bias f4 [48]
0.006570246 0.003420322 2.223781 -2.2177575 0.0069603003 -0.15370485 -0.007599718 0.005476081
2.7052207 0.04515143 0.0020436184 0.011074673 0.007062955 0.010084743 -0.0020005407 0.0038657465
0.0033010903 -0.003963664 -0.0046518757 -2.0355046 0.0015567872 -0.0008367151 -0.0020366549 0.00018555965
-0.0013248925 -0.0034324867 0.002389492 -0.002818286 -1.6050006 -0.0008214925 0.00711676 -0.0019010998
0.013821165 0.014043547 -0.0045622205 -0.0313653 0.00017364357 -0.013137083 -0.019722192 0.00031864314
0.007325958 -0.0009143205 0.017644683 0.011679936 0.8316416 -0.020987077 0.0050820303 -0.014738925
00000000: 384b d73b 7b27 603b 6e52 0e40 bdef 0dc0
00000010: 3b13 e43b ce64 1dbe 0e07 f9bb b270 b33b
00000020: 5622 2d40 b5f0 383d 3aee 053b 8c72 353c
00000030: 5c70 e73b 7a3a 253c 811b 03bb 7758 7d3b
00000040: 1b57 583b a0e1 81bb c36e 98bb b545 02c0
00000050: 1c0d cc3a 0057 5bba 6679 05bb ca92 4239
00000060: 04a8 adba 92f3 60bb 0699 1c3b feb2 38bb
00000070: a970 cdbf 6e59 57ba b633 e93b 532e f9ba
00000080: 2b72 623c e816 663c ae7e 95bb e778 00bd
00000090: 1714 3639 eb3c 57bc 6f90 a1bc 8f0f a739
000000a0: 970e f03b 03af 6fba 958b 903c 345d 3f3c
000000b0: 77e6 543f 17ed abbc 2987 a63b 887b 71bc

1.1.0.fn.1.value.bias f4 [48]
0.64670736 0.009644306 -0.09587199 -0.24386127 0.06516767 0.011570453 -0.27653718 -0.13148052
0.0051353094 -0.23867506 0.5295197 0.9536556 0.1925518 -0.040056463 -0.02031655 -0.03459491
0.07529355 -1.0187774 0.5492007 0.7600877 -0.0034238587 -0.37816918 -0.75534827 -0.0006481503
-0.44458935 -0.5188038 0.057289567 0.34837672 -0.020753695 0.45159113 -0.057159062 -1.6809245
0.036801755 -0.0017091798 0.00027857133 0.0124095045 -0.40717787 -0.12557647 -0.5368303 0.0043286257
0.021410057 0.69654274 0.97093517 0.00453259 0.68312466 0.016523134 0.0021688594 -0.013815643
00000000: 9d8e 253f 2703 1e3c 8958 c4bd c5b6 79be
00000010: a176 853d ff91 3d3c 4896 8dbe d4a2 06be
00000020: 1946 a83b 3c67 74be 9a8e 073f c622 743f
00000030: 4d2c 453e 3f12 24bd e56e a6bc 64b3 0dbd
00000040: 8133 9a3d 4c67 82bf 6b98 0c3f 1c95 423f
00000050: d162 60bb 649f c1be 815e 41bf a1e8 29ba
00000060: 37a1 e3be 53d0 04bf 77a8 6a3d 6f5e b23e
00000070: a703 aabc f436 e73e 9f1f 6abd 8928 d7bf
00000080: 70bd 163d 8f06 e0ba 360d 9239 3c51 4b3c
00000090: 9e79 d0be 1e97 00be b66d 09bf 25d7 8d3b
000000a0: 2564 af3c a050 323f 358f 783f 1f86 943b
000000b0: 42e1 2e3f 865b 873c 6c23 0e3b 025b 62bc

1.1.0.fn.1.out.bias f4 [48]
-0.020503495 -0.03204915 -0.025968174 0.10509521 -0.27365184 -0.084046714 0.11833834 -0.008036049
-0.18097526 0.04960565 0.076276034 0.14627202 0.11629631 -0.2475101 -0.16828682 -0.14433283
-0.0040212865 0.05361216 0.021373922 0.23189306 0.103300385 0.110263206 0.027995858 0.073525295
-0.09938238 -0.15866834 -0.108170405 0.05519655 0.027554754 0.021716904 0.07055311 -0.049527172
0.08239984 0.02100891 -0.10218716 0.021858817 0.05218289 0.03341965 -0.052096307 -0.046736136
0.013509833 -0.045763377 -0.06306591 0.052031863 -0.13680536 0.1046458 -0.12158639 -0.040985696
00000000: f2f6 a7bc f845 03bd 35bb d4bc 283c d73d
00000010: 181c 8cbe af20 acbd 5f5b f23d a2a9 03bc
00000020: 9451 39be 4b2f 4b3d 9c36 9c3d 55c8 153e
00000030: c32c ee3d 4a73 7dbe 6153 2cbe fccb 13be
00000040: ffc4 83bb 6d98 5b3d 5d18 af3c 6075 6d3e
00000050: 278f d33d add1 e13d 9257 e53c 6e94 963d
00000060: fd88 cbbd f479 22be 7288 ddbd c715 623d
00000070: 82ba e13c a6e7 b13c 267e 903d 01dd 4abd
00000080: 3fc1 a83d e11a ac3c 8047 d1bd 4311 b33c
00000090: babd 553d 0be3 083d f062 55bd 646e 3fbd
000000a0: 5958 5d3c 6172 3bbd b328 81bd 5d1f 553d
000000b0: b416 0cbe 8a50 d63d 4902 f9bd 9ee0 27bd

1.1.1.fn.0.norm.weight f4 [48]
-0.0077681122 2.0487926 1.3151034 -0.008073317 2.971761 -0.00039744494 2.481522 1.6718303
1.2070953 0.9154302 -0.010863561 -0.000101410435 0.004972163 1.6742641 2.243941 0.0020450656
2.494129 0.010745999 1.4537431 0.00047664976 1.3662468 -0.0055464897 -0.005027847 1.9484334
0.004885307 -0.00043563737 1.9423882 -0.0053301686 0.9050836 1.4400449 1.1673051 0.9284473
0.6178737 1.6456198 1.5454776 2.5736005 0.8740408 0.67512363 1.7198348 0.9236125
1.2294178 0.00065772305 2.3201816 1.2389942 0.00058468955 2.605816 1.9089307 0.004721699
00000000: a68b febb 6b1f 0340 4f55 a83f f245 04bc
00000010: 5531 3e40 2860 d0b9 42d1 1e40 89fe d53f
00000020: 1982 9a3f a259 6a3f 14fd 31bc 50ac d4b8
00000030: 87ed a23b 494e d63f bb9c 0f40 8206 063b
00000040: cf9f 1f40 fd0f 303c 4114 ba3f d9e6 f939
00000050: 2de1 ae3f 54bf b5bb a3c0 a4bb 4466 f93f
00000060: ed14 a03b 4266 e4b9 2da0 f83f b2a8 aebb
00000070: 8fb3 673f 6453 b83f 416a 953f b9ae 6d3f
00000080: f92c 1e3f aba3 d23f 36d2 c53f dfb5 2440
00000090: 23c1 5f3f e7d4 2c3f 8c23 dc3f de71 6c3f
000000a0: 905d 9d3f 0c6b 2c3a db7d 1440 5d97 9e3f
000000b0: da45 193a b0c5 2640 d757 f43f 7bb8 9a3b

1.1.1.fn.0.norm.bias f4 [48]
0.015241965 -1.0014101 0.034598682 0.025717227 -0.9147908 0.00035441038 -0.47091156 0.57341087
0.57398266 1.5246265 0.03141638 0.020215245 0.0031590918 -0.6923963 -1.0501103 -0.022615438
-0.18624185 1.3864033 2.0545409 -0.024076995 -0.1517716 -0.030567098 1.5448642 1.2538656
-1.3422322 -0.02777913 -0.0358106 -0.033584066 -0.5285831 -0.49033087 2.5655608 -1.0860269
-0.29677773 0.22664723 0.26663393 -0.6799189 0.61142117 -0.024268424 0.38177797 -0.40096346
3.6919334 -0.031259485 0.43344098 0.5661679 0.0067215785 1.9557835 1.2108549 -1.5360296
00000000: 6fb9 793c 352e 80bf 59b7 0d3d efac d23c
00000010: bb2f 6abf 28d0 b939 521b f1be 0ecb 123f
00000020: 87f0 123f f626 c33f 76ae 003d 719a a53c
00000030: c408 4f3b e240 31bf 046a 86bf 0344 b9bc
00000040: 2fb6 3ebe aa75 b13f 997d 0340 1e3d c5bc
00000050: 046a 1bbe da67 fabc 1cbe c53f ab7e a03f
00000060: 44ce abbf 0f91 e3bc 23ae 12bd 728f 09bd
00000070: 3951 07bf a60c fbbe 2632 2440 ee02 8bbf
00000080: 40f3 97be 3616 683e 3e84 883e 2a0f 2ebf
00000090: 1986 1c3f 93ce c6bc 6778 c33e 154b cdbe
000000a0: a348 6c40 f209 00bd faeb dd3e 61f0 103f
000000b0: b040 dc3b 1d57 fa3f 4bfd 9a3f 9e9c c4bf

1.1.1.fn.0.norm.running_mean f4 [48]
147.84013 24.463213 -2.3407254 -19.877989 -139.12773 3.7225192 -7.0323253 51.058174
38.384098 25.625734 5.821339 -6.31327 0.7785599 -105.442894 -18.877619 0.363597
142.71178 -16.650257 -0.2078248 87.51527 -37.6461 10.341696 -19.119738 3.9386559
30.508762 -30.050158 13.956449 -7.2140126 409.68942 -5.018483 21.650902 123.449745
-41.255287 -10.410254 57.529465 -106.10225 94.70038 -74.07399 -6.6481247 -26.89796
-7.2290683 8.318009 2.7317073 -9.203519 -24.892612 181.47354 90.69653 22.591671
00000000: 13d7 1343 a9b4 c341 72ce 15c0 1f06 9fc1
00000010: b320 0bc3 c13d 6e40 cf08 e1c0 923b 4c42
00000020: 5189 1942 8101 cd41 6948 ba40 4f06 cac0
00000030: b44f 473f c3e2 d2c2 5d05 97c1 6329 ba3e
00000040: 37b6 0e43 ba33 85c1 06d0 54be d107 af42
00000050: 9b95 16c2 9677 2541 39f5 98c1 f012 7c40
00000060: f211 f441 b966 f0c1 9d4d 5f41 31d9 e6c0
00000070: 3fd8 cc43 6a97 a0c0 0c35 ad41 45e6 f642
00000080: 6a05 25c2 6690 26c1 2c1e 6642 5a34 d4c2
00000090: 9866 bd42 e225 94c2 70bd d4c0 062f d7c1
000000a0: 8754 e7c0 9116 0541 4bd4 2e40 9d41 13c1
000000b0: 1224 c7c1 3a79 3543 a064 b542 bebb b441

1.1.1.fn.0.norm.running_var f4 [48]
16330.338 20241.643 5924.548 612.17474 13458.29 630.3289 722.5799 8389.108
6389.5874 10326.737 1450.1439 2509.5928 3833.8745 10346.907 3550.046 439.26562
16380.216 5462.7446 22661.604 6372.2324 2211.6838 591.722 3487.229 1642.9036
502.02753 2117.4902 2484.5125 1141.0272 30266.604 11984.76 1178.6371 15873.604
874.146 3976.6948 2965.6035 10661.407 7705.45 4203.6274 2074.1155 1519.7473
12309.521 2118.4663 6982.394 2364.8525 2342.6123 28499.928 10320.246 2142.2585
00000000: 5a29 7f46 4923 9e46 6224 b945 2f0b 1944
00000010: 2949 5246 0d95 1d44 1da5 3444 6f14 0346
00000020: b3ac c745 f35a 2146 9b44 b544 7cd9 1c45
00000030: fe9d 6f45 a1ab 2146 bce0 5d45 00a2 db43
00000040: ddf0 7f46 f5b5 aa45 350b b146 dc21 c745
00000050: f13a 0a45 35ee 1344 aaf3 5945 ea5c cd44
00000060: 8603 fb43 d857 0445 3348 1b45 dfa0 8e44
00000070: 3575 ec46 0a43 3b46 6354 9344 6a06 7846
00000080: 5889 5a44 1e8b 7845 a859 3945 a195 2646
00000090: 9acb f045 055d 8345 d9a1 0145 eaf7 bd44
000000a0: 1656 4046 7667 0445 2733 da45 a4cd 1345
000000b0: cc69 1245 dba7 de46 fc40 2146 23e4 0545

1.1.1.fn.1.0.bias f4 [96]
-1.012389 -0.36163878 -0.935432 -1.3297305 -0.56988686 -1.9310914 -1.0670263 -1.1423331
-0.30765337 -0.9438412 -1.9341427 -0.58395356 -1.1426885 -0.6259448 -0.22715844 -2.093098
0.9073003 -1.4563364 -1.7231023 -1.782362 -1.2973751 -0.41959926 0.01839431 -0.64154565
-0.65437955 -0.5395074 -1.0020303 -1.576536 -1.3421667 -1.7325332 -1.4579805 -2.3135781
-1.273733 -1.5024977 -1.5163363 -1.0368282 -1.1823984 -1.3581372 -0.7607141 -0.7879936
0.044706028 -1.0837288 -1.1113118 -1.8589336 -1.0004251 -1.4609884 -0.68325025 -0.91859305
-0.14544709 -1.2023011 -1.3844252 -1.7950327 -0.4728297 -0.8275447 -0.94440305 -1.1306632
-1.679029 -1.5887884 -1.8553444 -1.1289234 -1.2473754 -0.5072022 -1.7433456 -1.1896199
-2.1091483 -0.72409886 -0.63785404 -1.1743153 -0.8612938 -1.2189555 -1.2643703 -1.7179755
-0.8230665 -0.40888983 -1.985191 -1.4133219 -1.1671544 -1.663199 -0.76589376 -1.6932919
-1.5444199 -1.0467907 -0.9150001 -1.2049664 -1.9320214 -0.9053536 -0.45189407 -0.32696414
-0.15259151 -1.1315112 -1.8210818 -0.5975552 -2.3474777 -1.0910399 -1.388249 -1.7913349
00000000: f695 81bf b828 b9be 7978 6fbf 9c34 aabf
00000010: 1be4 11bf 012e f7bf 5194 88bf f937 92bf
00000020: be84 9dbe 949f 71bf fd91 f7bf fb7d 15bf
00000030: 9e43 92bf eb3d 20bf 399c 68be 51f5 05c0
00000040: d544 683f 3b69 babf 9e8e dcbf 7024 e4bf
00000050: 6310 a6bf b7d5 d6be aaaf 963c 563c 24bf
00000060: 6b85 27bf 281d 0abf 8742 80bf efcb c9bf
00000070: 1ecc abbf a6c3 ddbf 1b9f babf aa11 14c0
00000080: af09 a3bf d851 c0bf 4f17 c2bf c9b6 84bf
00000090: d558 97bf 71d7 adbf 29be 42bf f3b9 49bf
000000a0: ab1d 373d a0b7 8abf 773f 8ebf 89f1 edbf
000000b0: ee0d 80bf ab01 bbbf 7de9 2ebf ea28 6bbf
000000c0: 15f0 14be 01e5 99bf d834 b1bf a2c3 e5bf
000000d0: bc16 f2be f8d9 53bf 66c4 71bf 92b9 90bf
000000e0: 6cea d6bf 6b5d cbbf ed7b edbf 9080 90bf
000000f0: ffa9 9fbf 01d8 01bf f325 dfbf 7745 98bf
00000100: 49fc 06c0 8b5e 39bf 674a 23bf f74f 96bf
00000110: c07d 5cbf bc06 9cbf e3d6 a1bf 9fe6 dbbf
00000120: 7cb4 52bf 025a d1be bd1a febf bbe7 b4bf
00000130: 5165 95bf b4e3 d4bf 9d11 44bf cabd d8bf
00000140: 8daf c5bf 3dfd 85bf 723d 6abf 573c 9abf
00000150: 7a4c f7bf 41c5 67bf a95e e7be d867 a7be
00000160: f340 1cbe 5cd5 90bf 3519 e9bf 61f9 18bf
00000170: 133d 16c0 32a7 8bbf 25b2 b1bf 764a e5bf

1.1.1.fn.1.3.bias f4 [48]
-0.015220616 0.05751199 -0.0028222003 -0.018180339 -0.13509548 0.05062139 -0.023653444 -0.019674428
0.04815279 -0.028138459 -0.0971559 0.115257755 0.036836445 -0.11973856 0.038925122 -0.050589178
-0.0027340145 -0.14034736 0.016865535 0.06605395 -0.057949793 0.058716457 -0.0136976745 -0.050761934
0.0003284627 -0.08946157 0.04670897 0.058702618 0.11834019 -0.043436464 -0.04845927 -0.012504506
0.127414 -0.06504865 -0.067472294 -0.075358786 0.059507143 -0.008252249 0.03175351 -0.09673654
0.036181644 -0.09125377 -0.0063193385 0.0962467 -0.04445974 0.092091165 0.023364477 0.07314311
00000000: e45f 79bc b191 6b3d aaf4 38bb efee 94bc
00000010: 7856 0abe 6058 4f3d dec4 c1bc 442c a1bc
00000020: dc3b 453d a082 e6bc acf9 c6bd 420c ec3d
00000030: d0e1 163d 7d39 f5bd f36f 1f3d 9936 4fbd
00000040: 272d 33bb 38b7 0fbe 9729 8a3c 4b47 873d
00000050: c35c 6dbd ab80 703d 366c 60bc bfeb 4fbd
00000060: 8435 ac39 a137 b7bd e851 3f3d 2872 703d
00000070: 575c f23d 6fea 31bd 3a7d 46bd b3df 4cbc
00000080: d178 023e 3a38 85bd ea2e 8abd b555 9abd
00000090: c3bd 733d 7134 07bc f80f 023d cf1d c6bd
000000a0: 3433 143d 42e3 babd 7412 cfbb fd1c c53d
000000b0: 6b1b 36bd 4b9a bc3d dc66 bf3c 0ecc 953d

1.2.0.fn.0.norm.weight f4 [48]
-0.00016442646 0.36781585 0.12494577 0.0011559201 1.9146285 4.8798727e-05 0.004933111 0.31765643
-0.009029954 0.3360457 0.0017421528 0.006611631 -0.006960248 0.2798355 0.17278734 -0.000734648
0.65532976 0.00023144274 0.013208048 0.0006150415 0.22253433 -0.00013866738 -0.0022464485 0.17603783
0.0016516803 0.006385862 -0.021064546 -0.0006539219 0.69864595 0.27516645 -0.0010589743 0.7599321
0.0028745618 -2.152975e-05 0.4657104 0.007176089 0.21409747 0.0014926034 0.46233884 0.07409414
0.68413997 0.40309146 0.2295265 0.26132184 -0.0008923364 0.3168076 0.026693806 0.0005999759
00000000: e469 2cb9 5c52 bc3e 91e3 ff3d 3e82 973a
00000010: 8c12 f53f 3cad 4c38 efa5 a13b dda3 a23e
00000020: 5ff2 13bc 2f0e ac3e f358 e43a 61a6 d83b
00000030: cb12 e4bb 9946 8f3e 2aef 303e 6595 40ba
00000040: b1c3 273f 70af 7239 9266 583c bd3a 213a
00000050: 0ae0 633e 3e67 11b9 2739 13bb 4343 343e
00000060: 327d d83a 7e40 d13b 8e8f acbc f56b 2bba
00000070: 76da 323f 9ee2 8c3e 48cd 8aba e98a 423f
00000080: 2563 3c3b c99a b4b7 9871 ee3e 6625 eb3b
00000090: 5e3c 5b3e 76a3 c33a adb7 ec3e abbe 973d
000000a0: cc23 2f3f 0162 ce3e ff08 6b3e facb 853e
000000b0: afeb 69ba 9b34 a23e f8ac da3c b347 1d3a
