code/nnv/examples/NNV/Submission/ARCH2019/Other/Benchmark 4/controller.onnx (onnx, 24740 bytes, 12 tensors)

input_AvgImg f4 [1, 1, 1, 3]
000000 00 00 80 3f 00 00 80 3f 00 00 80 3f
       1.0 1.0 1.0

Operation_1_W f4 [100, 3]
000000 fd 49 3c bd 07 d3 80 3e 4b 06 b0 bd b4 1d a3 be
       -0.045969 0.25161 -0.0859495 -0.318586
000010 77 13 0c 3e e5 7d 1c be 29 87 e0 3c 5d fb 52 be
       0.136793 -0.152824 0.0274082 -0.206037
000020 dd 25 d1 bd 70 00 92 3d da af c6 bd 21 07 a5 bd
       -0.102123 0.0712899 -0.0970151 -0.08058
000030 e7 fe ea 3d fe b3 2b 3d bd 11 a3 ba fc a5 9a 3d
       0.114744 0.0419197 -0.00124412 0.0755119
000040 98 8f 9f 3d 57 d7 1c 3d 0b 46 e5 3d 4d 32 c2 3d
       0.0779106 0.0382913 0.11195 0.0948225
000050 a2 ec 15 b9 c0 d9 5c bd bc 91 e9 3e 57 cc 6d bd
       -0.000142979 -0.0539186 0.45619 -0.0580562
000060 eb 73 9d be 5c 1e 0b be 69 54 b0 bd cf 59 55 3d
       -0.307525 -0.135858 -0.0860985 0.0520876
000070 7f 4d 76 be 0f 92 9f bd cb 9c 2e 3e 48 5c 78 3b
       -0.24053 -0.0779153 0.17052 0.00378968
000080 b8 b1 97 3b 2b d1 23 bd 19 3b 41 3e 49 99 b9 bd
       0.00462934 -0.0399944 0.188702 -0.0906244
000090 eb b6 7a 3d 6f da 67 3c 69 42 49 bc d4 82 57 bd
       0.0612096 0.0141512 -0.0122839 -0.052615
0000a0 1d 77 a5 bd 55 18 fb bd 87 6a 0a 3e 10 eb 1d 3e
       -0.0807936 -0.122605 0.135172 0.154217
0000b0 af c5 15 bc 00 43 85 bc a8 53 0e be fb 74 3c be
       -0.00914137 -0.0162673 -0.138991 -0.18404
0000c0 66 4d 8c bd d3 fa 5b be 43 1d 06 be 7e 1c bd 3d
       -0.068507 -0.214824 -0.130971 0.0923395
0000d0 d2 e3 37 be 87 4e cf bd 34 dc db bc 72 4c bb 3c
       -0.17958 -0.101224 -0.0268384 0.0228636
0000e0 b1 e4 f7 39 f7 05 d4 3d e0 61 7f bc 61 60 cc 3d
       0.000472819 0.103527 -0.0155873 0.0997932
0000f0 d5 05 7c 3e 36 b0 dd 3e 49 69 16 3e c5 02 5f be
       0.246116 0.432985 0.146886 -0.217784
000100 7a fd a1 3e 00 1e 89 3e 85 b6 dc bd 78 ac a3 3d
       0.316387 0.267807 -0.10777 0.0799188
000110 d5 48 a6 ba 21 06 fa 3d 1d ad 1a be 2e 1a 12 be
       -0.00126865 0.122082 -0.151051 -0.142678
000120 42 b2 e0 3e f3 3e de 3e cf 1d f3 bc 69 ac ad be
       0.43886 0.434074 -0.0296773 -0.339206
000130 02 bb 0a be ae 63 0c be d6 3a c9 3e 7e 53 a8 3e
       -0.135479 -0.137099 0.393027 0.328762
000140 1e 9f 35 bd 82 65 15 3b bf d1 de be 13 6b a7 bd
       -0.0443412 0.00227961 -0.435194 -0.0817472
000150 e6 cd 61 3e f9 db ae be e5 9c 28 be ad 0c f4 3c
       0.220512 -0.341522 -0.164661 0.0297912
000160 3e 48 85 bc e3 93 24 bd ec 5e 19 3c 04 1f ab 3e
       -0.0162698 -0.0401801 0.00936101 0.334221
000170 91 d6 c8 bd e2 e9 cd be 8f 1c 19 be 13 0d 02 be
       -0.0980655 -0.402175 -0.149523 -0.127003
000180 2a af 30 bd d3 f9 d0 3e 3c aa 50 bd be 99 22 3d
       -0.0431358 0.408156 -0.0509436 0.0396974
000190 ba d7 19 be 67 8d 6b bd 9e 0b e3 bd 3e 95 83 be
       -0.150237 -0.0575079 -0.110862 -0.256998
0001a0 17 d6 1d be 32 60 bf bc b0 1d ac be df 35 e8 bd
       -0.154137 -0.0233613 -0.336164 -0.113384
0001b0 18 07 d7 3d 00 8c 87 bd 1a 8a 3b bd 68 68 72 bb
       0.104994 -0.066185 -0.045786 -0.00369885
0001c0 04 8b 13 39 87 d2 8b 3b a9 39 4f bd bc 5b a1 3e
       0.000140708 0.00426704 -0.0505921 0.315153
0001d0 1b d6 f5 3b d4 45 ea bd 8c 0f b3 be 56 7d 1e be
       0.00750233 -0.114391 -0.349728 -0.154775
0001e0 e3 10 b6 3d d0 db ce 3c 10 73 4d 3b ba 22 42 3c
       0.0888994 0.0252513 0.00313491 0.0118491
0001f0 15 42 9c 3b 87 a5 81 3b fd 92 63 3d 03 79 76 3c
       0.00476862 0.0039565 0.0555601 0.0150435
000200 8a cc 9c bc bb 0a e9 3c 3a 41 4b be 41 61 a0 bd
       -0.0191405 0.0284475 -0.198491 -0.0783105
000210 42 09 1b 3f 64 07 85 be 0a da 54 be 22 50 dd bd
       0.60561 -0.259822 -0.207863 -0.108063
000220 1c ea f7 bc cb 7b 41 3c 4a f0 86 3c 91 b0 b4 bd
       -0.030263 0.0118093 0.016472 -0.0882274
000230 6b 74 c8 bd 7f 9b 4a bd 3f 72 6b 3e 09 e4 9d bd
       -0.0978783 -0.0494647 0.229928 -0.0770951
000240 79 e9 16 be 91 63 83 be b0 20 3d be 88 eb 20 bc
       -0.147375 -0.256619 -0.184695 -0.00982178
000250 9b ac 89 3e 41 89 0a bd 48 fc 2b bb a0 02 bb 3c
       0.268895 -0.0338223 -0.00262429 0.0228284
000260 f9 1a 3c bb e6 b1 76 be 06 64 2f be f7 59 e5 bd
       -0.00287026 -0.240913 -0.17128 -0.111988
000270 3f ad fa be 7c ed a1 be 64 3f 5b be 53 40 3a bd
       -0.489603 -0.316265 -0.214109 -0.0454715
000280 5b 43 d9 3e 88 85 85 bd 66 11 0a be 50 f5 70 bd
       0.424342 -0.0651961 -0.134832 -0.0588277
000290 f2 e8 eb 3c d1 90 71 3e ec bd 98 3e bf d2 a9 be
       0.0287976 0.235904 0.298324 -0.331686
0002a0 93 ab 38 bd b1 51 d6 3e e4 f6 8b bd d5 4e 3e 3d
       -0.0450855 0.418592 -0.068342 0.0464619
0002b0 af 25 14 be 5c 1e 0b be 73 33 75 3b ec 34 8a 3e
       -0.144675 -0.135858 0.00374147 0.269935
0002c0 6d 62 77 bd 48 6e 8d bc 24 bf 39 3d d6 4a f2 bc
       -0.0603966 -0.0172645 0.0453483 -0.0295767
0002d0 8d 43 85 3e 82 91 a7 3e dd 23 2b 3e f6 b3 d8 bd
       0.260281 0.327282 0.167129 -0.105812
0002e0 ee 3d 2c 3e 29 b8 b3 bd 1c 44 0b 3e 77 6d 2a 3d
       0.168205 -0.0877536 0.136002 0.0416083
0002f0 47 2a 42 3c 66 5d 0d 3d 45 49 e8 bd c8 a6 b6 bd
       0.0118509 0.0345129 -0.113421 -0.0891853
000300 d9 42 50 bd b7 61 9c 3e 48 48 29 bd 2e a9 5a 3d
       -0.050845 0.305433 -0.0413287 0.053384
000310 4c 73 66 3d ae 8c 1c 3d 75 b0 fe bd ce c2 6e be
       0.0562623 0.0382201 -0.12436 -0.233165
000320 ea 96 8d bd 75 e3 82 3c 95 ce 4c 3d b3 78 31 bc
       -0.0691355 0.0159776 0.0500017 -0.010832
000330 10 9a 38 3c 0a bf 24 3e bd a9 98 bd 6f 81 64 be
       0.0112672 0.160885 -0.0745425 -0.22315
000340 50 8f fd 3e 2d 95 57 3e 05 b4 5e 3d 1c e2 09 3d
       0.495234 0.21053 0.0543709 0.0336629
000350 d0 3c 08 3b 4c 1c f9 3d 70 60 2e 3f 69 2f 47 bc
       0.00207882 0.121636 0.681159 -0.0121573
000360 de 03 f4 3d 78 7a 55 be b9 bf 5f bd e2 69 43 3d
       0.119148 -0.208475 -0.0546262 0.0477084
000370 fd 87 74 3e db 2b 38 bd 42 cc e5 3d 74 40 02 be
       0.2388 -0.0449637 0.112206 -0.127199
000380 ae 61 6b bd a2 5e f4 bb 44 db 71 3e 9c 59 a1 bd
       -0.0574662 -0.00745757 0.236188 -0.0787842
000390 54 74 ac 3e ca 33 97 3e 7f 16 eb bd 7b 58 7b 3b
       0.336825 0.295317 -0.114789 0.00383523
0003a0 06 70 69 bc 5a 3f c7 bc 59 4c 91 bd ab 76 ad be
       -0.0142479 -0.0243222 -0.0709464 -0.338796
0003b0 c8 28 af bd 67 96 09 bd 65 c2 8f be 96 78 e0 bd
       -0.085527 -0.0335907 -0.28078 -0.109605
0003c0 d4 8a 95 3d e2 b7 17 3d 16 f1 b2 3d 3c d9 0d bf
       0.0730187 0.0370406 0.0873739 -0.554096
0003d0 82 8d 8b be 4c 89 8c be 48 9d 85 bd cc d4 d4 be
       -0.272564 -0.274485 -0.0652414 -0.415686
0003e0 c0 06 e4 bd 13 bc ac bd 22 d0 6f bd a9 43 78 bd
       -0.111341 -0.0843431 -0.0585481 -0.0606114
0003f0 f7 2b 73 3d 48 70 ab be eb b7 65 3c d0 47 57 bb
       0.0593681 -0.334841 0.0140209 -0.00328492

Operation_1_B f4 [100]
000000 79 59 83 3e 58 75 31 bd 38 14 96 3e bd 56 62 3e
       0.256542 -0.0433248 0.293123 0.221034
000010 f1 90 b3 bd bf 76 9a bd dc d4 80 bd f4 e0 4e 3e
       -0.0876788 -0.0754218 -0.062906 0.20203
000020 df fb 0b be 54 c3 8e 3e 9c a3 ee bd bb 7c 7b 3e
       -0.136703 0.278834 -0.116523 0.245593
000030 f6 bd 61 bd 86 e3 d9 3d a9 4f f2 bd 01 2f 9b 3e
       -0.0551128 0.106391 -0.118316 0.303093
000040 36 af 9a 3e ce 8d 81 3e 7f 3a 89 bd c1 b4 8e 3d
       0.302118 0.253035 -0.0670061 0.0696807
000050 78 ef 68 3e 7a 72 2d 3e 37 cf b7 bd 14 e7 a8 bd
       0.227476 0.169382 -0.0897507 -0.082472
000060 68 b9 b7 3d 5f 85 aa 3d 62 6b b1 bd 8a 74 c7 3e
       0.0897091 0.0832622 -0.0866306 0.389561
000070 63 9a 29 3d 4a b3 39 3e 69 e2 9d 3e 72 6d 08 be
       0.041407 0.181348 0.308368 -0.13323
000080 79 01 56 3e 16 33 62 3e 0f 9c ab 3e 43 38 ae 3e
       0.20899 0.220898 0.335175 0.340273
000090 0a 0f 6a 3e 49 bc 1c bd be 85 d5 3d 8a 05 a6 3e
       0.228573 -0.0382655 0.104259 0.324261
0000a0 f3 49 5d bd 9c 6a ad bc 33 b9 62 bd a4 fa 86 3e
       -0.0540256 -0.021169 -0.0553524 0.263631
0000b0 77 8e 37 bb 62 30 ff 3d 0f 98 77 3e eb e3 61 3e
       -0.00280085 0.124604 0.241791 0.220596
0000c0 65 fc bb 3e dd 08 1b 3e b4 f8 3e bd 31 5b 02 be
       0.36716 0.151401 -0.0466239 -0.127301
0000d0 de c7 11 3e 98 4e 4b 3e aa bb ad 3d 69 7f b1 bc
       0.142364 0.198542 0.0848306 -0.0216672
0000e0 d8 b6 48 3e 84 67 42 3e 1a f8 01 be 77 64 11 bd
       0.19601 0.189848 -0.126923 -0.0354962
0000f0 20 f0 40 3e 34 d8 54 3e 49 f5 dd bc 0b 29 7f 3e
       0.188416 0.207856 -0.0270945 0.24918
000100 90 86 23 3e cb 69 4a bd 3c 32 46 3e 7c 20 de bc
       0.159693 -0.0494173 0.193551 -0.0271151
000110 90 f9 70 3e f4 89 6c 3e 40 e2 32 bd 8b c6 35 3c
       0.235327 0.230995 -0.0436728 0.0110947
000120 33 88 4f 3e 63 9c 5f 3e 95 7c 84 3e 43 55 7c 3e
       0.202668 0.21837 0.258763 0.246419
000130 20 60 ed bd fc ff 18 bd 21 01 53 3e 51 bc 92 3e
       -0.115906 -0.0373535 0.206059 0.286593
000140 ce 37 e2 3d 30 12 3a 3e fe 80 af 3e 57 41 ec 3d
       0.110458 0.18171 0.342781 0.115359
000150 fb 40 ca 3e b3 b7 84 3e 0f b9 39 be 36 cd 5b 3e
       0.395027 0.259214 -0.18137 0.21465
000160 2a 37 01 be 8a 12 3e bd a1 be b5 be e2 b7 fc 3c
       -0.126187 -0.0464044 -0.35497 0.0308494
000170 2f 16 76 3e 40 16 02 3e 25 ec 5b 3e a8 34 12 be
       0.240319 0.127038 0.214768 -0.142779
000180 a1 a2 9a 3e 24 2b af 3e e1 ec 76 3e 46 b6 73 3e
       0.302022 0.342126 0.241138 0.238

Operation_2_W f4 [50, 100]
000000 53 cb f6 bd 93 d6 09 3d 22 67 26 3d 98 52 72 bd
       -0.120505 0.0336519 0.0406257 -0.0591608
000010 50 d2 12 bd 75 4c 47 bd 84 87 84 3c 51 cc 8b bb
       -0.0358451 -0.0486569 0.0161779 -0.0042663
000020 b3 8b 53 bd ca 4e 3f 3d 58 6c 58 bd cf 61 46 3b
       -0.0516469 0.046706 -0.0528377 0.00302707
000030 00 d6 34 3d f7 28 d2 3c 73 6a 92 3d c0 5e 11 be
       0.0441494 0.0256543 0.0714921 -0.141963
000040 dd 35 b2 bc 29 7a 00 bd f2 d1 32 be 55 da 12 be
       -0.0217542 -0.0313665 -0.174629 -0.143411
000050 57 98 a9 bd 4a 22 a0 3d 0e a7 87 bd 73 fd 31 bd
       -0.0828101 0.0781904 -0.0662366 -0.0434546
000060 3e e8 59 3c 71 f4 22 3d dd 90 ab bc 7f 6b 17 be
       0.0133 0.0397839 -0.0209431 -0.147871
000070 b4 27 c7 bd 00 57 d2 bd eb 3e 78 bb 61 75 5f bd
       -0.0972437 -0.102705 -0.00378793 -0.0545553
000080 1e 79 d6 bc 59 d7 cd bc bc b2 4b be 7d 00 57 bd
       -0.0261808 -0.0251271 -0.198924 -0.0524907
000090 b9 70 40 bd a3 d0 ad 3d 22 62 d6 3b c8 af c4 3d
       -0.0469825 0.0848706 0.00654246 0.0960384
0000a0 00 2c ac 3d 46 95 91 3d 87 c9 af 3c fa 62 3f be
       0.0840683 0.0710855 0.0214584 -0.186901
0000b0 4b 07 4a bb a1 f4 85 ba 4c c6 31 be 7c 64 33 be
       -0.00308271 -0.001022 -0.173608 -0.175188
0000c0 d5 24 28 be 7b f5 f5 3b b3 4a 84 3c 3d 8e 10 bd
       -0.164203 0.00750607 0.0161489 -0.0352919
0000d0 a1 bf eb 3c 67 f7 7d 3a 94 5d 7a bc 60 c9 15 3e
       0.0287779 0.000968805 -0.0152811 0.146276
0000e0 e6 bb 8a bc a2 10 9c bc 0b d6 93 bc 3e 9f a7 3d
       -0.0169353 -0.0190509 -0.0180464 0.0818467
0000f0 3c 3c aa bd 9e 6e 6a bc fd b5 46 3d 2d 79 5c bd
       -0.0831227 -0.0143086 0.0485134 -0.0538265
000100 83 35 ad bb b5 19 e7 3d de 17 fc 3c a2 fd 39 bd
       -0.00528592 0.112842 0.0307731 -0.0454079
000110 47 e7 ba 3b 9e 9a 1b be 3b c3 f4 3d 12 b3 48 3d
       0.00570384 -0.151957 0.119513 0.0489989
000120 99 f1 d6 bd 6d 5e 50 3d e1 7c 87 3b a2 e6 80 bd
       -0.104953 0.0508713 0.00413476 -0.0629399
000130 9e 95 d5 3a 29 f3 a5 bd d7 bd 15 3d ae 4f c4 bd
       0.00162952 -0.0810302 0.036558 -0.0958551
000140 ba 5c 4e 3d 42 90 68 3d 90 4c 47 3d aa c2 d5 bc
       0.0503814 0.0567782 0.048657 -0.0260938
000150 57 76 e6 3c b5 a3 f8 3d a4 72 f3 bd 48 b5 39 bd
       0.0281326 0.121406 -0.118871 -0.0453389
000160 05 43 27 bd 89 5d 2b be c0 39 88 3c 02 11 e2 3c
       -0.0408354 -0.167349 0.0166291 0.027596
000170 fe 0b 04 3e 01 86 25 3e 16 eb 85 bd e2 97 97 bb
       0.128952 0.161644 -0.0653898 -0.00462626
000180 0f 71 7d bd 4a ce 09 bd a5 32 05 3e 7b 07 69 bd
       -0.0618754 -0.033644 0.130076 -0.0568919
000190 5d 81 12 bd ca 33 8f bd 81 2e 90 3d e2 69 a3 bd
       -0.0357679 -0.069923 0.0704012 -0.0797918
0001a0 77 88 9a bd fd cc 9f bd 2f 4e 3c bd 72 98 bb 3a
       -0.0754556 -0.0780277 -0.045973 0.00143124
0001b0 ae 21 c2 3c 4e b9 e2 bd 8b 6f 08 be bd 8c e2 3d
       0.0236977 -0.110705 -0.133238 0.11062
0001c0 d3 04 80 3d b8 5a e7 bd 7a 3f 09 3c e5 03 9c 3d
       0.0625092 -0.112966 0.00837695 0.0761793
0001d0 16 38 94 bd e7 04 b8 bd 8c 49 1f 3d 15 93 10 bc
       -0.0723726 -0.0898531 0.0388885 -0.00882413
0001e0 b4 08 e0 3c af 16 2e 3d 96 be b6 3d aa e3 22 bd
       0.0273479 0.0425021 0.0892307 -0.0397679
0001f0 ad 7b 95 3d cd 3b ce 3d cd 80 69 bc a3 1e e2 bd
       0.0729898 0.1007 -0.0142519 -0.11041
000200 83 26 53 bc 94 2e 22 bd fb 93 18 3d 1b 80 0d be
       -0.0128876 -0.0395952 0.0372505 -0.138184
000210 05 b3 93 3d 14 1c 83 bd 83 43 59 bd 38 c7 6f bd
       0.0721188 -0.0640184 -0.0530429 -0.0585396
000220 d4 12 96 bd 3d 0e 05 3c f5 d4 af bd d7 9b 62 3c
       -0.0732781 0.00812107 -0.0858554 0.0138311
000230 47 5e 71 3d dd 09 06 3e ea 4d 1b bd d0 63 24 be
       0.0589278 0.130897 -0.0379161 -0.160537
000240 b1 6d d1 bc 77 e7 bf 3c e6 1f dd 3d 0a 88 c4 3d
       -0.025565 0.0234258 0.107971 0.0959626
000250 21 df 8a 3c 57 f3 17 3d fc 84 d8 3c 8a 8c f3 bc
       0.0169521 0.0370973 0.0264306 -0.0297301
000260 73 8b 74 bd 7d 52 32 bd c6 e0 61 bc d6 2a 4b 3d
       -0.0597033 -0.0435357 -0.0137865 0.0496014
000270 04 70 f3 bd 36 4b 93 bd af ce 01 be 42 88 96 ba
       -0.118866 -0.0719208 -0.126765 -0.00114847
000280 a5 98 4d bd ec ce c9 bb 9b 59 eb bd 96 ea e2 3d
       -0.0501944 -0.0061587 -0.114917 0.110799
000290 f5 25 40 bc 58 6f 54 3d 5c e6 04 3e 2b d6 d5 bc
       -0.0117278 0.051864 0.129785 -0.0261031
0002a0 b6 b9 d1 3d 6c ba 19 bd ee 5d 33 be 9d bb bd bd
       0.102405 -0.0375313 -0.175163 -0.092643
0002b0 14 c7 66 3d e7 ce a3 bb 99 a6 43 bd 08 13 10 bb
       0.0563422 -0.00499903 -0.0477663 -0.0021984
0002c0 6e 40 ba bd 39 e9 92 3d c8 a0 c9 3b 65 35 dd bd
       -0.0909432 0.0717339 0.0061532 -0.108012
0002d0 3f be 4e bd ab 97 0f 3e 2a 74 2e be 03 0a d5 3d
       -0.0504744 0.140227 -0.170365 0.104023
0002e0 ef 6f 00 be b9 6f 15 3e e5 3f 8b 3b 62 52 37 bd
       -0.125427 0.145934 0.00424956 -0.0447563
0002f0 59 fa f1 3b f0 c2 56 bd 77 23 bd bd 8b 5c 46 bd
       0.00738458 -0.052432 -0.0923528 -0.0484281
000300 22 34 12 be 1f 70 13 3d 0a 30 0c be e9 a0 a6 bc
       -0.142777 0.0359956 -0.136902 -0.0203404
000310 b3 19 91 3d 7f 20 9f bd 62 d6 0f 3c e9 2b e8 bd
       0.0708498 -0.0776987 0.00877914 -0.113365
000320 5a 9b e6 3d ba 75 ed 3c ca d6 84 bd 93 54 96 3d
       0.112601 0.0289868 -0.0648628 0.0734035
000330 57 71 8f 3c 82 d3 c1 bd c2 f1 81 bd 3a 04 ce 3d
       0.0175101 -0.0946417 -0.0634494 0.100594
000340 ea 5e 37 be 4c 6c 0e 3e 5f 2c 88 bb 91 79 89 3c
       -0.179073 0.139085 -0.00415568 0.0167816
000350 9a 07 ee bb 5b d5 0d bd af 79 75 3e 39 7b 27 3e
       -0.00726409 -0.0346273 0.239722 0.163556
000360 a1 84 69 3e 94 8a 01 bd 41 99 4b bd 1e 5a bf 3d
       0.228045 -0.0316263 -0.0497067 0.0934336
000370 fe d7 89 be 80 28 18 3e 0c 79 14 be 73 ef a6 bd
       -0.269226 0.148592 -0.144993 -0.0815114
000380 04 20 0e be db f1 b0 3c 46 cf 2d 3e 2e 72 1f 3e
       -0.138794 0.0215997 0.169736 0.155709
000390 30 b9 f1 3d 4c 38 04 3e e1 72 06 3d 63 42 8c bd
       0.118029 0.129121 0.0328244 -0.068486
0003a0 fd b7 b7 3d d7 8d a2 3d 5e 68 3e 3e 10 5d 40 3e
       0.0897064 0.0793721 0.185945 0.187855
0003b0 03 b6 13 3e 28 3b 47 3c fc 1b 14 3e b5 16 66 3e
       0.144249 0.0121601 0.144638 0.224696
0003c0 28 28 45 3c f0 d7 29 bd 73 3b ea bc 1f 81 4f 3e
       0.0120335 -0.0414657 -0.0285928 0.202641
0003d0 57 24 e6 bd e0 63 f0 bd 67 ef 9c 3d fe e4 89 bd
       -0.112374 -0.117378 0.0766285 -0.0673313
0003e0 cb 9c 3e 3e 6e 68 0a 3e 47 96 87 bd ec dd 7f be
       0.186145 0.135164 -0.0662046 -0.24987
0003f0 0f 44 26 3e 96 7a a6 3d a8 1c 33 3e 0b 62 30 be
       0.162369 0.0812885 0.174914 -0.172249

Operation_2_B f4 [50]
000000 2d a4 a2 3d 37 c1 b7 3d ea 95 82 3e 5a 62 75 3e
       0.0794147 0.089724 0.25505 0.239633
000010 ac 1a 84 3e 8f 8a 87 3e a8 ff 84 3e aa 60 f4 bd
       0.258016 0.264729 0.259763 -0.119325
000020 6c ee a3 3d 41 9c c7 3d 89 0c 83 3e d9 9f 5a 3d
       0.0800446 0.097466 0.255955 0.0533751
000030 33 6f 8d 3e 40 17 7d 3e 78 95 5a 3d 1c 29 bb 3e
       0.276239 0.247159 0.0533652 0.365548
000040 e6 3f ac 3e 8a e5 9e 3e 55 7e 93 3d c5 e3 8a 3e
       0.336425 0.310345 0.0720183 0.271269
000050 bc 94 fa 3d db 35 91 3e f5 a0 a0 3d a9 89 7e 3e
       0.122354 0.283614 0.078432 0.248572
000060 ef 92 a3 3d 1f e9 3d 3d 85 28 9f 3e 07 84 91 3d
       0.0798701 0.0463649 0.310856 0.0710526
000070 eb e2 8e 3e 97 aa 8c 3e 4e 42 91 3e 47 e9 12 3e
       0.279075 0.274739 0.283709 0.143468
000080 4c 71 95 3e 43 ed 12 3d b3 b0 9c 3d 2f 4c 9b 3d
       0.29188 0.0358708 0.0765089 0.0758289
000090 31 b1 89 3e 2b fc a9 3e 70 9a 8e 3e 80 99 54 bd
       0.26893 0.332002 0.278522 -0.0519042
0000a0 be dc 8f 3e 47 90 8a 3e 48 a9 94 3e 90 0f 7f 3d
       0.280981 0.270632 0.290354 0.0622707
0000b0 38 f7 9f 3e 35 8a 96 3d 4b 60 4e 3d 14 5e a2 3e
       0.312433 0.0735058 0.0503848 0.317124
0000c0 cd ec 8e 3d e3 06 a2 3d
       0.0697876 0.0791147

Operation_3_W f4 [1, 50]
000000 bc 38 b6 bd 31 db 84 bc 9e 35 a9 3d bc 6c 45 3d
       -0.0889754 -0.0162178 0.0826218 0.0481994
000010 45 f0 df 3d 93 56 8c 3d 1f 9f 00 3e 18 60 af 3e
       0.109345 0.0685245 0.125607 0.34253
000020 8d 04 1f bd 36 78 1f be d7 56 c2 3d 81 86 bd bd
       -0.0388227 -0.155732 0.0948922 -0.0925417
000030 e8 69 40 3e e2 2e 6c 3d 42 68 f3 3c 06 d6 71 3e
       0.187904 0.0576619 0.0297128 0.236168
000040 61 8d 53 3e 5e 2e 92 3e 7f fb a5 bd 7e e1 25 3e
       0.206594 0.28551 -0.0810461 0.161993
000050 80 f4 f5 be 77 1f c6 3d ea 0e 7d bd 47 18 9b 3d
       -0.480381 0.0967397 -0.0617818 0.0757299
000060 5e 20 a2 bd c3 f4 4d be 99 bc 11 3e 0d cd bb bd
       -0.0791633 -0.201129 0.142321 -0.0916997
000070 0a 13 26 3e 94 dd 4c 3e da ff b0 3d b6 ee ab bd
       0.162182 0.200064 0.0864255 -0.0839514
000080 91 81 0c 3e 02 a9 c1 3b 88 be 1b bd dd 2e 4a bd
       0.137213 0.00591004 -0.0380235 -0.0493611
000090 93 55 21 3e db db dd 3e fd 83 08 3e 56 a5 38 ba
       0.157553 0.433318 0.133316 -0.000704368
0000a0 c0 cb 0c 3e f7 cd fd 3d f8 55 69 3e 88 30 59 bc
       0.137496 0.123928 0.227867 -0.0132562
0000b0 ad 87 a7 3e a9 d3 86 bd fe 3e c8 3c 8a b0 21 3e
       0.327207 -0.0658334 0.0244441 0.1579
0000c0 17 15 4c bc 7c 44 2c bd
       -0.0124562 -0.0420575

Operation_4_W f4 [2, 1]
000000 00 00 80 3f 00 00 80 bf
       1.0 -1.0

Operation_4_B f4 [2]
000000 00 00 00 00 00 00 00 00
       0.0 0.0

Operation_5_W f4 [1, 2]
000000 00 00 80 3f 00 00 80 3f
       1.0 1.0

Operation_6_W f4 [2, 1]
000000 00 00 80 3f 00 00 80 3f
       1.0 1.0

Operation_6_B f4 [2]
000000 00 00 00 00 00 00 a0 c1
       0.0 -20.0

Operation_7_W f4 [1, 2]
000000 00 00 80 3f 00 00 80 bf
       1.0 -1.0
