code/nnv/examples/Submission/ARCH-COMP2023/benchmarks/ACC/controller_5_20.onnx (onnx, 9359 bytes, 12 tensors)

input_AvgImg f4 [1, 1, 1, 5]
000000 00 00 80 3f 00 00 80 3f 00 00 80 3f 00 00 80 3f
       1.0 1.0 1.0 1.0
000010 00 00 80 3f
       1.0

Operation_1_W f4 [20, 5]
000000 f5 b2 23 3f 4f 3d e2 3e a0 67 39 3e a2 9f 93 be
       0.6394494 0.441874 0.18105936 -0.28832728
000010 95 d9 da be 04 f7 ca be 96 91 71 3f ce 69 ce bc
       -0.42744127 -0.39641583 0.9436277 -0.025196936
000020 10 75 21 3f b7 ad ef 3e 57 97 41 3f 91 68 05 3f
       0.6306925 0.4681222 0.7562155 0.5211268
000030 87 e4 20 3e ca 70 0e 3d a4 9a 1c 3e 1f 45 71 3d
       0.15712176 0.034775533 0.15293366 0.05890381
000040 76 04 43 3d 5f c5 40 3f d8 b2 a9 be 0c 4c 7f 3e
       0.047611676 0.75301164 -0.3314426 0.24931353
000050 d4 0f f4 3e 44 03 da bd ae 13 4b 3e 77 26 06 bf
       0.47668326 -0.10645154 0.19831726 -0.5240244
000060 af 50 9a 3e 72 40 a8 3e f3 b9 8c 3e 4f c0 2b 3f
       0.30139682 0.32861668 0.27485618 0.67090315
000070 20 85 56 bf 8b 1f 4d 3f 2b fa 34 bf 33 2a c5 be
       -0.8379688 0.80126256 -0.70694226 -0.38508758
000080 51 bf bb bc 71 0e 13 bf 1a 1a 19 bf ef 27 51 3f
       -0.022918375 -0.5744391 -0.5980545 0.8170156
000090 a4 3a f4 bd fa 9b 50 bf 0d 81 2b 3f 2b 1d 77 3e
       -0.11925247 -0.81488 0.6699379 0.2413222
0000a0 64 d3 17 be cf 4c a9 3e a0 ee d8 be cd 71 20 bf
       -0.14826733 0.33066413 -0.42369556 -0.62673646
0000b0 ea 55 3a bd 95 d1 47 bf 88 ce 25 3f cb 8b aa 3d
       -0.04549209 -0.7805417 0.64768267 0.08327445
0000c0 9f 4c 06 3f 6a 76 77 3c 10 4c 2f bf 8a f2 b6 be
       0.52460665 0.015103916 -0.6847544 -0.35731918
0000d0 39 09 1d bf 03 1f 0e bf 1a bf f3 be 9f 4b 34 3f
       -0.613422 -0.5551607 -0.47606736 0.7042789
0000e0 a4 13 9b 3e 54 87 56 bd 38 61 1d 3f 70 ca d5 3e
       0.30288422 -0.052375153 0.6147647 0.4175601
0000f0 31 aa 30 3e cb 62 49 3c 11 63 3d bf 30 7d 7f 3e
       0.17252423 0.0122916205 -0.7397929 0.24950099
000100 41 5a 14 bf 63 8e a0 3c 59 c4 2e bf 46 7b 82 be
       -0.57950217 0.019599145 -0.6826835 -0.25484675
000110 24 e5 f0 be c3 d7 cd be c2 47 9e 3e cd 24 c7 be
       -0.4704982 -0.40203676 0.30914122 -0.38895264
000120 c8 58 21 bf df bf 00 3f 7d 69 1a 3f bc 00 03 bf
       -0.63026094 0.5029277 0.6031721 -0.51172996
000130 82 91 49 bf ff 71 ed bd 4a 8f 02 3f db 2c 5e bf
       -0.7873765 -0.11594009 0.5099989 -0.86787194
000140 19 13 b1 3e b4 3b 3d 3f 00 1d b3 3e 6e 84 2c bf
       0.34584883 0.73919225 0.34983063 -0.6738957
000150 a5 be 51 bf f5 3e ec be bd 5e b8 3e d0 6d e9 3e
       -0.81931525 -0.46141782 0.3600978 0.45591593
000160 82 44 0b bf 79 82 f9 bd 2c 3c 86 3e ca 4c 27 3f
       -0.5440141 -0.12183089 0.26217782 0.65351546
000170 77 48 25 3f e2 9d 49 3e 7c 41 2a bf 4d 46 63 3f
       0.645637 0.19689134 -0.6650617 0.88779145
000180 d4 ff 63 3f 7c 31 fe 3e 36 11 bb be 43 ba 6b 3f
       0.8906224 0.4964713 -0.36536568 0.9208109

Operation_1_B f4 [20]
000000 12 f6 7f 3e ee a7 a1 3e f8 60 b1 be f6 41 50 bd
       0.24996212 0.31573433 -0.34644294 -0.050844155
000010 a9 b0 77 bf 58 ed 19 bf 6f aa 37 3f 50 87 5e bf
       -0.96753937 -0.6012778 0.71744436 -0.8692522
000020 7c bf c1 be 7b cd 27 3f c1 7f 68 3e c5 39 52 3f
       -0.37841403 0.65547913 0.22704984 0.821194
000030 ab ef 44 3f d8 f4 01 bf 4d c3 6a 3f 61 da bf bd
       0.76928204 -0.50764227 0.91704255 -0.09367824
000040 1b 91 46 3f 74 c2 8c bd 40 5c 2e 3e f5 4b 7a bf
       0.77565163 -0.068730265 0.17027378 -0.9777215

Operation_2_W f4 [20, 20]
000000 07 d4 d3 3e 89 e5 1e 3f 97 66 c8 be 4a 6b 02 be
       0.41372702 0.6206899 -0.3914077 -0.1273624
000010 9b 18 ed 3e 7a 36 0a 3f aa 30 01 bf be 4a 0a 3f
       0.46307835 0.53989375 -0.5046488 0.540203
000020 7f cc 05 3e 1f 45 05 bf 4b ae 76 3e c0 f6 28 3f
       0.1306629 -0.52058595 0.24089925 0.6600151
000030 80 82 6e 3f 28 99 1b 3e f8 f3 b0 3d 97 8d 9a be
       0.9316788 0.15195143 0.08640283 -0.3018615
000040 ee a9 15 3e f8 44 28 3f ab 86 b0 be 5f a6 74 be
       0.14615604 0.6573024 -0.34477744 -0.2389159
000050 74 37 23 be 9d 6a 1e 3f 62 3d 97 bb 97 61 99 3e
       -0.15939122 0.6188143 -0.0046154717 0.29957268
000060 53 5c f3 be 5e 52 e9 be 1f 5a 6c 3f 1e 90 37 bf
       -0.47531375 -0.45570654 0.92325014 -0.7170428
000070 0e 7e 4a be 07 c2 0f be 82 ff 0d bf 6d a4 85 be
       -0.19774649 -0.1403886 -0.55468 -0.2610201
000080 ff 34 4e bf ee 18 b4 3d 74 bc 3c bf e7 5a 16 3f
       -0.80549616 0.087938175 -0.73725057 0.58732456
000090 30 dd 2e bf df 18 6f 3f fc e4 6a 3f b7 15 7b 3f
       -0.68306255 0.93397325 0.9175565 0.9808001
0000a0 6a a6 5f bf 94 fe 19 3f 2b b9 36 3f a0 6e 33 bf
       -0.873633 0.6015408 0.71376294 -0.70090675
0000b0 89 2d 11 bf 59 42 12 bf b5 d3 62 3f 6c d5 10 3f
       -0.56710106 -0.5713249 0.8860429 0.56575656
0000c0 4d 79 22 3f ac f4 05 3f 53 39 fc be 53 7c b8 3d
       0.6346634 0.52326465 -0.49262485 0.09008088
0000d0 af ca 0c 3f 56 8d a7 be ea ce 3b 3f 3a 92 bf 3e
       0.5499677 -0.32725018 0.733626 0.3741625
0000e0 a5 f3 c9 3d 68 d5 70 be 21 ae 53 be 93 26 3d bf
       0.09860925 -0.23518908 -0.20671894 -0.73886985
0000f0 f5 16 18 3e da 8a 48 bf d0 af 00 bf 94 21 f4 be
       0.14852507 -0.7833687 -0.5026827 -0.47681868
000100 3c db ff 3e 45 38 c7 be e9 09 82 3f a3 23 43 bf
       0.4997195 -0.38910118 1.0159274 -0.7622625
000110 30 22 45 3f 9c eb ca be d1 b0 58 3e 18 e0 6c 3f
       0.7700529 -0.3963288 0.211612 0.9252944
000120 10 13 95 be 56 b2 7f 3f 24 06 93 bd b9 89 87 3d
       -0.29116106 0.99881494 -0.071789056 0.066180654
000130 ed e0 64 be e4 77 1f bf dd 73 24 bf 30 84 09 3f
       -0.22351427 -0.62292314 -0.64239293 0.5371733
000140 47 77 4c bf d7 5e e8 3e f6 78 6d bf 2f 10 01 3f
       -0.798695 0.45384857 -0.92762697 0.5041532
000150 85 83 50 3f 44 06 86 be e6 b6 5d bf 27 02 45 3e
       0.8145068 -0.26176655 -0.86607206 0.19239102
000160 4b 6c 0f 3f 09 b8 14 bd dc 13 ae be 69 57 67 3f
       0.56024617 -0.036308322 -0.33999527 0.9036775
000170 77 4c e1 be 2f 3a 35 bf fe 43 d9 be 45 ab 13 bf
       -0.4400365 -0.70791906 -0.42434686 -0.5768321
000180 00 0d 55 bf f4 71 79 3f 2b a4 b4 3c 61 ff 75 be
       -0.8322296 0.97439504 0.022050938 -0.240232
000190 38 00 61 3f 2e a0 d3 3d c5 1d 5c 3e e1 2c 84 3e
       0.8789096 0.10333286 0.21495731 0.2581549
0001a0 00 e7 2a bf 6a 8e 38 bf 37 07 1c bf 5a 84 61 bf
       -0.6675873 -0.72092307 -0.6094851 -0.8809258
0001b0 99 57 cf 3e de 04 10 3f 4c d7 3d 3d 82 a2 22 3f
       0.4049652 0.56257427 0.0463479 0.6352922
0001c0 66 e7 07 3f fa db 33 3f 94 0d c1 be fd a1 2f bf
       0.5308746 0.7025753 -0.37705672 -0.6860655
0001d0 36 60 3a bf 5a 41 b8 3e 28 60 70 bf fa a9 df be
       -0.72803056 0.3598736 -0.9389672 -0.4368437
0001e0 9d 25 af 3e 04 7c 9d 3a a7 fb 32 3d f8 d7 67 bf
       0.34208384 0.0012015109 0.043697026 -0.9056392
0001f0 53 87 a3 be 42 2d 6e be b1 ba 19 be b2 3c 60 3f
       -0.31939182 -0.23259452 -0.15012623 0.87592614
000200 12 d9 8d be 39 0f 3a be 3c 19 21 bf b1 1f 2b be
       -0.27704674 -0.1816987 -0.6292913 -0.16711308
000210 8b 0e 3d be 55 7c 02 3f 8e 43 ae 3e fc 5d 46 be
       -0.18462579 0.50970966 0.34035915 -0.1937179
000220 7b 4a 6f be e9 c5 5f 3f 64 c1 88 3e c9 a7 06 be
       -0.23368256 0.8741136 0.26710045 -0.13149942
000230 bc a0 f0 be 2c 1f b1 be 33 c3 0a bf f7 fc 98 3e
       -0.4699763 -0.34594095 -0.542041 0.29880497
000240 1b b2 4d bf 78 9e b0 3d 74 dd 97 3d c9 8a 1a bf
       -0.8034989 0.086239755 0.07415286 -0.6036802
000250 f1 4e 93 3e b2 e8 2d 3f 8a c1 c1 bd c4 c6 29 3f
       0.28771165 0.6793319 -0.09460743 0.6631892
000260 b3 0d 10 bf d8 12 47 3d 99 3d 61 3d ae a5 17 be
       -0.56270903 0.048601955 0.054990385 -0.14809296
000270 64 9d 93 bd 1c af 8b 3e e4 06 6f be d7 71 38 be
       -0.07207754 0.27282035 -0.23342472 -0.18012176
000280 19 63 0e 3f 42 61 23 bf b3 f4 4e 3f e1 98 2e 3e
       0.5561996 -0.6382028 0.8084213 0.17050506
000290 f1 9c 65 3f 5b 80 5c bf f4 4c 60 bd 0d e3 65 bf
       0.896926 -0.86133355 -0.05476089 -0.89799577
0002a0 44 fd 3d bf 05 49 bc 3e d6 9e 68 3f d6 bc 18 be
       -0.7421458 0.3677446 0.90867364 -0.14915785
0002b0 00 e2 3c bd c8 f7 4b bf 0d 3c f1 3c d3 a1 65 3f
       -0.046113968 -0.7967496 0.02944758 0.8970005
0002c0 e5 d6 ef be 56 1d 89 3e 93 92 12 3f 69 ff 30 3f
       -0.4684364 0.26780194 0.57254905 0.69139725
0002d0 d8 8e a6 3e a5 12 9c be 52 4e 61 3f e2 75 57 3f
       0.32530856 -0.30482975 0.8801013 0.8416425
0002e0 55 a4 0f 3f 50 30 2e be 9e 41 3d 3e a2 99 a4 be
       0.56110126 -0.17010617 0.18482062 -0.32148463
0002f0 27 6a 16 be 64 17 56 bf 87 59 31 be 9a f4 69 be
       -0.14688931 -0.8362944 -0.17319308 -0.22847214
000300 a7 6c 17 bf 05 83 09 bf 02 51 94 be 3f a5 43 3f
       -0.59150165 -0.53715545 -0.28968054 0.7642402
000310 2e c0 21 3f c8 10 83 be ce 18 32 bf 73 4a 80 be
       0.6318387 -0.2559874 -0.695691 -0.250568
000320 b6 54 82 be b1 19 de 3e 7c ef f0 bd d2 88 87 bf
       -0.25455254 0.43378976 -0.11764428 -1.0588629
000330 97 f8 a6 3e da 61 cf 3e 9a bb a7 3b d3 c3 c2 3e
       0.32611534 0.40504342 0.0051187994 0.38040027
000340 7e 55 30 be 47 53 87 3f fc 5a 4b bf f7 04 ae 3e
       -0.17220113 1.0572289 -0.79435706 0.33988163
000350 24 71 ef be 7f 28 7d 3f 98 f8 d8 3c 8d 79 b9 be
       -0.46766007 0.9888992 0.026485726 -0.36225548
000360 d0 5c fd 3d df c1 71 bf f2 4e 7f bd b9 84 4f bf
       0.12371218 -0.9443645 -0.062331147 -0.81061894
000370 5d 30 a3 3d 91 21 28 3d a5 6a d5 3e c0 ff e7 3e
       0.07968209 0.041047636 0.41682926 0.4531231
000380 11 f9 05 3f 5c 27 36 3f cd d5 10 3f 4d 06 14 bf
       0.5233317 0.7115381 0.56576234 -0.57822114
000390 e3 70 62 be 4e f1 ae 3d eb 26 cd be a1 19 02 bf
       -0.22113375 0.08542119 -0.40068755 -0.50820357
0003a0 26 95 41 be e3 f0 d3 3e dd ba 75 bf ef 96 29 3f
       -0.18904552 0.4139472 -0.95988256 0.6624593
0003b0 2a 4d 1f bf e0 85 00 3e ee a9 78 3e 97 7a de be
       -0.6222712 0.1255107 0.24283573 -0.43452904
0003c0 5c 2b 61 bf 17 a1 79 3e e6 5c 48 3d de d5 4f be
       -0.87956786 0.24377857 0.04891672 -0.20296428
0003d0 03 9b 71 3e 5b ba a8 3e 7f 66 d7 3e ff df 5c 3f
       0.23594289 0.32954678 0.42070386 0.8627929
0003e0 ff 3b e4 be 2f a9 02 bf fb 1a d6 3d 9b 17 21 bf
       -0.44577023 -0.51039404 0.10454365 -0.62926644
0003f0 40 2c 82 bf 77 56 10 bf 3f 37 0d 3d 0f a5 38 3e
       -1.0169754 -0.56381935 0.034476515 0.18031715

Operation_2_B f4 [20]
000000 40 26 29 3f 97 cc be be 72 8e 4c 3e 99 1c 82 bd
       0.6607399 -0.37265465 0.19976214 -0.06353111
000010 ca 47 a1 3e 71 bc f4 be 01 03 dd be 02 a9 c3 3e
       0.31500083 -0.4780002 -0.43166354 0.3821488
000020 de 6d 71 3f 00 ca dd be 36 5e 34 3f 14 b0 4d 3f
       0.9430827 -0.43318176 0.70456254 0.803468
000030 c8 ee 2c 3f 5c 4e 01 3f 59 1d f7 be 02 04 65 3f
       0.6755185 0.5051019 -0.48264578 0.8945924
000040 6e 11 32 3f 95 08 30 3f 1f 70 0e 3f 10 ff 56 bd
       0.69557846 0.68763095 0.55639833 -0.05248934

Operation_3_W f4 [20, 20]
000000 6e 9c 25 3f e5 bb 4d bf a4 31 4b bf 8b e1 31 bf
       0.6469182 -0.8036483 -0.7937262 -0.69484776
000010 61 f7 96 bc 07 5d 50 bf e6 00 e6 be c5 ac 63 3f
       -0.018428506 -0.8139195 -0.4492256 0.889355
000020 d6 67 e3 3e 1d 5b 5c bf aa 57 78 3e 4a 70 10 3f
       0.44415158 -0.8607653 0.24252191 0.5642134
000030 21 41 5d 3f c2 3b e8 bc 28 55 49 3f 2a 93 89 3e
       0.86427504 -0.028348807 0.78645563 0.2687009
000040 c0 ba 65 3f 70 31 55 bf ce 92 58 bf a6 3f 64 bf
       0.8973808 -0.8327856 -0.84599006 -0.8915962
000050 46 1e 4f 3f 34 73 c7 3d 3b a8 0d bd ef 6b 7d bf
       0.8090557 0.0973877 -0.034584265 -0.9899282
000060 9f ad 54 3f 6d 87 fe bd 58 46 7c be e7 8d 0e 3f
       0.83077425 -0.12428174 -0.24636209 0.55685276
000070 b6 8f 0a be 98 ef 5c 3d 4d 4a be 3e 21 89 7b bf
       -0.13531384 0.053939432 0.37166062 -0.9825612
000080 46 95 38 bf 38 4d 36 bf c6 96 e9 be 23 62 46 be
       -0.72102773 -0.71211576 -0.45622844 -0.19373374
000090 c7 3c 04 3e 1d 91 9b be 3c 94 59 3e 36 59 e7 be
       0.1291381 -0.3038415 0.21247953 -0.4518525
0000a0 08 2e 82 bf e6 6f 14 3e e4 37 9a 3d ac 8d 3d bf
       -1.0170298 0.14495811 0.075301915 -0.740443
0000b0 be af 2c 3e 8c 8a c0 be e4 1a 10 3f 49 d7 25 3f
       0.16863915 -0.37605703 0.5629103 0.64781624
0000c0 0e 59 a1 bd 0c 8a 36 bf 5c 1a f9 3e 8f ce 83 be
       -0.07878314 -0.7130439 0.48652923 -0.2574353
0000d0 61 f0 a0 be 61 d4 1f be 9d 9e 77 3e 7e c0 44 bf
       -0.31433395 -0.1560836 0.241816 -0.7685622
0000e0 33 1d c9 3e 88 0e f9 be 8b c6 03 3f 13 f1 91 be
       0.3928009 -0.486439 0.5147483 -0.28504238
0000f0 44 14 dd 3e b8 4b 0a be ec de 27 3f a7 42 e4 be
       0.43179524 -0.13505447 0.65574527 -0.44582102
000100 88 a3 5e bf bf 7f 77 be 92 2c 1f 3f 91 db f1 3e
       -0.8696828 -0.24169825 0.62177384 0.47237828
000110 ab 48 39 bf e6 20 0f 3f 6b e1 66 bf 11 3d bb 3e
       -0.7237651 0.55909574 -0.9018771 0.36570027
000120 4e a7 bc 3e a8 85 40 3f 34 ae 8d 3e 0c fc 56 3f
       0.36846393 0.75203943 0.2767197 0.83978343
000130 ce 31 f6 3d 88 d0 eb 3d cf 32 c9 be a9 e6 0f 3f
       0.12021218 0.115143836 -0.39296576 0.56211334
000140 b0 60 45 be e3 70 7f bf 24 88 55 3f 8d 2d 03 3f
       -0.19275165 -0.99781626 0.8341086 0.5124138
000150 30 36 23 be 48 be 7d 3f 34 73 8e bf 81 e1 16 3f
       -0.1593864 0.9911847 -1.1128907 0.5893784
000160 22 7b 45 bf 5d e1 6f bf 28 a0 5e 3e bd 67 70 bf
       -0.7714101 -0.9370325 0.21740782 -0.9390829
000170 d9 bd 54 3e 69 26 9f 3e 4f 2a cb be ef 3f 28 3f
       0.20775546 0.31083992 -0.39680716 0.65722555
000180 39 ef 70 3f 82 ff ad 3e 7c d5 8d 3d b6 4f 1f bf
       0.94115025 0.33984 0.069254845 -0.62231004
000190 01 e4 4e 3e 4e c3 36 bf 22 be 84 be 74 7a ee 3e
       0.20204164 -0.7139176 -0.2592631 0.465778
0001a0 11 1f dc 3e 16 2e 3d 3f 29 35 1f bf 5f bf 47 be
       0.42992452 0.73898447 -0.6219049 -0.19506596
0001b0 ce f5 2d 3f c3 a0 38 bf da 21 09 bf bf f7 22 be
       0.67953193 -0.721203 -0.5356728 -0.1591482
0001c0 13 d0 2a 3f 04 52 64 3f a9 cd 79 3c 31 ec 38 bf
       0.66723746 0.89187646 0.015246787 -0.722354
0001d0 12 90 f9 be 82 50 1b 3f 22 ca 2b 3f a0 87 3f be
       -0.4874273 0.6066972 0.67105305 -0.1870408
0001e0 bc d4 85 3f 7c 7e df 3d 10 e3 85 be ab 52 24 bf
       1.0455546 0.10912797 -0.26149797 -0.6418864
0001f0 16 83 49 be 02 54 65 3f 40 fb 45 bf fe 1d 3d bf
       -0.19678912 0.8958131 -0.773365 -0.7387389
000200 85 0a 60 bf 9c 7a 57 be a8 c7 a2 be 34 d7 22 bf
       -0.8751605 -0.21042866 -0.3179295 -0.63609624
000210 48 b6 0e bf e3 98 37 be c4 1f 47 bf c9 7b a1 be
       -0.5574689 -0.17929415 -0.77782845 -0.31539753
000220 bd e2 c8 3e 66 0c 71 bf d8 60 0a 3e 0e 9c c6 3e
       0.39235488 -0.94159544 0.13513505 0.38790935
000230 ed 2e 2e 3f 77 f7 27 3f f2 78 51 bf d8 54 fb 3e
       0.68040353 0.65611976 -0.8182517 0.49088168
000240 c2 55 fb be 83 97 fb be f2 cc ea 3e c5 72 2d bf
       -0.49088866 -0.49139032 0.45859486 -0.6775325
000250 bc ea 04 3f 64 80 0f bf 9c 9f d6 3e dc fc ae 3d
       0.51920676 -0.56055284 0.41918647 0.08544323
000260 0b fa b8 be cb 36 3a be e8 22 18 3f b4 bb 29 bc
       -0.36128268 -0.18184964 0.5942826 -0.010359693
000270 eb d4 4f bf 50 19 3a 3f c8 38 ef 3e a9 b1 28 3f
       -0.8118426 0.72694874 0.46723008 0.6589609
000280 2f b2 72 3f 9f bd e9 3e 1e 2f a3 3e c7 49 1e bf
       0.94803137 0.45652482 0.31871885 -0.61831325
000290 c2 da 2f 3e 1b 2c 67 bf b8 53 27 3f da dc 1d 3f
       0.17173293 -0.90301675 0.6536212 0.6166512
0002a0 d0 2a 5f be d5 0d 61 3f b0 9b 36 bf 68 f3 24 bf
       -0.21793675 0.8791173 -0.7133131 -0.6443391
0002b0 3b c8 1f bf 1f 71 05 3f cb d4 28 3f 3a 12 f2 3e
       -0.624149 0.52125734 0.65949696 0.4727953
0002c0 5b 00 37 bf 20 0f 4d 3f db 19 19 3e 48 22 bd 3d
       -0.7148492 0.80101204 0.1495127 0.09235054
0002d0 b3 97 5a be 03 96 4f 3f fe 0c 16 bf 48 a8 ce 3e
       -0.21346931 0.81088275 -0.58613575 0.40362763
0002e0 42 57 78 3f c3 e6 29 3f fc 96 d7 be d8 f1 6d bf
       0.97008145 0.6636774 -0.4210738 -0.9294715
0002f0 39 97 34 be 3c c4 67 be dd 98 10 bf d8 47 83 be
       -0.17635812 -0.22633451 -0.5648325 -0.2564075
000300 5a a5 71 bf ac 35 3e 3f 0c a6 a0 3e c4 36 3e 3f
       -0.9439293 0.74300647 0.31376684 0.74302316
000310 c0 c2 a0 3e 1f 72 7d bd 3c f0 3a 3f 1f 1e 53 3f
       0.31398582 -0.061876412 0.7302282 0.82467836
000320 48 1f ab be e4 98 2d 3f ed 62 2a 3f bc 51 34 bf
       -0.33422303 0.6781142 0.665572 -0.70437217
000330 eb 84 5b 3f 47 41 c1 3e 43 c9 9b 3e 6b f8 bb 3d
       0.8574969 0.37745115 0.30426988 0.09178241
000340 61 2d e7 be 58 e3 e8 bd 22 86 3c be 1d 20 2d 3f
       -0.4515181 -0.113714874 -0.18410543 0.67627126
000350 40 d0 a2 3e 17 e9 c8 3e 5b d6 44 bf f5 ed 7d 3f
       0.31799507 0.39240333 -0.7688958 0.9919122
000360 75 a7 ce bc 63 29 86 be fc 85 90 bd 6c d3 55 3f
       -0.025226334 -0.2620345 -0.070568055 0.8352573
000370 57 b1 c7 be d8 e7 bb bd ff ec 64 be a3 4c 61 be
       -0.39002487 -0.0917508 -0.22356032 -0.22001891
000380 3a db 7a 3f 20 a7 44 3e 5b 83 3c bf 6b a1 25 3f
       0.97990763 0.19204378 -0.7363793 0.6469943
000390 83 06 70 bf 10 12 ee be f5 b5 2d 3e 0d d3 7f bf
       -0.93759936 -0.46498156 0.16963942 -0.9993141
0003a0 c6 fb da be d0 3f 28 bf 09 c5 60 3f 65 42 e3 3e
       -0.42770213 -0.6572237 0.8780065 0.44386593
0003b0 45 50 06 3f 26 46 59 bf 1e 52 50 bf 26 c6 72 3e
       0.5246623 -0.84872663 -0.813753 0.237084
0003c0 b4 61 a4 be a3 44 97 be 17 e3 bc bd 60 40 24 3f
       -0.32105792 -0.29544553 -0.092230015 0.6416073
0003d0 01 0a 2c 3f a0 0d 12 bf 8e 3c 80 be 4c 94 65 3f
       0.67202765 -0.5705204 -0.250462 0.8967941
0003e0 1f 8f dc 3e 03 0f 32 3e ff 47 c2 be 88 b6 9a 3e
       0.43077943 0.17388539 -0.37945554 0.30217385
0003f0 31 3c 70 bf 58 df 87 be eb 99 59 bf f3 b2 28 3e
       -0.93841845 -0.26537585 -0.85000485 0.16474514

Operation_3_B f4 [20]
000000 d6 47 30 bf 65 d1 f5 3e 0f f6 86 3e 23 e0 51 3e
       -0.6885961 0.48011318 0.26359603 0.20495658
000010 00 8b 05 bf 9a 1f dd be d1 b7 1a 3f ee 6c 2f 3e
       -0.5216522 -0.43188173 0.6043673 0.17131397
000020 06 4b c9 be cb bf cf be 87 2b 0c bf 58 27 2f 3c
       -0.3931505 -0.40576014 -0.5475392 0.010690533
000030 04 52 05 3e 03 1f 5d bf 05 95 2b bf 9b 87 79 3c
       0.13019568 -0.86375445 -0.6702426 0.015230085
000040 f8 e2 ae 3d 10 53 af 3c d8 dd 42 bf 25 54 30 bf
       0.085393846 0.021401912 -0.76119757 -0.68878394

Operation_4_W f4 [20, 20]
000000 9f 6c 8f bd 56 58 6e bf 62 e0 07 3f 77 53 ff bc
       -0.0700314 -0.9310354 0.53076756 -0.031167729
000010 a0 1f 18 bf a9 fd ac 3e 86 40 60 bf 76 8c 39 3f
       -0.59423256 0.33787277 -0.87598455 0.7247995
000020 f2 5d 10 bf 58 61 ac 3e 01 92 b5 3e bd 00 83 3e
       -0.5639335 0.33668017 0.35462955 0.255865
000030 c4 16 42 bf 35 43 c4 3d af 68 5d be 0c ed e5 3e
       -0.7581599 0.09583131 -0.21621965 0.44907415
000040 fb 73 09 bf f1 ee 90 bd f7 26 81 3e e3 53 b4 be
       -0.536926 -0.070768245 0.2522504 -0.3522025
000050 ca 3c c6 3e d9 55 e5 3d 4e 21 39 bf 00 af 7a bf
       0.38718253 0.11198015 -0.72316444 -0.9792328
000060 08 44 12 3f cb f0 14 3f 15 16 bd be 5c 51 8e be
       0.5713506 0.5817992 -0.3693091 -0.27796447
000070 ef 66 37 bf 71 e9 68 bf 0a 20 48 3e 41 ad 14 3e
       -0.7164144 -0.90981203 0.19543472 0.14519216
000080 b8 45 34 be 7d df 58 bf b2 1b 4a 3f d9 b3 0a be
       -0.1760472 -0.84716016 0.7894851 -0.13545169
000090 45 15 bb be 76 3d 3c bf 24 6d 3d be 95 6b 07 bf
       -0.36539665 -0.7353128 -0.18498665 -0.5289853
0000a0 8b ff ce 3e 8e 19 92 3d 0a 32 7a bf 13 ec 84 3e
       0.4042934 0.071337804 -0.97732604 0.2596136
0000b0 ef dc e7 be 0a f3 ce 3e 8d df ea be c9 bb 3c 3f
       -0.45285746 0.404198 -0.4587368 0.7372404
0000c0 98 63 57 bf 99 8b 4d 3f de cc 59 bf ff 2f f5 3e
       -0.84136343 0.80291134 -0.8507823 0.4788818
0000d0 dc da 16 3f 62 f5 1f bd cb 7f dc 3b 02 85 d9 be
       0.589277 -0.039052375 0.0067291013 -0.4248429
0000e0 3c 4d ae be 7b 4b 3b 3f cf 94 f5 be 2c 26 e3 be
       -0.340433 0.7316205 -0.47965094 -0.4436506
0000f0 d7 a2 8b 3e c5 3f 5a bf f3 3d f4 3e 42 21 cb be
       0.27272674 -0.85253555 0.47703514 -0.3967381
000100 dd b8 62 bf aa 4c 26 bf 0b 02 6e bc 7a 02 43 bf
       -0.8856333 -0.6496073 -0.014526854 -0.76175654
000110 1e be d7 be 3c c3 b0 3e a0 46 48 3f 99 b3 86 3c
       -0.42137235 0.34523952 0.78232765 0.01644306
000120 f4 36 fd be 7b 0f 33 3f 01 de fe 3d 3f 69 68 bf
       -0.49455988 0.69945496 0.12444688 -0.9078559
000130 39 6c ff be 88 2c 06 bf a3 a9 5f 3e 78 19 37 bf
       -0.49887255 -0.524117 0.21842055 -0.7152324
000140 4d 0b 29 3e 15 cb 2a be c4 26 25 3f 41 59 25 3f
       0.16508217 -0.16679032 0.64512277 0.64589316
000150 29 51 a8 3e 6d be 57 bf 30 5b 4c bf c0 29 6b bf
       0.3287442 -0.8427494 -0.7982664 -0.9186058
000160 a3 f7 44 3f 64 54 0f bf 82 1f 72 3f 8a ca 3a 3f
       0.76940364 -0.55988145 0.9457933 0.729653
000170 36 bb 36 3e 54 7e 46 be 5b c8 0d 3f d5 a4 b5 be
       0.17844853 -0.19384128 0.55383843 -0.3547732
000180 6b 31 4f bf c1 cd 60 bf 97 13 67 3e 74 2d 14 bf
       -0.8093478 -0.87813956 0.22566067 -0.57881856
000190 3b 70 2f 3f af d8 b7 3e 0e 55 54 3e 8b 80 4b 3f
       0.68530625 0.35907504 0.20735571 0.79493016
0001a0 14 78 f7 3d c2 b0 13 3f 93 89 56 bf 0a 05 79 3f
       0.1208345 0.57691586 -0.8380367 0.97273314
0001b0 83 66 24 bf 73 1f 43 3d 29 0a 1f bf a2 b1 35 bf
       -0.6421892 0.047637414 -0.6212488 -0.7097417
0001c0 a2 be 76 bf 8c 60 ef be b7 5e d1 be 1f 41 d8 bd
       -0.9638463 -0.46753347 -0.40892574 -0.10559296
0001d0 05 fa ca 3e c2 c4 cc be 27 a1 2b 3f a9 ad 1e 3f
       0.39643875 -0.39993864 0.67042774 0.61983734
0001e0 ae 4e 59 be a7 81 c7 bc 98 99 4e bf 3b f4 08 bf
       -0.2122142 -0.024353815 -0.80703115 -0.53497666
0001f0 43 c9 cd 3e f4 a7 5c 3f 1f e2 0c bf 4e 47 61 3f
       0.40192613 0.86193776 -0.55032533 0.8799943
000200 ff 41 86 3f fe 51 7d 3e 94 52 3f bf 48 a1 a5 3e
       1.048889 0.24738309 -0.7473538 0.3234961
000210 e4 c2 a0 3e 7e 84 5e 3d 27 70 00 bf 89 f6 4d 3e
       0.3139869 0.054325573 -0.5017113 0.20113577
000220 1e 79 71 be 38 e0 5a 3f f3 ae f8 be ae f2 e3 3e
       -0.23581359 0.8549838 -0.48570976 0.44521087
000230 7e 7a bf be dc 5e 09 be 28 b8 b6 be 3a b3 c7 be
       -0.37398142 -0.13415092 -0.35687375 -0.39003927
000240 8e 72 53 3f c3 c5 00 3f b4 11 17 3f 4a 17 82 3e
       0.8259667 0.5030176 0.5901139 0.25408393
000250 63 ad 2e bf 7b b9 77 3e 9e 17 6c 3f 46 ce 4f 3e
       -0.6823332 0.24191849 0.92223537 0.20293531
000260 f1 54 27 3f 31 3d 86 be c9 8a 21 3f b4 2d f4 be
       0.65363985 -0.2621856 0.63102394 -0.4769112
000270 5c 37 01 bf 15 a4 0f bf 79 ca ec be ee db e9 3e
       -0.50475097 -0.56109744 -0.46248224 0.45675606
000280 42 2f 12 bf b9 d5 0f 3d 89 cc 45 3f 94 53 44 bf
       -0.5710336 0.03511593 0.7726522 -0.7669003
000290 13 ff 2a bf 8d 1b 36 3f 18 5e 4c 3f 47 36 51 bf
       -0.6679546 0.7113579 0.79831076 -0.81723446
0002a0 4f f0 2b be 15 89 8c 3f 75 de 35 be 8c 14 d9 3c
       -0.16790889 1.0979334 -0.17760642 0.026499055
0002b0 5f b5 cc 3e ef 5c 04 3f 12 2f 58 bf 74 ad 23 3f
       0.39982125 0.51704305 -0.84446824 0.63936543
0002c0 01 72 99 3d 0e b4 b9 be df b6 46 bf b7 5b ec be
       0.07492448 -0.36270183 -0.7762279 -0.46163723
0002d0 4b d1 05 bf e4 44 20 be da 49 42 3f f3 a6 01 3f
       -0.5227248 -0.1565128 0.7589394 0.5064537
0002e0 a2 23 bf 3e 19 66 ad 3e 8c 1b 03 3e d7 a0 3c 3f
       0.37331873 0.33866957 0.12803477 0.7368292
0002f0 22 c1 3a be 22 61 26 3e 4d df 11 3f 67 67 08 bf
       -0.18237737 0.1624799 0.56981355 -0.5328278
000300 da 2e 6e be 23 a5 e1 3e a6 5c 6e bf 7e 8b 2f 3f
       -0.2326006 0.44071302 -0.9311012 0.68572223
000310 63 8e 5f bf ee 52 99 3c e5 20 a4 be db d8 30 bf
       -0.8732664 0.018716302 -0.32056347 -0.69080895
000320 45 54 93 3d 27 70 3d bf 5d c7 94 3e 92 16 e9 3e
       0.071938075 -0.73999256 0.29058352 0.45525032
000330 98 43 66 be f4 a9 a2 3c be 0a a0 be c1 7b 26 3f
       -0.22486722 0.01985643 -0.31258196 0.65032583
000340 4e a5 4d 3e d3 40 c7 3c be aa 3e 3f 03 14 6e 3f
       0.2008259 0.024322903 0.7447928 0.92999285
000350 b3 bd 29 3d 89 e8 97 be be 9d de be c4 f7 47 3f
       0.041440677 -0.29669598 -0.43479723 0.78112435
000360 e3 74 dc 3e a5 5a b5 3e 6d 37 89 be 02 06 5a bf
       0.43057927 0.3542072 -0.268001 -0.8516542
000370 84 0f bf 3e d9 6c 21 3f ad 99 33 bf cf c7 63 3e
       0.37316525 0.63056713 -0.70156366 0.2224419
000380 c2 16 d1 3e 44 7a 54 bf 37 03 11 bf 02 1b c8 3d
       0.40837675 -0.8299906 -0.5664553 0.09770776
000390 a1 72 2c 3f 81 13 45 3f 77 0d 3a 3f c9 af 51 3f
       0.6736241 0.76982886 0.72676796 0.8190885
0003a0 f3 57 ca be 57 9e 3a 3f 35 a4 33 3f ae f5 67 3e
       -0.39520225 0.7289786 0.70172435 0.22652313
0003b0 e6 75 73 bf ac 99 80 be 1f 6f 3b 3e cd 0e c3 be
       -0.95101774 -0.25117242 0.18304108 -0.3809723
0003c0 f0 1f 59 3f b3 7d 17 3f 3a 03 be 3e 60 c6 7f be
       0.8481436 0.59176177 0.37111837 -0.24978018
0003d0 d3 30 9d be 7b 7e 18 3e 94 6c 5e bf ac 8c 9c bc
       -0.30701312 0.14891998 -0.8688443 -0.019110046
0003e0 90 b9 c0 be ff 8a 5c bf 1d da 73 3f 64 a8 9b 3e
       -0.37641573 -0.8614959 0.9525469 0.3040191
0003f0 6b a5 ef be 4c a7 93 be 8e 8b 74 bd 4f a3 a9 be
       -0.4680589 -0.28838575 -0.059703402 -0.33132407

Operation_4_B f4 [20]
000000 3c 2c 3b 3f ba 1f 2a be 88 d2 f7 3e 6a 31 5c bf
       0.7311437 -0.16613665 0.4840281 -0.860129
000010 c5 ed 6a 3f 9a 6a c0 3e b7 4e f6 be bc 73 f1 3e
       0.9176906 0.3758133 -0.4810693 0.4715861
000020 9e ad 2e bd b6 98 3c 3f fb d5 b6 be 16 44 f2 3d
       -0.042646043 0.7367052 -0.3571013 0.118293926
000030 37 74 02 bf 8d 63 3b bf 7d c5 06 bf af 59 8a be
       -0.5095858 -0.7319878 -0.52645093 -0.27021548
000040 45 5c c1 3e f0 26 6b bf 07 af c4 3e 8d 97 f5 be
       0.3776571 -0.9185629 0.38414785 -0.47967187

Operation_5_W f4 [20, 20]
000000 d7 5b 41 3f 72 81 b6 3d 64 78 42 3f 05 64 71 3f
       0.7553076 0.089114085 0.7596495 0.9429324
000010 21 cb fd 3e 3d 8f a6 3d ef 12 57 3f 0f 5f e5 3e
       0.49569038 0.08132789 0.84013265 0.44799086
000020 f8 f9 6d bf f6 de 77 bd 88 67 26 bf a9 c6 1d 3f
       -0.9295955 -0.060515366 -0.65001726 0.61631256
000030 0c 09 ad 3e 87 cb 36 3f 53 ca 18 3f 41 53 ea 3e
       0.33795965 0.7140431 0.5968372 0.45766643
000040 e6 55 0b 3e 1b fb 1c bf 13 d7 0d bf 56 28 16 3f
       0.13606986 -0.61320657 -0.554063 0.586553
000050 e0 92 d3 bd 76 98 01 3f 3e 20 af be 1f db 36 bf
       -0.103307486 0.5062326 -0.34204286 -0.714281
000060 80 2e 1e 3e 88 75 67 3f c2 27 27 3e cc 01 5a bf
       0.15447426 0.90413713 0.1632376 -0.8515899
000070 6c c5 ca 3e 5c 64 5c be 76 0a 08 bf e2 f2 e3 be
       0.39603746 -0.21522659 -0.5314096 -0.44521242
000080 b8 2d 55 3f f8 9f 91 be a8 01 18 3c f1 bb 10 3f
       0.83272886 -0.2844236 0.009277739 0.56536776
000090 00 0e 3f 3f 78 35 d2 be 60 d0 0f 3f ac ea 59 3f
       0.7463074 -0.41056418 0.5617733 0.85123706
0000a0 1b cc a1 bd 1b 28 41 3f 76 5f 1e bf 2b bd 36 3f
       -0.07900258 0.7545182 -0.6186441 0.713824
0000b0 01 75 d0 be 9d 90 21 bf ef 89 65 3f 06 c0 0b bf
       -0.40714267 -0.6311129 0.89663595 -0.5458988
0000c0 68 a4 9e be d1 c5 12 bf 89 04 54 be 8b 20 50 bf
       -0.30984807 -0.57333094 -0.20704855 -0.81299657
0000d0 c6 ec c4 be d1 62 de be a3 44 0c 3f 0b 8c 7a bf
       -0.38461894 -0.43434766 0.5479223 -0.9786994
0000e0 e9 56 04 bf 77 27 33 bf b7 35 cb be ec 00 8a bd
       -0.51695114 -0.69982094 -0.3968942 -0.06738457
0000f0 c5 d5 31 bf b2 9c 49 3f 94 7f e5 3e a7 2b 06 3f
       -0.6946681 0.78754723 0.44823897 0.5241036
000100 a4 89 21 3f e8 38 19 bf dc 44 81 be 8a 1e 8a bd
       0.6310065 -0.5985246 -0.25247848 -0.06744106
000110 de 23 a0 3e b3 d5 0a bf cc f0 a7 be 1c 0b 63 bf
       0.31277364 -0.5423233 -0.328009 -0.88688827
000120 8c b7 2f bf 0e de 5e bf 12 c6 bf be 23 81 12 3e
       -0.68639445 -0.8705758 -0.37455803 0.14307074
000130 41 cf 43 bf 30 57 6a 3f 1d f0 ff be d3 94 68 3e
       -0.7648812 0.9153929 -0.4998788 0.22713022
000140 33 09 f3 be cf 2f 36 3f 57 7e 64 3f 01 41 05 3f
       -0.47467956 0.711667 0.8925528 0.52052313
000150 8a b5 4f 3f cc b0 87 3e e8 27 0b bf 8c da 4a 3f
       0.8113638 0.26502073 -0.5435777 0.79239726
000160 ea bb 24 bf 11 af 1d 3f 53 0c 9b bd 10 bb 5d bf
       -0.64349234 0.61595255 -0.0757071 -0.8661356
000170 2c 6c 53 bf b7 03 6f bf 11 06 43 bf e5 ec 7b 3f
       -0.8258693 -0.93365043 -0.7618113 0.9840835
000180 4e 50 23 bf 0e 87 ea 3e c7 bc 4e 3f b6 4f 37 be
       -0.6379441 0.45806164 0.807568 -0.17901501
000190 b7 4c 5a be a0 9b bb 3e b0 8e 51 3f 30 39 a6 bd
       -0.21318327 0.3664217 0.8185835 -0.081163764
0001a0 2c 77 37 3e 6d db f8 3e c6 36 a6 3d f2 e2 b4 3d
       0.17916554 0.4860491 0.08115916 0.08832349
0001b0 e7 57 79 3e 77 b9 6c be d8 e4 42 bf d3 09 ea 3e
       0.24349938 -0.23117624 -0.7613044 0.4571062
0001c0 21 0c fd 3e 63 91 40 3e 9d 40 c7 3e 73 4f ed 3c
       0.49423316 0.1880546 0.38916484 0.028968548
0001d0 01 1a 42 bf 6f 4e 16 bf a8 59 44 bf 4a 41 70 3f
       -0.7582093 -0.5871343 -0.76699305 0.93849623
0001e0 7d 26 4d 3f a2 34 3d be 96 f4 9b 3e 5b 65 6d be
       0.80136853 -0.18477109 0.30460042 -0.23183195
0001f0 1a 76 22 3f 8a 6e 46 be 32 4f e0 3d 73 a1 5e bf
       0.6346146 -0.19378105 0.10952605 -0.869651
000200 19 81 e9 bd 1c 80 0c 3f bb 0e 1b bf 9e 0a d1 bc
       -0.114015765 0.5488298 -0.6056935 -0.025517758
000210 1e 3e 90 3d 6a ae 2c 3f a2 ba f4 3e 44 0a 4b bf
       0.07043098 0.67453635 0.4779864 -0.7931254
000220 20 ac 0c bf eb 62 ac 3e a2 f3 aa 3e 9e 84 9d 3e
       -0.5495014 0.33669218 0.33389002 0.3076524
000230 c8 c1 99 3d 7b 7f 67 bf e8 0d 18 3f 1c ff 48 bf
       0.07507664 -0.90428895 0.5939622 -0.78514266
000240 ee ca f2 3d b3 05 4f 3f 71 72 9e be 53 cb 12 3f
       0.11855112 0.8086807 -0.30946687 0.573415
000250 4a 4e c6 3e 9d aa 9a bd 70 25 0a 3e a8 e6 44 3f
       0.38731605 -0.07552073 0.13490844 0.76914454
000260 2a 2d 55 be c8 a9 cb be e1 30 c6 bd 3b f1 6c 3e
       -0.2081801 -0.3977797 -0.09677292 0.23138897
000270 79 7e 3f 3f 3d 26 d5 be 96 2e a4 be 50 95 0a 3f
       0.74802357 -0.41630736 -0.32066792 0.5413408
000280 19 46 41 bf cd ec 05 bf e2 4c 35 3f 31 63 b6 bd
       -0.75497586 -0.52314454 0.7082044 -0.08905638
000290 1b 35 22 3f f4 d3 6f bf 3e 6e 3c 3f 16 e4 0b 3f
       0.6336228 -0.9368279 0.73605716 0.54644907
0002a0 3d fd 26 bf 50 ec 50 bf e0 f1 0f 3f 7f 61 5a be
       -0.6523016 -0.81610584 0.56228447 -0.21326254
0002b0 a3 ae 15 3f ef 64 9b be a1 18 9d be 8c 78 0a bf
       0.584696 -0.30350444 -0.30682853 -0.5409019
0002c0 85 0e 0a 3f ff 7c f3 bd f8 06 a3 be d0 b8 2d be
       0.53928405 -0.118890755 -0.31841254 -0.16965032
0002d0 cd 2c 40 3f a4 da 78 bf e8 47 4b 3f 1b 9c 34 bf
       0.7506836 -0.9720862 0.79406595 -0.705507
0002e0 2c 08 55 bf 88 a5 1e be 09 0f 16 3f 28 70 3c 3d
       -0.83215594 -0.15492833 0.5861669 0.046005398
0002f0 d9 10 2a 3f 7e 5d 40 bf fb 6c 7d be 61 1b 49 3f
       0.6643196 -0.7514266 -0.24748604 0.785574
000300 c9 99 08 bf 18 65 52 bf 33 e0 85 bf 93 4e 19 be
       -0.5335966 -0.82185507 -1.0459045 -0.1497138
000310 83 07 44 3f 9e ad 3f 3f 30 ed 16 3f fc 0a 33 bf
       0.7657396 0.74874294 0.5895567 -0.69938636
000320 19 9f ac bd 4e 47 72 be 0b d8 07 bf bd 5c d3 be
       -0.08428783 -0.23660013 -0.5306403 -0.4128169
000330 70 69 32 3f 6c 6e a1 3e 33 a4 89 3e 38 4b 72 bf
       0.69692135 0.31529558 0.26883087 -0.94646025
000340 9e f1 2d bf 13 a0 60 3f d6 eb cd be 1b 07 cd 3e
       -0.67946804 0.87744254 -0.4021899 0.40044484
000350 37 60 c6 be ee 9b 5e be 06 23 80 be 89 60 4c bf
       -0.3874528 -0.2173917 -0.2502672 -0.798348
000360 5f 08 5c bf 9c bf fd 3d c5 b8 e2 3d 91 29 3a bc
       -0.85950273 0.12390062 0.11070398 -0.011362449
000370 63 d3 51 3f cf 71 50 3f 01 b9 62 3e ad e7 74 be
       0.81963176 0.8142366 0.22140886 -0.23916502
000380 d9 0f 38 bf 36 e9 81 bf 07 c5 f9 3e 0f bc 6e 3f
       -0.7189918 -1.0149295 0.48783132 0.93255705
000390 14 a6 33 bf f5 15 99 3d a4 a8 41 3f 49 13 56 3f
       -0.7017529 0.07474891 0.7564795 0.83623177
0003a0 63 fb f5 3e cd af 2d 3f f9 cd 4f be 91 df 22 bf
       0.48043355 0.67846376 -0.20293416 -0.63622385
0003b0 83 ed 5e bf 7e 70 19 bf e0 9c 93 3e ce 70 33 3f
       -0.87081164 -0.59937274 0.28830624 0.70094
0003c0 b5 b6 bc be 27 1e c9 be 76 e8 f2 be 28 5e 59 3f
       -0.36858144 -0.39280817 -0.4744298 0.84909296
0003d0 d5 c3 32 bf 0e c5 33 bf cc 20 c7 be 02 09 03 bf
       -0.69830066 -0.70222557 -0.3889221 -0.5118562
0003e0 3c 24 07 3f 18 af 7e 3f cb b2 f1 3e 6e 2c c3 bc
       0.52789664 0.9948592 0.4720672 -0.023824897
0003f0 fc ae b8 bd 81 3b 74 bf be c6 d5 be c8 a9 1e 3f
       -0.090177506 -0.95403296 -0.4175319 0.61977816

Operation_5_B f4 [20]
000000 8a e6 3b 3e be 0f 0c 3f 9c fb 22 3e 3c 59 bc 3e
       0.18349662 0.5471152 0.15916294 0.3678683
000010 48 e0 13 be 53 03 e5 be 4f b8 74 3f 29 b0 6c 3f
       -0.14441025 -0.447291 0.9559373 0.924563
000020 1d ca e9 3e 33 0c e8 3e 50 95 94 3e 49 b0 54 bf
       0.45662013 0.45321807 0.29020166 -0.8308149
000030 fe cf 64 3d e0 01 34 3f e4 04 14 bf fc 17 28 3f
       0.05586242 0.7031536 -0.5781996 0.656616
000040 32 51 16 bf 81 31 31 bd 94 6c cb be e1 40 9e be
       -0.58717644 -0.0432601 -0.39731276 -0.30908874

linear_6_W f4 [1, 20]
000000 18 48 08 38 50 cc 8f bc 2b 51 e1 3e 9e 82 7d be
       3.249207e-05 -0.017553478 0.4400724 -0.24756858
000010 a6 fd a0 3c 1f 00 9c bc 2e 15 3b bc c6 38 dd 3b
       0.019652199 -0.019043026 -0.011418624 0.0067511527
000020 b0 2c a4 bc f6 dd 68 3b 60 9d 9d 3c a7 0e c3 bb
       -0.02004084 0.003553269 0.019240081 -0.0059526744
000030 e5 87 7a 3b 29 92 06 bf 0c 6a 1e bc d2 60 c5 bc
       0.0038227972 -0.5256677 -0.009668838 -0.02409402
000040 57 fb bc 3c a2 95 ba bc 00 3a 10 3c ef 54 ff bb
       0.023069067 -0.022776429 0.008802891 -0.0077921073
