nnv0.1/examples/Submission/ARCH2019/Acrobot/controller.onnx (onnx, 2744 bytes, 7 tensors)

input_AvgImg f4 [1, 1, 1, 6]
0	0x3f800000	1.0
1	0x3f800000	1.0
2	0x3f800000	1.0
3	0x3f800000	1.0
4	0x3f800000	1.0
5	0x3f800000	1.0

Operation_1_W f4 [15, 6]
0	0xbf21195f	-0.6292934
1	0x3e88fb2a	0.26754123
2	0x3ea76a49	0.32698277
3	0x3ebcb8d0	0.3685975
4	0x3f1c688c	0.61097026
5	0x3eeac70e	0.45854992
6	0xbf119e98	-0.5688262
7	0xbe1f1f57	-0.15539299
8	0xbdfa12a7	-0.12210589
9	0xbe80ac6d	-0.2513155
10	0xbe5d9b79	-0.2164134
11	0xbe2009a5	-0.15628679
12	0xbf15241c	-0.58258224
13	0x3e82e5ea	0.25566036
14	0x3e303921	0.17209293
15	0x3e8d413e	0.27588838
16	0xbedd0d79	-0.4317434
17	0xbe7ecea1	-0.2488351
18	0xbef50a9b	-0.47859654
19	0x3e036ae2	0.12833741
20	0xbdbcb611	-0.09214414
21	0x3c649d07	0.013953454
22	0x3d040f94	0.03224142
23	0x3cf4c61d	0.029879624
24	0xbeab3656	-0.33439893
25	0x3da2762c	0.07932696
26	0xbe2854d6	-0.16438612
27	0x3e23d9cc	0.16001052
28	0xbe71365b	-0.23555891
29	0xbdec75b4	-0.115458876
30	0xbef40171	-0.4765735
31	0xbc7de734	-0.015497018
32	0xbe01d3b7	-0.12678419
33	0x3bb83495	0.0056215026
34	0xbee589cf	-0.44831702
35	0xbb672d72	-0.003527489
36	0xbc6b8710	-0.014375463
37	0x3eb05860	0.34442425
38	0xbf8a937b	-1.0826257
39	0x3e74f3f5	0.23921187
40	0xbef2e9a8	-0.4744389
41	0xbdbb573d	-0.09147499
42	0xbee96d39	-0.45591143
43	0x3d7aea0e	0.06125837
44	0xbe680577	-0.22658335
45	0xbe821767	-0.2540848
46	0x3a39e58d	0.00070913957
47	0xbdadcb2c	-0.084860176
48	0x3ea27307	0.31728384
49	0xbe225262	-0.15851739
50	0x3b659831	0.003503334
51	0xbe343442	-0.1759806
52	0xbea2dfa3	-0.31811246
53	0xbdb0f34f	-0.086401574
54	0xbe4c3836	-0.19943318
55	0xbeaf4d74	-0.3423878
56	0xbf14e4db	-0.58161706
57	0xbe2e708d	-0.17035122
58	0x3ec64488	0.3872416
59	0x3ea23502	0.31681067
60	0xbd8dff6b	-0.06933483
61	0x3e1f0356	0.15528616
62	0xbea7ce3a	-0.32774526
63	0xbdaff981	-0.08592511
64	0xbf0e6055	-0.5561574
65	0xbe84520a	-0.2584384
66	0x3e4acfba	0.19805804
67	0xbef82ff4	-0.48474085
68	0xbe7dab33	-0.24772339
69	0xbe63b01d	-0.2223515
70	0xbe58c5f1	-0.21169259
71	0xbe215d1d	-0.15758176
72	0x3e0c7cd9	0.137195
73	0x3eae1086	0.3399698
74	0xbed3baed	-0.4135355
75	0xbe610e12	-0.21978024
76	0xbe8ea5c3	-0.2786084
77	0xbe451e7d	-0.19249912
78	0xbe44e6dc	-0.19228691
79	0xbec450e8	-0.38342977
80	0xbe4fd6dc	-0.20296806
81	0xbed89a3f	-0.4230518
82	0xbdf84546	-0.12122588
83	0xbdc7663f	-0.09736299
84	0xbf86ca07	-1.0530404
85	0x3e64b9b8	0.22336471
86	0x3f07d755	0.53062946
87	0x3e6ca851	0.23111083
88	0x3f14aebc	0.58079123
89	0x3f0a78e2	0.540907

Operation_1_B f4 [15]
0	0x3df4cf99	0.119536586
1	0xbe6bb68c	-0.23018855
2	0xbe6c54b9	-0.23079194
3	0xbe8f3826	-0.27972525
4	0xbed1e60f	-0.40995833
5	0xbeffb4dc	-0.49942672
6	0xbefc3de9	-0.49265984
7	0xbf0c6b0a	-0.5485083
8	0xbe966c97	-0.29379722
9	0xbe99207e	-0.29907602
10	0xbec3dae4	-0.38252938
11	0xbe4d04a3	-0.200213
12	0xbea3a6b4	-0.31963122
13	0xbe753684	-0.23946577
14	0x3d683860	0.05669439

Operation_2_W f4 [15, 15]
0	0xbf11a43a	-0.56891215
1	0xbcc92340	-0.024552941
2	0xbe6704cb	-0.22560422
3	0x3eb837fc	0.35980213
4	0xbd78bb80	-0.06072569
5	0xbec31bb8	-0.38107085
6	0x3c8be41f	0.01707655
7	0xbe90911e	-0.28235716
8	0xbe269b47	-0.16270171
9	0xbebffe9e	-0.37498945
10	0x3ee63af0	0.4496684
11	0xbed77d5c	-0.4208783
12	0xbf15db93	-0.5853817
13	0xbe9be476	-0.3044774
14	0x3e71295f	0.23550938
15	0xbdf692bf	-0.12039708
16	0xbede89e9	-0.43464592
17	0x3e90b116	0.28260106
18	0x3eee4e66	0.46544188
19	0xbe579339	-0.21052255
20	0x3d6b08b6	0.057381354
21	0xbead669a	-0.3386734
22	0xbea7cbca	-0.32772666
23	0xbeb6663a	-0.35624868
24	0xbdb9c80f	-0.09071361
25	0x3d2284b7	0.039677348
26	0xbe786cd2	-0.24260262
27	0x3d03184c	0.032005593
28	0x3e668b68	0.22514117
29	0x3e21e929	0.158116
30	0xbeb6ddd3	-0.35716113
31	0xbe031613	-0.1280139
32	0xbdc7a265	-0.09747771
33	0x3daf540b	0.08560952
34	0x3e897711	0.26848653
35	0x3e96e608	0.29472375
36	0xbd70cb52	-0.05878765
37	0xbeec3f6c	-0.46142137
38	0xbd27922f	-0.040910896
39	0xbe48c9ff	-0.19608305
40	0xbe981dfb	-0.29710373
41	0xbe0d8c56	-0.13823065
42	0xbc794bbd	-0.015215811
43	0xbd78b63e	-0.060720675
44	0xbef7a0fb	-0.48365006
45	0xbf01db11	-0.50724894
46	0xbeab8e61	-0.33507064
47	0x3de0a8ac	0.109696716
48	0xbe4687f4	-0.193878
49	0x3ebb1ea7	0.36546823
50	0xbe063355	-0.13105519
51	0xbe609fb5	-0.21935923
52	0x3e59992b	0.21249835
53	0x3d0cb749	0.03435448
54	0x3d464d70	0.048413694
55	0x3eaac71c	0.33355033
56	0x3e599a1c	0.21250194
57	0xbeab63e2	-0.33474642
58	0xbe2eac7b	-0.17057984
59	0xbe38efa9	-0.18060173
60	0xbd4c69d4	-0.049905613
61	0xbeaa587c	-0.33270633
62	0xbee915f4	-0.4552456
63	0xbe9ba66c	-0.30400407
64	0xbe816c74	-0.25278056
65	0xbd9593d1	-0.07303584
66	0x3dc7f78d	0.097640134
67	0xbdeb0198	-0.11474913
68	0xbdf86fbd	-0.121306874
69	0x3da60edf	0.08108305
70	0xbec2e01c	-0.38061607
71	0xbebafabe	-0.36519426
72	0xbd425262	-0.047441848
73	0x3ea3e2ca	0.32008964
74	0xbed909cc	-0.42390287
75	0xbe90e249	-0.28297642
76	0xbe7eba27	-0.24875699
77	0x3ebf5a0d	0.3737339
78	0xbe42ce1c	-0.19023937
79	0xbe2832a1	-0.16425563
80	0xbe4cf396	-0.20014796
81	0xb85fd040	-5.336129e-05
82	0xbebb70b5	-0.36609426
83	0xbed736de	-0.42034048
84	0x3ea3e417	0.32009956
85	0x3e906552	0.282023
86	0xbe404d7c	-0.18779558
87	0x3ee6f9a3	0.45112333
88	0xbe33babd	-0.17551704
89	0xbef06029	-0.46948364
90	0xbee737b9	-0.451597
91	0xbe114d5d	-0.14189668
92	0xbdc31b3e	-0.095266804
93	0x3c5d2638	0.013497882
94	0xbf3ab9cc	-0.72939754
95	0xbe141544	-0.14461237
96	0x3df516d3	0.11967244
97	0xbdf5152d	-0.119669296
98	0xbf04d80c	-0.5189216
99	0x3c8e0644	0.017336972
100	0xbcb0541f	-0.021524487
101	0xbdc24fcc	-0.09487876
102	0xbe268110	-0.16260171
103	0xbcf54d95	-0.02994422
104	0xbed65a33	-0.41865692
105	0xbe28f01e	-0.16497847
106	0x3e9a6ca6	0.30161017
107	0x3d382ba2	0.044963486
108	0xbeb4b494	-0.3529402
109	0x3e816857	0.25274917
110	0xbe63e790	-0.22256303
111	0xbe94a372	-0.2903095
112	0x3eafde39	0.3434923
113	0xbf0556ba	-0.5208546
114	0xbea02677	-0.31279346
115	0xbe44aa60	-0.19205618
116	0xbd8dde28	-0.069271386
117	0x3df55dac	0.11980757
118	0x3ccb5c1f	0.0248242
119	0x3e272504	0.16322714
120	0x3e4390b0	0.19098163
121	0x3d83b680	0.064312935
122	0xbea88c78	-0.3291967
123	0x3df33b46	0.1187654
124	0x3ec127d2	0.37725693
125	0x3e588772	0.21145418
126	0x3e4138e1	0.18869354
127	0xbecaa2ac	-0.39577234
128	0x3ddd17d6	0.10795562
129	0x3dfccaa3	0.123433374
130	0x3dfb4d59	0.12270612
131	0x3c692092	0.014228957
132	0xbc85aa10	-0.016316444
133	0xba5be59d	-0.0008388402
134	0xbe618de3	-0.22026782
135	0xbe93ef2a	-0.28893405
136	0xbe99500c	-0.29943883
137	0xbec97340	-0.3934574
138	0xbe0ca717	-0.13735615
139	0xbecb7071	-0.39734223
140	0xbca66e1a	-0.020316172
141	0xbe92ee9d	-0.28697672
142	0xbe381830	-0.17977977
143	0x3e3cb992	0.18430164
144	0xbe3ffd4f	-0.18748973
145	0x3e660527	0.22462903
146	0xbf322128	-0.6958184
147	0x3e2bd0d4	0.1677888
148	0xbe89c609	-0.269089
149	0xbec541b7	-0.385267
150	0xbee28fdb	-0.44250378
151	0xbf221bf2	-0.6332389
152	0xbe16e134	-0.14734346
153	0xbe8b12d6	-0.27162808
154	0xbe3406a6	-0.17580661
155	0xbe813e61	-0.25242904
156	0xbe59130c	-0.21198672
157	0xbe445512	-0.19173077
158	0xbec7de11	-0.3903661
159	0xbe940a4c	-0.28914106
160	0x3e0c75fc	0.13716882
161	0xbe210442	-0.1572428
162	0x3de92dff	0.11385726
163	0xbe7a157e	-0.24422261
164	0xbf7486ac	-0.9551799
165	0xbe1b449c	-0.15162891
166	0x3e018305	0.12647636
167	0xbdfd1212	-0.12356962
168	0x3dd13276	0.10214703
169	0x3dc1fba1	0.094718225
170	0x3e10a0c3	0.14123826
171	0xbf1c9d5f	-0.6117763
172	0xbe5ae3ab	-0.21375911
173	0xbeed652a	-0.46366245
174	0xbd0c0734	-0.034186557
175	0x3e83764d	0.25676194
176	0xbefd0a5e	-0.49421972
177	0x3dc0f836	0.094223425
178	0x3d358af0	0.044321954
179	0x3e099f44	0.13439661
180	0xbe9ae65c	-0.30253875
181	0x3e96e842	0.29474074
182	0x3d89231b	0.06696149
183	0x3e6e2fcd	0.23260422
184	0xbe01c8b8	-0.12674224
185	0xbe9108e4	-0.28327096
186	0x3e5a8c85	0.21342666
187	0xbdd24aac	-0.10268149
188	0xbd9e63ae	-0.07733856
189	0xbd6980f0	-0.05700773
190	0xbee80e11	-0.45323232
191	0xbef958e3	-0.48700628
192	0xbca161d2	-0.019699965
193	0x3d80aea5	0.06283311
194	0xbcaab324	-0.020837374
195	0xbe4e2603	-0.20131688
196	0xbca81a6d	-0.020520413
197	0x3e2568cb	0.16153257
198	0xbd467ecb	-0.048460763
199	0x3e8a63ca	0.27029258
200	0xbdf27c5b	-0.11840125
201	0xbda0d5f5	-0.07853309
202	0xbe8219b7	-0.25410244
203	0xbe18b0cd	-0.14911194
204	0xbcdce198	-0.02696304
205	0xbedb49f2	-0.42829853
206	0xbea65c73	-0.32492408
207	0x3e4ef075	0.20208915
208	0x3e05c98c	0.13065165
209	0xbda21314	-0.07913795
210	0xbe3db1d2	-0.18524864
211	0x3e3b42be	0.18287179
212	0xbe6eb2e9	-0.23310436
213	0xbe2dc181	-0.16968347
214	0xbea1f30c	-0.31630743
215	0xbe017125	-0.12640817
216	0x3d2f6eb9	0.042830203
217	0x3e6d19b8	0.23154342
218	0xbeac4a6e	-0.33650535
219	0xbdacc93f	-0.08436822
220	0xbdc68242	-0.096928135
221	0xbf123317	-0.57109207
222	0xbe10452d	-0.14088888
223	0x3ea05e3b	0.31321892
224	0x3d8d3178	0.06894201

Operation_2_B f4 [15]
0	0xbde24b68	-0.11049539
1	0xbe2710dc	-0.16315025
2	0xbd822284	-0.063542396
3	0xbe7d5262	-0.24738458
4	0xbda7f18f	-0.082003705
5	0x3e97bdf3	0.29637107
6	0xbb9c1f5d	-0.004764481
7	0xbe203060	-0.15643454
8	0x3f5bb6c2	0.8582574
9	0xbdf24436	-0.118294165
10	0xbd9c5916	-0.07634179
11	0xbe0f838c	-0.14015025
12	0x3d399293	0.0453058
13	0xbe80d0d7	-0.25159332
14	0xbdb900c2	-0.09033348

linear_3_W f4 [3, 15]
0	0x3e6b12ae	0.22956344
1	0x3dd6efb2	0.10494937
2	0xbeeb03fa	-0.4590147
3	0x3ca05f3a	0.019576658
4	0xbe0bce0c	-0.1365282
5	0xbeea6c31	-0.45785668
6	0xbe89b179	-0.26893213
7	0xbf071079	-0.5275951
8	0xbe41c844	-0.18924052
9	0xbede0629	-0.43364075
10	0xbe283235	-0.16425402
11	0xbe09d589	-0.13460363
12	0xbecd145e	-0.400546
13	0x3c90963c	0.017649762
14	0xbe5a9791	-0.2134688
15	0xbe6f132c	-0.23347157
16	0x3e067731	0.13131405
17	0x3b706fdd	0.003668777
18	0xbd44248d	-0.04788642
19	0xbeabb6a2	-0.33537775
20	0x3e20d52d	0.1570632
21	0xbcddc0bf	-0.027069448
22	0xbed03a75	-0.406696
23	0x3e79030e	0.24317572
24	0xbeb10f37	-0.3458192
25	0xbc93d87c	-0.018047564
26	0x3c4f9030	0.012668654
27	0xbefd48d0	-0.49469614
28	0xba2ff13f	-0.00067116687
29	0x3e24b088	0.16082966
30	0x3d10333e	0.03520512
31	0x3d2aff45	0.04174735
32	0x3e6e3dc1	0.23265745
33	0x3e66fc6f	0.22557233
34	0xbcc6c759	-0.024264978
35	0xbc985573	-0.018595433
36	0x3dcedcfd	0.10100744
37	0x3dfa305f	0.12216257
38	0xbf62345e	-0.88361156
39	0xbefbb552	-0.49161774
40	0x3dd18ac5	0.10231546
41	0x3e588ec7	0.21148215
42	0xbbbe2b04	-0.0058034677
43	0x3dc05ff7	0.09393304
44	0x3e8130ed	0.2523264

linear_3_B f4 [3]
0	0xbf1f1637	-0.6214327
1	0xbbdebbda	-0.006797296
2	0xbe44a5e4	-0.19203907
