code/nnv/examples/NNV2.0/Submission/CAV2023/NNV_vs_MATLAB/rl_benchmarks/onnx/lunarlander.onnx (onnx, 20632 bytes, 6 tensors)

q_net.0.weight f4 [64, 8]
00000000: ed63 5f3e 16d0 6c3e addc 0fbe 6b86 ca3e
00000010: 636b c33e 29ac 973e 89b6 f2bd c247 c43e
00000020: 658a a73e 0658 38be 9b9b 6dbd 2879 1cbf
00000030: e7ae 563e 1693 60be f568 933e 46c6 aabd
00000040: d3e6 c63d 8cb0 ea3d 950f 3bbe 9c5a 09bf
00000050: 9a87 1f3f 079b 4d3f e97e 723e 60bb 35be
00000060: 270c 863d 3e6d ab3e 1918 80bd 4ff8 f6be
00000070: c580 bbbd 25eb 17bf 4547 07be c12d adbd
00000080: 9a96 0cbe b226 ce3e 3fac 103d c834 e7be
00000090: 6058 a53e f33f 353d f78c 143d 8a1e 533c
000000a0: 7e48 d23d 4024 98be fb8b 2b3d f04e 443e
000000b0: 9d41 4dbe 1538 21bf 117d 3b3d 4dd5 a3be
000000c0: 16b2 c93e ce80 ffbe 39e2 c83c a085 4dbe
000000d0: 5607 4cbe e26f 04bf 26a3 453e dcc9 88bd
000000e0: fc10 dbbe 4be4 b53e e061 333d 1986 333f
000000f0: 65af b3bd a179 c8bc 3afe 803e 7ba9 a4be
00000100: 2eb6 c1be fd1a 7f3d ae87 d3bd 3aca e4be
00000110: 678b f7be 401a 3abf f41a 833e 00a0 cdbe
00000120: bd28 a73e 9779 84bb 1e86 a13e 772f 1d3a
00000130: ede9 a5be 50e1 38bf deac 56be de8c db3d
00000140: cfc9 c23e 147d 993e b1b0 ed3e 6d91 ff3c
00000150: 89cd bdbe b942 debe 51b6 6ebe a6d9 34be
00000160: 15e7 a63d 60b7 053e d25a ff3e 7c2a d43d
00000170: bc93 babe 99be 55bf 6675 bcbb 278f 10be
00000180: 0024 f6be 7e5b 3bbe 139b fabe 9cff 753d
00000190: cbcd 003f ba04 e73e 6063 bbbd f7cf 823d
000001a0: 88c3 0bbf 386a a73e b5b9 abbe 6138 6e3e
000001b0: 0915 263e 0027 4c3f 8e27 bd3e 71c3 18be
000001c0: cbdf 85be d825 68bc 090d eabe 7d1b b53e
000001d0: eb47 9c3d 0f71 353f 8e35 633e c9fd 48bc
000001e0: eaa6 2a3e 1c11 e0be 2355 863e 8b53 a23d
000001f0: 5d3e fbbd bdf7 86be bf29 893e b961 a7be
00000200: b24f 4f3e 4c52 a93e 3449 d93e 2863 1ebd
00000210: c929 c0bd 1ab5 a43e 59e5 ac3c e5ec 993d
00000220: 973f 20be 5bfb 8abd 0b31 d7be 6ba7 223e
00000230: ba09 0a3f afcc ee3d 72c0 60bd d92f 8ebc
00000240: 19d5 393e bb5e 963e cf10 41bd 2e6e 293f
00000250: 68ea 993e a7b5 16be 7e98 9c3e 18f5 bb3e
00000260: a4c1 2dbe 86a0 4a3e df4a b83d d3d1 103e
00000270: aca7 fcbe e6e6 0abf c072 b13c 8656 4cbe
00000280: 43f5 683d db66 863c 3e40 b0be d614 c33e
00000290: 8a29 f53e 8131 ae3e 70a7 483e 61b8 813e
000002a0: 29fb e93d e692 a33e fd7a 16bd c97a 8bbe
000002b0: 1b97 22be b163 293e be6a 4a3e a248 04bf
000002c0: 73e4 963e 9eec 9e3e f236 683e 5cc2 5e3e
000002d0: 0445 afbe e905 64bf 781a d1bd 4621 0cbd
000002e0: bda5 8c3e b15e c5be e826 4c3c 379d 1abe
000002f0: 774f 3cbe 169c 893d b0ae db3e 1950 6b3e
00000300: 5b0f 9bbe 483d 023e bc05 72be b36a c8bd
00000310: d3ae ac3e 1864 273f 8754 ac3e 4d5f b8bd
00000320: e6f3 043e da25 60bc c60a c0be c411 dfbe
00000330: 4702 50bd 80cb 1b3e 62d7 37be 163c a0bc
00000340: 3176 01bf 39fd b3bc b544 c5be 4fd6 483e
00000350: 739d ac3e bc11 fc3d 8a56 8dbe 6825 2dbe
00000360: 7033 d1bc 3930 3b3e 9d8c 2abf d8b2 a73e
00000370: 247e 36bd 8239 47bd 602d 753e 2a2c 99be
00000380: 5a08 593c 8def ca3b 144f 943e 98cf 2abf
00000390: 1e31 8c3e 7921 82bc e7e1 41be 74c9 a8be
000003a0: 608e de3b 3116 ca3e 2436 043f 9e10 84bd
000003b0: 79e4 56be afe4 de3e 61e1 853e 1802 b33e
000003c0: eec7 8c3e 3b3a 64bd 2bf5 cc3d 0887 5a3d
000003d0: 3910 25bf 4ffa 24bf 35b1 8bbe ad17 01be
000003e0: dd49 243d 41c3 763e 1c98 e23e aee3 4e3e
000003f0: ef03 73be c998 ddbe f93b b63d 7844 27be
0.21815462 0.23126253 -0.14049025 0.39555678 0.38167867 0.29623535 -0.11851222 0.38335997
0.32722774 -0.18002328 -0.058009725 -0.6112237 0.20965157 -0.21931109 0.28791013 -0.08338599
0.09711995 0.11459455 -0.18267663 -0.53653884 0.62316287 0.8031468 0.23681225 -0.17747259
0.065452866 0.33481783 -0.06254596 -0.4823632 -0.0915542 -0.5934318 -0.13210781 -0.084559925
-0.13729325 0.40263897 0.035320517 -0.45157456 0.32293987 0.04425044 0.036267247 0.012885699
0.10267733 -0.29715157 0.041881543 0.19170737 -0.2004456 -0.629762 0.04577357 -0.31998673
0.3939368 -0.49902958 0.024521934 -0.20070505 -0.19924673 -0.5173322 0.19300517 -0.066791266
-0.42786396 0.35525736 0.043794513 0.7012649 -0.08773688 -0.02447206 0.2519396 -0.32160553
-0.37834305 0.062281597 -0.10328613 -0.44685537 -0.48348543 -0.72696304 0.256065 -0.40161133
0.32648268 -0.004042815 0.31547636 0.00059961475 -0.32405034 -0.722188 -0.20964381 0.10720228
0.38044593 0.2997824 0.46423867 0.031197274 -0.37070873 -0.4341028 -0.23311736 -0.17661151
0.08149544 0.13058233 0.49873978 0.10359666 -0.36440837 -0.83493954 -0.0057512997 -0.14117108
-0.4807434 -0.1829662 -0.48946437 0.06005822 0.50314015 0.45120794 -0.09149814 0.063873224
-0.5459523 0.32698226 -0.3354012 0.23263694 0.16218962 0.7974701 0.3694424 -0.14918305
-0.26147303 -0.014169179 -0.4571307 0.35372534 0.07630905 0.7087564 0.22188398 -0.012267538
0.16665235 -0.43763053 0.2623683 0.07926091 -0.12267754 -0.26360884 0.26789662 -0.32691744
0.20245245 0.330706 0.42438662 -0.03866878 -0.0938297 0.3216942 0.021105455 0.07515887
-0.15649258 -0.067862235 -0.42029604 0.15884177 0.5392109 0.11660134 -0.05487103 -0.0173568
0.18147697 0.2936915 -0.04713517 0.66183746 0.3006165 -0.14717732 0.30585092 0.3671043
-0.169684 0.19787797 0.089986555 0.14142542 -0.49346673 -0.54258573 0.021661162 -0.19954881
0.056874525 0.016406467 -0.34424013 0.38101834 0.47883254 0.34022143 0.19595122 0.25335982
0.11424858 0.31948012 -0.036738385 -0.27242115 -0.15877955 0.16541936 0.19767281 -0.5167333
0.29471168 0.310399 0.2267721 0.2175383 -0.34232342 -0.8907152 -0.10210127 -0.03421142
0.27470198 -0.38548806 0.012460448 -0.15099035 -0.18389688 0.06719224 0.42906713 0.22979774
-0.30285153 0.1271869 -0.23635 -0.09785976 0.3372713 0.65387106 0.3365824 -0.09002552
0.12983665 -0.0136808995 -0.3750822 -0.43568242 -0.05078342 0.15214348 -0.17953256 -0.019559901
-0.5057097 -0.021971332 -0.38528982 0.19613002 0.33713874 0.1230807 -0.27605087 -0.169088
-0.025537223 0.18280114 -0.6662081 0.32753634 -0.04455389 -0.048638828 0.2394309 -0.29916507
0.01324662 0.0061931075 0.28966582 -0.6672301 0.27381223 -0.015885102 -0.18933831 -0.32966197
0.0067918748 0.39470056 0.5164511 -0.06448482 -0.20985593 0.43533847 0.26148513 0.34962535
0.27496284 -0.055719595 0.100076996 0.053351432 -0.6447788 -0.6444444 -0.27283636 -0.12606688
0.040109504 0.24097921 0.44256675 0.2020404 -0.2373197 -0.43280628 0.088981576 -0.16334713

q_net.0.bias f4 [64]
00000000: ca89 033e 8793 d53e 778a 0f3e e65e 0cbe
00000010: b98d 383e 962d fbbd 25e1 92bd 6252 cb3d
00000020: bedf e23e d3a9 09be da90 abbd add5 ad3d
00000030: 6b9e 583d 90a2 c5bc dc5b be3e f1fd 1b3e
00000040: f6a6 a83e 1fd2 693e 915e 77bd a328 54bd
00000050: 1181 b43e 6902 c239 28c6 cebd 77b3 903c
00000060: 8f46 3abe 5b45 ce3e 92e4 173e 1e83 19be
00000070: 7baf 8e3d 090a ae3e 3c99 e73d 642e 723d
00000080: 9347 fc3e f0e4 b33e c9f4 96be 74da c03e
00000090: 72e2 8b3e e220 16be fbe0 be3e 0999 c43e
000000a0: e5a8 653e 4d03 51be 921e c93e d949 58bd
000000b0: 703e bd3e b565 4cbe ffbd 49bd 6d8f 2e3c
000000c0: 5d5d 2e3e 4a5e 2f3e 24b2 3dbe ae45 9a3e
000000d0: 4445 f1bc c593 883e a492 66be 995e a0be
000000e0: 000a 0e3e bd9f 273e 39c0 b13e 7409 b73e
000000f0: 25ec 203e b6fa c73e e11e 12be d2db 3bbe
0.12845531 0.41714117 0.14017664 -0.13708076 0.18022813 -0.12264554 -0.07171849 0.09927823
0.44311327 -0.13443689 -0.083772376 0.08488021 0.052885454 -0.024125367 0.37179458 0.1523359
0.3293988 0.22834061 -0.06039292 -0.051796567 0.3525472 0.0003700436 -0.10096389 0.0176637
-0.18190978 0.4028729 0.14833286 -0.14991423 0.06967064 0.3399203 0.11308524 0.059126273
0.49273357 0.35135603 -0.2948363 0.37666667 0.27321202 -0.14660981 0.3728102 0.38398007
0.2242771 -0.20411415 0.39281136 -0.0528048 0.369617 -0.19960673 -0.04925346 0.010654313
0.17027803 0.17125812 -0.18524987 0.30131286 -0.029451974 0.2667524 -0.22516876 -0.31322172
0.13871002 0.16369529 0.34716967 0.357494 0.15715082 0.39058465 -0.14269592 -0.18345574

q_net.2.weight f4 [64, 64]
00000000: 860f 233d 97ec 4fbd 4dd1 43be 40c4 0d3e
00000010: 2dac bfbd 520d 8c3e 065f 1f3e 8e4e e93d
00000020: b62c ca3d 5235 943e 1705 1f3e 8a3a b13e
00000030: f43f a8bd 83d6 993d 5e1a c4bd 6df0 2f3e
00000040: 24f3 51bc fef5 e33d 0609 36bd 1b2d 353e
00000050: f9a1 563d 6d81 5ebd f244 e43d 3ee1 c03d
00000060: a9b8 80bd daa3 8dbd d0cc 783d f952 33be
00000070: 2648 8abd f154 06bd a194 a93e 122d 9e3d
00000080: 02b1 d73d f79f 653e 2610 2b3e 620a f0bc
00000090: b050 d5bd c95c 963c e5e8 923e d2c0 0abe
000000a0: 4e9c 963e 748a 903c 07dd cabb 43e6 a8bc
000000b0: 41de 153e b904 d33e 06af c6bd 821f cdbd
000000c0: 94aa 92bd 398a b13b 3c74 d63d ee14 19be
000000d0: 2cc8 223e 9ce0 073d 497f 50bc acd5 113e
000000e0: 6eac febd a04a 743d 0769 763e d4a9 05be
000000f0: f3b9 ef3c 3b8b 1c3d de2e 7dbe 6f6b c0bc
00000100: a26a 323e 5d80 13be fd1e f33d 781d 10be
00000110: 10e2 3ebe 55b9 bd3e d604 b63e 43d0 ac3d
00000120: 08fa 003e 6e50 bf3e 1d85 2dbd 4f83 043e
00000130: 253e d63d cfdb 1b3d e31e 413e 9cfe 993d
00000140: 7ce1 73bd a6ae 373e dcb4 bcbc b433 053e
00000150: 5f6e 873e 92f1 89bd fda7 fd3d cc4c 3a3e
00000160: bd82 8e3d a131 903d ab3f c53d 402b f1bd
00000170: 260d abbd 3a9c 16be a35c 643e 9165 0d3e
00000180: 7057 013e 329d 6d3e 45c5 4d3e 3fac 81bd
00000190: 33b6 7c3d d8a1 b83e c65b f2bb 51c7 4a3d
000001a0: 3ccd c73e e7d3 8f3e aac4 5a3a 50f2 0f3e
000001b0: b133 25bc 3e73 db3e 7e88 05bd be6d 5cbd
000001c0: 77e0 683e 1519 2f3e a387 533e 795f 3a3e
000001d0: ee7e 043e 0a93 d5bb a521 efbd f2b1 8b3d
000001e0: 7053 813d e35c 363d d5e5 2d3d bdfc 613d
000001f0: 0cb2 b4bc 124b 303d 6911 a6bd 13bb b43e
00000200: 3056 743e a1c6 6bbe b219 3dbe 6497 a7bd
00000210: 9523 523c 68da 4abe 3fcc 15bd e0ae 963d
00000220: 4cd9 efbd 19e4 a63d 30d0 053e d3b4 0b3e
00000230: 6c8e 393b 2e59 8dbd f4e9 7e3e c7c3 5a3d
00000240: 1b2e 3d3e ea38 0c3e 5e8e 243e 0893 233d
00000250: d7e6 573e cc35 cfbc 83a8 c9bd 84e7 073e
00000260: cd77 1dbe a41c a3bd c7a2 613e b5c2 963d
00000270: 7622 80bd 58dd 553e 6908 043c 8123 203e
00000280: c7bc 38bc 077a 193e bdba f8bb 8748 a13d
00000290: e17d ce3c 7adc 163d 38af 28bd ed47 c5bd
000002a0: 9e1d b039 ca02 01be b667 2fbe 48a2 2ebe
000002b0: ea59 abbd 8ade a4bd c35b 04be 12b6 983e
000002c0: 9f19 afbc 0667 6a3e cc13 45be dd56 db3d
000002d0: 8060 fc3d 5499 553e a38b ad3e 6a88 6e3e
000002e0: 7e5a 52be 6175 763e 7e24 3b3d 13ba 84be
000002f0: 99bf 9abe 1585 b1bd f266 4fbe 8312 c4bc
00000300: ad16 473c 48cb a4bd 0e44 3b3e a040 35bd
00000310: 2696 8f3c 787f e63e 3f31 7c3e e92b c13d
00000320: 5f48 773d 254f 7a3e f636 1a3d 8add 873e
00000330: a2e8 ae3e 061a 673e 2cd9 bd3e c3d9 9b3e
00000340: c895 22bc 8e88 a53e 4c66 d33c cc12 b03c
00000350: 1e6d 413e 7691 5cbe c498 a33d 04c2 4a3e
00000360: f90c 5d3e cfcc 0739 32fb 1f3e dc6e 39be
00000370: e42c c4bc 1bd7 82bd daac a03e 3874 473c
00000380: b79e 383d 6d6b cd3d a54e a53e 3a62 e2bd
00000390: 3cfb 8a3d d3b3 a93e 38e8 efbc 4e6b 74bd
000003a0: 5a93 ec3e 9985 c63e f37a cc3d 6518 25bc
000003b0: 5726 d5bd 488f cc3e 857d 443e 3e6c da3d
000003c0: 547f 7e3e d358 5b3e 56e2 853e d839 823e
000003d0: 69e2 3a3e e107 043e c7c0 dabd edcd 973e
000003e0: 8e34 823d e3ad 963d 4d05 9e3d ebcf 1a3c
000003f0: 8b18 0b3c 7c08 bcbd 50ee 5dbd ebd2 e63e
0.039809726 -0.05076274 -0.1912281 0.13844395 -0.09359012 0.27353913 0.15563592 0.11391936
0.09871809 0.2894693 0.15529285 0.34614974 -0.08215323 0.07511618 -0.09575342 0.17181559
-0.012814317 0.11130904 -0.0444422 0.17692988 0.052400563 -0.05432265 0.11145963 0.094179615
-0.06285221 -0.06916018 0.0607422 -0.1751212 -0.067520425 -0.03279585 0.33121207 0.0772344
0.105318084 0.22424303 0.16705379 -0.029301826 -0.104157805 0.01835479 0.2869331 -0.13550118
0.29416126 0.017644145 -0.0061908993 -0.02061761 0.14635564 0.4121454 -0.09701352 -0.10015775
-0.071614414 0.0054180888 0.10471389 -0.1494939 0.15896672 0.03317319 -0.01272566 0.14241666
-0.12435232 0.05964148 0.24063502 -0.13053066 0.029263472 0.038218718 -0.2472491 -0.023488728
0.1742349 -0.14404435 0.11871145 -0.14073741 -0.18640924 0.3705546 0.35550565 0.0843816
0.1259538 0.3736605 -0.042363275 0.12940715 0.10461072 0.038051423 0.18859439 0.07519266
-0.05954121 0.17937717 -0.02303546 0.13008004 0.26451394 -0.06735529 0.12385557 0.18193358
0.0695853 0.07040716 0.09631284 -0.117758274 -0.08352117 -0.14708033 0.22300963 0.13808276
0.12631011 0.23204497 0.20094784 -0.063316815 0.061697196 0.36060977 -0.007396194 0.04950649
0.3902377 0.28091356 0.0008345345 0.14057279 -0.010083125 0.4286136 -0.032600872 -0.053815596
0.22741877 0.17099412 0.2065721 0.18200482 0.12939045 -0.0065177726 -0.11676339 0.0682105
0.063147426 0.044522177 0.042455513 0.05517267 -0.022057556 0.043040343 -0.081087895 0.35298976
0.23861003 -0.2302499 -0.18466833 -0.08183172 0.012825866 -0.19809878 -0.036571737 0.073575735
-0.11711368 0.08148975 0.13067698 0.13643198 0.002831365 -0.06901775 0.24893934 0.053409364
0.18474619 0.13693586 0.16069934 0.03993514 0.21084152 -0.025294207 -0.09846594 0.1327191
-0.15377732 -0.07964447 0.22034751 0.07361356 -0.06256573 0.20885217 0.008058646 0.15638544
-0.011275477 0.14987956 -0.0075906203 0.078751616 0.025206508 0.036831357 -0.041182727 -0.096328594
0.00033591402 -0.1259872 -0.17129406 -0.17054093 -0.08366759 -0.080502585 -0.1292563 0.2982641
-0.021374522 0.22890863 -0.19245833 0.10709927 0.123230934 0.20859271 0.33895597 0.23294225
-0.20542333 0.24068214 0.0456891 -0.25923213 -0.30224302 -0.086679615 -0.20254114 -0.023934608
0.012151402 -0.08046585 0.1828768 -0.044251084 0.017527651 0.45019126 0.24628161 0.09432203
0.060371753 0.24444254 0.03765007 0.26536208 0.3416186 0.22568521 0.37079751 0.30439577
-0.009923406 0.32330745 0.025805615 0.021493338 0.18889281 -0.21539864 0.07988122 0.19800574
0.2158698 0.000129509 0.15623167 -0.18108696 -0.023947187 -0.06388684 0.31381875 0.012173705
0.045073237 0.100302555 0.32286564 -0.110538915 0.067862004 0.33145007 -0.029285535 -0.059672646
0.4620617 0.38773802 0.09984388 -0.010076617 -0.10407703 0.39953065 0.19188507 0.10665177
0.2485326 0.21420603 0.26149243 0.25434756 0.18250431 0.1289363 -0.106813006 0.29649296
0.0635768 0.07357385 0.07715855 0.009448986 0.008489738 -0.09181306 -0.05418235 0.45082793

q_net.2.bias f4 [64]
00000000: 9e24 d73d 9937 52bd 043c 24bd 81de 9fbd
00000010: efda 403e f68d 7fbd e8e3 e73d 6ba0 9e3d
00000020: eb69 073e eb1b 883d 7250 fdbd f6be 223d
00000030: 6932 323e 28a5 97bd 1d37 0bbc e811 8c3d
00000040: 137e 21bd 7f24 e03d 90aa adbd 188a 3dbc
00000050: db1e b6bd 5849 013e 7810 2dbe 787b 863d
00000060: f8ab 693c 43b5 533e 2795 80bd 83d6 883e
00000070: 8c43 63bd 594b ddbb 60ad cdbc 3301 ee3c
00000080: b67e 463d 10a6 a9bd 6df6 fb3d b392 e63d
00000090: a2a0 123d 8a6c 14bd 7005 143c 9719 4cbd
000000a0: b564 c7bd f718 583d aa62 4b3e 9bc0 aabd
000000b0: be39 0b3e 63c1 a8bc af38 0e3e 20d2 7a3d
000000c0: 5903 913d 36d2 0c3e aaad c8bc 9ae6 003e
000000d0: 3cc1 d33d ecc6 983d 18b1 15b9 4913 803d
000000e0: 5c4f 283d 13c0 f9bd 1d1f 023e dbf7 c4bd
000000f0: 6f6f 6e3d 6abc 093d 5e32 bebc 9cc5 673d
0.10505031 -0.051322553 -0.040096298 -0.07806111 0.18833517 -0.062391244 0.113227665 0.07745441
0.13223998 0.0664595 -0.12368859 0.039732896 0.17402042 -0.07404548 -0.008497027 0.06839353
-0.039426874 0.10944461 -0.08479798 -0.011568569 -0.08892604 0.12625635 -0.16900814 0.065665185
0.014262192 0.20674615 -0.062784486 0.2672616 -0.05548434 -0.006753367 -0.025107086 0.029053306
0.048460685 -0.08283627 0.12302861 0.112584494 0.035797723 -0.036236323 0.0090344995 -0.049829092
-0.09736005 0.052758183 0.19861856 -0.08337518 0.13596246 -0.020600026 0.1388881 0.061235547
0.07080717 0.13752064 -0.024496872 0.12587968 0.10339591 0.07459816 -0.0001427572 0.06253678
0.041091308 -0.121948384 0.12707181 -0.09617587 0.05821174 0.03362695 -0.023217376 0.05658494

q_net.4.weight f4 [4, 64]
00000000: c9bd 2fbe 46e1 a3bd e260 c83e 96d4 02be
00000010: bda5 a53e d2fd 9abe 8114 7b3e 6b27 d6bd
00000020: 227a 81bd ea91 8dbe 7163 88be 0d6f 12be
00000030: 2e64 2d3d 2e88 09bd d458 0fbe 266c 9ebc
00000040: 83cd 82be 6a2c e53e 2eff 333e 3f09 86be
00000050: 1e61 983e 0dfa ac3e 68a6 e13e cebb 993e
00000060: 56db 563e 0224 72be 8687 5e3e 74a3 7a3e
00000070: 6708 91be 7cab 1dbe 264c b3be 191a c6be
00000080: 8aa8 dc3e 470a 413e 694d 5c3e b723 823c
00000090: 5586 abbe 146c d1be 37d1 49bd ad2a d4bd
000000a0: 283f dd3d ae7d 0fbe 208d 013f b46b ae3e
000000b0: 29cb e33d 0424 773d 3af2 143d 0b25 bc3e
000000c0: dae5 843e 508c f0bd 59d7 4bbe f3f4 783e
000000d0: fe5b c63e fcba 91be de72 043e 33fc b03e
000000e0: cda4 753e 2f98 88be 64ef 9b3d 8b5e febd
000000f0: 7b3f 383d f4c4 a63e edd6 a73e 6e25 8abe
00000100: 6874 b93b c449 86be 2042 de3e 083a 65be
00000110: a5a7 8e3e c250 98be fdc3 243e 2b9a 0a3e
00000120: fedd 7dbe 4e7f 02be f57e 89be 4ce2 09bd
00000130: b3ca 323e 51da fb3c e7cd 4cbd 82eb efbc
00000140: 1534 38bd db19 d53e 4bdf 3c3e 53b2 11be
00000150: 11bc 963e 7357 5c3e 46d7 dd3e 823e 023e
00000160: c97e ca3e e916 99be 729b 253e c404 883e
00000170: 13c3 a6be a531 86be 6b2e 02bf 0141 b4be
00000180: 0a7c e13e 32d8 8d3e 9576 4c3e e205 883d
00000190: 357c 93be 0553 dbbe a42c 443e dd1c 43be
000001a0: cd3e 153d 8874 22bd b8ef 013f 40de b03e
000001b0: 19e1 db3c 965f 9bbc 97cc a03d 3afc cb3e
000001c0: c064 ac3e 00a1 8cbe 8c4f 7bbe c4bb 6e3d
000001d0: cfdd 813e 0904 bcbd 267a 783e f7e6 973e
000001e0: b356 be3e 40c1 f0bd 29ff dfbd 71d1 57be
000001f0: 7a5e c03e 0498 5a3e d536 553e 508a 8ebe
00000200: efd8 91be 6955 88be c3d4 9bbc 4c8c babe
00000210: 1542 fd3e c087 41be eeab c33e ba01 873d
00000220: 2e7c 6ebe 35ee b5be 7253 92be 7418 b23d
00000230: acab a93e be28 f33d d878 a8be 3eed 06be
00000240: 42b9 1e3d b11f fd3e 7e62 4e3e aacf 2dbe
00000250: b555 283e 6ca9 d13e b065 893e 60cd a23e
00000260: a9e0 b93d d35a c4be 4be0 243a c849 d63e
00000270: 6339 eabd bc60 67be 4237 65be 64d8 6fbe
00000280: 989e eb3e a0dc c13d 94ea f73d 42c5 ab3e
00000290: d4d3 43be 876d 95be e28a 503e e334 7dbe
000002a0: dcfe 56bd 26b6 583e 4a1e b83e 17bb 5d3e
000002b0: 012a f93d 937e 83be 69e5 3dbe b2d6 0b3e
000002c0: bc64 f7bd 1673 cdbe f8e3 67be f19b c73e
000002d0: a3c7 e73d a3d2 2fbe d456 6cbe c43c b93d
000002e0: 7f21 bb3e 86df 08be 1225 e03d 8ee7 93be
000002f0: 469e a63e 563c 563e 06d4 eb3e b4c1 83be
00000300: 8068 82be f1f8 e3bd 8332 c03e 1455 2dbe
00000310: f472 743e 2f52 aebe b8e6 e13e b37c 3bbe
00000320: 0cf1 f1bd db96 3abe 8b9c 53be 6272 56be
00000330: b474 363c a492 053d 7082 a3bd 461d a5be
00000340: 123c 9bbe 4444 8d3e 8ec9 143e e3d8 04be
00000350: cb0a a93e ebda 943e 038a 3d3e 8822 203e
00000360: ea10 a03e 58be eebd 71b1 853e aa87 4e3e
00000370: bd13 88be 8178 fcbd 4c4b 83be 4b8b a2be
00000380: 8c48 a73e 4006 a93c 490e b93e e53e 463e
00000390: 9fed bcbe 395e 9bbe 3575 033e 1924 fcbd
000003a0: 900f 7cbc 76ae 91bd 3975 d83e 9808 de3e
000003b0: 0a16 c23e 1e4c 753d 01dc 52be c478 c23e
000003c0: fde0 0d3e 69d5 31be 7080 8dbd f019 963e
000003d0: 3ace af3e 8abb 88be 2433 55b8 ed65 a03e
000003e0: 7d75 89ba fa13 bebe 4f58 a73e e540 8abe
000003f0: 4536 a03d 0cc5 fd3e 35bb c53e f790 56be
-0.17162241 -0.08001952 0.39136416 -0.12776408 0.3235301 -0.30271775 0.2451954 -0.10456737
-0.06322123 -0.27650386 -0.26638368 -0.14300175 0.042331867 -0.033577137 -0.13998729 -0.019338679
-0.25547418 0.44760448 0.17577812 -0.2617893 0.29761595 0.33784524 0.4407227 0.30026096
0.20982108 -0.23646548 0.21731386 0.24476415 -0.28326723 -0.15397447 -0.35019034 -0.38691786
0.43097335 0.18851577 0.21513905 0.01588617 -0.33500925 -0.4090277 -0.04927179 -0.10359702
0.10803062 -0.14012787 0.50605965 0.34066546 0.11122734 0.06033708 0.036363818 0.36747012
0.25956613 -0.117455125 -0.19906367 0.2431219 0.3874206 -0.2846297 0.12934443 0.34567413
0.23988648 -0.26678607 0.076140195 -0.124203764 0.044982415 0.32572138 0.32781163 -0.26981682
0.0056596287 -0.26228154 0.43409824 -0.22385418 0.27862278 -0.29749113 0.16090389 0.13535373
-0.24791715 -0.12743875 -0.26854673 -0.03366308 0.17460136 0.03074375 -0.05000105 -0.029287104
-0.044971544 0.4162129 0.18444555 -0.14228182 0.29440358 0.21517734 0.43328303 0.12719157
0.39549854 -0.29900292 0.16172579 0.26566136 -0.32570705 -0.2620975 -0.5085208 -0.35205844
0.44039947 0.27704006 0.1996711 0.06641747 -0.288057 -0.42836776 0.19157654 -0.19053979
0.036436845 -0.039661914 0.50756407 0.34544563 0.026840733 -0.018966477 0.078515224 0.3984087
0.33670616 -0.27466583 -0.24542063 0.058284536 0.2536454 -0.09180457 0.24265346 0.296684
0.3717552 -0.117556095 -0.1093734 -0.2107599 0.3757208 0.21347052 0.20821698 -0.278399
-0.2848582 -0.26627663 -0.019022351 -0.36435163 0.4946448 -0.18899441 0.3821711 0.06592126
-0.23289558 -0.355333 -0.2857929 0.0869607 0.33138788 0.11873005 -0.32904696 -0.13176438
0.038750894 0.4943824 0.2015476 -0.16973749 0.16438945 0.4094957 0.26835394 0.31797314
0.09076054 -0.38350543 0.0006289526 0.41853166 -0.11436727 -0.22595495 -0.2238436 -0.2342239
0.46019435 0.09465909 0.12105289 0.33548933 -0.19123775 -0.29185125 0.2036548 -0.24727206
-0.052489147 0.21163234 0.3596061 0.216534 0.12166215 -0.25682506 -0.18544544 0.13656119
-0.120797604 -0.40126866 -0.22645557 0.3898616 0.113173746 -0.17170195 -0.23079997 0.09044793
0.36548993 -0.13366517 0.109445706 -0.288876 0.32542628 0.20921454 0.460602 -0.2573372
-0.25470352 -0.11131466 0.37538537 -0.16926986 0.23871976 -0.34047076 0.44121337 -0.18309288
-0.11813554 -0.1822161 -0.20665185 -0.20942071 0.011136223 0.03261055 -0.07983863 -0.32248896
-0.30319268 0.27591145 0.14530012 -0.1297336 0.33016047 0.2907327 0.18509679 0.15638173
0.31262904 -0.11657399 0.2611194 0.20168939 -0.2657756 -0.12327672 -0.25643384 -0.31746897
0.32672536 0.020632863 0.3614371 0.1935993 -0.3690004 -0.30345324 0.1283768 -0.123115726
-0.01538457 -0.07113354 0.42276934 0.43365932 0.3790744 0.059887044 -0.20591737 0.37982762
0.13855357 -0.17366566 -0.06909263 0.29316664 0.34337026 -0.2670558 -5.0830786e-05 0.31327763
-0.0010487285 -0.37124616 0.32684562 -0.27002636 0.07822851 0.49564397 0.3861939 -0.20953737

q_net.4.bias f4 [4]
00000000: 1687 703d dda8 d9bc ee4c cc3d 5524 51bd
0.058722578 -0.026569778 0.09975611 -0.05106004
