code/nnv/examples/Submission/ARCH2019/Cart-pole/CartPole_Controller.onnx (onnx, 9203 bytes, 9 tensors)

input_AvgImg f4 [1, 1, 1, 4]
0	0x3f800000	1.0
1	0x3f800000	1.0
2	0x3f800000	1.0
3	0x3f800000	1.0

Operation_1_W f4 [24, 4]
0	0x3e813069	0.25232247
1	0xbe7b75ea	-0.245567
2	0xbf933f81	-1.1503755
3	0xbf34b70f	-0.70591825
4	0xbee47d70	-0.4462695
5	0xbb9e3c6a	-0.0048289793
6	0xbf999537	-1.1998662
7	0xbf4136a1	-0.7547398
8	0xbee5978f	-0.44842193
9	0x3e713cfa	0.23558417
10	0xbf9a1786	-1.2038429
11	0xbf3e01a5	-0.7422126
12	0xbdb43484	-0.08799079
13	0x3f01fcca	0.5077635
14	0x3ee0f13c	0.43934047
15	0x3ece181a	0.40252763
16	0x3f28d282	0.6594621
17	0x3ea98795	0.33111253
18	0x3eb113e9	0.34585503
19	0xbaa3a1f3	-0.0012484178
20	0x3e6005af	0.21877168
21	0xbe9888dc	-0.29791915
22	0x3e3ac9e6	0.1824108
23	0xbebcf309	-0.3690417
24	0x3e1ec1af	0.15503572
25	0x3d30284d	0.043007184
26	0x3f0b2b06	0.54362524
27	0xbe8d8410	-0.27639818
28	0x3ea9e4b6	0.33182305
29	0x3e2c437d	0.1682262
30	0xbd19c4a9	-0.037541065
31	0xbc64d16f	-0.0139659485
32	0x3ec9091c	0.39264762
33	0x3e4f5167	0.20245896
34	0x3f21d8fd	0.6322172
35	0x3bc8218a	0.006107514
36	0x3eb3f69e	0.3514909
37	0x3f55f38c	0.8357475
38	0x3eae3610	0.3402562
39	0x3e49fd01	0.1972542
40	0x3e8c6344	0.27419484
41	0xbd572596	-0.05252608
42	0xbfaeeb99	-1.3665649
43	0xbf20e6a0	-0.62851906
44	0xbf1e0322	-0.6172353
45	0xbea47d7b	-0.32126984
46	0x3e89044c	0.2676109
47	0xbeb4030d	-0.35158578
48	0x3eae98a3	0.34100828
49	0xbe41ce37	-0.18926321
50	0x3f99d522	1.2018168
51	0x3f47e0f8	0.7807765
52	0xbe24739e	-0.1605973
53	0xbd793d05	-0.06084921
54	0xbd131cc0	-0.03591609
55	0xbe7bda1a	-0.24594918
56	0xbe5172ab	-0.20453899
57	0xbe3663db	-0.1781153
58	0x3f93f0af	1.1557826
59	0x3f404e1b	0.7511918
60	0x3c0e51a3	0.008686456
61	0x3e3949c4	0.18094546
62	0x3f1264a5	0.5718482
63	0xbe5facb0	-0.21843219
64	0xbc7d77e7	-0.0154704815
65	0xbe998f54	-0.29992163
66	0xbfaaf218	-1.3355131
67	0xbf53e248	-0.8276715
68	0xbe3ad886	-0.1824666
69	0x3e843a7a	0.25825864
70	0x3f02628b	0.50931615
71	0xbaf9c738	-0.0019056564
72	0x3e4688e9	0.19388165
73	0x3eb81dfd	0.3596038
74	0x3e0ccf8a	0.13751045
75	0xbcef3ece	-0.029204752
76	0xbdc9de08	-0.09856802
77	0x3e982ca2	0.29721552
78	0x3f5a3c2f	0.8524808
79	0xbc0666c9	-0.008203217
80	0x3f2ad411	0.6672984
81	0xbd77434b	-0.06036691
82	0xbe73fdb9	-0.23827256
83	0xbd087107	-0.033310916
84	0x3e4fafd3	0.20281915
85	0x3f0d03ce	0.5508393
86	0x3e86da32	0.26338345
87	0x3dbd6a3d	0.09248779
88	0x3f24e767	0.6441559
89	0x3f16248c	0.58649516
90	0x3ef4be67	0.47801515
91	0x3e8c376f	0.27386042
92	0x3ef71eed	0.48265782
93	0x3ed3e850	0.41388178
94	0x3f37d16f	0.71803945
95	0xbc49c6d8	-0.012315474

Operation_1_B f4 [24]
0	0xbbce9ef2	-0.006305569
1	0x3e4a6943	0.19766717
2	0xbe2f59f5	-0.1712416
3	0x3f055cb9	0.5209461
4	0x3f0090d0	0.50220966
5	0x3f1b1245	0.6057475
6	0x3f52bab3	0.8231613
7	0x3f50757c	0.81429267
8	0x3f1efe17	0.6210646
9	0x3eff0496	0.49808186
10	0x3e0338c8	0.12814629
11	0x3f351318	0.7073226
12	0x3e1f9809	0.1558534
13	0x3f49545b	0.7864434
14	0xbed61097	-0.41809532
15	0x3f31d7bf	0.6946983
16	0x3e3bd16a	0.18341604
17	0x3f2ba891	0.67054087
18	0x3ed0297a	0.40656644
19	0x3f1a38b9	0.602428
20	0x3e6d885e	0.23196551
21	0x3f0d0dfa	0.5509945
22	0x3f0df5c8	0.5545316
23	0x3ed6614a	0.418711

Operation_2_W f4 [48, 24]
0	0x3e3633af	0.17793153
1	0x3e3e764a	0.18599811
2	0xbe2df09f	-0.16986321
3	0x3dea533e	0.114416584
4	0xbd3a32a4	-0.04545845
5	0xbd8b0e8b	-0.06789883
6	0xbde5e34f	-0.11224996
7	0xbeaeeed6	-0.34166592
8	0xbe280deb	-0.1641156
9	0xbe7a351f	-0.24434327
10	0x3da93dde	0.08263753
11	0xbe1046d2	-0.14089516
12	0xbe95690f	-0.29181716
13	0x3e208d64	0.15678936
14	0x3cf99be9	0.030469852
15	0x3e5171f0	0.2045362
16	0xbdc6dbd4	-0.09709898
17	0xbea0b384	-0.3138696
18	0xbdec8e30	-0.115505576
19	0xbe3752c0	-0.1790266
20	0x3d8037df	0.062606566
21	0x3d43dc59	0.04781756
22	0x3e049c1e	0.12950179
23	0xbeb63329	-0.35585907
24	0xbf332727	-0.69981617
25	0xbe9c08de	-0.30475515
26	0xbf1ffdd0	-0.6249666
27	0x3c4e28d3	0.012582975
28	0x3dca9346	0.098913714
29	0x3e2b6709	0.16738524
30	0x3dab5510	0.08365834
31	0x3f3e1ef0	0.74265957
32	0x3f097e17	0.5370802
33	0x3ee95274	0.4557072
34	0xbebfebf6	-0.3748471
35	0x3e8944b6	0.26810235
36	0x3ec2f037	0.38073894
37	0x3db9e075	0.09076015
38	0xbdfc367a	-0.12315078
39	0xbd1516ce	-0.0363987
40	0xbf2e53fc	-0.680969
41	0x3f03904f	0.5139207
42	0x3e422a34	0.18961412
43	0x3eb900e4	0.36133492
44	0x3e300b14	0.17191726
45	0x3dcd47fa	0.10023494
46	0x3f0d6588	0.5523305
47	0x3ea30ab3	0.318441
48	0xbec1c085	-0.37842193
49	0xbf18b894	-0.59656644
50	0xbf07d98c	-0.53066325
51	0x3ee762c4	0.4519254
52	0x3dd12388	0.10211855
53	0x3e3d4ce5	0.18486364
54	0x3ea12cde	0.31479543
55	0x3f32108f	0.69556516
56	0x3f0b6e35	0.5446504
57	0x3e28f172	0.16498354
58	0xbf07c54d	-0.5303543
59	0x3ee9f418	0.4569404
60	0xbe9a9341	-0.3019047
61	0x3f14385d	0.57898504
62	0xbf3be720	-0.73399544
63	0x3e990676	0.29887742
64	0xbf346c9c	-0.70478225
65	0x3edba226	0.42897147
66	0x3ee627a3	0.44952115
67	0x3f1ff22c	0.624789
68	0x3ec77b13	0.38961086
69	0x3ee9e602	0.45683295
70	0x3eeedcbc	0.46652782
71	0x3d71db6c	0.059047148
72	0xbf353647	-0.70785946
73	0xbeda6f34	-0.42662966
74	0xbf3c04ad	-0.73444635
75	0x3eb7521f	0.3580484
76	0x3ee8e461	0.4548674
77	0x3e966dde	0.29380697
78	0x3eb80c0d	0.35946694
79	0x3f1a61cb	0.6030547
80	0x3eee813c	0.46582973
81	0x3ea89e87	0.32933447
82	0xbf14eb2f	-0.5817136
83	0x3f4638cc	0.77430415
84	0xbe866690	-0.26250124
85	0x3e6ef605	0.23336037
86	0xbf10aa8a	-0.5651022
87	0x3e66829c	0.22510761
88	0xbf4265c4	-0.7593653
89	0x3eac5000	0.33654785
90	0x3ccf8fae	0.025337067
91	0x3effe0a1	0.49976066
92	0x3ea1adf2	0.31578022
93	0x3eb5f729	0.3554013
94	0x3ecb8e7a	0.39757138
95	0x3e093ff6	0.13403305
96	0xbf3d72ac	-0.740031
97	0xbe3fa995	-0.18717034
98	0xbdcdae23	-0.100429796
99	0x3dd0752a	0.10178597
100	0x3ef45d15	0.47727266
101	0x3ec70193	0.3886839
102	0x3e61e347	0.22059356
103	0x3f1c45fd	0.61044294
104	0x3e71196f	0.23544858
105	0x3dc9b0b9	0.0984816
106	0xbed13bb3	-0.4086586
107	0x3f049006	0.5178226
108	0xbe639ef2	-0.22228602
109	0x3e4ebae6	0.20188484
110	0xbefe4e07	-0.49668905
111	0x3edd6afa	0.4324568
112	0xbf6c4835	-0.9229768
113	0x3e877a0e	0.26460308
114	0x3ee68257	0.45021316
115	0x3e4b2e61	0.19841911
116	0xbcde6ea6	-0.02715237
117	0x3e6a027e	0.22852513
118	0x3edafb33	0.42769775
119	0x3edaaf40	0.4271183
120	0xbe82369c	-0.2543229
121	0x3d948bb8	0.07253212
122	0x3d8598f8	0.06523317
123	0xbe09ae70	-0.13445449
124	0x3e4ad613	0.19808225
125	0xbe36be42	-0.17846015
126	0xbe436b58	-0.19083917
127	0xbcb4e927	-0.022083832
128	0x3cebdf17	0.028792901
129	0xbe951214	-0.29115355
130	0xbe8d0c17	-0.27548286
131	0xbe85e965	-0.26154628
132	0xbd0da388	-0.034579784
133	0xbe14f950	-0.1454823
134	0x3d87a69f	0.06623577
135	0xbe2bf2b8	-0.16791809
136	0xbe8380bc	-0.25684154
137	0x3e2f9321	0.17145969
138	0xbdb14e86	-0.08657555
139	0x3cf775a4	0.030207463
140	0x3a727400	0.0009248853
141	0x3ddab37c	0.10678765
142	0xbe87a464	-0.26492608
143	0x3e5f55b8	0.21810043
144	0xbdbd7d0d	-0.09252367
145	0xbcbabac9	-0.022794144
146	0xbddd36da	-0.10801478
147	0xbd76a724	-0.06021799
148	0x3e13b291	0.14423586
149	0xbd9a0807	-0.07521062
150	0x3e0dad6c	0.13835686
151	0xbea951ea	-0.33070308
152	0xbec4878a	-0.38384658
153	0xbe362a69	-0.17789616
154	0xbcebb5fd	-0.028773302
155	0xbe04e9ef	-0.12979864
156	0xbe0235e7	-0.12715875
157	0xbe3afa77	-0.18259607
158	0x3df25fca	0.118346766
159	0x3e0e0840	0.13870335
160	0xbe3fe17a	-0.18738356
161	0xbe633d70	-0.22191405
162	0x3daac27d	0.08337877
163	0x3dd68aec	0.10475716
164	0xbd08ab0c	-0.033366248
165	0x3d91c0cb	0.071168505
166	0xbdac00bd	-0.08398578
167	0xbe5c398f	-0.21506332
168	0xbecc931b	-0.39955983
169	0xbef7b772	-0.48382145
170	0x3d2827d6	0.041053616
171	0x3ee9faf5	0.45699278
172	0xbe234093	-0.15942602
173	0xbe355cbb	-0.17711155
174	0x3df844fa	0.12122531
175	0x3e95a41e	0.29226774
176	0x3f29f0ae	0.66382873
177	0x3e953906	0.29145068
178	0xbf32ade3	-0.6979658
179	0x3e4bb330	0.19892573
180	0x3ea2d0de	0.31799978
181	0xbd5409d4	-0.051767185
182	0x3dc39e32	0.09551658
183	0x3eaf691e	0.34259886
184	0xbf829e56	-1.020457
185	0x3ecaee11	0.39634755
186	0x3e22a923	0.15884833
187	0x3f03c701	0.5147553
188	0xbc961d86	-0.018324625
189	0x3e6bc56a	0.23024526
190	0x3ebf08bd	0.37311354
191	0x3e7d94f0	0.24763846
192	0xbf3d86ce	-0.7403382
193	0xbef0ebe7	-0.4705498
194	0xbf054cfc	-0.52070594
195	0x3eb808ab	0.35944113
196	0x3e43867b	0.19094269
197	0x3ee66640	0.44999886
198	0x3e767129	0.24066605
199	0x3f73c70b	0.9522559
200	0x3ec4d32a	0.38442355
201	0x3f041631	0.5159636
202	0xbf099e98	-0.5375762
203	0x3e8b336a	0.27187663
204	0x3df1ed6c	0.11812863
205	0x3ec4ec74	0.3846165
206	0xbf375759	-0.71617657
207	0x3e00c038	0.12573326
208	0xbf6eb554	-0.93245435
209	0x3e2731aa	0.16327539
210	0xbcd839f6	-0.026394825
211	0x3f1376ff	0.5760345
212	0x3eca28e9	0.39484337
213	0x3f15f469	0.58576065
214	0x3c96a2fd	0.018388266
215	0x3eeb2a0c	0.45930517
216	0xbf35e09d	-0.7104586
217	0xbf041cd2	-0.51606476
218	0xbe75f115	-0.24017747
219	0x3e78f11d	0.24310727
220	0x3e7dce5e	0.24785754
221	0x3ebf7cc4	0.37399876
222	0x3eb44e75	0.35216108
223	0x3ecdeda5	0.4022037
224	0x3daa17ab	0.083052956
225	0x3ed39bf3	0.41329917
226	0xbf12a87b	-0.5728833
227	0x3f0d1c76	0.5512155
228	0xbdf745c5	-0.12073854
229	0xbc5fcc0b	-0.0136594875
230	0xbe5dc81d	-0.21658368
231	0x3e979831	0.296083
232	0xbeec2e55	-0.461291
233	0x3f172f86	0.5905689
234	0x3dbf3b56	0.09337489
235	0x3e84e943	0.25959215
236	0x3e4a088e	0.19729826
237	0x3ea52844	0.32257283
238	0xbcf39373	-0.029733395
239	0x3e9ad58e	0.30241054
240	0xbd54fd64	-0.051999465
241	0xbbf2d1c3	-0.0074102595
242	0xbe0b6c3b	-0.13615505
243	0xbd4c3a65	-0.049860377
244	0xbb9a77df	-0.004713997
245	0xbe806239	-0.25074938
246	0xbe0faed5	-0.14031537
247	0xbeb31a60	-0.3498106
248	0xbe02be9f	-0.12768029
249	0xbe2d991a	-0.16952935
250	0x3e38a8dc	0.18033165
251	0xbddf09e7	-0.108905606
252	0xbe826275	-0.25465742
253	0xbeb5b95e	-0.35492986
254	0x3e2b6806	0.167389
255	0x3d5ae239	0.0534384

Operation_2_B f4 [48]
0	0xbd940581	-0.07227612
1	0x3ee7cd1b	0.4527367
2	0x3f3b5f01	0.7319184
3	0x3f3cd359	0.7375999
4	0x3f1b88e1	0.60755736
5	0xbd493167	-0.04911938
6	0xbdde7e27	-0.108639054
7	0x3f167555	0.58772784
8	0x3f1084dc	0.5645273
9	0x3ea86d32	0.3289581
10	0xbd91533b	-0.07095953
11	0x3eb0aabb	0.34505257
12	0x3f1ab429	0.6043115
13	0x3edb9ed8	0.42894626
14	0xbe192f27	-0.14959393
15	0x3ef51593	0.47868022
16	0xbe04c81e	-0.12966964
17	0xbde93656	-0.11387317
18	0x3e38cae6	0.1804615
19	0xbd9204ee	-0.071298465
20	0x3e0125e5	0.12612112
21	0x3f30d309	0.69072014
22	0xbd62b61d	-0.055349458
23	0xbdaf1ff0	-0.085510135
24	0x3efa3736	0.48870248
25	0x3ee61dd8	0.44944644
26	0x3f17f1c8	0.59353304
27	0x3f081ac6	0.53165853
28	0x3f023cb4	0.50873876
29	0xbdec3484	-0.11533454
30	0x3f152447	0.5825848
31	0xbd2f8386	-0.04285004
32	0x3f048580	0.51766205
33	0xbdc8a557	-0.09797161
34	0x3f1e2482	0.61774457
35	0xbd9afe10	-0.0756799
36	0x3f2f77cf	0.6854219
37	0xbdb6b503	-0.08921244
38	0xbd927347	-0.07150894
39	0x3f01a8a0	0.50647926
40	0x3eff4efd	0.4986495
41	0x3d234c16	0.039867483
42	0x3f2f5de7	0.6850266
43	0x3e1f42b1	0.15552785
44	0xbd857fce	-0.065185174
45	0x3f18ba17	0.5965895
46	0x3f11af68	0.56908274
47	0x3f0c5539	0.5481754

Operation_3_W f4 [12, 48]
0	0xbe672ef4	-0.22576505
1	0x3f3388e2	0.7013074
2	0x3f3c71c6	0.73611104
3	0x3f5aefc6	0.85522115
4	0x3eb99bc8	0.36251664
5	0xbe960f7e	-0.29308695
6	0xbe2ca4c4	-0.16859728
7	0x3f209080	0.6272049
8	0x3f37c120	0.7177906
9	0x3ed74d37	0.42051098
10	0xbe62161b	-0.22078745
11	0x3f4957c8	0.7864957
12	0x3f194658	0.5987296
13	0x3f5b98a8	0.8577981
14	0xbe4a95ad	-0.1978366
15	0x3f16b334	0.5886719
16	0x3d0b1f8e	0.03396564
17	0x3ef86e78	0.4852178
18	0xbedf3c23	-0.43600568
19	0xbe0a3965	-0.13498457
20	0xbe8a20f1	-0.26978257
21	0x3f2b3d54	0.66890454
22	0x3ce3b601	0.027796747
23	0x3e88f805	0.26751724
24	0x3f4a0487	0.7891316
25	0x3f190da2	0.5978643
26	0x3f1d3901	0.61415106
27	0x3f29be82	0.66306317
28	0x3f17bfb0	0.59276867
29	0xbd79a233	-0.0609457
30	0x3f2050e2	0.6262342
31	0xbe421a53	-0.18955354
32	0x3f417a08	0.7557683
33	0xbe3ee4dd	-0.18641992
34	0x3f386388	0.7202687
35	0xbce955b0	-0.028483242
36	0x3f8512a9	1.039632
37	0xbdf57559	-0.11985273
38	0x3dd2d2d0	0.102941155
39	0x3eea2e05	0.45738235
40	0x3e7521b3	0.23938636
41	0xbe2b87db	-0.16751043
42	0x3f2d3e1e	0.6767291
43	0xbf2b3c95	-0.66889316
44	0x3e7bf6ca	0.24605861
45	0x3ee191e4	0.44056618
46	0x3f0876a2	0.5330602
47	0x3f4e32cb	0.80546254
48	0x3bbc3475	0.005743558
49	0xbd8247d8	-0.06361359
50	0xbd7b8b55	-0.061412174
51	0xbe93b987	-0.28852484
52	0xbe8d70e0	-0.2762518
53	0x3d3eb628	0.046560436
54	0x3e57b42c	0.21064824
55	0xbdac997e	-0.08427714
56	0xbe1569e0	-0.1459117
57	0x3d468c3d	0.048473585
58	0xbd1ab24e	-0.0377677
59	0x3e0df4af	0.1386287
60	0xbee420c3	-0.44556245
61	0xbec08eb4	-0.37608874
62	0xbebf4f10	-0.37365007
63	0xbe918c5a	-0.28427392
64	0xbc738795	-0.014863868
65	0xbe02aee9	-0.12762035
66	0xbe024f11	-0.12725474
67	0xbe502899	-0.20327987
68	0xbe738016	-0.2377933
69	0xbda4bf2a	-0.08044274
70	0x3e24a8be	0.16079995
71	0xbea385cb	-0.31938013
72	0x3dfec5ac	0.12440047
73	0xbe6c714e	-0.23090097
74	0xbda6f7c5	-0.08152727
75	0xbe908f9e	-0.2823457
76	0x3e06fa26	0.13181362
77	0xbea18719	-0.31548384
78	0xbe82abd5	-0.25521722
79	0xbe87b9ca	-0.26508933
80	0x3dfbf025	0.12301663
81	0xbe00163b	-0.1250848
82	0xbe936483	-0.28787622
83	0x3d9ea2d7	0.07745903
84	0xbe570606	-0.20998392
85	0x3cb7580e	0.022380855
86	0x3e9f0ef3	0.31066093
87	0x3e4f6da0	0.20256662
88	0x3de3304e	0.11093198
89	0x3e1c7fd9	0.15283145
90	0x3d0256d8	0.031821102
91	0xbe71e25a	-0.23621503
92	0x3e2a6c30	0.16642833
93	0xbeaee7e8	-0.34161305
94	0x3dbe4cc4	0.09291986
95	0x3e54d49a	0.20784226
96	0x3d9ef61c	0.077617854
97	0x3e71bf61	0.23608162
98	0x3ecd22d0	0.40065622
99	0x3e9d040d	0.30667153
100	0x3f0f8fac	0.560786
101	0xbdd61276	-0.1045274
102	0xbe4c7a30	-0.19968486
103	0xbd9762b6	-0.073918745
104	0x3e79f4ee	0.2440984
105	0x3e926327	0.28591272
106	0x3e3a3744	0.18185145
107	0xbf10fefd	-0.5663908
108	0x3e822c30	0.25424337
109	0xbd1d42aa	-0.038393654
110	0xbe19795d	-0.14987703
111	0x3f05b572	0.5222999
112	0x3ec5e744	0.38653004
113	0x3d0f4b3f	0.03498387
114	0x3f26c9ce	0.6515168
115	0xbe26f9e2	-0.1630626
116	0x3ea25dda	0.31712228
117	0x3f609636	0.87729204
118	0x3e04b0f2	0.12958124
119	0xbe60ae7e	-0.21941563
120	0x3e9e1633	0.30876312
121	0x3eacb3d7	0.33730957
122	0xbbc3e3e8	-0.0059780963
123	0x3ec7262c	0.3889631
124	0x3f248d81	0.6427842
125	0x3dfdb343	0.12387707
126	0x3f01207e	0.50440204
127	0x3d04f4c4	0.03245999
128	0x3dc2ed87	0.09517961
129	0xbd89457b	-0.067027055
130	0x3f169dbb	0.5883443
131	0x3e0a90a8	0.13531744
132	0x3f2228d2	0.63343537
133	0xbb87fb6f	-0.0041498463
134	0xbe5c2691	-0.21499087
135	0x3f038de6	0.51388395
136	0x3f34e1ea	0.7065722
137	0x3e5e9c05	0.21739204
138	0x3f5e771b	0.8690049
139	0x3ea89680	0.32927322
140	0xbe845f9d	-0.25854197
141	0x3f39d66d	0.7259281
142	0x3ef1f55f	0.47257516
143	0x3edd130b	0.4317859
144	0x3df7365d	0.12070916
145	0x3c9f7a17	0.019467397
146	0xbe534e45	-0.20635326
147	0xbe4d7e7e	-0.20067784
148	0xbe24be46	-0.16088209
149	0x3e7f5236	0.24933705
150	0x3dc31a3b	0.095264874
151	0x3d71e47f	0.0590558
152	0x3d570195	0.052491743
153	0xbe9363b3	-0.28787002
154	0xbe638bdf	-0.22221325
155	0x3e4346ee	0.19070026
156	0xbec97761	-0.3934889
157	0x3db1b310	0.086767316
158	0x3de3c43d	0.11121414
159	0x3c7e49a5	0.015520488
160	0x3d2be3d1	0.04196531
161	0xbe4e58da	-0.20151082
162	0x3eee6f72	0.465694
163	0xbe1671fe	-0.14691922
164	0xbe2443c1	-0.16041471
165	0xbe7b3cb3	-0.24534874
166	0x3deb4588	0.114878714
167	0xbe9de0c4	-0.30835545
168	0xbe97b012	-0.29626518
169	0x3e4313e6	0.1905056
170	0xbd8fd765	-0.07023505
171	0xbecaae99	-0.39586332
172	0xbda0b2bf	-0.07846593
173	0xbe617298	-0.2201637
174	0xbd9ace39	-0.07558865
175	0xbe9fc472	-0.31204563
176	0x3d87107f	0.06594943
177	0x3c0e4415	0.008683224
178	0x3eaf98ac	0.34296167
179	0x3dd54420	0.104133844
180	0xbcd495a9	-0.02595027
181	0xbe4ea34f	-0.20179485
182	0xbe25112e	-0.16119835
183	0x3da32fdb	0.07968112
184	0xbe66139b	-0.22468416
185	0x3e8a250f	0.26981398
186	0x3ead883e	0.33893007
187	0x3e161ee8	0.14660227
188	0xbe7b91a1	-0.24567272
189	0x3dc039b8	0.09386009
190	0xbe6624f7	-0.22475038
191	0x3dd5016b	0.10400661
192	0x3d509a58	0.050928444
193	0xbddd7826	-0.10813932
194	0x3f58a301	0.84623724
195	0x3f0c6aad	0.54850274
196	0x3e30180b	0.17196672
197	0x3dec2561	0.11530567
198	0x3e2eb53b	0.17061321
199	0xbc2c39a9	-0.010511794
200	0x3f0c83fa	0.5488888
201	0x3e980d5e	0.29697698
202	0x3e8ca5f8	0.27470374
203	0xbed02c4a	-0.4065879
204	0xbde1b688	-0.11021143
205	0x3e6bea13	0.23038511
206	0xbccbd189	-0.024880188
207	0x3edcfb3b	0.43160424
208	0xbd82453b	-0.06360861
209	0x3e3e6881	0.18594553
210	0x3dc4e141	0.09613276
211	0xbde2b60e	-0.110698804
212	0x3f42eade	0.7613963
213	0x3f4fc0cb	0.81153554
214	0x3cb1cd8a	0.021704454
215	0x3d930e8c	0.07180509
216	0x3d5107a5	0.05103268
217	0x3e888315	0.26662508
218	0x3d9572b1	0.07297266
219	0x3e1d4c62	0.15361169
220	0x3eba759c	0.36417854
221	0xbe764ecf	-0.240535
222	0x3e4958af	0.19662736
223	0xbe1d3caf	-0.1535518
224	0x3f28fd04	0.6601107
225	0xbe8ae225	-0.2712566
226	0x3f2c30da	0.6726204
227	0x3d1aa503	0.037755024
228	0x3eb76693	0.35820445
229	0xbdc8ea19	-0.098102756
230	0x3e79e4ff	0.24403761
231	0x3eecf8d7	0.462836
232	0x3eeebd27	0.46628687
233	0x3f508210	0.8144846
234	0x3eddac5c	0.43295562
235	0x3eeba4c5	0.46024147
236	0x3db8a1af	0.09015214
237	0x3f21e88c	0.63245463
238	0x3e9383d6	0.2881152
239	0x3ea3c75f	0.31988046
240	0xbe2a91d6	-0.16657194
241	0x3e3b3d8c	0.18285197
242	0xbe45b3b0	-0.19306827
243	0x3e7eda55	0.24887975
244	0xbe9112a6	-0.2833454
245	0xbe5450ea	-0.20733991
246	0x3d828c16	0.063743755
247	0xbe6e8b43	-0.23295312
248	0xbeda76ee	-0.4266886
249	0x3daa12ff	0.083044045
250	0xbea190ec	-0.3155588
251	0x3ece1873	0.40253028
252	0xbcd52e8f	-0.026023177
253	0x3e4f8023	0.20263724
254	0xbe478754	-0.19485217
255	0xbe97d916	-0.2965781

Operation_3_B f4 [12]
0	0x3f27f883	0.65613574
1	0xbe045fed	-0.12927218
2	0x3eab603d	0.3347186
3	0xbae52958	-0.0017483635
4	0x3e8a22b2	0.26979595
5	0xbd93dff4	-0.0722045
6	0x3f0ad064	0.5422423
7	0x3f2c6518	0.67341757
8	0xbe0dd6a6	-0.13851413
9	0x3ec741a2	0.3891726
10	0xbd95aacc	-0.073079675
11	0xbd8981ce	-0.067142114

linear_4_W f4 [2, 12]
0	0x3e7dfc88	0.24803364
1	0xbef10cda	-0.47080117
2	0x3f7c522e	0.98562896
3	0xbd4a86c8	-0.049444944
4	0x3f4f3ee7	0.80955356
5	0xbec2a75c	-0.3801831
6	0x3f5412db	0.8284127
7	0x3e9304fa	0.28714734
8	0xbf01a1e5	-0.50637656
9	0x3f1c14de	0.6096934
10	0x3e473b2f	0.1945617
11	0xbe8f9d35	-0.28049627
12	0x3f8a53ba	1.0806801
13	0x3eddce6e	0.43321556
14	0x3e58e628	0.21181548
15	0xbf327c8a	-0.6972128
16	0x3e2fcb4c	0.17167395
17	0xbef22b96	-0.47298878
18	0x3f766847	0.96252865
19	0x3f1b8835	0.6075471
20	0x3e98ee04	0.29869092
21	0x3ec20f25	0.3790218
22	0xbf15cec8	-0.5851865
23	0x3e6914bd	0.22761817

linear_4_B f4 [2]
0	0x3ec6d951	0.38837674
1	0x3f1b8e13	0.60763663
