code/nnv/examples/Submission/ARCH-COMP2024/benchmarks/Double_Pendulum/controller_double_pendulum_less_robust.onnx (onnx, 4081 bytes, 6 tensors)

dense_3/kernel:0 f4 [25, 2]
0.32572022 -0.20917055 0.3455292 0.36490807 0.37909302 0.118733965 -0.023780473 -0.01853585
0.41530314 0.40869015 0.53753763 0.4179119 0.20561548 -0.45455208 -0.15415458 0.5049213
0.1342218 -0.32974353 -0.1631175 -0.4119595 -0.1764854 -0.24731253 0.12460979 0.1570158
-0.37713805 -0.296106 0.30123213 0.40444812 -0.55484056 -0.09036248 -0.0013776665 -0.10686165
-0.34006485 -0.38577926 -0.018350165 0.43218 -0.3011894 0.115767695 0.03981674 -0.55330426
0.17807278 -0.04458761 -0.02360711 -0.46963808 -0.067473724 0.16471697 -0.26129916 0.334685
0.4411748 -0.09867093
00000000: cdc4 a63e ce30 56be 34e9 b03e 3bd5 ba3e
00000010: 7b18 c23e cb2a f33d 44cf c2bc 7fd8 97bc
00000020: 9da2 d43e d63f d13e 119c 093f 8cf8 d53e
00000030: dd8c 523e 0dbb e8be b3da 1dbe 8642 013f
00000040: 7171 093e 25d4 a8be 4608 27be 5bec d2be
00000050: 97b8 34be 7f3f 7dbe 6b33 ff3d c0c8 203e
00000060: 3d18 c1be 359b 97be 193b 9a3e d313 cf3e
00000070: 080a 0ebf f70f b9bd d192 b4ba 48da dabd
00000080: fb1c aebe dc84 c5be 1653 96bc b246 dd3e
00000090: 7f35 9abe 9d17 ed3d e116 233d 59a5 0dbf
000000a0: b658 363e 7fa1 36bd b363 c1bc 6774 f0be
000000b0: aa2f 8abd 91ab 283e 01c9 85be d55b ab3e
000000c0: aae1 e13e fc13 cabd

dense_3/bias:0 f4 [2]
-0.0731925 -0.025033364
00000000: f3e5 95bd c512 cdbc

dense_2/kernel:0 f4 [25, 25]
-0.13989678 0.1041406 0.07707029 -0.26475292 -0.4133527 0.4686221 -0.0508653 -0.3160232
0.24488872 0.22109087 -0.07267115 -0.07197463 0.12286278 -0.32515365 -0.09914046 0.16507162
-0.39705664 0.17830378 -0.41634127 0.6014588 0.083482206 0.17269234 -0.12844755 0.016946621
-0.0921514 0.08530018 0.36268163 0.21177867 0.2824718 0.117551774 0.08381224 0.3394859
0.23911819 -0.13432327 -0.23328139 0.09345158 -0.3494334 0.075851634 -0.3091337 0.29147115
-0.12553096 -0.32862937 0.5057578 0.20487624 -0.975608 0.25759676 0.048538428 -0.1513667
0.28416094 0.3337768 -0.07580375 -0.22015451 -0.12155875 -0.04656143 0.0068500573 -0.11431498
0.17689103 0.10271052 0.15655228 0.061330877 0.0986248 0.07236083 -0.28469956 0.09554627
0.3740185 -0.27518514 0.26146644 -0.0021898954 0.09346591 0.27349967 -0.15482584 0.36637494
-0.25737667 0.12605183 -0.18189482 -0.17946775 0.31610355 -0.20811886 0.12314137 -0.019372962
0.21560352 0.2537548 0.24134932 0.39887246 -0.024727738 0.24126641 0.19065964 0.102280706
-0.11864181 -0.2891263 -0.05230393 0.13659123 -0.021874059 -0.14701954 0.44027954 0.2549225
-0.07458699 -0.11708762 0.28749236 -0.3154684 -0.091659814 0.0627668 -0.33734724 -0.10742179
0.07633579 0.20368329 0.30473274 -0.14296277 -0.10352518 -0.267564 0.42726362 -0.03454563
-0.16822211 -0.18048164 0.22796388 -0.013308603 -0.1264466 0.5404849 0.20131066 0.69019854
-0.25399426 0.0546683 -0.063739136 -0.24388424 -0.323229 -0.12941107 0.22757508 0.30677325
-0.28359333 -0.0067138355 0.2217623 -0.33590195 0.19907284 0.12204548 0.10909589 -0.028805217
0.4123421 -0.20227233 0.05781269 0.038615834 -0.32771888 0.3431475 0.21209958 0.17010334
0.21074457 0.20355658 0.04369782 0.16646282 0.08075927 -0.33429548 -0.19953828 0.2632134
0.022117764 0.27177313 0.12034569 0.31660113 0.30611897 0.18599764 0.41195148 0.2217786
0.13040084 0.019882634 0.18122502 -0.34173015 0.18679316 -0.2660541 0.12279577 0.12010089
0.10194171 -0.8500051 0.19562216 0.19781227 0.31491 -0.8771706 0.22966732 -0.32842425
0.19337672 0.06580054 0.07172418 -0.21106261 0.2670842 -0.110555165 0.17523032 -0.055823456
-0.07795466 0.12124788 0.23982249 -0.31381312 -0.12313599 0.08817963 -0.21891557 0.03969917
-0.8906864 -0.23051772 -0.030564515 -0.28533578 -0.10860649 0.34942898 -0.007638041 -0.038243894
-0.007894344 0.15283899 0.19962043 -0.31682664 -0.27038118 0.14120537 0.20814773 -0.24827339
0.25806028 -0.15173645 0.07381636 0.03861361 -0.14590067 -0.17653477 -0.18345039 -0.0059048277
0.12854484 0.25314224 -0.16650578 0.31047663 -0.20354368 0.20261842 0.21314262 0.21449736
-0.18449427 -0.30382 0.35955364 -0.21886057 -0.13758418 -0.13927868 -0.18333562 0.05359952
0.0818989 -0.11520431 -0.23003402 0.2696407 -0.22366619 -0.32636884 -0.18551174 -0.1960527
-0.11392905 -0.17060901 -0.18551935 -0.03277115 0.19396968 -0.0501379 -0.14750378 -0.037497498
-0.35380942 0.2857586 0.21000703 0.2957979 0.11039184 0.21133734 0.15655872 0.35963953
00000000: 1a41 0fbe ab47 d53d 07d7 9d3d b28d 87be
00000010: f7a2 d3be 3cef ef3e 2258 50bd cbcd a1be
00000020: 1cc4 7a3e a565 623e 9dd4 94bd 6f67 93bd
00000030: 7b9f fb3d 8a7a a6be 270a cbbd 8908 293e
00000040: 024b cbbe 4495 363e af2a d5be 34f9 193f
00000050: b8f8 aa3d 43d6 303e c187 03be a4d3 8a3c
00000060: e0b9 bcbd dcb1 ae3d 68b1 b93e 82dc 583e
00000070: 25a0 903e fcbe f03d c0a5 ab3d 19d1 ad3e
00000080: 66db 743e 0a8c 09be 51e1 6ebe 8b63 bf3d
00000090: efe8 b2be 1a58 9b3d c646 9ebe b53b 953e
000000a0: 308b 00be 1c42 a8be 5879 013f 14cb 513e
000000b0: 72c1 79bf b9e3 833e 3bd0 463d dfff 1abe
000000c0: 8b7d 913e cbe4 aa3e ff3e 9bbd 2f70 61be
000000d0: cbf3 f8bd 33b7 3ebd 7276 e03b f91d eabd
000000e0: ec22 353e e559 d23d 3e4f 203e 1636 7b3d
000000f0: cdfb c93d ea31 943d 24c4 91be c3ad c33d
00000100: 5a7f bf3e 11e5 8cbe eede 853e 5984 0fbb
00000110: 0e6b bf3d 2608 8c3e aa8a 1ebe 7f95 bb3e
00000120: e0c6 83be bb13 013e a342 3abe 65c6 37be
00000130: 53d8 a13e 1c1d 55be 8b31 fc3d 0cb4 9ebc
00000140: 2bc7 5c3e 26ec 813e 4724 773e 0339 cc3e
00000150: d391 cabc 8b0e 773e 483c 433e 8c78 d13d
00000160: 7afa f2bd 5d08 94be a53c 56bd 92de 0b3e
00000170: 3a31 b3bc 4a8c 16be 526c e13e 3485 823e
00000180: 10c1 98bd a2cb efbd 3332 933e 1385 a1be
00000190: 24b8 bbbd e18b 803d c7b8 acbe f5ff dbbd
000001a0: f055 9c3d 5a92 503e ee05 9c3e d564 12be
000001b0: 0205 d4bd 26fe 88be 4cc2 da3e b87f 0dbd
000001c0: 6b42 2cbe 2ed0 38be 5d6f 693e 540c 5abc
000001d0: 387b 01be 385d 0a3f 6224 4e3e dab0 303f
000001e0: 890b 82be deeb 5f3d aa89 82bd cabc 79be
000001f0: 467e a5be 5684 04be 7109 693e 6211 9d3e
00000200: 2533 91be bcff dbbb a815 633e 57fb abbe
00000210: c0d9 4b3e fbf2 f93d aa6d df3d ebf8 ebbc
00000220: 811e d33e 7a20 4fbe 00cd 6c3d a32b 1e3d
00000230: c5ca a7be 07b1 af3e a230 593e 922f 2e3e
00000240: 6dcd 573e 2371 503e 7cfc 323d 3b75 2a3e
00000250: 1e65 a53d c728 abbe c353 4cbe e8c3 863e
00000260: 5030 b53c d925 8b3e cd77 f63d 8b19 a23e
00000270: a0bb 9c3e 2a76 3e3e 4eeb d23e ee19 633e
00000280: cc87 053e e8e0 a23c 0d93 393e 41f7 aebe
00000290: b546 3f3e 3e38 88be 597c fb3d 75f7 f53d
000002a0: d1c6 d03d ef99 59bf 2d51 483e 4d8f 4a3e
000002b0: e23b a13e 418e 60bf e92d 6b3e 3927 a8be
000002c0: 8c04 463e 6fc2 863d 20e4 923d cc20 58be
000002d0: 43bf 883e bf6a e2bd 946f 333e 23a7 64bd
000002e0: b1a6 9fbd cf50 f83d 0794 753e 1dac a0be
000002f0: b92e fcbd 8697 b43d 672b 60be 999b 223d
00000300: 0604 64bf d60c 6cbe 6f62 fabc 8817 92be
00000310: 146d debd 5be8 b23e 8848 fabb a1a5 1cbd
00000320: 4757 01bc d381 1c3e 4c69 4c3e 1a37 a2be
00000330: 676f 8abe 2498 103e ae24 553e 613b 7ebe
00000340: 7a20 843e cd60 1bbe 082d 973d 4e29 1e3d
00000350: fc66 15be 88c5 34be 6bda 3bbe 497d c1bb
00000360: 42a1 033e dc9b 813e 7e80 2abe cbf6 9e3e
00000370: c16d 50be 347b 4f3e 0f42 5a3e 32a5 5b3e
00000380: 11ec 3cbe 4c8e 9bbe 6a17 b83e fc1c 60be
00000390: dee2 0cbe 129f 0ebe 55bc 3bbe 2c8b 5b3d
000003a0: 9cba a73d 3df0 ebbd 0a8e 6bbe 590e 8a3e
000003b0: c008 65be d119 a7be caf6 3dbe 0ac2 48be
000003c0: a253 e9bd 21b4 2ebe c9f8 3dbe 0b3b 06bd
000003d0: fd9f 463e 665d 4dbd 3b0b 17be fa96 19bd
000003e0: 8226 b5be f44e 923e 150c 573e d372 973e
000003f0: 1e15 e23d d168 583e ee50 203e ac22 b83e

dense_2/bias:0 f4 [25]
-0.019672152 0.035591837 -0.026199318 -0.045667358 -0.07041526 0.07700645 0.047809508 0.055835698
-0.027968861 -0.0650413 0.0639468 0.038402844 -0.05675391 -0.09036414 0.09547471 -0.039472505
0.065249 -0.035881624 -0.014332064 -0.03945458 -0.049177695 0.03391277 0.015955754 -0.044798207
-0.051148932
00000000: 7e27 a1bc bfc8 113d f49f d6bc b20d 3bbd
00000010: e035 90bd 8fb5 9d3d e7d3 433d f9b3 643d
00000020: f41e e5bc 6034 85bd 8af6 823d 4d4c 1d3d
00000030: ca76 68bd d610 b9bd 3f88 c33d ecad 21bd
00000040: 45a1 853d 9cf8 12bd 09d1 6abc 209b 21bd
00000050: 8d6e 49bd 1ee8 0a3d a4b5 823c 537e 37bd
00000060: 8b81 51bd

dense_1/kernel:0 f4 [4, 25]
-0.34313568 -0.07520098 0.16025689 -0.36238536 -0.39230835 -0.19429038 -0.8554773 0.0155200185
-0.36456385 0.33869994 -0.31139728 -0.4587156 -0.31810096 0.31107676 0.18803686 0.37332484
-0.032495774 -0.7270158 -0.38239288 0.4748571 0.70836824 0.23127352 0.27678597 -0.57733107
-0.004628894 0.17608699 0.1327158 0.46490172 -0.06820137 0.32117307 -0.45928934 0.087776795
-0.20127334 0.4266751 0.030719537 0.53856313 -0.0464879 0.18750092 -0.42146972 0.27937487
0.12849964 -0.26784253 -0.37827832 -0.507894 -0.5020943 -0.09000693 -0.16520794 -0.01714783
0.4293611 -0.25263423 -0.32020548 0.020949436 0.019665407 -0.6577146 0.301409 -0.35780996
-0.1330673 -0.16799738 -0.59721255 -0.114297286 -0.06436992 -0.43989637 0.5234542 0.37144336
0.54554373 0.4075194 0.24607317 -0.6447146 -0.064428404 -0.25594947 0.46370444 0.70806617
0.06703941 -0.031451184 0.5490279 0.27763388 0.6998402 0.33187848 -0.008949147 -0.062194772
-0.14636478 0.009789069 -0.04827536 0.6410566 0.019923918 -0.24278268 -0.20005564 -0.4132873
-0.51386166 0.098498955 -0.12705638 -0.62423766 -0.3356732 -0.40373075 -0.109990016 0.12592378
0.26932403 -0.17247894 0.11691802 0.04384385
00000000: 7baf afbe f902 9abd 621a 243e 938a b9be
00000010: a4dc c8be 0ff4 46be 8f00 5bbf ad47 7e3c
00000020: 1da8 babe 146a ad3e 776f 9fbe c5dc eabe
00000030: 21de a2be 7445 9f3e bc8c 403e 6f24 bf3e
00000040: 4a1a 05bd b51d 3abf 00c9 c3be 7820 f33e
00000050: 9f57 353f f7d2 6c3e e4b6 8d3e f8cb 13bf
00000060: faad 97bb 2650 343e a7e6 073e 9907 ee3e
00000070: 29ad 8bbd cc70 a43e f927 ebbe 52c4 b33d
00000080: 991a 4ebe 2975 da3e 8aa7 fb3c 46df 093f
00000090: 196a 3ebd 3e00 403e e1ca d7be 390a 8f3e
000000a0: 6995 033e a822 89be b2ad c1be 5705 02bf
000000b0: 4189 00bf 8e55 b8bd 452c 29be 9b79 8cbc
000000c0: 38d5 db3e 4659 81be f9f1 a3be 279e ab3c
000000d0: 5919 a13c fc5f 28bf 4852 9a3e de32 b7be
000000e0: cb42 08be 8107 2cbe ece2 18bf b214 eabd
000000f0: 60d4 83bd 193a e1be 1801 063f d32d be3e
00000100: c1a8 0b3f 62a6 d03e 9bfa 7b3e 040c 25bf
00000110: 0af3 83bd cf0b 83be ab6a ed3e d343 353f
00000120: f54b 893d f5d2 00bd 188d 0c3f 0726 8e3e
00000130: ba28 333f faeb a93e 719f 12bc f2bf 7ebd
00000140: a6e0 15be 5562 203c 62bc 45bd 491c 243f
00000150: 7c37 a33c 069c 78be 63db 4cbe 659a d3be
00000160: 708c 03bf d2b9 c93d 111b 02be 0ace 1fbf
00000170: 5cdd abbe ccb5 cebe 7242 e1bd 2af2 003e
00000180: d7e4 893e 529e 30be b772 ef3d 9c95 333d

dense_1/bias:0 f4 [25]
0.097540826 -0.016560761 0.09880977 0.06605495 0.052027907 -0.099934235 -0.018343003 0.09175116
0.08019755 -0.089546666 -0.123600125 0.14692847 -0.05878385 -0.0036797156 -0.087905295 -0.0016088145
0.13250326 0.01847926 -0.01331441 -0.105397426 0.14036834 -0.020415027 -0.02188062 0.125003
0.055501908
00000000: 7cc3 c73d 6faa 87bc c75c ca3d d147 873d
00000010: 371b 553d 52aa ccbd 1144 96bc 08e8 bb3d
00000020: 9d3e a43d 3e64 b7bd 1022 fdbd 6b74 163e
00000030: 56c7 70bd 6227 71bb b107 b4bd dbde d2ba
00000040: efae 073e d161 973c af24 5abc 9bda d7bd
00000050: b8bc 0f3e 6a3d a7bc fc3e b3bc c900 003e
00000060: f855 633d
