code/nnv/examples/NNV3.0/ToolComparison/benchmarks/oval21/onnx/cifar_deep_kw.onnx (onnx, 220858 bytes, 12 tensors)

0.bias f4 [8]
0	0xbe2ccace	-0.16874239
1	0xbb20c79e	-0.0024533044
2	0xbe568b44	-0.20951563
3	0x3bac4196	0.005256842
4	0xbee53482	-0.44766623
5	0x3f44b220	0.768343
6	0x3ed5e43a	0.41775686
7	0xbe1c2f56	-0.15252432

0.weight f4 [8, 3, 4, 4]
0	0xb84971a3	-4.8027967e-05
1	0xb6d5b530	-6.3689877e-06
2	0x379b0184	1.8478146e-05
3	0x381454a4	3.5364777e-05
4	0xb85c9329	-5.258914e-05
5	0xb6868e38	-4.0100676e-06
6	0x388e61f1	6.789331e-05
7	0x378233c6	1.5521317e-05
8	0xbe8b4933	-0.27204284
9	0xb61565ac	-2.226191e-06
10	0x3e9d7cc2	0.30759245
11	0x399da4bc	0.0003006811
12	0xb887a8c2	-6.468735e-05
13	0xb6770070	-3.6806123e-06
14	0x38a110b1	7.680187e-05
15	0x37ce7912	2.4613491e-05
16	0xb9e99222	-0.000445501
17	0xb68df369	-4.230464e-06
18	0x373648b1	1.086497e-05
19	0x369f59fc	4.749045e-06
20	0xb827bd07	-3.9991948e-05
21	0xb60f1d79	-2.1325816e-06
22	0x37af0616	2.086446e-05
23	0x3698d694	4.554933e-06
24	0xbdcf5e05	-0.10125355
25	0xb5c38941	-1.4568578e-06
26	0x3c3f6412	0.011681573
27	0x378bd22c	1.666796e-05
28	0xb7d0b908	-2.4881694e-05
29	0xb5e28b56	-1.6878864e-06
30	0x37e40d44	2.7185895e-05
31	0x371f97d2	9.512487e-06
32	0x35e5bc7d	1.7116687e-06
33	0xb53e11cc	-7.0806414e-07
34	0x38270147	3.9817092e-05
35	0x36a31687	4.860401e-06
36	0xb7e415fb	-2.7189953e-05
37	0xb4a11214	-3.000174e-07
38	0x37a25ea5	1.9355977e-05
39	0x36ea31c2	6.979536e-06
40	0xbe0e9de3	-0.13927417
41	0xb4c662c1	-3.6952227e-07
42	0x3e59c3a9	0.21266045
43	0x381c2880	3.7231017e-05
44	0xb7a983c8	-2.0207735e-05
45	0x35039b69	4.9027454e-07
46	0x37ebcabf	2.8108594e-05
47	0x37648876	1.3621631e-05
48	0x3842637f	4.6345867e-05
49	0x36194ee5	2.28447e-06
50	0x378e1835	1.6938991e-05
51	0x36b71136	5.4558286e-06
52	0xb6d4c373	-6.3408456e-06
53	0xb74c4ad9	-1.2176774e-05
54	0xb84275e0	-4.6362984e-05
55	0xb70a78fd	-8.253611e-06
56	0xb820ea1e	-3.836501e-05
57	0xb9f5c309	-0.00046875354
58	0xbf06652b	-0.5249812
59	0xba057106	-0.0005090389
60	0xb6e519f7	-6.8277545e-06
61	0xb75774e2	-1.28422125e-05
62	0xb887a7e2	-6.468572e-05
63	0xb71dfc78	-9.416712e-06
64	0x35248ee5	6.13027e-07
65	0x3666de97	3.4402235e-06
66	0x37c8b061	2.392399e-05
67	0x370041b3	7.644691e-06
68	0x350ac8db	5.170129e-07
69	0xb4d9eedc	-4.0593193e-07
70	0x367cb714	3.7657492e-06
71	0x35d42b4d	1.5807833e-06
72	0xb79aa785	-1.8436238e-05
73	0xb7924350	-1.7435901e-05
74	0xbe46b310	-0.19404244
75	0xb709acf7	-8.206108e-06
76	0xb642f935	-2.905331e-06
77	0xb64e9d98	-3.0788124e-06
78	0xb6de9dce	-6.6344865e-06
79	0xb58004e1	-9.538163e-07
80	0x394be54b	0.00019445007
81	0x364187d5	2.8838306e-06
82	0x386ccfb7	5.6460234e-05
83	0x369eedac	4.7364356e-06
84	0x34e662a0	4.2912598e-07
85	0x35ab453a	1.276064e-06
86	0x36eb2aca	7.008527e-06
87	0x36204616	2.3882653e-06
88	0x3a73163a	0.00092730264
89	0x353e84dc	7.097385e-07
90	0x3c878fb0	0.016548008
91	0x3658a086	3.2279945e-06
92	0x359210b9	1.0882715e-06
93	0x366bc981	3.513502e-06
94	0x370da5c3	8.442849e-06
95	0x36a5d4e6	4.942168e-06
96	0xb8ab8d56	-8.180241e-05
97	0x362e8378	2.6004545e-06
98	0x36d97615	6.4808505e-06
99	0x36cd8c40	6.1258033e-06
100	0xb7c5eb79	-2.359388e-05
101	0xb773bbb0	-1.4527628e-05
102	0xb76b0706	-1.4008727e-05
103	0x36a98b70	5.052825e-06
104	0xbdd2e81d	-0.10298178
105	0xb9def964	-0.0004252895
106	0xbe56131d	-0.20905729
107	0xb92ff497	-0.00016780417
108	0xb7d3849c	-2.5214911e-05
109	0xb78f5491	-1.7086308e-05
110	0xb8a30377	-7.773091e-05
111	0xb7bb784b	-2.2348153e-05
112	0x36dc024d	6.5567788e-06
113	0x37393863	1.1039988e-05
114	0x3ab4c145	0.0013790509
115	0x375af158	1.3050005e-05
116	0xb66e1dfc	-3.5482217e-06
117	0x35befb30	1.4229208e-06
118	0x36a22660	4.8324437e-06
119	0x36b1f127	5.303085e-06
120	0xbc40917c	-0.011753436
121	0xb7ad6a13	-2.0672602e-05
122	0xbcb4e60f	-0.022082357
123	0x35dca323	1.6438756e-06
124	0xb73a7c83	-1.1115454e-05
125	0xb6967608	-4.484089e-06
126	0xb7d638ff	-2.5537329e-05
127	0xb6a0d3ed	-4.793043e-06
128	0x3d3595d1	0.04433233
129	0x381fb5de	3.807793e-05
130	0x3ea3b2b6	0.31972283
131	0x3806a9f6	3.2106378e-05
132	0x3241a405	1.1271372e-08
133	0xb554a35e	-7.9213885e-07
134	0x368f292e	4.266526e-06
135	0x36ac5559	5.135935e-06
136	0xb7ca1966	-2.4092104e-05
137	0xb64976b6	-3.0020433e-06
138	0xb78db5fc	-1.6893253e-05
139	0xb457b9b1	-2.009099e-07
140	0xb6879680	-4.040834e-06
141	0xb6925ee6	-4.3621867e-06
142	0xb6c948a2	-5.9987224e-06
143	0xb68e5ccd	-4.242733e-06
144	0x3cbf89fb	0.023381224
145	0xb7347085	-1.0755034e-05
146	0x3b952bf8	0.0045523606
147	0xb699c8df	-4.58314e-06
148	0xb57e76d3	-9.4795286e-07
149	0xb745e646	-1.179573e-05
150	0xb7d71b9e	-2.5642858e-05
151	0xb72b4a5c	-1.0209707e-05
152	0x3d056549	0.032567296
153	0x3624a010	2.4531073e-06
154	0xb7f95b63	-2.9725668e-05
155	0x37dd894a	2.6409183e-05
156	0x374e0630	1.22799975e-05
157	0xb6ba061a	-5.5439423e-06
158	0xb789aa40	-1.6410952e-05
159	0xb6c93c3a	-5.997278e-06
160	0xb71f7daa	-9.506397e-06
161	0xb7c6e2b1	-2.3709e-05
162	0xbb44656f	-0.0029967686
163	0xb7ec9421	-2.820237e-05
164	0xb7806aaa	-1.5308458e-05
165	0xb81210c4	-3.4824727e-05
166	0xb8bd9ffb	-9.042021e-05
167	0xb819a4df	-3.663159e-05
168	0xb89cfdf1	-7.48596e-05
169	0xb8a35e6b	-7.7900324e-05
170	0xbf44ac33	-0.76825255
171	0xb8a20346	-7.725372e-05
172	0xb684a47a	-3.953054e-06
173	0xb803ee7e	-3.1454947e-05
174	0xb8c208ab	-9.2522554e-05
175	0xb80e00e3	-3.3856264e-05
176	0xb7efb27f	-2.8574139e-05
177	0xb7fbde84	-3.0025149e-05
178	0xba3323f6	-0.00068336667
179	0xb801193a	-3.077949e-05
180	0xb7a098d9	-1.9144662e-05
181	0xb813a364	-3.51997e-05
182	0xb8578353	-5.13823e-05
183	0xb8156161	-3.561506e-05
184	0xba1d6447	-0.0006004017
185	0xb84ffe63	-4.9589562e-05
186	0xbcfa5e73	-0.030562615
187	0xb84aff7d	-4.8398495e-05
188	0xb75e482a	-1.3249033e-05
189	0xb807e6f9	-3.240162e-05
190	0xb850d6c4	-4.979108e-05
191	0xb80b1fb6	-3.3169716e-05
192	0x39feefd1	0.00048625332
193	0x3d13fccc	0.036129758
194	0x3eee1a96	0.46504658
195	0x39e63d80	0.0004391484
196	0x378bfe9b	1.6688651e-05
197	0x38d0c682	9.955188e-05
198	0x3990e1c9	0.00027634043
199	0x379dfcb3	1.883353e-05
200	0xbd8969e3	-0.067096494
201	0xba9c3a90	-0.0011919308
202	0xbc6a23a7	-0.014290727
203	0xba3be670	-0.0007167822
204	0xb870914d	-5.735578e-05
205	0xb82d8184	-4.1367035e-05
206	0xb949e156	-0.00019252798
207	0xb833fdf5	-4.291344e-05
208	0xba265a7d	-0.0006345881
209	0xbdb1e6bb	-0.086865865
210	0xbf0a7528	-0.54085016
211	0xbc11186c	-0.00885592
212	0x37f0d83b	2.871092e-05
213	0x35bca1b5	1.4054154e-06
214	0xb9407f2d	-0.00018357924
215	0xb87b478d	-5.99097e-05
216	0x3c50dd83	0.012748125
217	0x388ea9b2	6.802696e-05
218	0x381edbb6	3.7874757e-05
219	0x381dc47e	3.7614715e-05
220	0x38616264	5.3735814e-05
221	0x382a7e73	4.0648923e-05
222	0x383a0c08	4.435706e-05
223	0x380187e3	3.088255e-05
224	0x3c931bfe	0.017957684
225	0x386a9734	5.5930766e-05
226	0x382e74e2	4.159369e-05
227	0x385a21c1	5.2006686e-05
228	0x388de00d	6.765137e-05
229	0x387c9ad2	6.022567e-05
230	0x38581953	5.1521998e-05
231	0x385a2f8f	5.2019543e-05
232	0x3d7d7426	0.061878346
233	0x38b8c662	8.8107554e-05
234	0x3c8e61f4	0.017380692
235	0x388d9f04	6.753023e-05
236	0x38b75cb7	8.7433895e-05
237	0x3897dd6e	7.2414856e-05
238	0x3880a58f	6.134353e-05
239	0x38802d63	6.1119696e-05
240	0x3c172180	0.009224296
241	0x38a45453	7.835836e-05
242	0x3cde1376	0.02710889
243	0x38b25316	8.5031774e-05
244	0xb5cd0654	-1.5275532e-06
245	0x37ac0c3f	2.05097e-05
246	0x38d168da	9.985427e-05
247	0x37c71bb8	2.3735556e-05
248	0x3c141e8f	0.009040489
249	0x3a40976d	0.0007346783
250	0x3f363503	0.7117464
251	0x3a12f1c2	0.0005605483
252	0xb63cb346	-2.8118534e-06
253	0x37887917	1.626885e-05
254	0x38caf1a3	9.677119e-05
255	0x380c5ce0	3.3465098e-05

11.bias f4 [10]
0	0xbe751634	-0.23934251
1	0xbd79ec1c	-0.061016187
2	0xbe1c3a42	-0.15256599
3	0x3d6b3dd2	0.057432003
4	0x3d748a36	0.05970212
5	0xbdb40898	-0.08790702
6	0x3dc17e35	0.094479
7	0x3e33a256	0.17542395
8	0xbd79f85b	-0.061027866
9	0x3e5bfac7	0.21482383

11.weight f4 [10, 100]
0	0x3a403769	0.00073324755
1	0xbe088467	-0.13331757
2	0x3e0bfc30	0.1367042
3	0xbd2aac1f	-0.041668054
4	0x3e337bcc	0.17527694
5	0x3cbd28ea	0.023090798
6	0xbda194d9	-0.078897186
7	0x3c3c8172	0.011505472
8	0xbc7d0821	-0.015443833
9	0x3e03a72e	0.12856743
10	0xbd1b1e65	-0.037870783
11	0x3e43e647	0.19130813
12	0xbc165bcd	-0.00917716
13	0xbd6db0f9	-0.058030102
14	0xb04caf7c	-7.4464146e-10
15	0xbc826556	-0.015917461
16	0xbd146dcd	-0.036237527
17	0x3dc2ba2f	0.09508168
18	0x3d7bfbd3	0.061519455
19	0xbcbfca93	-0.023412025
20	0x3dca4512	0.09876455
21	0x3e7193f2	0.23591593
22	0x3e3d26b1	0.18471791
23	0xbd3fec7d	-0.046856392
24	0xbccd0167	-0.025025083
25	0xbe18cc78	-0.14921749
26	0x3e8c1814	0.2736212
27	0xbd99485d	-0.07484505
28	0x3ea3cc99	0.31992033
29	0xbe5cd3f5	-0.2156523
30	0x3e249539	0.16072549
31	0xbd3b2ebf	-0.045698877
32	0xbd715f74	-0.05892892
33	0xbd6298d0	-0.055321515
34	0xbbb4e3ee	-0.0055203354
35	0x3e86fe90	0.2636609
36	0x3ed83b76	0.42232865
37	0x3e6e9a05	0.23300941
38	0x3dbbfc7a	0.091790155
39	0x3d9f7b0c	0.07787141
40	0xbd339d11	-0.043850962
41	0xbdfe1849	-0.12406976
42	0xbd8be2b7	-0.06830352
43	0xbe2c135c	-0.1680426
44	0x3d12d9b4	0.03585215
45	0x3da6626d	0.08124242
46	0xbb0f82ce	-0.0021898034
47	0x3d11e286	0.03561642
48	0xbcbb5b39	-0.022870647
49	0x3d95fb46	0.07323317
50	0xbc9520d6	-0.018204134
51	0x3ddec206	0.10876851
52	0xbcba32bb	-0.022729268
53	0xbe12fabe	-0.14353463
54	0xbdd1b334	-0.102392584
55	0x37873447	1.6117598e-05
56	0xbd111770	-0.035422742
57	0xbd611dae	-0.054959945
58	0x3d2e10f6	0.042496644
59	0xbd8b3155	-0.06796519
60	0xbd4db851	-0.050224606
61	0xbd679f4b	-0.056548398
62	0xbd84aff4	-0.06478873
63	0xbd2e87a4	-0.042609826
64	0xbd2d9df8	-0.04238698
65	0xbe0d4321	-0.13795139
66	0xbdb20b41	-0.08693553
67	0xbd659df2	-0.05605883
68	0x3e835df7	0.25657627
69	0xbdaefb9b	-0.08544084
70	0xaf0a94fb	-1.2603955e-10
71	0xbc9d9b6b	-0.019239148
72	0x3ed38d79	0.41318873
73	0xbd966381	-0.073431976
74	0xbdc85667	-0.09782105
75	0x3e016596	0.12636408
76	0xbdd5f943	-0.104479335
77	0x3e20a457	0.1568769
78	0x3c5f19ef	0.013617023
79	0xb9c3bd14	-0.00037334173
80	0xbc9530da	-0.01821177
81	0xbe3f5b08	-0.1868707
82	0xb13629c0	-2.6508218e-09
83	0x3e9ea661	0.30986312
84	0xb98b31be	-0.00026549207
85	0xbd7b8005	-0.061401386
86	0xbdbebbc1	-0.09313155
87	0x38a385c0	7.7973586e-05
88	0x3e1aa9f0	0.15103889
89	0xbd6585bf	-0.056035753
90	0x3ed5f462	0.41788012
91	0xbd874558	-0.06605023
92	0x3e8d607c	0.27612674
93	0xbd49e557	-0.04929098
94	0xbd383af2	-0.04497809
95	0xbdefb0b2	-0.11703624
96	0x3e6ecbd0	0.23319936
97	0xbd23b951	-0.039971653
98	0xbd599d51	-0.053128544
99	0xbcb628d5	-0.022236267
100	0xbd81aba7	-0.06331568
101	0xbdea9741	-0.11454631
102	0xbdc6cbe0	-0.09706855
103	0xbc568988	-0.013094313
104	0xbe40cd70	-0.18828368
105	0xbc9078e6	-0.017635774
106	0x3eb8d275	0.36098066
107	0x3e74e14a	0.23914066
108	0x3bae19e8	0.005313147
109	0xbddc23e3	-0.10749032
110	0xbd182bc3	-0.03715111
111	0x3d2bff2f	0.04199141
112	0xbe801717	-0.25017616
113	0x3eab30f5	0.3343579
114	0xaf604ccd	-2.0399966e-10
115	0x3e965d07	0.2936785
116	0x3eb2ccf3	0.3492199
117	0xbe836218	-0.25660777
118	0xbe103a89	-0.1408483
119	0xbd84e1d8	-0.06488389
120	0xbdee95ae	-0.11649643
121	0xbe4061ea	-0.18787351
122	0xbde9ee00	-0.11422348
123	0xbdc34522	-0.095346704
124	0xbccc5201	-0.024941446
125	0xbdb809bc	-0.08986232
126	0xbe07b8d6	-0.13254103
127	0xbdb2c1c0	-0.08728361
128	0xbd3b3ebd	-0.04571413
129	0xbba47e81	-0.0050199633
130	0x3e5461bb	0.20740406
131	0xbc94ce8e	-0.0181649
132	0xbd2fc59b	-0.04291306
133	0x3e7469c7	0.23868476
134	0xbd6d3f0a	-0.057921447
135	0xbdd8e299	-0.10590095
136	0xbdfbc6ab	-0.12293752
137	0xbcc6c4b2	-0.024263714
138	0x3e8e305f	0.2777128
139	0xbd22b849	-0.03972653
140	0xbd3358b7	-0.043785777
141	0xbe81c1b6	-0.25343102
142	0xbd8be035	-0.068298735
143	0xbaef6955	-0.0018265644
144	0xbd6614ad	-0.05617206
145	0xbd880b20	-0.06642747
146	0xbb132384	-0.002245159
147	0xbe1086a3	-0.1411386
148	0x3db701eb	0.08935913
149	0xbd6e3456	-0.05815538
150	0xbdb10104	-0.08642772
151	0x3d483a5e	0.04888379
152	0xbd8df2d1	-0.06931079
153	0xbd90202a	-0.07037385
154	0x3b8b8c39	0.004258659
155	0xb8319942	-4.234282e-05
156	0xbd0f9ae5	-0.03505983
157	0xbd5a720f	-0.05333143
158	0xbd9b052f	-0.07569348
159	0xbda21570	-0.07914245
160	0xbd876210	-0.06610501
161	0xbd67a517	-0.056553926
162	0xbe9cef03	-0.306511
163	0xbde15898	-0.11003226
164	0xbe045aa0	-0.12925196
165	0xbd935252	-0.07193436
166	0x3e9a273e	0.30108064
167	0xbd34225f	-0.04397809
168	0x3d8e85cc	0.069591135
169	0xbe0c2176	-0.1368464
170	0xb15cf9a1	-3.215611e-09
171	0xbd245ad8	-0.040125698
172	0xbd538e7f	-0.051649567
173	0x3e802890	0.25030947
174	0x3e10e737	0.14150701
175	0xbda4c423	-0.080452226
176	0x3eba0011	0.36328176
177	0xbe1118a1	-0.14169551
178	0xbd7c1e87	-0.06155255
179	0xbe005d14	-0.12535506
180	0xbe2d4de8	-0.1692425
181	0x3d48d0a8	0.049027115
182	0xb18d7356	-4.1167523e-09
183	0xbd7aea62	-0.06125868
184	0x3b2791b2	0.002556902
185	0xbd7b499d	-0.0613495
186	0x3e9f40b1	0.31104043
187	0x3871bf80	5.7637226e-05
188	0x3e1a9d41	0.1509905
189	0x3e66731e	0.22504851
190	0xbd449612	-0.04799468
191	0x3b9e0096	0.004821847
192	0xbd4c27eb	-0.049842756
193	0xbd2f7469	-0.042835627
194	0xbd0215b2	-0.03175897
195	0xbdf88480	-0.12134647
196	0xbe1c4055	-0.15258916
197	0x3eb81153	0.35950717
198	0xbd5bbee2	-0.053648837
199	0x3ede4324	0.434106
200	0xbd82e54c	-0.06391391
201	0x3ce97e71	0.028502675
202	0x3d13e727	0.036109116
203	0x3e167f90	0.14697099
204	0xbc169386	-0.009190446
205	0xbce249b9	-0.027623044
206	0xbda3b21d	-0.07992957
207	0x3c127788	0.008939631
208	0xbd009292	-0.03138978
209	0x3d74468b	0.059637588
210	0xbd123084	-0.0356908
211	0x3ccb6ee8	0.024833158
212	0x3e4231ad	0.18964262
213	0xbd6f2c90	-0.058392107
214	0x31809c67	3.743071e-09
215	0xbd80a99e	-0.06282352
216	0xbd134873	-0.035957765
217	0x3dc907cc	0.0981594
218	0x3db5872e	0.08863674
219	0xbe08fd44	-0.13377863
220	0x3e40a139	0.18811502
221	0x3e45b018	0.19305456
222	0xbce0f6c9	-0.027461426
223	0x3e570dfe	0.21001431
224	0xbd40cbe8	-0.04706946
225	0x3dc804e8	0.09766561
226	0x3c7ac158	0.015304886
227	0xbd3ab2ae	-0.04558056
228	0x3cd8f9df	0.026486335
229	0x3d64d9f3	0.055871915
230	0xbdd57582	-0.104228035
231	0x3cfdf573	0.031000828
232	0x3e235242	0.15949348
233	0xbd98598c	-0.07438955
234	0xbd6504b7	-0.0559127
235	0x3dd4f682	0.1039858
236	0x3e0167e4	0.12637287
237	0xbc01a3b4	-0.007912565
238	0xbd621d51	-0.05520374
239	0xbc3a9007	-0.011386878
240	0xbcfba9ca	-0.03072061
241	0x3e01518d	0.12628765
242	0xbd8bcc7e	-0.06826113
243	0xbe237b4b	-0.15965001
244	0xbb49ebbb	-0.0030810672
245	0x3e81577e	0.25262064
246	0xbdc1d31d	-0.09464095
247	0x3e41e56a	0.18935171
248	0x3d82e538	0.06391376
249	0x3e82e9d9	0.25569037
250	0xbc534ed1	-0.012897209
251	0x3d12e681	0.035864357
252	0xbc65993c	-0.014013585
253	0xbd206f35	-0.039168555
254	0xbd640fd2	-0.05567915
255	0x36bfb12c	5.712869e-06

2.bias f4 [8]
0	0xbdf50567	-0.11963921
1	0xbdf2c450	-0.1185385
2	0xbeb10850	-0.34576654
3	0x3ee02ad6	0.4378268
4	0xbd8e11ff	-0.06937026
5	0x3f00fb36	0.5038332
6	0xbcfcff52	-0.030883465
7	0x3f5fa89b	0.87366647

2.weight f4 [8, 8, 3, 3]
0	0xbbb154b3	-0.0054117083
1	0x3b18bbdf	0.002330534
2	0xbb112c3c	-0.002215161
3	0xbbff5fd7	-0.0077934074
4	0xb9a55783	-0.00031536454
5	0x3c5b961b	0.013402487
6	0xbcca60b4	-0.024704315
7	0x3b1e5446	0.0024159118
8	0x3ccb8127	0.024841858
9	0xbda1ff34	-0.07910004
10	0x3bce0e88	0.0062883534
11	0x3b6fb89c	0.0036578542
12	0xbe0a9146	-0.1353198
13	0x3c595308	0.013264425
14	0x3c356b6c	0.011072975
15	0xbd3de44f	-0.04636031
16	0x3b197f69	0.002342189
17	0x3aa6ed3d	0.0012735497
18	0x3cdbc925	0.026829312
19	0x3adab372	0.0016685559
20	0xbbf97d46	-0.0076138107
21	0xbd876973	-0.0661191
22	0xbcd9028d	-0.026490474
23	0xbc0f41f0	-0.008743748
24	0x3a02ae7a	0.00049851055
25	0xb814a213	-3.5436893e-05
26	0xbd03e353	-0.032199215
27	0xbcd97658	-0.026545689
28	0xbaab8680	-0.0013086349
29	0x3db2d0c8	0.08731228
30	0xbd9fe130	-0.07806623
31	0xbb221b67	-0.0024735571
32	0x3dbd7d83	0.09252455
33	0xbc771fc9	-0.015083262
34	0xb9474b74	-0.00019006227
35	0x3bd5ac5a	0.00652079
36	0xbb7b7723	-0.0038370572
37	0xbbcd7c21	-0.006270901
38	0xbb4975b1	-0.0030740316
39	0xbc41b792	-0.011823552
40	0xbcd90798	-0.026492879
41	0xbd2a5013	-0.04158027
42	0xbbaf194d	-0.0053435923
43	0xbbfa4994	-0.0076381657
44	0xbcc4bcd4	-0.024015822
45	0x3e2dfcf1	0.1699102
46	0x3ce0f0fb	0.027458658
47	0xbdbd161a	-0.09232731
48	0x3e1bbe36	0.15209278
49	0x3c2a33c8	0.010388322
50	0xbe64d5fc	-0.22347254
51	0x3d66f857	0.05638918
52	0x3b02e011	0.001996998
53	0xbe0b22a2	-0.1358743
54	0x3e705daf	0.23473237
55	0x3d2b8a31	0.041879836
56	0xbe33274f	-0.17495464
57	0x3e28f62a	0.16500154
58	0x3c05100c	0.008121502
59	0xbe8c6cd6	-0.27426785
60	0x3c488b03	0.012240174
61	0x3a32ea0c	0.0006825037
62	0xbe25b6e9	-0.16183056
63	0xbc8fcc0a	-0.017553348
64	0xbc45729b	-0.01205125
65	0xbca00d4b	-0.019537589
66	0xbd546a38	-0.05185911
67	0xbcf84f28	-0.030311182
68	0xbd6bd1b2	-0.057573028
69	0xbda899ec	-0.08232483
70	0xbdadb21d	-0.08481238
71	0xbd30a900	-0.04312992
72	0xbe023ea9	-0.12719215
73	0x3d1ffb6c	0.039058134
74	0x3d4134b4	0.047169402
75	0xbce44588	-0.027865186
76	0x3dc48413	0.09595504
77	0xbc00499c	-0.00783005
78	0x3d395a79	0.045252297
79	0x3ddaff28	0.106931984
80	0xb88ff165	-6.8637346e-05
81	0x3cb571d7	0.02214901
82	0xb8845e7e	-6.311851e-05
83	0xbc99f11e	-0.018791731
84	0x3cfeb380	0.031091452
85	0x3b6facbf	0.003657147
86	0xbe2d0f2a	-0.16900316
87	0xba8d5f55	-0.0010785857
88	0xbb30de50	-0.0026987977
89	0xbe27562d	-0.16341467
90	0xbd02db01	-0.03194714
91	0xbd722e29	-0.059126053
92	0xbbba6806	-0.00568867
93	0xbba856c2	-0.0051372955
94	0xbd49fbab	-0.049312275
95	0xbd560fe5	-0.052261252
96	0xbba6e6e5	-0.0050934427
97	0xbd4f9747	-0.05068138
98	0xbd9da38a	-0.07697208
99	0x3d968b6b	0.073508106
100	0x39049aed	0.00012646215
101	0x3b973938	0.0046149753
102	0x3e168926	0.14700755
103	0xb97dde5a	-0.00024210793
104	0xbcd6ec7e	-0.026235815
105	0x3d300e24	0.042982236
106	0x3a540509	0.00080879085
107	0xbdaffeeb	-0.085935436
108	0xba49e804	-0.00077021145
109	0x36df6972	6.6581933e-06
110	0x391e723c	0.0001511061
111	0xbcc488e7	-0.023991061
112	0xbb62e5b4	-0.0034621777
113	0xbba80518	-0.0051275603
114	0xbccc8177	-0.024964077
115	0xbbd0d941	-0.006373555
116	0xbb611c25	-0.003434905
117	0xbe3d5c32	-0.18492201
118	0xba32042c	-0.0006790783
119	0x3d90b8b5	0.0706648
120	0xbe7136e2	-0.23556092
121	0x3c91b631	0.017787071
122	0x3db8edff	0.09029769
123	0xbd6dd52b	-0.05806462
124	0x3cd82959	0.026386904
125	0x3e31a09e	0.17346427
126	0xbe8052de	-0.25063223
127	0x3a016ec3	0.0004937464
128	0x3c740f4e	0.014896227
129	0xbe98126c	-0.29701555
130	0x3d12ec08	0.03586963
131	0x3dcddcbd	0.10051868
132	0xbcf34206	-0.029694568
133	0x3c10e86e	0.008844478
134	0x3e281e3e	0.16417786
135	0xbc98f89d	-0.018673236
136	0x3a5ec794	0.00084983674
137	0x3ba03fe7	0.0048904303
138	0xbd8dfa38	-0.06932491
139	0xbc910be0	-0.017705858
140	0xbb16da32	-0.0023018238
141	0x3d228b1b	0.039683443
142	0xbca57618	-0.020197913
143	0xbd6409c5	-0.05567338
144	0xbbd75e7d	-0.006572543
145	0xbcdeb510	-0.027185947
146	0xbca939ac	-0.020657383
147	0xbcef9f5d	-0.029250795
148	0xbdc38f7c	-0.09548852
149	0xbd904dbe	-0.07046078
150	0xb911fbd2	-0.00013922088
151	0xbbf9dd4f	-0.007625259
152	0xbb9ca0e9	-0.004779924
153	0xbb4c2b59	-0.0031153767
154	0xbce6f782	-0.028194193
155	0xbc3101d0	-0.010803655
156	0xbcd8efd9	-0.026481556
157	0xbe5aa665	-0.21352537
158	0xbd71cd08	-0.059033424
159	0xbc5d125c	-0.013493147
160	0xbca81740	-0.020518899
161	0xbb36ec45	-0.0027911824
162	0xba83e4ea	-0.0010062729
163	0xbaea7c0f	-0.0017889756
164	0xbb658a4d	-0.003502506
165	0xbce16c6e	-0.027517524
166	0xbd5cc5f5	-0.053899724
167	0xbd286132	-0.041108318
168	0xbd455d05	-0.048184413
169	0xbd79353d	-0.060841788
170	0xbd485ad8	-0.04891476
171	0x3a151b71	0.0005687988
172	0x3bd9cba2	0.0066465894
173	0x3aec3536	0.0018021229
174	0x3d438295	0.047731955
175	0x3eb705be	0.35746568
176	0x3d3b3090	0.04570061
177	0x3b914a42	0.004433901
178	0x3d131823	0.03591169
179	0x3a3c9642	0.0007194021
180	0xbd02c203	-0.031923305
181	0x3bb026a6	0.005375701
182	0xbd037a4f	-0.032099064
183	0x3d0c5026	0.034256123
184	0x3e02a62c	0.12758702
185	0x3d53671c	0.051612005
186	0x3dfb6b13	0.12276282
187	0x3f1a6e4e	0.6032456
188	0x3e814872	0.25250584
189	0xbc40da39	-0.011770778
190	0x3b0f6c62	0.002188467
191	0x398b27c0	0.00026541762
192	0x3ca8b69d	0.02059489
193	0x3ecce0c2	0.40015227
194	0x3dbae2ff	0.09125327
195	0xbc435acc	-0.011923503
196	0xbb9851b4	-0.0046484116
197	0xba65732c	-0.00087528187
198	0xba5f7725	-0.0008524529
199	0xbb1cd2e3	-0.002392941
200	0x36456bc9	2.9418027e-06
201	0xbd4f830e	-0.050662093
202	0xbebd2a01	-0.3694611
203	0xbd9e988b	-0.07743939
204	0x39145060	0.00014144322
205	0xbbcc748a	-0.0062394785
206	0x36c405f0	5.8419464e-06
207	0x3d2d5e21	0.042326096
208	0x3cc2171d	0.023692662
209	0x3d5de4fa	0.054173447
210	0x3d139e1e	0.036039464
211	0x3da9458d	0.08265219
212	0x3d38d41a	0.04512415
213	0xbc3eb303	-0.011639359
214	0xbc7060b3	-0.014671492
215	0xbc1aeff5	-0.009456624
216	0xbb827ccc	-0.003982162
217	0xbd0cb40b	-0.03435139
218	0xbd8af98f	-0.06785881
219	0xbb21468d	-0.0024608702
220	0xbda5f76c	-0.081038326
221	0xbe2d998d	-0.16953106
222	0xba1173c2	-0.00055485603
223	0xbc2008e6	-0.009767747
224	0xbd5453b3	-0.051837634
225	0xb9dbdb2b	-0.00041934228
226	0x3bd6fd53	0.0065609603
227	0x3bf00806	0.007325175
228	0xbc9edb31	-0.019391628
229	0xbd1b96f9	-0.037985776
230	0xba4504f9	-0.00075156946
231	0x3a36f516	0.00069792697
232	0xbc646646	-0.0139403995
233	0x3bb4da4b	0.0055191866
234	0xbc5a82cb	-0.013336848
235	0x3a489289	0.000765123
236	0xbbc7a278	-0.006092366
237	0xbc332808	-0.010934837
238	0x3b6422b1	0.0034810717
239	0xb9a6f4bc	-0.0003184433
240	0x3b0183d0	0.0019762404
241	0x3e63d61a	0.22249642
242	0x3da06f7a	0.078337625
243	0xba313643	-0.00067601
244	0xbab1cf77	-0.0013565858
245	0xbb024660	-0.0019878373
246	0xbd33f6b6	-0.043936454
247	0xbe65079f	-0.22366188
248	0xbd40c4b4	-0.04706259
249	0xba5e4c58	-0.0008480004
250	0xba34412e	-0.00068761676
251	0xbb06710d	-0.002051416
252	0x3c88b0df	0.016685901
253	0x3ca5941e	0.02021223
254	0x3c826a66	0.015919875
255	0x3c7466c9	0.014917084

4.bias f4 [8]
0	0xbd49e0a9	-0.04928652
1	0xbc5fa02c	-0.013649028
2	0xb293a5b7	-1.718841e-08
3	0x3f5ad33e	0.8547858
4	0x3ec5a545	0.38602653
5	0x3c7699e6	0.015051341
6	0x3fe450ad	1.783712
7	0x3f4bcabc	0.79606223

4.weight f4 [8, 8, 3, 3]
0	0x3c2df7f4	0.010618199
1	0xbde7ee73	-0.113247775
2	0xbe37cbf7	-0.179489
3	0xbaa45b88	-0.0012539485
4	0x3b48e20c	0.0030652313
5	0xbe1739fb	-0.14768212
6	0xbdc0444f	-0.09388029
7	0x3c4cbf30	0.0124967545
8	0x3c93cc86	0.01804186
9	0xbce4e239	-0.027939903
10	0xbd8d15ce	-0.068889245
11	0x3d1cbce6	0.038266085
12	0xbbdd702e	-0.0067577576
13	0x3b818799	0.003952932
14	0x3c8af669	0.0169632
15	0x3cce1561	0.025156679
16	0xbd0bf3de	-0.034168117
17	0xbd768cd9	-0.060192917
18	0x399dd0dc	0.00030100986
19	0x3ae61c3f	0.0017556025
20	0x3d3f8798	0.04676017
21	0xbd1a07e3	-0.037605178
22	0xbcac6c2c	-0.021047674
23	0x3c65a5ba	0.014016563
24	0xbccfedf3	-0.025382018
25	0xbd045eee	-0.032317095
26	0xbcb91cd3	-0.022596752
27	0xbd4238fe	-0.047417633
28	0xbda1a66c	-0.078930706
29	0xbc40e471	-0.011773215
30	0x3cf7df06	0.030257713
31	0xbce1fc2e	-0.027586069
32	0xbe5cb324	-0.21552712
33	0xbd8c1a10	-0.068409085
34	0xb96e71a3	-0.00022739782
35	0xbc1e5252	-0.009663181
36	0x3c860566	0.016359996
37	0xbd57028e	-0.05249267
38	0xbdc93f55	-0.09826533
39	0xbe47b332	-0.19501951
40	0xbdd853e1	-0.10562874
41	0xbd1e95bf	-0.038717028
42	0xbba6500b	-0.00507546
43	0xbcd55a2a	-0.02604397
44	0xbc08a0fc	-0.008339163
45	0x3d58c2e2	0.05292023
46	0xbe3c0c17	-0.18363987
47	0xbd8f94ac	-0.07010779
48	0x3eb71907	0.35761282
49	0x3c312822	0.010812791
50	0xbf28ddd4	-0.6596348
51	0x3e47585b	0.19467299
52	0x3e97ad20	0.2962427
53	0xbe0ba185	-0.13635834
54	0x3e636bca	0.22209087
55	0x3d5b4c04	0.05353929
56	0xbdb52333	-0.08844604
57	0x3e1c733a	0.1527833
58	0x3dd4e48a	0.10395153
59	0xbea69e93	-0.32542858
60	0xbdfcd34e	-0.12344991
61	0x3dce0ba3	0.10060813
62	0x3e7004e6	0.23439369
63	0x3c351708	0.011052854
64	0xbd8c7929	-0.06859047
65	0xbd554de6	-0.052076243
66	0xbbd636ef	-0.0065373103
67	0x3c991e83	0.018691307
68	0xbd6af17b	-0.0573592
69	0xbcc4c4d9	-0.024019646
70	0xbb2d1cee	-0.0026414949
71	0xbcd7a014	-0.026321448
72	0xbcb406fe	-0.02197599
73	0x3c588560	0.013215393
74	0x3d220586	0.03955605
75	0x3cb7a695	0.0224183
76	0x3c91b353	0.017785704
77	0x3cb78024	0.02239997
78	0x39bbbf04	0.00035809737
79	0x3c99ae17	0.01875977
80	0x3bb6fe65	0.0055845254
81	0xbd0364e7	-0.03207865
82	0xbda302c3	-0.07959511
83	0xbd1bf4a1	-0.038075093
84	0xbc52542f	-0.012837454
85	0xbc4f2582	-0.01264322
86	0xbc299aa1	-0.010351808
87	0xbcb08d2c	-0.021551691
88	0xbdabc334	-0.083868414
89	0xbc178ad7	-0.009249411
90	0xbc7e5ac5	-0.015524571
91	0xbb0788a8	-0.0020680819
92	0xbc4573b3	-0.012051511
93	0xbc5d6e57	-0.013515077
94	0xbbb5248f	-0.0055280398
95	0xbc29f9a6	-0.010374462
96	0xbbb20e11	-0.0054338058
97	0xbae30a51	-0.00173218
98	0xbb65b661	-0.0035051333
99	0xbeaebe0c	-0.3412937
100	0xbca8a335	-0.020585636
101	0x3e267e41	0.162591
102	0x3c6df09d	0.014522699
103	0xba0e9618	-0.0005439236
104	0xbd5eb65d	-0.054373134
105	0x3b26e32b	0.0025464993
106	0xbb8732f4	-0.004125947
107	0xbbd4ad7b	-0.006490407
108	0xbb9ba55c	-0.004749937
109	0xbc843d93	-0.016142642
110	0xbd2ccaef	-0.04218572
111	0xbbf7fa1b	-0.0075676567
112	0xbc3fa36f	-0.01169668
113	0xbca75fa4	-0.020431347
114	0xbab1cd69	-0.0013565245
115	0xbbf2f2a0	-0.007414177
116	0xbc6d72cc	-0.014492702
117	0xbf546355	-0.8296407
118	0x3d9c73b2	0.07639255
119	0x3f3e57a2	0.7435247
120	0xbd980669	-0.07423098
121	0x3d227618	0.039663404
122	0x3d3fec29	0.04685608
123	0xbb52998a	-0.0032134973
124	0x3bbea65e	0.0058181724
125	0x3a7bfcc8	0.00096125575
126	0xbd1c0a60	-0.038095832
127	0x3c3066d2	0.010766702
128	0x3c610356	0.0137337055
129	0x3d86c4b8	0.0658049
130	0x3c2dc955	0.010607083
131	0xbc61691c	-0.01375797
132	0xb787244e	-1.611016e-05
133	0x3b342920	0.0027490333
134	0x3beaefbf	0.0071696932
135	0xbce75393	-0.028238093
136	0xbd529671	-0.051413003
137	0x3c133def	0.008986934
138	0x3c92ebe8	0.017934754
139	0xbc838eed	-0.016059363
140	0xbcd461d9	-0.025925564
141	0x3ab8efe7	0.0014109582
142	0x38da98bf	0.00010423501
143	0x3adb6f2f	0.0016741509
144	0xb0950388	-1.084218e-09
145	0xb1caca5a	-5.9019785e-09
146	0xb187ee2c	-3.956094e-09
147	0x2fc0e35f	3.5086153e-10
148	0xb1d76d67	-6.269761e-09
149	0xb09789bd	-1.1025844e-09
150	0xb198049a	-4.4243054e-09
151	0xb1a424be	-4.7772053e-09
152	0x30f26794	1.7637256e-09
153	0xb1a9c5a2	-4.9410156e-09
154	0xb1b0aecd	-5.1421467e-09
155	0x3178011b	3.6089378e-09
156	0x30cbd601	1.4831018e-09
157	0x31d24469	6.1195817e-09
158	0xb0e88b81	-1.6919871e-09
159	0xb14e7560	-3.0043665e-09
160	0xb01838c1	-5.537793e-10
161	0x2e09ce8f	3.1333654e-11
162	0x30dfa984	1.6273565e-09
163	0xb2072568	-7.866539e-09
164	0xb19f46af	-4.635545e-09
165	0xb08c86bc	-1.0224634e-09
166	0xb1622d0f	-3.2912941e-09
167	0xb1815906	-3.764515e-09
168	0xb0e1f808	-1.6441399e-09
169	0xb1e56bf3	-6.6770496e-09
170	0x3098e62f	1.1124878e-09
171	0xb20e8a55	-8.296941e-09
172	0x31004764	1.8667032e-09
173	0xb1e6e2fb	-6.7196857e-09
174	0xb1619d0d	-3.2831082e-09
175	0xb25330fe	-1.2292956e-08
176	0xb21aa531	-9.00154e-09
177	0xb1d486f5	-6.185355e-09
178	0x315964b7	3.1634906e-09
179	0xb23928a4	-1.0777658e-08
180	0xb1a39230	-4.760544e-09
181	0x31344dee	2.6237745e-09
182	0xb1ca223f	-5.882867e-09
183	0xb0babd7b	-1.3587135e-09
184	0xb23f4ec8	-1.1135576e-08
185	0xb20910a8	-7.978237e-09
186	0xb2158f60	-8.705541e-09
187	0x311062f9	2.1011017e-09
188	0xafc62b1f	-3.604663e-10
189	0xb26f9858	-1.394627e-08
190	0xb1d59b2b	-6.2167564e-09
191	0xb1e0eaf7	-6.5459704e-09
192	0xb2ef39a5	-2.7849476e-08
193	0xb2dc91a4	-2.56776e-08
194	0xb2ac9d3d	-2.0094939e-08
195	0xb0a3e61e	-1.1925214e-09
196	0xb19a6b42	-4.4941837e-09
197	0xb221e6b1	-9.423887e-09
198	0xb1d55548	-6.2088112e-09
199	0xb1bfc471	-5.5811644e-09
200	0xb1a85dac	-4.9000928e-09
201	0xb182d128	-3.8072763e-09
202	0xb1f64a66	-7.1680004e-09
203	0xb2342a0f	-1.0486942e-08
204	0xb177dd30	-3.6068961e-09
205	0xb1da1de2	-6.3480323e-09
206	0x305d7575	8.056625e-10
207	0xb204a836	-7.721658e-09
208	0xb1f774f6	-7.201943e-09
209	0xb1d36971	-6.1528955e-09
210	0xb1566dcb	-3.1203509e-09
211	0x311ca435	2.2794329e-09
212	0x30eaeb23	1.7092571e-09
213	0xb20a9742	-8.067049e-09
214	0xb17af5ae	-3.651944e-09
215	0x3023b7e0	5.9560357e-10
216	0xbd258ef6	-0.04041954
217	0xbcf43088	-0.029808298
218	0xbd6cce7d	-0.05781411
219	0xbd0f8228	-0.035036236
220	0xbd3ed83c	-0.046592936
221	0xbd3f2f40	-0.04667592
222	0xbc7a5ffe	-0.015281675
223	0xbd36d993	-0.04464109
224	0xbd3bc398	-0.04584083
225	0xbd05457f	-0.03253698
226	0xbd0c75ad	-0.034291912
227	0xbcf2f32d	-0.02965697
228	0xbcd8ca3e	-0.026463624
229	0xbd0257d4	-0.03182204
230	0x3c829b82	0.015943293
231	0xbd1d5836	-0.038414203
232	0xbcdeb2e9	-0.02718492
233	0x3cc22b1f	0.023702202
234	0xbdc493e9	-0.09598524
235	0xbdb5c5a7	-0.0887559
236	0xbdd7e16a	-0.10541041
237	0xbdc570c5	-0.0964065
238	0xbdbdb2a6	-0.0926259
239	0xbdeb77b1	-0.11497439
240	0xbdf94826	-0.12171964
241	0xbdf7978c	-0.12089452
242	0xbe0e46ca	-0.13894191
243	0xbd87112e	-0.06595074
244	0xbcff9002	-0.031196598
245	0xbd836b07	-0.06416898
246	0xbdb2b43f	-0.087257855
247	0xbdb213c1	-0.08695174
248	0xbdc02baf	-0.09383332
249	0xbd9eaaa2	-0.077473894
250	0xbdb32183	-0.08746626
251	0xbd91613a	-0.070986226
252	0x3ce62534	0.028093912
253	0x3d166255	0.03671487
254	0x3b288eca	0.0025719875
255	0xbe0bdf9d	-0.1365952

6.bias f4 [8]
0	0x3eaceba0	0.33773518
1	0x3e56919d	0.20953985
2	0xbdcae141	-0.09906245
3	0x3eb4d7a3	0.35320768
4	0xbccd7c2d	-0.025083626
5	0x3ec0dfdc	0.3767079
6	0x3ff6fff5	1.9296862
7	0x3e3d40e3	0.18481784

6.weight f4 [8, 8, 4, 4]
0	0x3d2b0d64	0.041760817
1	0x3d4e81dc	0.050416812
2	0x3d763c09	0.060115848
3	0x3c9c77f9	0.019100176
4	0x3d5c6737	0.05380937
5	0x3d002d7d	0.03129338
6	0x3e051110	0.1299479
7	0x3d78a3ee	0.06070321
8	0x3dcaaeee	0.098966464
9	0x3d30ebe4	0.043193713
10	0x3d58ca15	0.052927095
11	0x3d02cfa8	0.031936318
12	0x3dba00b3	0.090821646
13	0x3d66ae54	0.056318596
14	0x3c2f5504	0.010701422
15	0x3b178277	0.0023118535
16	0x3d74a61b	0.059728723
17	0x3db69435	0.08914987
18	0x3d4b26f4	0.049597695
19	0x3ccd58eb	0.025066813
20	0x3e6bb2f7	0.23017488
21	0x3e947556	0.2899577
22	0x3e3f3851	0.18673827
23	0x3e048292	0.12940434
24	0x3ecb30ea	0.39685756
25	0x3f053f48	0.52049685
26	0x3ea41394	0.32046187
27	0x3e910a9c	0.28328407
28	0x3e71f5d7	0.23628937
29	0x3ea76b35	0.3269898
30	0x3e555119	0.20831718
31	0x3e45cf3e	0.19317338
32	0xb05a21b4	-7.9355833e-10
33	0x30cf04ca	1.5062593e-09
34	0x32086e26	7.941287e-09
35	0x3162a52e	3.2981222e-09
36	0xb16b239d	-3.4217245e-09
37	0x2fb74482	3.3336184e-10
38	0x31308dd8	2.5692e-09
39	0xb0af22d9	-1.274283e-09
40	0xb14e7560	-3.0043665e-09
41	0x31a04479	4.6643973e-09
42	0x316d446b	3.452693e-09
43	0x2e833c9b	5.967956e-11
44	0x30c50b10	1.4336781e-09
45	0x30143540	5.391776e-10
46	0x31047c65	1.9279238e-09
47	0x308786bc	9.860837e-10
48	0x3da623a1	0.081122644
49	0xbc4df97c	-0.012571689
50	0xbd536aca	-0.051615514
51	0xbc5dd4e1	-0.013539524
52	0x3db0b2bf	0.08627843
53	0xbd8d1f92	-0.06890787
54	0xbe0d8af4	-0.13822538
55	0xbd94ea72	-0.072712794
56	0x3e141a05	0.1446305
57	0xbbadfbdf	-0.0053095664
58	0xbd721b00	-0.05910778
59	0x3c40f5fd	0.011777398
60	0x3d4e899c	0.050424203
61	0xbbedb509	-0.007254247
62	0xbc5a15be	-0.013310848
63	0x3ca0dbde	0.01963609
64	0x3d9a07eb	0.075210415
65	0x3d18d82a	0.037315525
66	0x3c7718ef	0.015081628
67	0x3d851122	0.064974084
68	0x3d33762b	0.043813866
69	0xbc44067c	-0.011964437
70	0xbd305c18	-0.043056577
71	0x3c531127	0.012882507
72	0x3d2c8dbe	0.042127363
73	0xbbc57f1d	-0.006027116
74	0xbd7c2fa6	-0.06156888
75	0xbc9c07dc	-0.019046716
76	0x3cca824d	0.024720335
77	0x3c666274	0.014061559
78	0xbc0a252a	-0.008431712
79	0x3c5f99e7	0.013647533
80	0x3caefa0d	0.021359468
81	0x3aff575a	0.0019480989
82	0xbb076455	-0.0020659168
83	0x3c84b272	0.01619837
84	0x3c2e33cb	0.010632466
85	0xbb7022e6	-0.0036641895
86	0xbbc3bc6a	-0.0059733884
87	0x3c1aae05	0.009440904
88	0x3c2f94fe	0.010716675
89	0x3c853518	0.016260669
90	0x3cf7be7e	0.030242201
91	0x3d26ea9a	0.040751077
92	0x3b7d704e	0.0038671675
93	0x3c79a745	0.015237634
94	0x3c94d992	0.018170152
95	0x3c65430e	0.013993038
96	0x3e64f210	0.22357965
97	0xbcc0a4b7	-0.023516042
98	0xbdc28471	-0.094979174
99	0xbcd18bd3	-0.025579369
100	0x3e79249a	0.24330369
101	0xbde9f202	-0.114231125
102	0xbe5c365f	-0.21505116
103	0xbdbc2fa7	-0.091887765
104	0x3e8498bb	0.25897774
105	0xbd89e107	-0.06732374
106	0xbe42230d	-0.18958683
107	0xbdbf3201	-0.09335709
108	0x3e208f75	0.15679725
109	0xbc09cda4	-0.008410845
110	0xbd2de641	-0.042455915
111	0x3ceb4dab	0.028723558
112	0xbd858f02	-0.06521417
113	0xbddcc95a	-0.10780592
114	0xbd8844c1	-0.06653739
115	0xbce424f0	-0.027849644
116	0x3b62d0df	0.003460936
117	0xbd6b8be2	-0.05750645
118	0xbd1e436f	-0.03863853
119	0xba8dac58	-0.0010808809
120	0x3d24ad28	0.040204197
121	0x3b8f6f27	0.004377264
122	0x3bb4162b	0.0054958067
123	0x3c84e20b	0.016221067
124	0x3cdb4894	0.026768006
125	0x3b253f87	0.0025214867
126	0x3c34e821	0.011041672
127	0x3cf0ac05	0.0293789
128	0xbb27f0e8	-0.002562577
129	0xbc38911f	-0.011265068
130	0xbd8992b0	-0.067174315
131	0xbcd30a5e	-0.02576178
132	0xbc0efe8b	-0.00872768
133	0xbcd77b03	-0.026303774
134	0xbd9d8515	-0.07691399
135	0xbc8cf948	-0.01720871
136	0xbb0204fb	-0.0019839394
137	0xbce08b68	-0.027410224
138	0xbd361842	-0.044456728
139	0xbc0877e5	-0.008329366
140	0xbad144ee	-0.0015965977
141	0xbcf7b254	-0.0302364
142	0xbcc7a567	-0.024370862
143	0xbb6ae15f	-0.0035839898
144	0xbb3cdb11	-0.0028817097
145	0x3c842417	0.01613049
146	0x3d047a0d	0.03234296
147	0x3cc8f9af	0.02453312
148	0x3c922fd8	0.01784508
149	0x3da9f87b	0.08299347
150	0x3da58575	0.080820955
151	0x3d6687a6	0.05628171
152	0x3d8c7ce2	0.06859757
153	0x3ddfa86c	0.10920796
154	0x3de552f8	0.11197466
155	0x3d8c0100	0.06836128
156	0x3d739ccc	0.059475705
157	0x3d2a7271	0.041613046
158	0x3d3e5159	0.046464298
159	0x3c8525de	0.016253408
160	0x31ed6ac0	6.909744e-09
161	0x3111e3b7	2.1229718e-09
162	0x319df739	4.5974073e-09
163	0x31f8038c	7.218153e-09
164	0xb12fad24	-2.556427e-09
165	0xb09b666e	-1.1306847e-09
166	0x3113e6ea	2.1522575e-09
167	0xb197dd7e	-4.419859e-09
168	0xb19b1d1d	-4.5144035e-09
169	0xb232c8bc	-1.0406605e-08
170	0xb1b459c4	-5.2488947e-09
171	0xb0d9cdda	-1.5847335e-09
172	0x31916b95	4.232286e-09
173	0x31900f4a	4.1926898e-09
174	0x31041f6d	1.9226392e-09
175	0xb10e83c6	-2.0738624e-09
176	0x3dce1815	0.10063187
177	0x3d689c21	0.05678952
178	0x3ccb2578	0.02479814
179	0x3d606ad6	0.054789387
180	0x3d804906	0.06263928
181	0x3ca5eae2	0.020253602
182	0xbd46bb67	-0.048518565
183	0xbc5e7872	-0.013578521
184	0x3db4fc13	0.08837142
185	0x3cfe2b0e	0.03102639
186	0xbd627be3	-0.05529393
187	0xbce3508c	-0.027748369
188	0x3c18ab7f	0.009318232
189	0xbb966e10	-0.004590757
190	0xbd60e660	-0.054907203
191	0xbd134bd0	-0.035960972
192	0x3d7921ae	0.060823135
193	0x3d48142e	0.04884737
194	0x3d2fd98d	0.042932082
195	0x3d710d94	0.05885084
196	0x3d29cb88	0.04145387
197	0x3c59852e	0.013276381
198	0xbc9c8002	-0.019104008
199	0xbb6f6ffd	-0.0036535256
200	0x3c8297b7	0.015941484
201	0xbcd990d7	-0.026558323
202	0xbd96118a	-0.07327564
203	0xbd1f5cff	-0.038907047
204	0xbc95bf92	-0.018279824
205	0xbd694c1a	-0.05695734
206	0xbdb1210b	-0.086488806
207	0xbd59b3cd	-0.053149987
208	0x3b8ddbaf	0.004329167
209	0xba06ec21	-0.000514688
210	0xb8bf1c6b	-9.112883e-05
211	0x3ca09c43	0.019605761
212	0x3c493cc5	0.012282555
213	0xbc573f00	-0.013137579
214	0xbd17c2d2	-0.03705103
215	0xbc39088d	-0.011293543
216	0x3bc14d01	0.005899072
217	0xbd0c7722	-0.0342933
218	0xbd7a463c	-0.061102137
219	0xbd167de3	-0.03674115
220	0x3b5da07f	0.0033817587
221	0xbccadff5	-0.024764994
222	0xbc9b196b	-0.018933019
223	0x3c2dd148	0.010608979
224	0x3db5a8f7	0.08870118
225	0x3d3ed56a	0.046590246
226	0xbd00ea9e	-0.03147375
227	0xbc4d8bc6	-0.012545532
228	0x3e23c888	0.15994465
229	0x3ba7b895	0.0051184394
230	0xbe32c794	-0.17458946
231	0xbe73def8	-0.23815525
232	0x3dfa9032	0.12234534
233	0xbd45ffc3	-0.048339617
234	0xbe7560ef	-0.23962758
235	0xbe958fdb	-0.29211316
236	0x3c8ce479	0.017198788
237	0xbd732810	-0.05936438
238	0xbe1f84c3	-0.15577988
239	0xbe076398	-0.13221586
240	0x3e1225c3	0.14272217
241	0x3e948167	0.29004976
242	0x3e6944bb	0.22780125
243	0x3da6d0a0	0.08145261
244	0x3e8b02b5	0.27150503
245	0x3ece02b1	0.40236428
246	0x3e9dabbd	0.30795088
247	0x3de97f36	0.11401217
248	0x3e36288c	0.17788905
249	0x3e967039	0.29382494
250	0x3e64228d	0.22278805
251	0x3da116d8	0.07865685
252	0x3cbb8497	0.022890372
253	0x3dfdac1d	0.12386344
254	0x3e04eb6c	0.12980431
255	0x3d7b101d	0.061294664

9.bias f4 [100]
0	0xbc7c7b39	-0.015410238
1	0x3c777fc1	0.0151061425
2	0x3be15ade	0.0068772873
3	0xbc225059	-0.009906852
4	0xbd1f4b29	-0.038890038
5	0x3abea9f9	0.0014546505
6	0xbcdb172b	-0.026744446
7	0x3dcb3412	0.09922041
8	0x3bb7ed2f	0.0056129913
9	0xbd1d1b18	-0.038355917
10	0x3c3d8762	0.011567922
11	0xbc9e63a8	-0.01933463
12	0x3c288e39	0.010287815
13	0x3b30c3d2	0.0026972187
14	0xb1c067e2	-5.5997456e-09
15	0xbad7af04	-0.0016455357
16	0xbbaf0d41	-0.005342156
17	0x3ce7b1b8	0.028282985
18	0x3b830a43	0.003999026
19	0xbd009116	-0.031388365
20	0xbc70ad6b	-0.014689784
21	0xbcdf66d1	-0.027270706
22	0xbc4da812	-0.012552278
23	0x39683b21	0.00022147271
24	0xbcb1a50d	-0.021685148
25	0x3d8adc7b	0.067803346
26	0x3d437753	0.04772122
27	0x3c9c3329	0.019067364
28	0xbd1e7a17	-0.038690653
29	0x3d3c965b	0.046041828
30	0x3d307898	0.043083757
31	0x3c328b3c	0.010897454
32	0xbb5d7f0c	-0.003379765
33	0x3d03d096	0.032181345
34	0x38c4016f	9.346275e-05
35	0xbd95935f	-0.073034994
36	0xbcd364e1	-0.025804939
37	0x3a85fc35	0.0010222258
38	0x3c7c711d	0.015407828
39	0x3c86ae96	0.016440671
40	0xbc54fc9f	-0.012999683
41	0x3cf8e63d	0.030383224
42	0xbae42a99	-0.0017407715
43	0xbc195e80	-0.009360909
44	0xbc955a9b	-0.01823168
45	0xbcf44839	-0.029819595
46	0x3ac7ef67	0.0015253843
47	0x3d9211c1	0.071322925
48	0xbc56799b	-0.013090516
49	0xbd1b6558	-0.037938446
50	0xbca1d8a8	-0.01975663
51	0xbd1024d5	-0.035191376
52	0x3d1d590b	0.038414996
53	0x3c242829	0.010019341
54	0xbb219e5f	-0.0024661047
55	0xb819f9e7	-3.6710782e-05
56	0xbcf9281d	-0.030414635
57	0xbcbc6dba	-0.02300154
58	0xbcf480ae	-0.029846516
59	0xb9bbc623	-0.00035815043
60	0xbcf8f210	-0.030388862
61	0xbbcdd054	-0.006280938
62	0x3d552c72	0.05204434
63	0xbcb98a1d	-0.022648865
64	0x3cb5e5c6	0.022204291
65	0x3c37539c	0.011189368
66	0xba8aa23f	-0.0010576918
67	0x3bbb6620	0.0057189614
68	0xbcdc4aea	-0.02689119
69	0x3cd8de4b	0.026473185
70	0xb1b63c56	-5.3037565e-09
71	0x3c1b71e4	0.009487603
72	0x3c31e50b	0.010857831
73	0x3ce4cbf5	0.027929286
74	0x3b82fceb	0.0039974353
75	0xbd46186f	-0.048363145
76	0xbc0f4e40	-0.008746684
77	0xbc9c39a4	-0.019070454
78	0xbd2255a3	-0.03963245
79	0x3d5af42d	0.05345552
80	0x3d2211a2	0.039567597
81	0xbc17a92e	-0.009256644
82	0xb1ceda90	-6.0202368e-09
83	0xbce30b17	-0.027715249
84	0xb72c31c4	-1.0263586e-05
85	0xbbd4ea86	-0.006497684
86	0x3c5cf1a7	0.013485349
87	0xb8d12fc1	-9.9747915e-05
88	0x3ac0d8fc	0.0014713104
89	0x3c1a0ac4	0.009401981
90	0xbcf66843	-0.030079013
91	0x3bece78f	0.0072297524
92	0x3b777f64	0.003776514
93	0x3c58fcd8	0.013243876
94	0xbd24f812	-0.04027564
95	0x3dde51d7	0.108554535
96	0x3cc683c4	0.024232753
97	0xbce8c6b3	-0.02841506
98	0xbc4f6e8c	-0.012660634
99	0xbc8dc479	-0.0173056

9.weight f4 [100, 512]
0	0xbb7f2fac	-0.0038938327
1	0x3b80752a	0.003920217
2	0x3b713bda	0.0036809356
3	0x3a89ee8b	0.0010523362
4	0x3ad9dbde	0.0016621312
5	0x3abcc848	0.001440295
6	0xbb9bfbcd	-0.0047602416
7	0xbbd03255	-0.0063536563
8	0x3c6c19fe	0.014410494
9	0xbb6fb666	-0.0036577224
10	0x3bbb47c6	0.005715343
11	0x3bc0e1c9	0.0058862907
12	0xb9e3155e	-0.00043312734
13	0xba0f960c	-0.0005477376
14	0xbc1edf6b	-0.009696822
15	0xbc318340	-0.010834515
16	0x3ba7f111	0.005125173
17	0xbb910d75	-0.004426653
18	0x3c1cbef8	0.009567015
19	0x3c4727bc	0.0121554695
20	0x3bc0f52e	0.0058886027
21	0xbb8ed14f	-0.0043584476
22	0xbc1d01fd	-0.009582994
23	0xbc87beed	-0.016570533
24	0xbc26254a	-0.010140726
25	0x3ba7ecdb	0.005124671
26	0x3c8a3213	0.01686958
27	0x3c83b52b	0.016077599
28	0x3b3d5ab6	0.002889318
29	0xbb5e8a98	-0.003395712
30	0xbc3b6d5d	-0.011439648
31	0xbca45971	-0.02006218
32	0xbc80c28d	-0.015717769
33	0x3c946e80	0.018119097
34	0x3d405446	0.04695537
35	0x3cdee0fa	0.027206887
36	0x3b94e7db	0.004544241
37	0xbb88ccaf	-0.004174791
38	0xbcb9b8b1	-0.022671076
39	0xbd0e4036	-0.034729205
40	0xbc1e91c3	-0.009678307
41	0x3cb5bf68	0.022185996
42	0x3d5dd551	0.054158513
43	0x3d3f39d8	0.046686023
44	0x3be852d0	0.00708995
45	0xbcaca38c	-0.021074079
46	0xbcd429b9	-0.025898801
47	0xbcf51fdb	-0.029922416
48	0xbc1c9167	-0.009556151
49	0x3bbbafc7	0.0057277414
50	0x3bba6315	0.005688081
51	0x3bb999d8	0.0056640916
52	0xbab3d138	-0.0013718968
53	0xbca3c948	-0.01999344
54	0xbc90beab	-0.017669043
55	0xbc1c9100	-0.009556055
56	0x3c4e1dfc	0.012580391
57	0x3c8821dd	0.01661771
58	0x3acd04f8	0.001564174
59	0x3a043283	0.0005042927
60	0x3be1ab90	0.006886907
61	0x3bbeb3f0	0.00581979
62	0x3be0729d	0.0068496005
63	0x3b1bb9d4	0.0023761885
64	0x3b7d329d	0.0038634904
65	0x3c97ea4f	0.018544344
66	0x3ce37258	0.027764484
67	0x3cdf5611	0.02726272
68	0x3cad1a32	0.021130655
69	0x3c943301	0.018090727
70	0x3c88da3c	0.016705625
71	0xbb5689de	-0.0032735984
72	0x3c3b57e0	0.011434525
73	0xbaff7011	-0.0019488354
74	0x3c8ab248	0.016930714
75	0x3ce5fa75	0.028073529
76	0x3c80cae7	0.015721751
77	0x3c493ce4	0.012282584
78	0x3c4d64db	0.012536253
79	0x38642100	5.439017e-05
80	0xbc168de1	-0.0091891
81	0x3a75093c	0.00093473843
82	0x3c601159	0.013676011
83	0x3cc0652d	0.023485744
84	0x3c0fcb20	0.008776456
85	0x3b954a8e	0.0045560068
86	0x3b8cb9d3	0.004294613
87	0xbc424ac8	-0.01185865
88	0xbcaa3cae	-0.020780887
89	0xbb1a831b	-0.002357668
90	0x3c35f5d4	0.011105973
91	0x3be8fb06	0.0071100025
92	0xbbef91e6	-0.0073110936
93	0xbb8615ac	-0.004091939
94	0xbc058895	-0.0081502395
95	0xbc91eaaa	-0.017812092
96	0xbd1c7b45	-0.038203496
97	0xbc03600b	-0.008018504
98	0xbbe856ee	-0.007090441
99	0xbc841a79	-0.016125904
100	0xbc673b7b	-0.014113302
101	0xbcc709eb	-0.024296721
102	0xbce4ca83	-0.027928596
103	0xbca04b8c	-0.019567274
104	0xbce70a88	-0.028203264
105	0xbbd37b5c	-0.0064539146
106	0xbca1d2ed	-0.019753898
107	0xbd0c24dd	-0.034214843
108	0xbcd71e60	-0.026259601
109	0xbc9113a0	-0.017709553
110	0xbc432834	-0.011911441
111	0xbca08890	-0.019596368
112	0xbc195e61	-0.009360881
113	0xbc0e435e	-0.008683054
114	0xbcc2e36d	-0.023790086
115	0xbcb9782f	-0.022640316
116	0xba97f2ba	-0.0011592724
117	0x3bb70dd8	0.005586367
118	0x3c232294	0.009956975
119	0x3b4f8218	0.0031663235
120	0xbb0dd801	-0.002164364
121	0xbc3edc79	-0.011649244
122	0xbcbaa3db	-0.02278321
123	0xbcaa63dd	-0.020799572
124	0xbc0ba892	-0.008524077
125	0xbbeb66e8	-0.0071838982
126	0xbbc9be2b	-0.006156703
127	0xbcf61c4c	-0.03004279
128	0x3b97bc4e	0.004630602
129	0x3c924a6e	0.017857756
130	0x3cb57647	0.022151126
131	0x3ca82c40	0.020528913
132	0x3c996583	0.018725162
133	0x3c956498	0.018236443
134	0x3c3fe548	0.01171238
135	0x3c4746c9	0.012162873
136	0x3b060aa3	0.0020453117
137	0x3b4dd358	0.0031406488
138	0x3b76c320	0.0037652925
139	0x3b0dc19c	0.0021630293
140	0x3b2f9675	0.002679256
141	0x3b48d589	0.0030644855
142	0x3c181150	0.009281471
143	0x3c320f1c	0.01086786
144	0xbbe3c76e	-0.006951264
145	0xbbe9bcdd	-0.00713311
146	0xbc2bb400	-0.010479927
147	0xbbdf3278	-0.0068114363
148	0xbba4e93d	-0.005032687
149	0xbbecbc1b	-0.0072245724
150	0xba92b428	-0.0011192607
151	0x3b9807e5	0.004639613
152	0x3b18785b	0.0023265097
153	0x3b124a3f	0.0022322086
154	0xbb849886	-0.0040465025
155	0x3a5cbddd	0.0008420626
156	0x3bb53dec	0.0055310633
157	0x3b96bb98	0.0045999996
158	0x3b51df49	0.0032023957
159	0x3b49e56c	0.0030806912
160	0x3b6d9ff1	0.0036258663
161	0x3a151c55	0.0005688121
162	0x3a20cf51	0.0006134408
163	0x3b7a7837	0.0038218626
164	0x3b992571	0.004673653
165	0xbb40cf0f	-0.0029420292
166	0xbb21d607	-0.002469422
167	0xbb4a342d	-0.0030853853
168	0x3aabf132	0.0013118146
169	0x3a2976cc	0.00064645405
170	0xbc4681fb	-0.012115951
171	0xbc4d76d0	-0.012540534
172	0xbc4d351c	-0.012524869
173	0xbba0a8da	-0.004902941
174	0xb9071601	-0.000128828
175	0xbbc2cf5d	-0.00594513
176	0xbb510ccd	-0.00318985
177	0xbbc27663	-0.005934523
178	0xbc3a5eb9	-0.011375123
179	0xbca2c710	-0.019870311
180	0xbca37914	-0.019955195
181	0xbc41d9de	-0.011831729
182	0xbc2ca526	-0.010537421
183	0xbc525f77	-0.012840143
184	0xbb9f91f6	-0.004869695
185	0xbc06d51b	-0.008229519
186	0xbc571000	-0.013126373
187	0xbc971b6c	-0.018445693
188	0xbcb19c5f	-0.021681009
189	0xbcbaa87c	-0.022785418
190	0xbcc4cfbc	-0.024024837
191	0xbcb690a0	-0.02228576
192	0xbb992946	-0.0046741096
193	0xbb2414be	-0.0025036777
194	0x38277605	3.9925817e-05
195	0x3a8ad0a8	0.0010590749
196	0x3b96516f	0.0045873444
197	0x3b5049de	0.003178231
198	0xbbe62363	-0.0070232614
199	0x397fbf06	0.00024389857
200	0xbc3bed2e	-0.011470122
201	0xbbffdfbb	-0.007808653
202	0xbb48c989	-0.0030637702
203	0xbb9d9f33	-0.004810238
204	0xbb0aa091	-0.0021152834
205	0xbb082c32	-0.0020778296
206	0xbc97ca9b	-0.018529227
207	0xbbc82fab	-0.006109198
208	0xbc72763a	-0.014798695
209	0x3a7cfbc4	0.0009650553
210	0x3c1bc653	0.009507733
211	0x3c5dc437	0.013535551
212	0x3c68d5c2	0.01421112
213	0x3c27d14a	0.0102427695
214	0xbc050f22	-0.008121284
215	0xbb3c892b	-0.0028768282
216	0xbcc8a7c4	-0.02449406
217	0xba58beb4	-0.0008268163
218	0x3ca7bb64	0.020475097
219	0x3cfd2cee	0.030905213
220	0x3cfeaf65	0.031089494
221	0x3cb8a88e	0.02254131
222	0xbc2da9fd	-0.01059961
223	0xbba5b9f4	-0.0050575677
224	0xbd000dfb	-0.031263333
225	0x3a8001c5	0.0009766152
226	0x3d19b3ac	0.037524864
227	0x3d7f494d	0.062325764
228	0x3d7544e5	0.059880156
229	0x3ce12ecb	0.027488133
230	0xbc716725	-0.014734064
231	0xbbec76bc	-0.0072163027
232	0xbd218c5f	-0.03944051
233	0xbc24e80c	-0.01006509
234	0x3c013625	0.007886444
235	0x3caaef60	0.020866096
236	0x3c9134c0	0.017725348
237	0x3bfbf7b8	0.0076894425
238	0xbcab5169	-0.020912843
239	0xbc8a1363	-0.016854947
240	0xbd37abff	-0.044841763
241	0xbcb431bf	-0.021996377
242	0xbc0d8498	-0.00863757
243	0xbc0205b3	-0.007935929
244	0xbc3a22fc	-0.01136088
245	0xbc1ab003	-0.0094413785
246	0xbd154951	-0.036446873
247	0xbcf77a28	-0.030209616
248	0xbcf580f3	-0.029968714
249	0xbc87d878	-0.016582713
250	0xbc05f01a	-0.00817492
251	0xbc4584f5	-0.012055625
252	0xbc5d0381	-0.013489605
253	0xbc25c863	-0.010118577
254	0xbcf52347	-0.029924048
255	0xbcd300ad	-0.025757158
