code/nnv/examples/NN/Slide Examples/CAV23_files/cartpole.onnx (onnx, 19087 bytes, 6 tensors)

q_net.0.weight f4 [64, 4]
00000000: befb 203e 7504 eb3d fcd2 23bf b45b 8ebd
00000010: 42a3 333e e7f8 183d adc3 f13d 9627 dabe
00000020: dcb2 323e cc3f 1dbd 0884 fdbd 6e8c 243e
00000030: 3dcd 8bbe bb44 afbd 2972 423f 22cd 043f
00000040: e341 bbbe 8ce2 7cbe 8ea4 0a3f 44c6 d8bd
00000050: 5ada 85bd 16d8 96be 6b62 5ebf 5a55 d9be
00000060: 37f9 2abe b72c e6be ea26 ecbe 95e0 abbc
00000070: 5f72 29bf 73f5 70be 64ed 203f 82da 8ebe
00000080: 7df8 363e 5fdd b73e 2b44 153e 3ada c9be
00000090: 02e5 28bf edda 1e3e 5952 1f3e ef4a 2dbe
000000a0: eb55 77bd 2e1c f83e 298c febe ab6e 9fbe
000000b0: 73fb 44be de36 8d3c 8c03 a23e 4f58 f33d
000000c0: e8b3 9e3d fde3 e7be 4fb1 79be 1d47 38be
000000d0: 377c fe3e e4fa a83d 5e22 52be 85a5 95be
000000e0: 275b 07bf 2e52 b83c f5ec a4bd d567 f23e
000000f0: 3e79 b4be 9ed0 29be 4c7d 5dbc 117a bc3c
00000100: 9104 dabe 0213 593d 5d37 cb3e fe20 85be
00000110: 27d0 aa3e 0245 983e 885b 113f 9260 443e
00000120: c5d2 e8bd d9cd 8bbe 951a 8a3e a4cd 6f3e
00000130: 2b8c 9b3d f597 3c3e e72e 1c3f 888f 863e
00000140: b681 cabe 35af 2fbd 24e6 5cbe fb6b 71bd
00000150: 6be8 13bf 06e7 f13e a943 84be d3ca b83e
00000160: e00b cd3d f6ad 3ebe a0cf 69be d0aa fe3c
00000170: e611 c53e c0c6 ffbe 540c f2be de9c 9f3d
00000180: 8551 9e3e b553 dabe bffa cdbe b475 cebe
00000190: 57f5 223f 00af 573e 0808 28bf 362d ec3e
000001a0: 64db c4be 90d6 d73d 71e5 fa3e 30bd 583d
000001b0: 04d6 dabe 37b6 c03e b5b2 183f b3f0 e7be
000001c0: 4e89 8e3e b0d3 1fbe 883a f5be 29f6 dcbe
000001d0: 4bff 07bf 90bb fe3e cec1 063d b049 d13d
000001e0: 5b01 0abe 3772 c7be 7e0b e0be b441 8bbe
000001f0: 8b0f 4a3e a49f b4be 28a3 d0bd c4a8 8abe
00000200: 7e54 2cbd 30ff e13e 9681 0dbe 7844 3bbe
00000210: beae b0be 1df4 f33e a73f 773e 2668 cd3e
00000220: d28b 9bbe b813 97be 145b d0bc 440a a73e
00000230: 3e9c 8cbe 1dd7 6a3a 61fe 33be 4ffc e43d
00000240: 6880 223f 6514 09be 5ccd 25bf 8753 e1be
00000250: 2672 02be 3f0e f93e d23c 33be 039c c93e
00000260: d0ca 2e3f 528e 963c cc28 2dbe 778c 02bf
00000270: ba5b febe 0869 da3c d86b 0d3e 15e2 093f
00000280: 9140 b0bb e0ba 16be 08c2 ba3e 346b 81bd
00000290: 4061 d9bd 4822 f83e 8ca0 ae3e 1e91 e8be
000002a0: bf0f 9f3e c73b 5ebb dcc5 9d3e 88f3 9d3e
000002b0: 3ec2 303e 6a26 fa3e 2278 9a3e be98 76bd
000002c0: aa59 9f3e 5833 ab3e 944e 023e 14d1 c2be
000002d0: be12 0f3f 63af e83e 28c4 0bbf ed1e 60be
000002e0: 05ce a23e 2563 d13e bba5 183f f0ae 743e
000002f0: a9a9 9b3e e194 e1be c51d 153e 3e53 32be
00000300: 124a 8fbe efe5 1a3e 9c33 babc 0594 803e
00000310: 7fd8 ddbd 77a4 723e efad 3c3f 049f bcbe
00000320: 2533 8cbe 132c 883e 978a 503e 7c1f 9f3e
00000330: 185f 903e 9ba3 ef3e 2204 103f 1664 353e
00000340: 2831 983e bba8 22be f1f0 76bd ff33 863d
00000350: 7d98 1b3f d77a fcbd 1ffc 30bf 0542 cebe
00000360: 06fc f83e e1fa a2be 851c 1fbf 7672 af3e
00000370: e328 2dbf 8428 923e ce5f 0d3f 4bb7 e73e
00000380: 864a f7be 4eab f8be 5fa4 053f 2ad5 46be
00000390: 187c 083e d7ae a8be 22a6 d43e 08e1 413e
000003a0: b4b2 e3be 6719 b4be 304e 833e 462b d33e
000003b0: 7405 053f 3d16 08bf 27ed 3f3e 8b13 ac3e
000003c0: fac5 90be 2546 9e3e 888d b63e df01 bcbe
000003d0: 6994 48be cc8d 84be 0f66 0ebe 9607 be3e
000003e0: b0dd 9cbe 9b69 5a3d 3993 d53e def6 6cbd
000003f0: d20a e53d f8ac bbbd bbac 1fbf cb77 cfbe
0.15721032 0.114754595 -0.6399381 -0.06951085 0.17542747 0.037346747 0.118049 -0.42608327
0.17451042 -0.03839092 -0.123786986 0.16069195 -0.27305022 -0.08558031 0.75955445 0.5187551
-0.36573705 -0.24695796 0.5415734 -0.10584691 -0.06535788 -0.29461735 -0.86868924 -0.4244793
-0.1669663 -0.4495599 -0.4612344 -0.020981112 -0.6619014 -0.23531131 0.6286223 -0.27901083
0.17868228 0.3591108 0.14576785 -0.39424306 -0.6597444 0.15513201 0.15558757 -0.16923116
-0.060384672 0.48459 -0.4971631 -0.3113912 -0.19236545 0.017238077 0.3164333 0.11882078
0.07749158 -0.4529113 -0.24384044 -0.17995878 0.49704143 0.082509786 -0.20520923 -0.29227844
-0.5287346 0.022500124 -0.080530085 0.47344843 -0.3524875 -0.16583487 -0.013518643 0.023007425
-0.4258161 0.052996643 0.39690676 -0.26001734 0.33361933 0.2974015 0.5678029 0.19177464
-0.11368326 -0.27305487 0.26973405 0.2341829 0.07595094 0.18417342 0.6100907 0.2628138
-0.39552087 -0.0428917 -0.21572167 -0.05894087 -0.57776517 0.4724657 -0.2583287 0.36092243
0.100120306 -0.18621048 -0.22833109 0.03108731 0.38490218 -0.49956322 -0.4727503 0.07793592
0.3092157 -0.42641988 -0.40230367 -0.40324175 0.6365561 0.21062851 -0.65637255 0.46128243
-0.38448632 0.105389714 0.49003175 0.0529148 -0.42741406 0.3763902 0.59647685 -0.45300826
0.2783913 -0.15608096 -0.47896218 -0.43156555 -0.5312392 0.49752474 0.03289967 0.10219133
-0.1347708 -0.38954327 -0.43758768 -0.27198565 0.19732492 -0.35278046 -0.101873696 -0.27081883
-0.042072766 0.44140005 -0.13818964 -0.18287838 -0.34508318 0.4764718 0.24145375 0.4011852
-0.30380112 -0.29507232 -0.025434054 0.3262502 -0.27462953 0.0008958446 -0.17577507 0.111809365
0.6347718 -0.13386686 -0.6476648 -0.4400904 -0.12738857 0.4864368 -0.1750367 0.3937684
0.6827822 0.01837841 -0.16910094 -0.5099558 -0.49679357 0.02666141 0.1381067 0.538606
-0.0053787907 -0.14719725 0.3647616 -0.063192755 -0.10614252 0.48463655 0.34106863 -0.45423216
0.310667 -0.0033910142 0.30815017 0.30849862 0.17261598 0.48857433 0.3016978 -0.06020426
0.31123096 0.3343761 0.12725288 -0.3805014 0.55887973 0.4544631 -0.54596186 -0.21886797
0.31797805 0.40895954 0.59627885 0.23894858 0.30402878 -0.44058898 0.14562137 -0.17414567
-0.279862 0.15126775 -0.022729687 0.2511293 -0.10832309 0.23695551 0.737029 -0.3684007
-0.2738277 0.26596126 0.20365368 0.31078708 0.2819755 0.4680451 0.56256306 0.17713961
0.29725003 -0.15884678 -0.060288373 0.06552886 0.60779554 -0.12328117 -0.69134706 -0.40284744
0.4862978 -0.3183203 -0.6215289 0.34267014 -0.67640513 0.28546536 0.5522431 0.4525703
-0.48299044 -0.48568195 0.52203935 -0.19417253 0.13328588 -0.32945892 0.41533 0.18933499
-0.44472277 -0.3517563 0.2564559 0.41243953 0.51961446 -0.5315893 0.1874281 0.3360866
-0.28276044 0.3091289 0.35654855 -0.36720178 -0.19587864 -0.25889432 -0.1390612 0.37115163
-0.30637884 0.05332337 0.41713884 -0.05785262 0.111837044 -0.091638505 -0.6237294 -0.40521082

q_net.0.bias f4 [64]
00000000: 339e 1dbd 3f38 033e 8636 fc3e 32fb 9bbe
00000010: 7a80 b43e 17b0 85be de32 523e e4f1 ce3d
00000020: 6a59 143f 7948 383e 4d5e 58be 24c8 dc3e
00000030: 1866 ce3e 711c f8be cb93 e9be e6d7 e43e
00000040: fd16 e33e 2e5e 2f3e c913 85be c096 5bbd
00000050: b765 043f c6a1 003f 70bc c33e 6836 ab3e
00000060: 4652 35be b2ca 573e 27c7 87be 9670 85bc
00000070: ef1c 0e3d d1c1 b23d db4e 773e b3f0 073f
00000080: 367c a6be bc85 c83e 393e ef3e 376a ae3e
00000090: 7518 3cbe 85f1 7f3e bdb6 67be b08a c3bc
000000a0: 8d59 033f c083 b93e 6956 a7be a324 fcbc
000000b0: f9e5 a43e 088a 08bf f105 c43e 8892 b53e
000000c0: c829 32be 9959 e73e f614 e6bd 67ed 123f
000000d0: 5d79 dc3e 26df 95be 158f d03e 0da8 86be
000000e0: e82a 32be b4ef e1be 7300 cebe bf1c ad3e
000000f0: 9bce a83e a107 8c3e ab09 523e a944 a63d
-0.03848095 0.12814425 0.49260348 -0.30465084 0.3525427 -0.26110908 0.20527217 0.10104731
0.57948935 0.17996396 -0.21129723 0.43121445 0.40312266 -0.484592 -0.4562057 0.44695967
0.44353476 0.1712577 -0.25991657 -0.053610563 0.51717705 0.50246847 0.38229704 0.33439946
-0.17707166 0.21073416 -0.2651913 -0.016289037 0.034695562 0.08728374 0.24151175 0.5310165
-0.3251664 0.3916453 0.4672716 0.3406541 -0.18368705 0.24994476 -0.22628303 -0.023869842
0.5130852 0.3623333 -0.32683113 -0.030779188 0.32206705 -0.5333562 0.38285783 0.35463357
-0.17398751 0.45185545 -0.11234467 0.573935 0.43061343 -0.2927181 0.40734163 -0.26300088
-0.1739918 -0.4412819 -0.40234718 0.33810994 0.32970127 0.2734957 0.205115 0.08118565

q_net.2.weight f4 [64, 64]
00000000: cda6 a6bd 54a5 c63c b187 ae3d a577 abbc
00000010: eeb6 bc3d 0496 543d ca56 bcbd 829f 463c
00000020: 19e9 c4bd fbf5 f23d 151b 0ebd dba4 87bd
00000030: 0c93 1abe cc70 33be 02ac f13d a059 863c
00000040: ff30 9f3d 3cc0 ae3d ee44 c93d 763f 643e
00000050: 542f 9b3c 25f0 b43d 3c80 b63b 7525 a93c
00000060: f1cc ab3d e75b f7bd 7dc1 c7bd db72 623d
00000070: df01 7cbc 699b f93d 7856 4abe b9e8 c83c
00000080: 84b5 e93c 0384 90bd 73d7 543d c7e0 b93d
00000090: ed5f f8bd 427f 75bd b8f0 9dbd b3ca a0bd
000000a0: de6d 963c 95eb a7bd 8958 413e d5fc 2abd
000000b0: 0e87 d5bd f4bb 473c 1638 153d c87a 9cbc
000000c0: ba8f ab3d 54d6 333e 3064 ad3e 4480 fc3d
000000d0: 5434 7cbd 6670 94bc e77d 0f3d 7c0c 513e
000000e0: a242 073e ebf3 d93d 665a cc3d 2090 ae3d
000000f0: 2a04 993b 18c5 96bd bc27 393e 39ef 5bbd
00000100: c99d dd3d 39dc 44bd 8008 053d 430d fcbc
00000110: c595 d5bb 6d08 333d 01f4 1a3d 529a fcbb
00000120: 259d e03a 0cd3 abbd 9217 063e 2df8 37be
00000130: dde5 2b3d bd50 133e f8f8 853d 22f2 b5bd
00000140: 1bed c33d f5fe c5bd 2b57 a23d c800 8c3d
00000150: 5e8d a83d 0ea8 a73d 36ef ebbc 41e6 cb3c
00000160: 4e8e 183e 997f 213e ec3a da3d 3c3d 973d
00000170: 8106 72bb 5d75 813d 8a8e bb3d c844 373d
00000180: fa40 0c3d f4e9 4dbd 2a45 91bd af9c 0dbe
00000190: 5937 263e a65a 47be 29f2 f93d fb45 ffbc
000001a0: 0746 c53c 62ec ee3b c08a 65bd 3637 ccbd
000001b0: aecc e5bd e63f a93d 26f4 e3bd 6f87 3cbc
000001c0: 834c 053d 695b 133c bc3f acbd a4df 05be
000001d0: 17ac cebd 4333 fc3c ea53 80bd 1dc3 eebc
000001e0: 0600 963d ded8 19bd ae2e f4bc d1bd b5bd
000001f0: a35a 29bd b024 11bd 39a1 8a3a 200c d1bd
00000200: 813a 763d 83a3 d63c 1a76 2fbd 947f e8ba
00000210: 74d0 dfbd b891 b13e 8e9f 263d 36c7 88be
00000220: 5afa c83d 97d3 14bc 26f9 953d 0a99 12be
00000230: 2703 493e eb77 623e d747 bebd 42d8 1c3d
00000240: 2d76 00be 6180 90be d009 26bd 4de8 dabd
00000250: 1667 263d 8056 64be 6d50 2d3e f053 263e
00000260: a574 bd3e 8827 cbbc 99e7 dd3d d1c5 c1bc
00000270: cd3e d63c c1fc a2bc 75b8 c23c e00c bd3d
00000280: 3d67 953d 4f8e b2be eba0 a9b8 f49c b3bd
00000290: 38c2 563d 7ebf 9bbe 4696 0d3e eacf 80bd
000002a0: d09a a5bd 3100 a93d 4a1a 1fbd 87b5 b93c
000002b0: 8193 f4bd 095d 213e 9161 86be ef65 8c3d
000002c0: 399d a63d 2ffd 88bc 977e 0fbd 7448 40be
000002d0: 4bca 40bd 9fe8 f03d 72e8 ff3d 2b5f bbbd
000002e0: 64be 4e3d 9f8a dd3d 5cbc 543d 33d7 0ebe
000002f0: c2dc 643d 7c1f 4bbd 8b1f 1ebe 720e c43d
00000300: 9c98 3bbe 0bec 0cbe ec92 4b3e 62a3 d6bd
00000310: 24c5 843d edb5 94be 2b6a d8bc d764 3c3e
00000320: 1cec 123e 4c10 a03d 10c2 2a3c daff f53a
00000330: 8b10 f03d 65cb 0bbe 6d39 02bd 78aa 59bc
00000340: 53fe fd3d 3de3 833c fc04 33be 6944 6fbe
00000350: 18e2 ff3d 4b6f 303e a5f6 20bc 79dc 1d3e
00000360: 3b69 92be 7e0f c43c 3fc6 16bd 9d3e 063d
00000370: 1b3d 25bd bf22 b73c 6ded 0cbd 8003 68bc
00000380: 60a8 07be c3d6 d23c 8800 a5bc 75a0 f23d
00000390: 76a9 1abe 726a 3cbc 4272 14be 943d 07be
000003a0: 2fa6 623e 0bc6 87bd 6ace 6ebd 43c3 adbd
000003b0: fc15 0b3e b50b 54be 7986 353e 5649 473e
000003c0: 0a74 f0bd cf68 183e dd1a 9dbe 704f 963d
000003d0: db6c 953c 0a78 8dbe 5dad 163d eba7 8bbe
000003e0: a54f 87bd f03f 7abe 6396 1ebb e602 7c3d
000003f0: 93ab ef3d 3194 ddbc 97b1 1a3d a9fd afbd
-0.081372835 0.024248756 0.08521975 -0.020931074 0.092145786 0.05190088 -0.09196241 0.012122991
-0.09614772 0.11863323 -0.034693796 -0.066232406 -0.15095156 -0.17523497 0.11800386 0.016400158
0.07773017 0.085327595 0.098276004 0.22289833 0.018943466 0.088348664 0.005569486 0.020647744
0.08388699 -0.12078076 -0.09753702 0.055285316 -0.0153813055 0.12187845 -0.19759548 0.024525033
0.028528936 -0.07056429 0.05196328 0.09076076 -0.121276714 -0.059935816 -0.07711929 -0.07851162
0.018362936 -0.081992306 0.1888143 -0.041745026 -0.1042615 0.012190808 0.03643044 -0.019101515
0.08377023 0.17562228 0.338655 0.12329152 -0.06157334 -0.018120002 0.03503218 0.20414919
0.13209012 0.10642227 0.0997818 0.085235834 0.004669686 -0.073618114 0.18081564 -0.053694937
0.10821111 -0.048061583 0.03247881 -0.030768042 -0.006518098 0.043709207 0.037830357 -0.007708826
0.0017136676 -0.08389863 0.13094929 -0.17965765 0.04196726 0.14386268 0.06541628 -0.08884074
0.09566709 -0.0966777 0.07926782 0.068360865 0.08230089 0.08186351 -0.028800588 0.024890067
0.14898035 0.15771331 0.1065577 0.073847264 -0.0036930146 0.063212134 0.091580465 0.04474333
0.034241654 -0.050271943 -0.0709327 -0.13829301 0.16232051 -0.19468173 0.122043915 -0.031161299
0.024081243 0.0072913626 -0.056040525 -0.09971468 -0.1122068 0.08264141 -0.11130552 -0.011506899
0.03254367 0.008993962 -0.08410594 -0.13073593 -0.10091417 0.030786162 -0.06266005 -0.029145772
0.07324223 -0.037560336 -0.029807415 -0.08874095 -0.041346204 -0.03543538 0.0010576613 -0.10207391
0.060114387 0.026201015 -0.04283724 -0.0017738217 -0.10928431 0.34681487 0.040679507 -0.26714486
0.09813376 -0.00908365 0.07322912 -0.14316192 0.19630109 0.22116058 -0.09291046 0.038292177
-0.1254508 -0.28222945 -0.0405367 -0.10688839 0.040625654 -0.22298622 0.16925211 0.16242957
0.37003055 -0.024799123 0.10835189 -0.023653897 0.026152993 -0.019895913 0.023769597 0.09230971
0.07295082 -0.34874198 -8.088521e-05 -0.08770171 0.052431315 -0.30419534 0.13826856 -0.062896565
-0.08086169 0.0825199 -0.03884343 0.022669567 -0.11942197 0.15758146 -0.26246312 0.0685538
0.081354566 -0.01672229 -0.035032835 -0.18777639 -0.04706792 0.11763119 0.12495507 -0.09149011
0.05047454 0.108174555 0.051937446 -0.1394928 0.055874594 -0.049590573 -0.1544172 0.09573068
-0.18319935 -0.13761918 0.19880265 -0.104803815 0.06482914 -0.29045048 -0.026417812 0.18397842
0.14347881 0.078156084 0.010422245 0.0018768266 0.11721905 -0.13651808 -0.031793047 -0.013285272
0.12402024 0.016099567 -0.1748237 -0.2336594 0.12494296 0.17229955 -0.00982443 0.15416135
-0.2859591 0.023933169 -0.036810156 0.032774556 -0.040341478 0.022355435 -0.034406114 -0.014160991
-0.13247824 0.025737172 -0.020141855 0.11847011 -0.15103707 -0.011499988 -0.14496711 -0.13207084
0.22133707 -0.066295706 -0.05830232 -0.08484509 0.13582605 -0.20707591 0.17727078 0.19461569
-0.11740883 0.14883731 -0.30684558 0.0733937 0.018240383 -0.27630645 0.036786426 -0.2727655
-0.06606988 -0.24438453 -0.0024198524 0.0615262 0.11702647 -0.027048202 0.03776702 -0.08593304

q_net.2.bias f4 [64]
00000000: 1f24 1e3c 7ad6 093d 49c0 223d 3d66 513e
00000010: 1ddc 44bd 5c51 68bd 2f07 d63c 9389 85bd
00000020: d18e 0ebd 152d d83d 7213 e73c 611c e9bb
00000030: 31c0 9f3d 5ca3 043e 2919 df3b f5e8 0a3e
00000040: 779f 8bbd ada4 e53d ed61 6e3d cd18 04be
00000050: dd48 003d 3597 8b3d a72e e3bc 49e0 aa3d
00000060: 8061 dd3a a1de b63d 0925 a53d 9b85 113d
00000070: c845 213e 3f22 03be c9a6 6c3c 7b65 103c
00000080: 7883 be3d 5568 dd3d c75f 853d 7074 fcbc
00000090: f42e 093e 1a63 d73d 2a48 813d e3f3 1dbc
000000a0: a3b6 383e ee28 dd3d 2c8f 2e3e c46e 26bb
000000b0: bedd 133e 0463 753d faea b9bd 0916 a03d
000000c0: 2d78 d33d 35d5 6b3d fb26 7b3d 95ee 693d
000000d0: 948a 8fbc c4ea 293d dc1f a2bd d58e 073d
000000e0: d7a0 063e e139 be3c 8d86 dabd 465c fa3b
000000f0: 98c0 163e d241 6a3d 211b 2d3d 64aa 8dbd
0.009652167 0.033651806 0.03973416 0.20449157 -0.04806148 -0.056718215 0.026126472 -0.06520381
-0.03480417 0.10555474 0.028207514 -0.0071139787 0.078003295 0.12952942 0.0068084192 0.13565429
-0.06817525 0.1121305 0.058198858 -0.12900086 0.031319488 0.0681595 -0.027732207 0.0834356
0.0016890019 0.08929182 0.080637045 0.035527807 0.15749276 -0.12806033 0.014444062 0.008813257
0.093024194 0.108109154 0.06512409 -0.03081724 0.13396817 0.10516949 0.06312592 -0.009640667
0.1803842 0.10798822 0.17046803 -0.0025395611 0.14440057 0.05990888 -0.09078021 0.07816703
0.10325656 0.057576377 0.06131647 0.057112295 -0.017522134 0.041483656 -0.07916233 0.0330952
0.13147293 0.023220958 -0.10670195 0.0076403944 0.14721906 0.057191677 0.0422622 -0.06917265

q_net.4.weight f4 [2, 64]
00000000: 34e1 ccbd a644 65be d9f6 7dbe 257b eb3d
00000010: f050 933e 45b6 2cbe d01b 563e f79a 59be
00000020: d222 65be 9abb 593e 70e0 d0bd a13c 68be
00000030: 96c0 eb3d 3afb 1c3e 6419 debd 2488 363e
00000040: ed15 733d 547f 583e 351d 29be cadb 36be
00000050: 11e3 623e 4812 3d3e ca6c 87be 001e e23d
00000060: 027c babd 2cd3 b53a 7b44 403e 6e90 393e
00000070: 97ab ea3d 8453 f1bd 445c 02be 6121 3e3e
00000080: 72be 063d 2413 cd3d 4532 a6bd b25d e2bd
00000090: d8ee 663e 6bae 98ba 73e2 1bbd f6d2 65bd
000000a0: c0cd 483e 4406 bb3d 3195 4f3e 2d7c 25be
000000b0: f83e 463e a4e5 edbd ed91 b33c ea4f 7b3e
000000c0: 1f41 12be 39b3 0b3e 22d5 50be 61a5 563e
000000d0: 8643 f5bd 0acd e43d bcf5 e93d 26b7 09be
000000e0: 1b6a 6f3e ba0c 0e3e 0266 2abe 2be3 033c
000000f0: 8f98 6e3d 67cb ce3d 0366 75be 278f fe3c
00000100: 6c64 84bd bc78 cd3c ec8e 17be 9f30 303e
00000110: 1bd4 d03d 6e97 78be 5a00 ff3d 5962 83be
00000120: f7d7 ebbd 8440 0c3e 5ac1 163b 3230 4cbe
00000130: 2b91 6f3e 729d 013e 10df 5ebe 19a3 403e
00000140: 40b5 f7bd e55e 643e 91eb f1bd 2963 52be
00000150: 0d57 313e 8e10 693e a159 59be 289b bf3d
00000160: 783a 80bd 6be1 f7bc 1933 623d c227 ca3d
00000170: 9d88 2d3e 4a0f 443d ab97 59be aa1b 703e
00000180: 69b2 143e dc0e 473e 049e 90be f069 04bd
00000190: 0c4c 0a3e a26d c3bd 9cd9 bfbd 5f81 dbbd
000001a0: 89c9 3d3e e534 343e 1408 343e 20ed 3dbd
000001b0: 7ba6 1c3e c940 53bd cc03 453d 8c5f 893d
000001c0: ae44 16bd a795 073d dc4b 2fbe 5805 d23d
000001d0: 0b4f 84be 5829 73bd f888 ab3d f200 25be
000001e0: 1bad f33d c322 5f3e e5b6 293d f8f2 47be
000001f0: f6e8 443e 631a 453e 9f01 e5bc 7ce2 65bd
-0.100038916 -0.22389469 -0.24801196 0.11498097 0.28772688 -0.16866405 0.20909047 -0.2125052
-0.22376564 0.2126297 -0.10199058 -0.22679378 0.11511342 0.1533021 -0.108446866 0.17825371
0.059347082 0.21142322 -0.16515048 -0.1785728 0.22156931 0.18464005 -0.26450187 0.11040878
-0.09105684 0.0013872138 0.18776123 0.18121502 0.114585094 -0.117835075 -0.12730509 0.1856742
0.032896467 0.100134164 -0.08115057 -0.11053027 0.22552049 -0.001164866 -0.038057756 -0.05610939
0.19609737 0.091320544 0.20271756 -0.1616065 0.19359958 -0.11616066 0.021920169 0.24542204
-0.14282654 0.13642587 -0.20393804 0.20961525 -0.1197577 0.111719206 0.11423823 -0.13448772
0.2338032 0.13872042 -0.16640475 0.0080497665 0.05825096 0.1009739 -0.23964696 0.03107412
-0.064644665 0.025081985 -0.14800614 0.17206047 0.10196706 -0.24276516 0.12451239 -0.2566097
-0.115158014 0.13696486 0.002300343 -0.1994026 0.23395221 0.12657717 -0.21764779 0.18812217
-0.120951176 0.22301824 -0.11812509 -0.20545639 0.17318363 0.22760221 -0.21225597 0.093557656
-0.06261152 -0.030258855 0.05522451 0.098708645 0.16946645 0.047866143 -0.21249263 0.23448053
0.14521183 0.19439262 -0.28245556 -0.032327592 0.13505572 -0.09542395 -0.093676776 -0.10718035
0.18533911 0.17598303 0.17581207 -0.04636872 0.15297882 -0.051575456 0.048099324 0.06707677
-0.03668659 0.033101704 -0.17118782 0.102549255 -0.25841555 -0.0593656 0.08375734 -0.16113642
0.118982516 0.21790604 0.041434187 -0.19526279 0.19229493 0.19248347 -0.027954875 -0.056124195

q_net.4.bias f4 [2]
00000000: d674 a53c 845f 593a
0.020197313 0.0008292126
