code/nnv/examples/Submission/VNN_COMP2025_NH/ViT_vnncomp2023-master/models/pgd_2_3_16/model.onnx (onnx, 325647 bytes, 50 tensors)

0.cls_token f4 [48]
000000 c5 96 e5 bf 03 72 57 40 e1 25 ea 3e 28 d7 4f bf
       -1.7936636 3.3663337 0.45732024 -0.8118768
000010 92 79 e4 bf c9 42 ca 40 94 de 86 40 79 b5 71 bf
       -1.78496 6.3206525 4.21467 -0.9441753
000020 ce 89 91 bf 97 58 7f c0 58 ac 77 c0 0a ba 3d 3f
       -1.137018 -3.989782 -3.869894 0.74112
000030 ca 6b 9f 3e 2d 6f 9f c0 99 0f 5f c0 3a 14 29 3f
       0.31136924 -4.9823213 -3.485327 0.6604649
000040 50 e7 8f 3f 59 09 84 be 0e c4 b0 3f 5c f8 d5 bf
       1.1242466 -0.25788382 1.3809831 -1.6716418
000050 06 05 ff 3f eb c8 bb 3f e8 2e b8 3e ba 18 31 3f
       1.9923408 1.467069 0.35973287 0.69178355
000060 93 a9 70 c0 03 a8 f1 be 37 93 94 40 a3 11 93 bf
       -3.76035 -0.47198495 4.6429706 -1.1489757
000070 22 a2 4a 40 35 a1 98 3f fa 57 4d be 46 27 88 c0
       3.1661458 1.1924196 -0.20053092 -4.254794
000080 09 cf 9c 3e fa fa cf 3e 8b 49 a9 3e bd 3b 5f 3f
       0.30626705 0.40621167 0.3306392 0.8720053
000090 6e 42 17 40 49 d0 13 40 3c 25 bb 3f 4a f5 e6 c0
       2.3634295 2.3095877 1.4620738 -7.2174425
0000a0 85 36 ff 3f 59 1c d1 bf d5 b6 38 c0 de 0c 74 40
       1.9938513 -1.6336776 -2.8861592 3.8132854
0000b0 6f 15 49 c0 f6 10 b7 40 66 40 75 3f 1f f4 02 bf
       -3.1419332 5.7208204 0.9580139 -0.5115375

0.positions f4 [5, 48]
000000 cc 96 e5 bf fb 71 57 40 e1 25 ea 3e 23 d7 4f bf
       -1.7936645 3.3663318 0.45732024 -0.8118765
000010 8e 79 e4 bf ce 42 ca 40 90 de 86 40 84 b5 71 bf
       -1.7849596 6.320655 4.2146683 -0.94417596
000020 d1 89 91 bf 99 58 7f c0 57 ac 77 c0 fd b9 3d 3f
       -1.1370183 -3.9897826 -3.8698938 0.7411192
000030 e0 6b 9f 3e 2f 6f 9f c0 9c 0f 5f c0 35 14 29 3f
       0.3113699 -4.982322 -3.4853277 0.6604646
000040 54 e7 8f 3f 57 09 84 be 0a c4 b0 3f 53 f8 d5 bf
       1.1242471 -0.25788376 1.3809826 -1.6716408
000050 0c 05 ff 3f e5 c8 bb 3f e0 2e b8 3e bc 18 31 3f
       1.9923415 1.4670683 0.35973263 0.69178367
000060 92 a9 70 c0 04 a8 f1 be 3b 93 94 40 af 11 93 bf
       -3.7603498 -0.47198498 4.6429725 -1.1489772
000070 22 a2 4a 40 34 a1 98 3f 06 58 4d be 48 27 88 c0
       3.1661458 1.1924195 -0.2005311 -4.254795
000080 04 cf 9c 3e 07 fb cf 3e 88 49 a9 3e b5 3b 5f 3f
       0.3062669 0.40621206 0.33063912 0.8720048
000090 6e 42 17 40 45 d0 13 40 35 25 bb 3f 49 f5 e6 c0
       2.3634295 2.3095868 1.462073 -7.217442
0000a0 88 36 ff 3f 5e 1c d1 bf da b6 38 c0 e2 0c 74 40
       1.9938517 -1.6336782 -2.8861604 3.8132863
0000b0 74 15 49 c0 f5 10 b7 40 66 40 75 3f 1d f4 02 bf
       -3.1419344 5.72082 0.9580139 -0.5115374
0000c0 1c 66 9b 3f 5e 7e 19 41 c6 ed 72 41 7c c3 6a 41
       1.2140536 9.593351 15.18305 14.672726
0000d0 c4 15 f7 40 59 08 72 c0 ec 83 d3 40 51 cb 9d c0
       7.721407 -3.7817595 6.6098537 -4.931069
0000e0 0f b4 2e 40 78 79 e8 3f 19 fe 85 3e ed f0 3c c1
       2.72974 1.8162069 0.26170424 -11.80882
0000f0 bc 57 4c c1 03 ba af c0 d2 1f 69 40 5c 9e dd 3f
       -12.77142 -5.4914565 3.6425672 1.7313952
000100 56 4b 8c c0 80 59 e0 bf c4 85 d0 c0 5e 00 a9 40
       -4.3841963 -1.7527313 -6.516329 5.281295
000110 01 9c 56 40 6f d1 a4 bf c6 e7 36 41 20 ff aa c0
       3.3532717 -1.2876414 11.431585 -5.343643
000120 af 4e 47 41 48 18 98 3f 2a c8 42 c0 2b 18 cd 40
       12.45671 1.188241 -3.043467 6.4092
000130 c4 4a 1c c1 11 21 ec 40 ad d6 9e 40 42 31 91 3f
       -9.768253 7.3790364 4.9637055 1.1343157
000140 9f 16 8b 40 5f f8 16 c1 78 98 0b 41 6d af 8f c0
       4.3465114 -9.435637 8.724724 -4.4901643
000150 25 30 41 40 fe ce f8 bf f6 05 62 c1 6f be db 3f
       3.0185635 -1.9438169 -14.126455 1.7167491
000160 6f 43 85 bf d8 e5 9d c0 a9 ce d5 c0 66 c6 3f 40
       -1.0411204 -4.934307 -6.681477 2.9964843
000170 61 ed 21 41 6e 9d b8 40 3a e5 3d 40 4a 61 ae c0
       10.120454 5.7692175 2.9671159 -5.449376
000180 5c 9e fd 40 ec 6a 23 41 48 cd dd bf c7 d6 77 3f
       7.925581 10.213604 -1.7328272 0.968121
000190 5d 6f 9e c0 fd 19 03 c1 9c 92 4e 40 72 7a a4 3f
       -4.951094 -8.193845 3.2276983 1.2849867
0001a0 63 a7 c7 40 8a 8e 85 c0 bf 9a 1b 41 ee 5b 60 40
       6.239183 -4.17365 9.72528 3.505611
0001b0 fa c1 0f 40 06 ff e7 bf 30 66 0d 40 45 8b de c0
       2.2462144 -1.8124702 2.209362 -6.9545007
0001c0 1c 85 bc bf b8 45 0e c1 07 db 79 c0 b3 d5 16 40
       -1.4728122 -8.892021 -3.9039934 2.3567932
0001d0 f4 e3 ad 40 a3 cd 44 c0 17 e2 71 c1 60 9d 24 c0
       5.4340763 -3.075051 -15.117698 -2.5721054
0001e0 76 e6 4f 40 6f f3 2c c0 23 29 01 c0 70 d8 e2 40
       3.2484412 -2.702358 -2.0181358 7.0889206
0001f0 73 74 22 c1 a2 9f 6d bf ce 07 47 c0 a9 1b 15 bd
       -10.15343 -0.92821705 -3.1098514 -0.036403332
000200 bb b9 2a 40 69 b6 55 c1 05 aa d1 40 b4 c2 1e c1
       2.667586 -13.357034 6.5520043 -9.922535
000210 a7 bb 77 c1 48 f4 35 41 62 d7 3e bf cd 78 21 40
       -15.483314 11.372139 -0.745474 2.522998
000220 6e ed 13 41 dc 28 9d 40 42 e4 d3 c0 f0 1c ef 40
       9.245466 4.9112377 -6.6216135 7.4722824
000230 8c 2e d9 40 b8 40 93 c0 4f da 59 40 f0 52 51 40
       6.786932 -4.60165 3.4039495 3.270687
000240 d9 52 86 c0 a3 bc 4f c1 8d 16 2b c1 7d 17 83 c1
       -4.1976132 -12.983554 -10.693006 -16.386469
000250 97 bc c4 c0 de ca ce bf b8 36 06 c1 5a 70 4b 3e
       -6.148021 -1.615566 -8.388359 0.19867077
000260 d2 0d b0 c0 8f 01 9d 3f 74 4c fc 3e 21 f5 75 41
       -5.501687 1.2266101 0.4927708 15.372346
000270 c8 15 0f 41 e6 ff 88 40 c2 3c 2e c0 eb 8f 80 c0
       8.942818 4.2812376 -2.7224584 -4.017568
000280 fc 4a 06 bf 20 76 f2 40 27 6b 74 40 b8 e9 43 c0
       -0.5245817 7.5769196 3.81904 -3.06114
000290 ec 1b b2 c0 1e 4a 11 3f 61 08 fc c0 15 c0 61 41
       -5.5659084 0.5675372 -7.876023 14.109395
0002a0 d1 dc 0c c1 78 65 ae 40 1a 5e dc 3f 8c 6e c1 c0
       -8.80391 5.4498863 1.7216218 -6.0447445
0002b0 2c 65 28 41 1a 7c a4 c0 51 8c 95 c0 4e d2 1f 40
       10.5247 -5.140149 -4.6733785 2.497211
0002c0 86 d6 4a bf 5a ae 2e 41 44 9d bf c0 a0 1b 97 40
       -0.79233587 10.917566 -5.9879475 4.722122
0002d0 18 50 04 c1 b1 f6 5c 40 a5 a5 04 41 78 4e 3a 40
       -8.269554 3.4525568 8.290441 2.9110394
0002e0 45 d2 7e 40 4e d0 a1 40 d5 10 9a 40 e6 85 9d c0
       3.9815838 5.056678 4.8145547 -4.922595
0002f0 50 49 04 c1 bc 80 88 c0 cd bd 0b c0 e6 92 ab 40
       -8.267899 -4.2657146 -2.1834595 5.361682
000300 5d b4 59 c0 d8 21 ee c0 eb 94 4b c0 6b 93 06 40
       -3.4016335 -7.4416313 -3.1809642 2.1027477
000310 3a f9 a1 40 cc 6b ee 40 99 fd a9 c0 1c 81 8c 40
       5.061673 7.450659 -5.3122067 4.3907604
000320 00 be 16 c0 73 13 9f 40 22 0b df c0 32 6d 0c c1
       -2.3553467 4.971124 -6.970109 -8.776659
000330 b9 95 46 3f 91 26 eb 40 41 4d 7e bd 3f 4b 03 41
       0.7757221 7.348458 -0.062085394 8.205871
000340 3c a7 9c 40 05 0a 7c 40 bf 94 c9 40 39 7e 4a c0
       4.8954144 3.9381115 6.2994075 -3.163954
000350 29 63 6e c0 03 3e 21 40 ac 6f 30 41 54 f2 ed c0
       -3.7248023 2.51941 11.027264 -7.435831
000360 be d5 4a c0 fd 21 8a c0 a5 2f 3b bf bc 75 bb c0
       -3.1692958 -4.316649 -0.73119575 -5.858122
000370 09 a7 ae 40 15 96 0b c0 f6 68 2b 40 2e e2 31 3f
       5.45789 -2.1810353 2.6782813 0.6948575
000380 b1 05 b4 c0 e6 8a 1e 41 fa 58 10 c1 06 c2 f0 40
       -5.6256948 9.908911 -9.021723 7.5236845
000390 18 6b 8f 41 e7 28 85 c1 dc 2b 8a 40 2a 9d 19 3e
       17.927292 -16.644972 4.317854 0.1500136
0003a0 43 a1 57 c1 a6 2d 68 c0 eb 81 2c 41 b4 bf 24 c1
       -13.476871 -3.6277862 10.781718 -10.2968025
0003b0 e2 86 9d c0 3d 98 bd bf e9 b1 91 c0 44 91 3c c0
       -4.922715 -1.4812084 -4.5529675 -2.9463663

0.projection.weight f4 [48, 3, 16, 16]
000000 e6 cc fb 3d 73 f9 13 3e 9f 43 73 3e 72 ff cc 3e
       0.12294941 0.14450626 0.23756264 0.4003864
000010 10 94 15 3f c8 16 46 3f 96 8c 51 3f e7 1d 4c 3f
       0.5842905 0.7737851 0.8185514 0.7973313
000020 e5 a4 38 3f b9 66 20 3f 0d d7 1c 3f 4f 22 f9 3e
       0.7212661 0.6265674 0.6126564 0.48658988
000030 cf f9 81 3e 38 d6 0d 3e fe e0 30 3d 52 b4 e9 bc
       0.253859 0.13851249 0.04318332 -0.028528366
000040 9b 0c ef 3d c6 3a 04 3e 77 92 26 3e 55 53 7e 3e
       0.11672326 0.12913045 0.1626681 0.24836476
000050 ea 57 a8 3e 96 e3 bb 3e c1 49 b0 3e b5 bf 93 3e
       0.32879573 0.36697072 0.3443127 0.28857198
000060 9e 9b 5a 3e 00 42 51 3e f3 91 6e 3e 16 13 48 3e
       0.21348426 0.20435333 0.23297863 0.1953853
000070 75 61 c3 3d d3 ba 73 3d 27 ea 04 bb b5 46 67 bd
       0.09540073 0.05950434 -0.0020281167 -0.056463916
000080 c4 53 c5 3d 3e 3d de 3d f6 41 30 3e 3b 09 9e 3e
       0.09635118 0.10851525 0.17212662 0.30866417
000090 06 e7 fa 3e 8a 97 04 3f b8 f0 e6 3e b4 f2 a2 3e
       0.49004382 0.5179373 0.4510553 0.31825793
0000a0 21 0e 50 3e e1 49 55 3e f0 4c 94 3e 81 7d 8e 3e
       0.2031789 0.20828964 0.2896495 0.27830127
0000b0 c3 5c bf 3d 8e 77 e2 3c 10 7c 18 bd df f6 d7 bd
       0.09343865 0.027644899 -0.03722769 -0.10545134
0000c0 0d eb 0d 3e 9a f9 19 3e 6e ad 6f 3e e5 01 d3 3e
       0.13859196 0.15036622 0.23406002 0.41212383
0000d0 ae cc 21 3f dd e2 2d 3f 50 47 1b 3f 43 b1 da 3e
       0.6320294 0.6792429 0.6065569 0.42713365
0000e0 33 54 8d 3e 97 9b 5b 3e 5b ea 69 3e 0b c3 55 3e
       0.276033 0.21446072 0.22843306 0.20875184
0000f0 3e 5f 9c 3d 23 27 ed 3b 06 62 6c bd 34 bf 14 be
       0.076353535 0.0072373315 -0.05771067 -0.14526063
000100 05 ee 89 3e 4c fd 61 3e c1 48 83 3e 7c 83 ac 3e
       0.26939407 0.22069281 0.25641444 0.33694065
000110 8b c6 fc 3e 53 e4 f6 3e 29 cd d0 3e f8 b5 bc 3e
       0.49370226 0.48221073 0.40781525 0.3685758
000120 d4 fd 6b 3e 6f a1 12 3e ec f0 10 3e b8 5f 1a 3e
       0.23046046 0.14319395 0.14154404 0.15075576
000130 10 9b 6f 3d 46 1c 66 3c d8 af d2 bc 70 6d cc bd
       0.05849749 0.014044827 -0.025718614 -0.09981811
000140 7c ab dc 3e f7 9a b7 3e 05 4d be 3e 43 19 f4 3e
       0.43099582 0.35860416 0.37168136 0.47675523
000150 ad 89 30 3f 41 0a 2d 3f 61 3b 01 3f e9 96 b3 3e
       0.68960077 0.6759377 0.5048123 0.35076073
000160 0b de 49 3e db cc 3a 3e 69 cb 60 3e 18 3e 68 3e
       0.19713609 0.18242209 0.21952595 0.22679937
000170 12 ce fb 3d ec e8 84 3d da 06 86 3c 7b 82 ce bc
       0.12295164 0.06489739 0.016360689 -0.025208702
000180 e6 03 d2 3e bf cf 93 3e ef 36 76 3e 2f ba 8a 3e
       0.410186 0.28869435 0.24044393 0.27095172
000190 7e 38 c1 3e cb fc 96 3e d6 41 fa 3d 8f 7d 06 bd
       0.37738413 0.2948974 0.122195885 -0.032834586
0001a0 a6 b1 ad bd 66 93 6b 3c 7f 26 7f 3d 3e 21 98 3d
       -0.084811494 0.014378404 0.062292572 0.074282154
0001b0 da 70 3b 3d 0e d5 27 3d f8 4d 2c bc 42 44 0f bd
       0.04576192 0.04097467 -0.010516636 -0.034977205
0001c0 ae 94 9e 3e b1 a1 74 3e 05 eb 39 3e 6c 16 17 3e
       0.3097281 0.23889805 0.18156059 0.14754647
0001d0 b5 09 ec 3d 8c d7 8a 3c 5b c9 02 be c4 9e c2 be
       0.11525289 0.016948484 -0.12772124 -0.38011754
0001e0 71 ee bf be c3 fa 20 be 6f 85 6d bd 32 7f 2a bd
       -0.37486604 -0.15720658 -0.05798858 -0.04162521
0001f0 e1 e9 67 bc c1 11 13 bd a7 28 e5 bd d6 02 32 be
       -0.014154882 -0.035905603 -0.111893944 -0.17383894
000200 92 25 06 bd f7 b4 32 bd aa 05 b3 bd 88 fc 10 be
       -0.032750674 -0.043629613 -0.08741315 -0.14158833
000210 5e 71 83 be 09 d9 a5 be 6f 16 d8 be 2d e8 14 bf
       -0.2567243 -0.32392147 -0.42204615 -0.5816677
000220 57 ea 06 bf a4 b4 a7 be 97 a9 5e be 49 94 62 be
       -0.52701324 -0.32755005 -0.21744381 -0.22126879
000230 e4 0b 2e be 61 72 56 be b7 74 8d be 6d f3 f8 be
       -0.16996723 -0.2094207 -0.2762811 -0.4862322
000240 d9 38 db be f9 57 a0 be 36 ca a9 be 3c 15 f0 be
       -0.4281681 -0.31317118 -0.33162087 -0.468912
000250 df 0d 0d bf 48 51 df be 9c 0d b0 be 04 04 9c be
       -0.5509929 -0.436167 -0.34385383 -0.30471814
000260 9b 98 5f be 66 94 05 be 76 70 33 be 1d 09 a1 be
       -0.21835558 -0.13044891 -0.17523369 -0.31452265
000270 32 36 93 be 64 40 97 be d3 93 ce be 22 22 39 bf
       -0.28752285 -0.29541314 -0.40347156 -0.7231771
000280 bf 89 33 bf 5b 28 0b bf 47 46 0b bf 7c ac 3a bf
       -0.7013206 -0.5435845 -0.5440411 -0.7291944
000290 6a 8d 51 bf 89 1f 3c bf 05 a4 09 bf 76 d0 9a be
       -0.81856406 -0.7348562 -0.537659 -0.30237168
0002a0 2d c9 ae bd 08 40 59 bd 18 ca 61 be b6 30 ca be
       -0.08534465 -0.05303958 -0.22049749 -0.39490288
0002b0 66 42 ef be d7 d3 09 bf dc ae 20 bf 14 0b 69 bf
       -0.46730345 -0.53838867 -0.62766814 -0.9103253
0002c0 25 ee 22 bf 5a b0 de be 46 8e c9 be e5 49 d2 be
       -0.6364463 -0.4349392 -0.3936636 -0.41072002
0002d0 fd e2 d5 be 39 99 9d be 32 7e 1e be 1c 81 5a 3d
       -0.4177474 -0.30780962 -0.15477827 0.053345785
0002e0 6a 52 54 3e 80 d0 1b 3e a3 b7 0e 3d 79 c1 d1 bd
       0.20734563 0.15216255 0.0348431 -0.1024198
0002f0 03 51 53 be 7a 1d 88 be 3b fa d2 be ac 73 47 bf
       -0.20636372 -0.2658499 -0.41206536 -0.77910876
000300 31 88 be be 80 f7 86 be 62 27 95 be 05 35 9b be
       -0.3721328 -0.26360703 -0.2913161 -0.30313888
000310 dc 3c 88 be d5 4b da bd 94 66 0b 3e 5d e7 e7 3e
       -0.26608932 -0.10658995 0.13613349 0.45293704
000320 ab b9 20 3f 9d 18 13 3f ab 57 c7 3e d2 66 dc 3d
       0.62783307 0.5745943 0.38934073 0.10761799
000330 60 97 92 bd ae 36 06 be d6 26 79 be 6d e1 f6 be
       -0.07157779 -0.13106796 -0.24331221 -0.4821886
000340 b0 ed 54 be 9c aa 14 be be f5 1e be 77 a3 07 be
       -0.20793796 -0.14518207 -0.1552343 -0.1324595
000350 06 99 a0 bd 65 8d 8b 3d 83 45 75 3e c9 c6 ec 3e
       -0.07841687 0.06814078 0.23952298 0.4624541
000360 7e f7 22 3f b3 5e 13 3f 8d 48 e3 3e 31 80 5e 3e
       0.63658893 0.57566375 0.4439129 0.21728589
000370 ea 7f 85 3d 28 9d 39 3b 4b db 62 bd 56 e1 52 be
       0.06518538 0.0028322432 -0.055384915 -0.20593771
000380 39 7c 5b be a9 2f 0b be 63 a5 e5 bd e0 7b bf bd
       -0.21434106 -0.135924 -0.11213186 -0.09349799
000390 67 ff 76 bd d0 49 dc b8 c9 64 48 3d e9 fe 0a 3e
       -0.060302164 -0.00010504166 0.04892424 0.13573803
0003a0 17 d6 7e 3e 95 00 45 3e a4 91 22 3e 57 e7 bc 3d
       0.24886356 0.19238503 0.1587587 0.09223812
0003b0 45 35 13 3d 61 09 b8 3b 8b d5 c5 bc 75 01 26 be
       0.035939474 0.0056163524 -0.024149677 -0.16211493
0003c0 de ad 22 bf 80 de 0b bf 80 ec 07 bf 1a 8b 01 bf
       -0.6354655 -0.54636383 -0.53095245 -0.5060288
0003d0 cc d0 e3 be 1c 7d ef be 0a 46 dc be 7d 0c b1 be
       -0.44495237 -0.46775138 -0.43022186 -0.3457984
0003e0 49 ba 0c be ba f5 ae bc 1c 5d 1f 3c 9b d0 87 bd
       -0.13742937 -0.021357406 0.009726789 -0.06631585
0003f0 aa 7c 29 be 8a 59 8f be ad 7a cb be d0 95 1b bf
       -0.16551462 -0.27998 -0.39742032 -0.6077547

0.projection.bias f4 [48]
000000 05 a2 e1 3f be c6 56 c0 43 c7 f1 be 44 83 55 3f
       1.762757 -3.3558803 -0.47222337 0.8340342
000010 39 cd e5 3f 7c d8 ca c0 5f 6c 87 c0 9c 6b 77 3f
       1.7953254 -6.3389263 -4.231979 0.96648574
000020 e1 e0 93 3f 7a d0 7f 40 86 7d 79 40 66 3f 42 bf
       1.1553003 3.9970994 3.8982863 -0.7587799
000030 51 d8 94 be c3 36 a0 40 22 8c 5d 40 47 b2 2e bf
       -0.29071286 5.006685 3.461678 -0.6824078
000040 10 b6 91 bf 6a 35 85 3e cd 8c b2 bf 26 3a d8 3f
       -1.1383686 0.26017314 -1.3949219 1.6892745
000050 c3 bc 01 c0 06 a1 be bf 53 6a c8 be a5 a4 38 bf
       -2.027146 -1.489289 -0.3914362 -0.7212623
000060 8b 24 72 40 8b 63 fd 3e a3 b3 93 c0 7a fe 8e 3f
       3.7834804 0.49490008 -4.6156783 1.117141
000070 36 74 48 c0 97 47 96 bf cd 97 3a 3e 9f 63 88 40
       -3.132093 -1.1740597 0.1822197 4.262161
000080 3e a7 ae be 09 5b bf be 5d fc 98 be bb 60 63 bf
       -0.3411197 -0.37374142 -0.29880038 -0.88819474
000090 e1 88 17 c0 a1 d0 12 c0 06 a2 b8 bf 28 f4 e6 40
       -2.3677294 -2.2939837 -1.4424446 7.217304
0000a0 16 f3 fe bf 93 20 d4 3f 8b 9c 39 40 2d 69 73 c0
       -1.9917934 1.6572441 2.9001796 -3.8032944
0000b0 0d 80 48 40 55 7f b6 c0 4f a6 79 bf ce 24 ff 3e
       3.1328156 -5.7030435 -0.9751939 0.49832767

1.0.0.fn.0.norm.weight f4 [48]
000000 1c 3b c1 3e 27 1d 02 3f b8 7a ab 3e f2 33 fc 3e
       0.3774041 0.5082573 0.33492064 0.4925838
000010 67 dd ca 3e d6 d3 c7 3e da d5 f4 3e df 9f 6f 3e
       0.39622042 0.39028805 0.47819406 0.2340083
000020 a5 0b a2 3e 6f 37 b2 3e 0c 2d 8c 3e f0 da b9 3e
       0.3164951 0.34807917 0.27378118 0.3629985
000030 54 68 65 3e f4 3d 99 3e c1 4a 55 3e c8 93 63 3e
       0.2240308 0.2993008 0.20829298 0.22224343
000040 06 41 23 3e f5 17 92 3e 23 44 e5 3e e3 a8 d7 3e
       0.15942773 0.28533903 0.44778547 0.42121038
000050 d5 75 ae 3e 2c 12 f9 3e 7d 16 8c 3e 4d 6b 9f 3e
       0.34074274 0.48646677 0.27360907 0.31136551
000060 f7 b8 b1 3e 86 1d 83 3e b1 22 72 3e 5c 9b e8 3e
       0.3471143 0.25608462 0.23646046 0.4543103
000070 0b a7 cc 3e 03 4f 31 3e 5c 80 3f 3e f0 5b 98 3d
       0.39971194 0.17315297 0.18701309 0.07439411
000080 e9 5d fb 3d 1f f4 27 3f 1f 1a 1a 3f 5b 5c f0 3e
       0.12273771 0.65606874 0.6019611 0.46945462
000090 61 05 05 3f 3b 81 d3 3e 21 09 13 3f 02 2d 67 3e
       0.5196133 0.41309533 0.57435805 0.22575763
0000a0 b1 9b b9 3e 31 07 e8 3e 5c ae 80 3e fb 3e a0 3e
       0.36251596 0.45317987 0.25133026 0.3129805
0000b0 3d 34 ab 3e d4 3a 7b 3e 70 98 92 3e 44 81 e4 3e
       0.33438292 0.2453416 0.28631926 0.44629872

1.0.0.fn.0.norm.bias f4 [48]
000000 08 4b 93 3d 65 64 38 bd fb ab d7 bc 33 b0 84 bc
       0.071920455 -0.04501762 -0.026327124 -0.0161973
000010 20 c0 83 3d 31 3d 6e 3c 1b 0c 4d 3d 55 d4 29 bd
       0.06433129 0.014540956 0.050060373 -0.04146226
000020 84 61 64 bd bc 1c 50 bd 51 26 4f bd 9c b1 53 3d
       -0.05575706 -0.050808653 -0.05057365 0.051683053
000030 1f f5 96 bb 64 7e e0 3c 55 08 3b bd 6d 54 10 3d
       -0.0046068574 0.027404018 -0.045662243 0.035236765
000040 1d 1e 0c bc aa 04 9f bb e9 f2 82 bc dc 47 db 3c
       -0.008552101 -0.004852851 -0.01598497 0.026767664
000050 3f 04 7c bd b0 53 08 3c 2c 70 f3 38 d3 f3 52 3c
       -0.061527487 0.008320734 0.000116080366 0.012875515
000060 c9 4e 13 bc d1 e3 29 bb 88 1c 40 3d a3 82 c3 bc
       -0.008990952 -0.0025923143 0.04690221 -0.023866003
000070 ec 4d 51 3d f3 8b d5 bb 08 67 d5 bc e4 0f 4f bc
       0.051099703 -0.0065169274 -0.026050106 -0.012638066
000080 25 de d3 3a 55 16 26 3a ba 56 97 3c 85 d1 dd 3c
       0.0016164227 0.0006335725 0.018473972 0.027077446
000090 bd 81 03 3d 10 52 1e bd d0 37 96 3d 66 de 09 bd
       0.03210615 -0.03865248 0.07334864 -0.03365936
0000a0 22 dc 77 bb a2 63 33 bd a4 c8 40 3c a7 e4 e4 3b
       -0.0037820418 -0.04379619 0.011766586 0.0069852653
0000b0 fb f9 32 bc 3e a7 40 bd ef bd ee bc 61 d5 bb 3d
       -0.010923858 -0.047034495 -0.029143302 0.09171558

1.0.0.fn.0.norm.running_mean f4 [48]
000000 e5 27 bb be 0e 6d 11 c0 a0 59 0b 3f 52 3c 06 3e
       -0.36553875 -2.2722812 0.5443363 0.13108948
000010 c4 3f ad 3f 53 32 93 c0 15 0e fc 3e e5 bb 17 40
       1.3535085 -4.599893 0.49229494 2.3708432
000020 f3 d3 e4 3f c3 3a 6d 40 07 80 01 40 fb a7 3f be
       1.7877182 3.7067115 2.0234392 -0.18716423
000030 a6 45 07 bf a9 f3 9e 40 23 1b 29 40 cb 0b a4 bf
       -0.5284065 4.9672437 2.6422813 -1.2816099
000040 52 ae 0a c0 ad 3b 27 be e3 b3 70 c0 bc de 10 3f
       -2.1668897 -0.16331358 -3.7609794 0.56589866
000050 63 11 93 bf ce 3a 5e 40 90 ee 49 bf 83 6a 52 bf
       -1.1489681 3.4723392 -0.7887964 -0.82193774
000060 40 21 5f 40 e2 06 44 c0 2d ee df bf af bb 5e 40
       3.4864044 -3.06292 -1.749456 3.4802053
000070 55 30 0f c0 ac 9b 9d bf 40 52 82 3f 7c 0e 39 3f
       -2.237325 -1.2313132 1.0181351 0.72287726
000080 93 97 36 bf 64 f4 65 bf 4c ac 69 c0 fd df af be
       -0.71325034 -0.89826035 -3.6511412 -0.34350577
000090 c8 3a b6 bf cf 7d 66 bf 7c e7 c6 bf 91 26 86 40
       -1.4236689 -0.9003572 -1.5539393 4.192208
0000a0 10 87 1e c0 78 9e c7 3d 93 73 dc 3f f1 c9 32 c0
       -2.4769936 0.097470224 1.722277 -2.7935755
0000b0 af bb 04 40 c8 3e 0b c0 c9 29 fc 3e f7 01 83 40
       2.0739553 -2.1757069 0.4925063 4.09399

1.0.0.fn.0.norm.running_var f4 [48]
000000 60 3c aa 44 8d e9 a4 43 6d 42 09 44 7a c1 b0 43
       1361.8867 329.82462 549.0379 353.51154
000010 2b 30 b0 44 ea 59 19 44 8b f2 cd 44 a8 15 50 44
       1409.5052 613.4049 1647.5795 832.3384
000020 b9 9f 05 45 f1 81 d4 44 35 f3 50 44 5c bf a3 43
       2137.9827 1700.0607 835.8001 327.495
000030 81 e7 5e 43 bc f1 24 44 35 9e 09 45 13 ed 73 44
       222.90431 659.7771 2201.888 975.7043
000040 85 89 7f 43 9e 00 51 44 64 28 05 45 17 b0 75 44
       255.53719 836.00964 2130.5244 982.7514
000050 6b aa 86 44 65 43 a9 45 6b 86 4e 43 4a c2 36 44
       1077.3256 5416.4243 206.52507 731.03577
000060 61 3f 00 44 d7 c6 e4 44 ec 18 1a 44 69 47 2e 45
       512.9903 1830.2137 616.3894 2788.4631
000070 cf b2 ab 43 05 4b 21 44 9f 3a 16 44 5b c7 3e 45
       343.39694 645.1722 600.91595 3052.4597
000080 dd b8 be 43 a7 32 12 44 7d d7 ec 44 29 84 8f 44
       381.44424 584.79144 1894.734 1148.13
000090 d1 ac 94 43 be 89 f7 43 26 a8 88 44 d7 08 83 43
       297.35013 495.0761 1093.2546 262.06906
0000a0 d6 c6 c5 43 a7 80 0a 45 1e ab 0e 44 f4 18 f5 43
       395.5534 2216.0408 570.6737 490.19495
0000b0 e7 32 8b 43 1a fd cd 44 b6 02 14 44 a0 62 8c 44
       278.39767 1647.9094 592.04236 1123.082

1.0.0.fn.1.query.bias f4 [48]
000000 f4 b4 a0 be 4e 9a 85 3e f1 96 8b 3e e9 18 fb be
       -0.31388056 0.26094288 0.27263597 -0.49042442
000010 85 6f 44 3e 4e d1 27 3e 75 07 2d 3f a2 66 7d 3e
       0.19183166 0.16388437 0.67589504 0.24746183
000020 3a e4 b0 3d 66 c4 a4 3e d9 1c 0d bd 9c 28 36 3e
       0.08637281 0.3218109 -0.03445134 0.17788929
000030 cb 48 e0 3d 7f 07 1b be 45 a7 62 bd e8 52 1e 3d
       0.10951384 -0.15139578 -0.055335302 0.038653284
000040 13 c8 1e be a4 68 c1 3c cf 2f 7b 3e 8d 2c 68 bf
       -0.1550601 0.023609467 0.24529956 -0.9069298
000050 a5 21 a8 3f db 1e e1 bd 64 67 74 bf 21 68 e9 bd
       1.3135267 -0.10992213 -0.9547026 -0.11396814
000060 36 64 dd 3e 36 69 19 3e 28 2d 62 be ee 1a 14 be
       0.43240517 0.14981541 -0.22087538 -0.14463398
000070 ba 17 f2 be 27 46 82 bf 48 33 34 bf 49 7b 8a bf
       -0.47283727 -1.0177659 -0.7039075 -1.0818874
000080 f5 fb e2 3c 9c 5c ca 3f 3c 32 de bd 15 2e 80 be
       0.027708033 1.5809512 -0.10849425 -0.25035158
000090 27 02 88 bd b5 27 93 be 1f ac d3 bc b5 18 49 3a
       -0.066410355 -0.28741232 -0.02583891 0.0007671223
0000a0 e4 9f 51 3d 05 3e 58 3f 70 aa 35 3e 7f e7 e6 3d
       0.051177874 0.84469634 0.17740798 0.11274623
0000b0 a2 9d e4 3c 40 85 03 be 6f d8 80 be e6 d2 4c bf
       0.027907196 -0.128438 -0.25165126 -0.80009305

1.0.0.fn.1.key.bias f4 [48]
000000 94 7a 2d 3d 69 d8 f1 3d ca 3d 7d bc ba 2f b1 bd
       0.042353228 0.11808855 -0.015456626 -0.08651681
000010 e4 2a df bc 57 d8 b4 bc d5 86 06 be e1 01 eb bc
       -0.027242132 -0.022075815 -0.13137372 -0.02868742
000020 22 5c 90 bd 9f 36 26 be f4 e7 58 bd 24 f0 11 bd
       -0.07048823 -0.16231774 -0.052955583 -0.035629407
000030 b8 8a b9 bd 4c db 62 3d 5e 94 b3 bd 3f 4e 31 3d
       -0.090596616 0.05538492 -0.08768533 0.043287512
000040 7e 9d ba bd 78 86 be 3a 5d 29 0b be 98 24 13 3d
       -0.091120705 0.0014535924 -0.13589998 0.03592357
000050 5a 8d 23 bd 00 43 78 bd 70 07 c6 bc d5 e5 cc bd
       -0.039929725 -0.06061077 -0.024173468 -0.100047745
000060 c0 3e 9c 3d 57 39 6d 3c 4b f6 3f 3c 3e 81 47 bb
       0.07629156 0.014479003 0.011716436 -0.0030442025
000070 aa c2 70 3c 81 97 bf bd 2d 9f 26 bd 2e 8f 90 bd
       0.014694849 -0.09355069 -0.040679146 -0.07058559
000080 9b 57 97 3c 70 3e cc bd dd 97 2e bc 60 fd d2 3d
       0.01847439 -0.099728465 -0.010656324 0.10302234
000090 cc fa c8 bb e4 92 d8 3d a8 6c a2 3d 48 58 06 be
       -0.006133413 0.10574892 0.07930881 -0.13119614
0000a0 42 de ff bd c0 b5 f6 3d 6e c3 87 3d 7f b7 1c be
       -0.12493564 0.12046385 0.06629072 -0.15304373
0000b0 a3 99 7f 3c 83 1c 67 3d 68 d5 4f 3d 2c 8d 3e 3d
       0.015600595 0.056423675 0.05074063 0.04652135

1.0.0.fn.1.value.bias f4 [48]
000000 b0 86 1b 3e 25 94 03 3d 5d fd 2d bd da f0 b4 3c
       0.15188098 0.032123704 -0.042477954 0.022087503
000010 9b 5f 28 bc 09 00 88 bb f5 a2 57 3b 87 ba e5 3c
       -0.0102767 -0.004150395 0.0032903526 0.028043045
000020 4f 53 07 be 3d 8d c2 3d bb 1f 0a 3e e5 e7 c5 bd
       -0.13215373 0.09499595 0.13488667 -0.09663371
000030 57 21 89 bc c1 c4 e0 3d a5 63 72 bd a3 22 ae bd
       -0.01673953 0.10975028 -0.05917706 -0.085027
000040 26 de 9e 3d b1 1f 27 bd ca 37 7d 3d 02 24 6e bd
       0.07757215 -0.040801708 0.061820783 -0.05813981
000050 4d 2b e4 3d 70 5e dc 3d bc f9 d8 3d 5b b4 45 bd
       0.111410715 0.107602 0.10594508 -0.048267704
000060 52 20 29 3e 7b ed 51 bc 3b 01 d0 3d c7 b6 3f bd
       0.16516235 -0.012812967 0.10156485 -0.04680517
000070 8c d7 83 3d 49 6d d3 bd 04 1a 28 3d ae 56 86 3d
       0.06437597 -0.10323579 0.041040435 0.065595016
000080 39 39 3d 3e 9b 07 0e be 4a 88 f1 3c 43 a6 01 be
       0.1847886 -0.13870089 0.029483933 -0.1266108
000090 01 93 01 be bc 3e d2 3d 77 79 8e 3d 6f a2 f4 3d
       -0.12653734 0.10265872 0.06956761 0.11945044
0000a0 b6 c1 a7 3d 70 29 82 bd 8f d1 28 3b c9 e2 ef 3d
       0.08191244 -0.0635556 0.0025759672 0.11713178
0000b0 0e 42 80 bc c4 69 04 3e e0 2b a2 bc 43 21 ac 3d
       -0.015656497 0.12930971 -0.019796312 0.08404782

1.0.0.fn.1.out.bias f4 [48]
000000 bd f2 b4 3c 41 3b e4 bd 0c a8 f8 bc 27 2a 6e bd
       0.022088403 -0.11144114 -0.030353568 -0.05814567
000010 d6 47 3c 3e a2 27 12 3e b4 9f cf 3c a7 6d e1 3d
       0.18386778 0.14272931 0.025344707 0.11007243
000020 8c a8 6d 3c 51 fe 05 bd 14 f0 ea bd e3 48 de 3d
       0.014505517 -0.03271324 -0.114715725 0.10853746
000030 4c 2b 5b 3d 77 73 a9 bc 10 fa bd bd 53 1a e9 3d
       0.053508088 -0.02068494 -0.09276211 0.11381974
000040 e4 20 94 3d 4a 81 96 bd ed d9 0b 3e 50 8b cb bd
       0.07232836 -0.07348879 0.13657351 -0.09938681
000050 79 43 d0 bc 20 c6 25 3c 17 74 00 3e 8f ad 58 3c
       -0.025422798 0.010118037 0.12544285 0.013224973
000060 26 e1 dc 3d c0 1e b8 bd dd 90 a5 3d e9 06 f8 3d
       0.10785131 -0.0899024 0.08084271 0.12110693
000070 e3 27 ae bd 15 33 2e bd c8 a4 28 3d 04 5d e6 3c
       -0.085037015 -0.042529184 0.041172773 0.028120525
000080 de d7 03 3d b1 c3 04 bd f2 3d 27 bd 27 b7 e5 3d
       0.03218829 -0.03241319 -0.04083056 0.11216574
000090 c2 7b 84 bd 71 9b 6b 3d 75 24 bf bd ef 2d e9 bd
       -0.064689174 0.057521287 -0.093331255 -0.11385714
0000a0 04 48 d8 bd ab 2e f8 3d 68 59 42 bd 76 07 be bd
       -0.10560611 0.12118276 -0.047448546 -0.09278767
0000b0 da 33 9f 3c e9 3f fe 3d 5f 95 53 3a 71 88 a6 3c
       0.019433904 0.12414534 0.0008071269 0.020328732

1.0.1.fn.0.norm.weight f4 [48]
000000 1d 06 00 40 91 20 ff 3f 34 5b dd 3f f0 19 12 40
       2.0003731 1.9931813 1.7293458 2.282833
000010 f9 fe 13 40 6b 70 e9 3f dd 5d f0 3f db 64 fa 3f
       2.3124373 1.8237432 1.8778645 1.9562029
000020 48 4a 07 40 03 d4 b3 3f f4 73 e2 3f b0 2a 00 40
       2.1139088 1.4049076 1.7691636 2.0026054
000030 80 0b db 3f 31 2b d5 3f c9 e0 34 3f b7 e2 f8 3f
       1.7112885 1.6653806 0.70655495 1.9444188
000040 f8 c9 7c 3f 15 b9 f5 3f 59 c2 07 40 ad 78 fc 3f
       0.9874568 1.9197108 2.121237 1.9724327
000050 7d 12 01 40 83 03 0f 40 26 fd f2 3f 2b 42 16 40
       2.0167534 2.2345893 1.8983505 2.3477886
000060 45 7d d5 3f 47 74 f6 3f d1 02 80 3f ab d0 e6 3f
       1.6678854 1.9254235 1.000086 1.803243
000070 eb a0 d8 3f 4e 58 a3 3f e4 02 d2 3f 95 f7 2f 3f
       1.6924108 1.2761323 1.6407132 0.68737155
000080 33 2e 72 3f 79 03 0c 40 c7 b6 f3 3f 2f 02 04 40
       0.94601744 2.187712 1.9040154 2.0626333
000090 bf a6 4c 40 4e 51 07 40 e2 88 01 40 37 84 6d 3f
       3.1976774 2.1143374 2.0239797 0.9277987
0000a0 a0 11 ef 3f 18 9e f2 3f 14 74 dd 3f b6 bb e1 3f
       1.8677254 1.8954496 1.7301049 1.763541
0000b0 99 1b d0 3f a1 8c 8e 3f e4 aa c1 3f 12 27 02 40
       1.6258422 1.1136667 1.5130277 2.0336347

1.0.1.fn.0.norm.bias f4 [48]
000000 cf 80 b2 bc 0a c0 a4 bd 23 22 2b bf cc ae aa bd
       -0.021789936 -0.08044441 -0.66848963 -0.08334121
000010 18 32 ba be 91 7b b8 3e 3b 1d 26 bf 60 04 8e 3e
       -0.36366343 0.36031774 -0.6488835 0.27737713
000020 a8 56 ae 3e c2 a8 82 3f ba 8a 5b be ec 4e e6 be
       0.34050488 1.0207751 -0.21439639 -0.44982088
000030 82 19 f4 3c 34 48 e4 3d b5 10 59 3f c4 b1 90 be
       0.02979732 0.11146584 0.8479112 -0.28260624
000040 b5 8c 57 bf 12 a6 c1 3d 3b 65 36 bc 99 3f 78 be
       -0.84199077 0.094555035 -0.011132534 -0.2424301
000050 49 ed 41 3d d6 3c a6 be 7c 58 00 be 73 01 d1 3e
       0.047345433 -0.3246829 -0.12533754 0.40821418
000060 e1 59 a7 3c 40 4b 0f 3e 59 31 6f bf 89 32 cd be
       0.0204286 0.1399355 -0.93434674 -0.40077618
000070 8d 2d ec bd ca 54 2f 3e 5a 7a 0d 3e c0 a0 24 bf
       -0.115321256 0.17122188 0.13816205 -0.64307785
000080 8b d7 e5 3e f5 dc 94 bd 77 bf af be 99 69 01 bd
       0.4489101 -0.07268707 -0.34325764 -0.031594846
000090 41 3d 05 3f 38 00 11 bd 25 c0 46 be aa 3f 8f 3f
       0.5204659 -0.0354006 -0.19409235 1.1191304
0000a0 e8 99 7c be 5e 38 d3 3e 16 bd ec 3e 1f b0 3f 3e
       -0.24668086 0.41253942 0.4623801 0.18719529
0000b0 03 25 0f bf 67 66 9f bf 3c b5 2b 3e 62 9a 14 3e
       -0.5591585 -1.2453126 0.16768354 0.14512017

1.0.1.fn.0.norm.running_mean f4 [48]
000000 45 6d 02 c0 38 da 8d 40 11 3c 2d 41 77 75 2a 40
       -2.0379193 4.432888 10.827165 2.6634195
000010 14 a2 2f c0 93 5d 10 41 38 0a 37 c0 ce 48 2c 41
       -2.7442675 9.022845 -2.8599987 10.767775
000020 19 4d 06 40 a4 d8 76 41 7f ae 1c 40 e8 f0 eb c0
       2.0984557 15.427891 2.4481504 -7.3731575
000030 5f 59 12 41 7a bb 20 40 78 dd e9 bf 7d d7 a6 3f
       9.146819 2.5114427 -1.8270712 1.3034512
000040 21 d4 f2 bd f8 cb b2 40 2d f8 49 40 c7 93 9a c0
       -0.11856867 5.5873985 3.1557724 -4.830539
000050 75 22 3f c0 b5 7e 18 41 d0 a2 fe c0 db b4 c2 c0
       -2.986478 9.530934 -7.9573746 -6.084577
000060 f0 9c 4f 40 09 49 6a bf 48 cd ae 40 40 a0 85 c0
       3.2439537 -0.9151769 5.4625587 -4.175812
000070 5c 0c 7f 3f 43 c2 49 c1 90 12 5c bf cd 96 de 40
       0.99628234 -12.609927 -0.85965824 6.9559083
000080 0d de b1 be e0 47 41 bf 9c fb 26 c1 4f 33 1c 40
       -0.34739724 -0.755003 -10.436428 2.4406316
000090 a2 cf 23 c0 21 33 63 40 bc ab 08 c1 3c 9e 70 c0
       -2.559548 3.5499957 -8.541927 -3.7596579
0000a0 4c 3b 0e c0 d1 12 6f be a5 87 1e c0 64 89 0f 40
       -2.2223692 -0.23347022 -2.477029 2.2427607
0000b0 b4 ff 4b 40 df b2 b2 c0 c5 7a cc 40 78 fb df be
       3.1874819 -5.584335 6.3899865 -0.43746543

1.0.1.fn.0.norm.running_var f4 [48]
000000 28 63 a4 44 b5 3e ad 43 3e 04 fb 43 c9 c5 c3 43
       1315.0986 346.4899 502.03314 391.5452
000010 11 73 b7 44 01 61 70 44 1e 03 c9 44 83 ef 89 44
       1467.5958 961.5157 1608.0974 1103.4847
000020 30 b9 12 45 db 94 b3 44 e9 89 81 44 d5 cf 9e 43
       2347.5742 1436.6517 1036.3097 317.6237
000030 d4 55 da 43 0d 76 4e 44 17 97 30 45 e3 28 72 44
       436.67053 825.84454 2825.443 968.63885
000040 c9 65 af 43 0c 82 52 44 b2 1a 06 45 9c cc 8b 44
       350.7952 842.032 2145.6685 1118.394
000050 d4 05 96 44 d3 df c5 45 97 a9 90 43 4c f7 52 44
       1200.1821 6331.978 289.32492 843.864
000060 e9 c6 0f 44 f5 d0 cf 44 d7 cd b6 44 fa 23 6f 45
       575.108 1662.5299 1462.4325 3826.2485
000070 1f e6 af 43 00 02 3c 44 56 c8 20 44 1d a3 28 45
       351.79782 752.03125 643.13025 2698.1946
000080 4c d4 1a 44 fc a9 03 44 de e4 a6 44 f8 b2 99 44
       619.31714 526.656 1335.1521 1229.5928
000090 cb ed ab 43 22 ea d1 43 25 8b 86 44 10 f9 35 44
       343.85776 419.82916 1076.3483 727.8916
0000a0 66 1d da 43 f7 83 fa 44 8f fb 11 44 98 28 07 44
       436.22968 2004.1239 583.9306 540.6343
0000b0 27 6c df 43 bc a8 da 44 fa 44 13 44 28 7a 95 44
       446.84494 1749.273 589.07776 1195.8174

1.0.1.fn.1.0.bias f4 [96]
000000 fe bd d1 be 35 bd 4b bf ec a2 de bc 22 b3 49 bf
       -0.40965265 -0.7958558 -0.027177297 -0.7878896
000010 24 7b aa bd 5f 2c 50 bf 30 a7 3c bd b6 93 16 be
       -0.083242685 -0.81317705 -0.04605788 -0.14704785
000020 e8 cd 0c bf 70 ef 9b bf 21 13 95 3d 0b 55 a0 be
       -0.5500169 -1.2182446 0.07279039 -0.31314883
000030 5a 28 fe be ba 22 ac bf 87 07 aa 3e ca e6 05 40
       -0.4964016 -1.3448098 0.33208868 2.0922112
000040 e2 31 29 3e 7e ab a7 bf 0e dd 0a be 8c 26 de be
       0.16522935 -1.309921 -0.13560888 -0.43388784
000050 6c 75 8d bd 4c 1e 81 bf 17 9f 76 3e 9c 11 6e bf
       -0.06907162 -1.0087371 0.24084125 -0.9299562
000060 77 9f a7 bd 12 9a 08 bf 33 de 45 bf f0 df 1e bd
       -0.081847124 -0.5336009 -0.77292174 -0.038787782
000070 bd 2a 1c c0 38 ba 3e bf e6 95 a4 3e 67 69 87 bd
       -2.4401085 -0.745029 0.32145613 -0.06611901
000080 dd 4d 05 be 41 a5 8f bf 33 cd d3 be 71 fe ff bf
       -0.13017984 -1.1222306 -0.41367492 -1.9999524
000090 0b 9e fa 3d be 31 1d bd 81 79 94 be 56 44 b4 bd
       0.122371756 -0.038377516 -0.2899895 -0.088020965
0000a0 0a 63 e6 bd 0e 81 3e bf ac 33 6a 3e 63 95 ac bf
       -0.11249359 -0.7441567 0.22871274 -1.3483089
0000b0 19 4b 0d 3f 69 67 33 be f2 81 94 be 67 63 d8 3d
       0.55192715 -0.17519917 -0.2900539 0.105658345
0000c0 bc 04 0c bf 32 60 14 be 65 d5 b0 be 91 5d fe be
       -0.54694724 -0.1448982 -0.34537807 -0.4968076
0000d0 b1 c1 c3 bf ca 87 26 bf 32 4c 34 bf 6f a2 04 be
       -1.5293485 -0.6505095 -0.70428765 -0.12952588
0000e0 29 84 31 bf 90 05 ff be 83 48 88 3f 1f b7 40 be
       -0.69342285 -0.4980893 1.0647129 -0.18819855
0000f0 bb 98 ad bd d1 7b 0d bf 3d fd 6a 3f 7a 1b e2 3e
       -0.08476397 -0.55267054 0.9179266 0.44161588
000100 d6 aa 5e bf be 57 2a bf 78 1d d8 bf f3 cc 01 c0
       -0.86979425 -0.66540134 -1.6883993 -2.028134
000110 bc 56 20 bf f3 61 20 be f9 a3 24 bf 70 9c df bd
       -0.62632346 -0.15662365 -0.643127 -0.1091851
000120 c2 5c 22 3f de a9 68 bf d9 85 09 bf 1e 7c 8f bf
       0.6342279 -0.90884197 -0.5371986 -1.1209753
000130 d0 77 74 bd 5b 42 92 3f c9 ac 58 bd f3 d6 ae bd
       -0.059684575 1.14265 -0.052899156 -0.08537092
000140 e8 29 22 bf e3 f0 cd bf 34 84 6d bf ef 33 a0 bf
       -0.63345194 -1.6089138 -0.9277985 -1.2515849
000150 5f 40 d2 be e2 8f aa be d1 eb 88 3e d3 b8 06 bf
       -0.41064736 -0.333129 0.26742414 -0.5262577
000160 dd 4b e2 bf 3d 95 53 bf f3 e7 23 bb c7 d3 b3 bf
       -1.7679402 -0.82649595 -0.0025010079 -1.4049004
000170 b3 a0 e4 bd ea 56 9b be 29 23 0c bf 34 2b 39 be
       -0.111634634 -0.30339748 -0.5474115 -0.18082887

1.0.1.fn.1.3.bias f4 [48]
000000 07 70 14 3c 00 ed 3b 3c 4f 3f 18 bb 7a f6 86 3b
       0.0090599125 0.011470079 -0.0023231094 0.0041187378
000010 01 5c 13 3c 59 d4 d2 3d 88 f0 cd 3c 8c cc 16 3d
       0.008994103 0.10294408 0.025139108 0.036816165
000020 ab 11 02 bd c1 17 ba 3d b3 9e ab 3a b6 7f 33 b9
       -0.03175513 0.09086562 0.0013093561 -0.00017118346
000030 a1 c2 7b 3d b7 f6 93 bd d7 01 c2 3d fd 48 40 bd
       0.06146491 -0.072247915 0.09473007 -0.046944607
000040 37 cd ba 3d 3e 8d 21 3d 67 7e 43 bd 3a d8 47 bc
       0.09121173 0.03944134 -0.04772797 -0.0121975485
000050 20 ec b1 bc 5d ff 33 3d 79 af ab 3d 98 fd 83 bd
       -0.021719038 0.043944705 0.08383078 -0.064448535
000060 c3 63 d0 3d d6 e3 d9 3d be 81 c6 3d 68 88 bd 3d
       0.10175278 0.106391594 0.09692715 0.09254533
000070 2e 5a 15 3d 9a 52 d4 bd 15 bf 8e bd b1 26 69 bd
       0.036462955 -0.103673175 -0.0697004 -0.056921665
000080 fa fd 2c 3c 55 8c 4c 3d 8f 7a 80 3c 86 f2 c4 3d
       0.0105586 0.04993852 0.01568344 0.0961657
000090 2f c5 58 b9 80 3b 9f 3d 48 4b 6e 3d 6f 62 9f bd
       -0.00020672822 0.077750206 0.058177263 -0.077824466
0000a0 a9 47 1e 3d ab ad 41 3d d7 b4 a0 3d a6 b6 c9 bd
       0.03864256 0.047284763 0.078469925 -0.098492905
0000b0 06 71 64 bd 2b f3 a9 bd 22 f4 a0 bc 05 bc 53 bd
       -0.05577185 -0.08298334 -0.019647662 -0.05169298

1.1.0.fn.0.norm.weight f4 [48]
000000 d7 5b d0 3e 5d 39 27 3f 42 f6 a4 3e 1a da 14 3f
       0.40695068 0.65321904 0.3221913 0.58145297
000010 ab 95 a6 3e bb 4a b9 3e bd ee db 3e 3c 4a da 3e
       0.32536063 0.36189827 0.4295558 0.4263476
000020 75 32 b8 3e 8a 42 8c 3e ca 6d df 3e 30 3f d3 3e
       0.35975996 0.27394515 0.4363845 0.41259146
000030 9c fd bc 3e 95 eb ea 3e a3 5d d4 3e fa 2a e5 3e
       0.3691224 0.4588286 0.4147769 0.4475935
000040 f9 98 af 3e 53 1f a5 3e c1 0b 08 3f f9 e8 dd 3e
       0.34296396 0.3225046 0.53142935 0.43341807
000050 9e 8f bc 3e b9 6e 05 3f 2d a4 b7 3e 37 12 b2 3e
       0.3682832 0.52122074 0.35867444 0.34779522
000060 f0 23 94 3e 09 33 9e 3e 78 dc 99 3e ae 6a bd 3e
       0.28933668 0.30898312 0.30051017 0.36995453
000070 e6 bb e6 3e d2 5d cc 3e ad b0 cd 3e ed d7 ba 3e
       0.4506523 0.3991533 0.40173855 0.36492863
000080 78 78 d2 3e 22 93 40 3f 63 aa 17 3f ca 4c fb 3e
       0.41107535 0.75224507 0.59244365 0.49082023
000090 9e 26 af 3e 2b ce af 3e 6d f0 03 3f 7d 56 ac 3e
       0.3420915 0.3433698 0.51538736 0.33659735
0000a0 51 a0 ca 3e f8 c6 db 3e 26 73 c1 3e 90 01 d6 3e
       0.39575437 0.4292524 0.37783164 0.41798067
0000b0 2d 49 d6 3e 3c bf b2 3e cc 1d cd 3e 3f eb 00 3f
       0.41852704 0.34911525 0.40061796 0.5035896

1.1.0.fn.0.norm.bias f4 [48]
000000 0c 26 23 3c 94 ec db 3c b5 33 c4 3b e8 bd 35 3d
       0.009957802 0.026846208 0.0059876093 0.04437056
000010 d2 08 04 3d 24 2f ab bd 24 d4 47 3d 88 ad 9b bd
       0.032234974 -0.08358601 0.048786297 -0.07601458
000020 ea 7a 88 3c 6a 71 93 3b 19 19 cd bb 68 ca f9 3c
       0.016660172 0.004499604 -0.0062590954 0.030492023
000030 f7 2a d8 bc a8 7e bb bc 23 a6 bb 3d 22 c4 bc bc
       -0.026387675 -0.022887543 0.091625474 -0.023042742
000040 e0 d6 30 bd 02 30 26 bd e5 52 06 bd 07 24 d6 3c
       -0.04317367 -0.040573128 -0.032793898 0.026140226
000050 6d 5c c1 3c 76 3f 6e bd 67 1b b6 bc db 89 9b 3b
       0.023603642 -0.05816599 -0.022229863 0.0047466583
000060 72 dd 4e 3c 19 ce c6 bc a2 d3 e0 bc de 1f 5c 3d
       0.012626039 -0.024268197 -0.027444664 0.05374133
000070 eb 7f ce bd 2e 63 c0 bc 98 bd 0f 3c b0 7c 47 bc
       -0.10082992 -0.023484793 0.00877323 -0.012175724
000080 f5 be 02 3c 2c 8e f4 bd 65 09 36 3d b7 ad 1f bb
       0.007980098 -0.1194118 0.044442553 -0.0024365017
000090 70 ef 66 bc a1 b6 0c 3d cc 48 82 bd 87 06 1e bc
       -0.014095172 0.034353856 -0.06361541 -0.009645111
0000a0 cc f7 48 3b 53 53 91 3d 73 5d b9 3b 8d 86 02 3d
       0.0030665277 0.07095971 0.005656892 0.0318666
0000b0 72 73 65 3d a3 7f 80 3c ac 1b 76 bc 38 ab 15 bd
       0.0560183 0.015685862 -0.015021246 -0.03654024

1.1.0.fn.0.norm.running_mean f4 [48]
000000 4b 7c ac 41 b9 1f 8a 41 e5 a6 6c c0 2a 42 9d c1
       21.56069 17.26549 -3.6976864 -19.657307
000010 04 0c b5 c0 94 81 33 41 52 c5 87 3e 2a b4 56 42
       -5.6577168 11.219135 0.2651773 53.67594
000020 ae 8d b7 c1 1d fa 84 c0 47 e0 6d c0 87 70 18 c0
       -22.94418 -4.1555314 -3.7168138 -2.3818681
000030 2b 03 d2 41 5a bd ab 42 60 78 24 c1 e2 90 4c 42
       26.251547 85.86983 -10.279388 51.141487
000040 fe f9 75 c1 ae 82 87 c1 e1 fe ad c1 0f c7 8a 41
       -15.373533 -16.938808 -21.749453 17.347197
000050 ad e1 e1 c1 eb 15 c3 40 2c 44 ee c0 08 df ab 41
       -28.235193 6.0964255 -7.445822 21.483902
000060 46 70 ac c1 07 76 12 c2 22 2e c4 bf 1a a6 c8 40
       -21.554821 -36.61526 -1.5326579 6.270276
000070 2b 22 73 40 da 93 35 c2 20 b3 d9 41 01 12 5f c0
       3.7989604 -45.394386 27.212463 -3.4854739
000080 54 cf 23 c0 54 89 13 42 40 0f 05 c2 50 ae 0b 42
       -2.5595293 36.88411 -33.264893 34.920227
000090 c4 1e e9 3f a2 00 14 c2 8e 0a bd c1 85 23 44 c1
       1.8212514 -37.000618 -23.630154 -12.258672
0000a0 9a fe 32 c1 7a 03 af 41 b5 e8 81 c0 6b 7f 91 c1
       -11.187159 21.876698 -4.0596566 -18.187216
0000b0 6c 08 1f c2 63 d2 c9 c0 bf b1 1b 41 96 0c f2 41
       -39.758224 -6.306932 9.730895 30.256145

1.1.0.fn.0.norm.running_var f4 [48]
000000 93 35 03 45 5d 73 55 44 5a db 87 44 df 70 68 44
       2099.3484 853.80255 1086.8547 929.7636
000010 51 cc 97 44 64 c9 ad 44 ec 6d ec 44 03 47 fa 44
       1214.3849 1390.2935 1891.435 2002.2191
000020 a6 d3 c0 44 64 2a 9a 44 e4 ff d0 44 39 11 44 44
       1542.614 1233.3247 1671.9966 784.2691
000030 84 67 7d 44 3f aa 38 45 2b 2b 26 45 d7 49 cc 44
       1013.61743 2954.6404 2658.698 1634.3075
000040 33 40 74 44 6d 7d 93 44 0b 5c bc 44 b7 37 a4 44
       977.0031 1179.9196 1506.8763 1313.7411
000050 25 6e b3 44 72 55 a8 45 98 0a fd 43 3a 03 25 44
       1435.442 5386.6807 506.08276 660.0504
000060 08 d9 3e 44 5c d7 d3 44 32 6c e0 44 c3 4b 6a 45
       763.3911 1694.73 1795.3811 3748.735
000070 7c 98 71 44 62 59 88 44 37 ff a0 44 1a a0 e3 44
       966.38257 1090.7932 1287.9755 1821.0032
000080 99 67 a8 44 24 a8 06 45 59 4f b0 44 d1 b9 b7 44
       1347.2374 2154.5088 1410.4796 1469.8068
000090 95 b0 be 43 6c be 72 44 a4 45 94 44 a8 41 5c 44
       381.37955 970.97534 1186.1763 881.0259
0000a0 05 2c 8b 44 47 9d dc 44 11 6c 8a 44 38 ac 88 44
       1113.3756 1764.9149 1107.3771 1093.3818
0000b0 70 3f 76 44 6f 47 c4 44 e5 e9 92 44 b6 bb ab 44
       984.9912 1570.2323 1175.3092 1373.866

1.1.0.fn.1.query.bias f4 [48]
000000 c1 5e 20 bf 41 0b c3 3e 6b 4c 79 3d 57 af 9f be
       -0.62644583 0.38094524 0.060863893 -0.3118846
000010 d9 f9 53 3e 4f f8 65 3d f3 a8 cb bd 5a e5 8b be
       0.20700778 0.05614501 -0.09944334 -0.2732342
000020 c2 98 2a 3e 81 c5 8b bd e9 65 9d 3c e4 0e cc bf
       0.16659835 -0.0682478 0.019213634 -1.5942044
000030 84 7d 18 bf 73 44 ac 3d fb ad 2a 3e fd 43 76 3e
       -0.5956652 0.08411493 0.16667931 0.24049373
000040 82 99 da 3e c3 90 9e bf 01 dd 69 3e ee 06 17 3e
       0.42695242 -1.2387928 0.22838213 0.14748737
000050 d7 f6 a3 3c 2f 51 14 bf 6f ff 02 bc 4b 56 d3 3e
       0.020015163 -0.57936376 -0.00799547 0.41276774
000060 75 2d 17 3d 78 58 95 be 4a 47 0c be 6d 88 7e 3e
       0.036908586 -0.2916906 -0.1369907 0.2485673
000070 ab 1c 43 3e 35 02 ff be 9f 18 4c 3e 08 22 fd bd
       0.19053905 -0.4980637 0.19931267 -0.123600066
000080 22 6a 98 be 8f 38 14 bd 87 99 d2 3c fa 49 7e bd
       -0.29768473 -0.03618675 0.025707973 -0.06208227
000090 94 4b dc bd bb e8 5c 3f 77 ba 00 be b9 e7 ee 3d
       -0.10756603 0.8629262 -0.1257113 0.11665291
0000a0 be 98 12 bd 6f e2 9d 3d bd a0 11 3e 1e 4d 72 3e
       -0.035790198 0.077092044 0.14221473 0.2366223
0000b0 6c 90 95 bf 34 ef d5 bd c2 ba 73 bd a9 1b d9 3d
       -1.1684699 -0.10446015 -0.059504278 0.10600979

1.1.0.fn.1.key.bias f4 [48]
000000 3d ad 03 3d 68 c7 d9 3d 3a 79 57 3d fa c8 ea bd
       0.032147635 0.10633737 0.052605845 -0.114641145
000010 16 ef fb 3c 39 64 09 be aa 8d 48 3c 89 c5 c6 bc
       0.030753653 -0.13417138 0.012240807 -0.024264114
000020 e6 e8 18 be 22 34 25 bd 47 a3 ef 3d 16 83 86 bd
       -0.14932594 -0.04033292 0.117010646 -0.065679714
000030 24 ed 81 bd c0 a4 b8 3d 3b b5 f8 bd d3 21 42 bd
       -0.06344059 0.090157986 -0.12143942 -0.04739554
000040 3d 02 9b 3d 27 31 21 be f0 b1 f2 bd 00 46 4c bd
       0.07568786 -0.15741406 -0.11850345 -0.049871445
000050 b6 26 15 be 75 04 16 be 6a 0e 8c 3d 3f bb f1 3d
       -0.14565548 -0.14650138 0.06838687 0.118032925
000060 fb 0b fe 3d 38 20 b6 3d fe 1e 19 3d 80 0d 2f 3d
       0.12404629 0.08892864 0.037383072 0.042737484
000070 d1 93 dc bd 68 89 9f bd 3b 7c 90 3d cc 60 20 3e
       -0.10770381 -0.0778988 0.07054945 0.15661925
000080 5e 8f 26 3e cc d6 b0 3c 84 43 e0 3d b3 8f 87 3c
       0.16265628 0.021586798 0.109503776 0.016548013
000090 93 cb 41 bd 4e 7f a8 bd 63 2b b2 3d f0 f3 b3 3d
       -0.047313284 -0.082274064 0.086996816 0.08786762
0000a0 b4 09 e9 3c 09 5d 21 bd 01 62 54 3d d8 85 fd 3b
       0.02844701 -0.039395366 0.051851276 0.0077369027
0000b0 97 2a ed bd 77 b6 99 bd 9f 34 0c be e1 f1 ab 3c
       -0.11580389 -0.075055055 -0.13691948 0.02098936

1.1.0.fn.1.value.bias f4 [48]
000000 98 01 d3 3d 48 04 4d bd 1e e0 f5 3d 03 17 f2 3d
       0.10303038 -0.05005291 0.120056376 0.118207954
000010 88 db c1 3d 45 99 bf 3b 1c 87 4f 3d 71 6a 1f 3e
       0.094657004 0.0058471286 0.05066596 0.15567948
000020 94 dc 04 be 79 37 97 bd 60 46 16 be 1c 63 fa bd
       -0.12974769 -0.073836274 -0.14675283 -0.12225935
000030 18 58 12 3e 10 e6 a4 3d 7c 42 e1 bd e1 41 9b bd
       0.14291418 0.080516934 -0.10999009 -0.07580925
000040 7d ee e6 3c f6 38 bb bd c9 1b ba bd d9 d4 08 be
       0.028189892 -0.09141724 -0.09087331 -0.13362445
000050 66 30 13 be f3 9d e1 bd cd bc 75 3d 32 83 e4 3d
       -0.14373931 -0.110164545 0.059994508 0.11157836
000060 13 08 36 bd e4 aa a2 bd 92 16 32 3d 82 1b a3 3c
       -0.044441294 -0.07942751 0.043478556 0.019910578
000070 4a 7f 35 bd ab 19 05 bd c4 88 09 3e 61 90 be bd
       -0.044310845 -0.032495182 0.13431078 -0.09304882
000080 ea 9e cf bd 9c 10 4e bd 49 64 d5 3d 5a 28 03 bd
       -0.10137732 -0.05030881 0.104195185 -0.032020904
000090 35 6d 2f 3d 14 50 8b 3d 70 66 ab 3d 91 dd 0a 3e
       0.042828757 0.06802383 0.08369148 0.13561083
0000a0 40 9a 4e bd bb 8d 0e 3c 30 f0 9d 3d 47 5a 73 3c
       -0.050440073 0.008700783 0.07711828 0.014853067
0000b0 c2 5b b8 bc 83 48 ff bc 26 44 84 bd da e4 c2 bd
       -0.022504691 -0.031162506 -0.06458311 -0.09516306

1.1.0.fn.1.out.bias f4 [48]
000000 d5 ff 8e bd 97 f5 1b bd 67 27 82 bc 71 ec c7 3d
       -0.0698239 -0.03807601 -0.01588793 0.097618945
000010 9e ee cb bd 54 a2 0b 3e 1c a4 98 ba 44 c4 7c 3d
       -0.09957622 0.13636142 -0.0011645588 0.06171061
000020 5b 42 ca 3d 93 97 18 3d 2e b8 9b bc 90 1f 47 bb
       0.098759376 0.037253927 -0.019008722 -0.0030383803
000030 80 8f be 3d cf 19 c5 bd 05 be ed 3d 22 6c b9 3d
       0.09304714 -0.09624063 0.11608509 0.09053828
000040 0b 07 ee 3d 43 3a f5 3d aa d7 9c 3d dd d8 b3 3d
       0.11622437 0.11974003 0.07658322 0.08781598
000050 1e 9b e8 bc 17 1a ba 3d a0 ee 09 be ba 54 9b bd
       -0.028394278 0.090870075 -0.13469934 -0.0758452
000060 3d 68 47 3c 5d 40 0b 3e de f2 0a 3d 79 82 86 bd
       0.012170848 0.13598771 0.033923022 -0.065678544
000070 e3 d7 ab 3c 33 50 aa 3d 40 52 d2 bd 9b 8a 05 3d
       0.020976966 0.08316078 -0.10269594 0.032602888
000080 fc 6a e5 bb d2 71 45 3d 83 f4 47 bd 9e af fd bc
       -0.007001279 0.04820425 -0.04881717 -0.03096753
000090 88 75 41 bc 9f f8 55 3d b0 34 a1 3d 0a 09 9b ba
       -0.011807807 0.052239057 0.078713775 -0.0011828255
0000a0 c7 20 e9 bd 29 c2 9e ba b9 2d e8 3d 88 a5 9b 3d
       -0.11383205 -0.0012112308 0.11336846 0.07599932
0000b0 ef fb b8 3d 0e 24 a0 3d a0 9b 7a 3b 95 78 ad 3d
       0.090324275 0.07819377 0.0038239732 0.08470265

1.1.1.fn.0.norm.weight f4 [48]
000000 d4 13 15 40 54 78 14 40 11 c1 c8 3f 11 7c 0d 40
       2.3293352 2.3198442 1.5683919 2.2106974
000010 f2 e7 ed 3f 4e 0b dc 3f d2 b7 e9 3f 75 c2 11 40
       1.8586409 1.719095 1.8259223 2.2774937
000020 c6 a9 00 40 30 32 d9 3f c9 94 fe 3f d8 a0 ec 3f
       2.0103621 1.6968441 1.9889156 1.8486586
000030 0e 52 f0 3f 30 37 1b 40 d2 9e dc 3f 26 d1 0d 40
       1.8775041 2.4252434 1.7235968 2.2158904
000040 24 15 d0 3f f2 44 ad 3f 2e e2 08 40 eb da 07 40
       1.6256452 1.3536665 2.138805 2.1227367
000050 f7 98 f9 3f 57 96 07 40 8c 30 a8 3f d7 9b d4 3f
       1.9499806 2.118551 1.3139815 1.6610059
000060 bc dc d4 3f 5d 3f eb 3f 2b 6d e8 3f 9d d7 01 40
       1.6629863 1.8378712 1.8158315 2.028785
000070 35 4e 1f 40 22 72 b7 3f 52 98 f1 3f b8 f5 bc 3f
       2.4891484 1.4331706 1.887461 1.4762487
000080 b3 be f3 3f b5 15 34 40 50 e1 10 40 fb 62 08 40
       1.9042572 2.813825 2.263752 2.1310413
000090 5f 14 ea 3f b3 04 e3 3f 91 1f e2 3f 62 02 c7 3f
       1.8287467 1.7735809 1.7665883 1.5547602
0000a0 06 2c c2 3f 9b 99 ed 3f f9 ae f4 3f ab b0 00 40
       1.5169685 1.8562502 1.9115897 2.010783
0000b0 ae b6 02 40 f0 ce cb 3f 3f 1a f1 3f b4 73 0c 40
       2.0424 1.5922527 1.8836135 2.194562

1.1.1.fn.0.norm.bias f4 [48]
000000 d7 86 a0 3d ab aa da 3d d7 24 26 bd 91 b9 9c be
       0.07838219 0.106770836 -0.040562477 -0.30610326
000010 51 cd 17 3f bc a2 1b be ec dc 28 bf 33 ea 76 bf
       0.5929766 -0.15198797 -0.659621 -0.9645111
000020 8b 67 07 bd 95 5c 5f 3f 57 e8 03 bf af 2d 08 3f
       -0.03305773 0.87250644 -0.515264 0.5319471
000030 41 15 dd bf 38 51 14 bf c1 cd 7c bf a9 5c f5 be
       -1.7272111 -0.5793643 -0.98751456 -0.47922257
000040 bf ff 78 3f f6 24 a0 bf b2 5b 2a 3d 56 c7 f7 be
       0.9726524 -1.251128 0.041591354 -0.4839427
000050 90 04 8d bf 25 55 a5 3e 71 80 0d 3f 75 a4 8c 3e
       -1.1017017 0.32291523 0.5527411 0.2746922
000060 86 23 2a 3f ce 28 bd 3e 7d 84 d9 bf 79 21 c8 3e
       0.66460454 0.36945194 -1.6993557 0.39088038
000070 5f 07 11 bf a6 af ec bf 0e c3 0b bf 35 07 3e 3d
       -0.5665187 -1.8491104 -0.54594505 0.046393592
000080 c5 a7 c1 3f e1 eb 08 bf 5f 48 60 bf b6 5f a0 be
       1.5129324 -0.5348492 -0.8761043 -0.31323022
000090 fe e7 9c be 50 62 4c 3f b6 24 0e bf 21 8b 35 3f
       -0.30645746 0.7983751 -0.55524766 0.7091542
0000a0 39 e7 81 3f b7 2e 0b bf 72 b0 00 be db 96 61 bf
       1.0148689 -0.54368156 -0.12567309 -0.8812081
0000b0 6e 8e a8 be 89 81 b3 bf e9 d8 a4 3e 8e c2 a2 3e
       -0.32921165 -1.4023906 0.3219674 0.31789058

1.1.1.fn.0.norm.running_mean f4 [48]
000000 09 ca cf 41 3d 23 bf 41 14 b2 c6 c0 77 ba f9 c1
       25.97365 23.892206 -6.209238 -31.216047
000010 bb 35 12 c1 19 2d 6b 41 07 31 02 c1 d1 09 7f 42
       -9.138118 14.69851 -8.13697 63.759586
000020 14 50 e4 c1 d7 15 2b 41 19 e9 28 c1 64 0c 3f c0
       -28.5391 10.692832 -10.556909 -2.9851313
000030 da d8 b2 41 fd b7 a8 42 6e 52 79 c0 39 ae 37 42
       22.355885 84.35935 -3.895656 45.92014
000040 2a 53 02 c0 bb ec 57 c1 12 26 94 c1 02 b2 f6 40
       -2.036326 -13.495296 -18.518589 7.7092295
000050 15 1d c5 c1 f2 94 4c 40 c2 7b 0c c1 b2 2e c0 41
       -24.6392 3.196591 -8.780214 24.0228
000060 5e c6 ac c1 23 dd e6 c1 ef 15 f9 40 c2 71 06 41
       -21.596859 -28.857977 7.7839274 8.402773
000070 dd ec 35 41 97 7c 1b c2 c7 90 b4 41 04 5c 9a c0
       11.370328 -38.87167 22.570692 -4.8237324
000080 c0 07 a1 40 7b f0 15 42 1b 21 f2 c1 b5 3a 1d 42
       5.032196 37.484844 -30.266165 39.30733
000090 51 43 96 c0 94 1f 0d c2 f7 06 ab c1 12 c3 48 3e
       -4.6957173 -35.280838 -21.3784 0.19605663
0000a0 7f ba 18 c1 e2 a5 c4 41 fa 5b 26 c1 ae 00 22 c2
       -9.545531 24.580997 -10.397455 -40.500664
0000b0 cf 52 18 c2 4e 8d ef 3f e9 93 94 41 09 04 a3 41
       -38.080868 1.8714998 18.572222 20.37697

1.1.1.fn.0.norm.running_var f4 [48]
000000 11 23 05 45 23 11 8b 44 be 72 95 44 f7 46 90 44
       2130.1917 1112.5355 1195.5857 1154.2177
000010 1b 80 a8 44 69 2b d4 44 61 6e fc 44 6a 8c 24 45
       1348.0033 1697.3566 2019.4493 2632.776
000020 d6 e3 b7 44 e9 9f b7 44 d7 3a e6 44 69 d4 82 44
       1471.1199 1468.9972 1841.8387 1046.6378
000030 05 d0 d4 44 c7 b0 38 45 2f 42 44 45 0f fb cc 44
       1702.5006 2955.0486 3140.1365 1639.8456
000040 93 72 be 44 e1 96 b3 44 6d 4c ca 44 8a e1 d9 44
       1523.5804 1436.715 1618.3883 1743.0481
000050 00 1e fe 44 82 be aa 45 8a d3 0a 44 80 12 65 44
       2032.9375 5463.8135 555.3053 916.28906
000060 63 e7 89 44 c7 f8 e7 44 c1 f8 ef 44 7c 3b 68 45
       1103.2308 1855.7743 1919.7736 3715.7178
000070 1b d3 9c 44 62 ec 9c 44 aa 2f c0 44 8d 92 0a 45
       1254.597 1255.387 1537.4895 2217.1594
000080 85 39 df 44 ef f6 30 45 b5 67 d5 44 f6 6c c6 44
       1785.7975 2831.4333 1707.2408 1587.405
000090 70 67 10 44 28 07 b2 44 f4 00 93 44 65 88 73 44
       577.6162 1424.2236 1176.0298 974.13116
0000a0 90 06 9f 44 1c 52 ea 44 66 6d a4 44 f9 fe b2 44
       1272.2051 1874.5659 1315.4187 1431.9679
0000b0 a2 c3 8a 44 c8 53 de 44 16 37 d9 44 12 8c d3 44
       1110.1135 1778.6182 1737.7214 1692.3772
