code/nnv/examples/Submission/ARCH2019/Mountain_car/MountainCar_ReluController.onnx (onnx, 2502 bytes, 6 tensors)

input_AvgImg f4 [1, 1, 1, 2]
1.0 1.0
00000000: 0000 803f 0000 803f

Operation_1_W f4 [16, 2]
-0.34856284 -1.6524057 -0.5857132 0.44318604 0.24428058 1.630361 -0.074756816 1.0944091
-0.0021594127 -0.0012841667 -0.11658489 0.23754479 -0.06422791 0.51193446 1.2737824 -0.41005415
-0.00055616914 -0.0028560637 -0.28390184 -3.5251834 -0.0020342004 -0.0022724958 -0.055887062 -0.0160068
-0.02974222 0.74545664 0.0011732962 -0.0005430016 -0.0005691757 0.0031515686 0.00040395118 0.0002282705
00000000: d476 b2be 0882 d3bf 4df1 15bf 48e9 e23e
00000010: b024 7a3e abaf d03f 1a1a 99bd 9915 8c3f
00000020: ef84 0dbb 7c51 a8ba 0fc4 eebd f13e 733e
00000030: ec89 83bd 230e 033f 4d0b a33f 9ef2 d1be
00000040: e1cb 11ba cc2c 3bbb 955b 91be 9b9c 61c0
00000050: 3850 05bb 27ee 14bb d5e9 64bd b120 83bc
00000060: f5a5 f3bc 3fd6 3e3f 4ac9 993a 3858 0eba
00000070: bc34 15ba 8c8a 4e3b 69c9 d339 e55b 6f39

Operation_1_B f4 [16]
-0.19842708 -0.8248486 -0.33017573 -0.13656071 -0.0033155323 -0.16418986 -0.12052034 1.0411327
-0.0015111632 0.18731697 -0.0027309216 -0.51978225 -0.09866906 -0.0014205155 -0.0014607029 -0.0025464445
00000000: 7830 4bbe 4729 53bf cb0c a9be 92d6 0bbe
00000010: 6749 59bb 6321 28be 5ed3 f6bd d643 853f
00000020: 3912 c6ba 05d0 3f3e 43f9 32bb 7310 05bf
00000030: 0113 cabd 9730 baba 0e75 bfba 40e2 26bb

Operation_2_W f4 [16, 16]
-0.005237243 0.0050337818 -0.000691669 -0.014340459 -0.00298714 0.02108253 0.07358579 -0.018893808
-0.0029848367 0.042375606 -0.0007235516 0.07251705 -0.073504575 -0.0014758386 0.0032610917 0.0001308535
1.1899453 0.12309105 -0.5422283 -1.0206293 0.0017583048 -0.34958678 -0.5585964 -0.133755
-0.0008941863 1.4294891 0.00318855 -0.2737455 1.1216491 0.00059765775 0.0012237706 0.0018644436
-0.0020182712 0.0030566338 -0.0015835436 -0.0011931709 0.0017473826 0.00041980494 0.00040990833 -0.002367755
0.00089282147 -0.0033560195 -0.0022441025 0.002372743 0.0019817634 0.0017208534 -0.0020746875 0.00047393676
-0.0016136988 0.00059574225 0.0027248112 0.00018623589 0.0029115994 -0.0033130613 -0.0033549867 -0.0033135505
-0.0019948184 -0.0018283364 -0.0025719046 0.00279024 0.00077108975 0.0024662076 -0.0005045033 -0.00023601254
-0.0011524364 0.0027540298 -0.00057762157 0.0026563678 0.0014558856 0.0020749138 -0.0033837722 -0.016244534
0.0017396695 6.9997885e-05 -0.0025116825 -0.00027613668 -0.0030703596 0.0017556833 -0.0010782187 -0.001082743
-0.24152008 -0.031876564 0.18122382 0.31159797 -0.0025860732 0.10533523 0.19992569 0.18516678
-0.0029834488 -0.7184764 3.8971633e-05 0.0848887 -0.34446263 0.0013631913 0.0020485925 -0.0029719349
-0.10397419 -0.013098652 0.07085044 0.11575108 -0.0033045758 0.040836737 0.07627242 0.21249442
-0.0016497066 -0.12283161 -0.0032932558 0.032611325 -0.123027705 0.0025086442 0.0026154576 -0.0008402252
-0.0024315016 0.0021157172 0.00083760906 0.00084906473 -0.0032610018 -0.00077183434 -0.0020421776 0.00047389165
0.002097569 0.00038993335 0.0030832957 -0.0014748573 0.0028811581 -0.0012204538 0.0027795692 -0.0028933557
0.009484282 -0.0007199087 -0.0026516318 -0.0033325125 -0.0032465789 0.002502191 -0.0016742361 -0.012578838
-0.002110035 -0.0013794939 0.002251475 -6.7083194e-05 -0.00343864 0.0011755076 0.0011199702 0.0033231406
-0.5114391 -0.06297534 0.41483784 0.6484289 -0.0017467821 0.22301157 0.45928496 0.5697724
0.0009598833 -1.3159797 -0.0033380343 0.17531717 -0.7068938 -0.00033812557 -0.0015816138 -0.0021913997
0.009422829 0.0028904967 -0.00045955824 0.001313908 0.0024780054 0.00039166454 -0.0021800632 0.0028053836
0.00016980115 0.034429472 -0.002228681 -0.0033344945 -0.00084947475 -0.00081146485 -0.001704414 0.0021464655
-1.4112661 0.019565923 0.07354248 0.0777445 0.000267267 0.033020124 0.14297515 -0.86089796
0.0029238744 -1.9865252 -0.0011558752 0.015168529 -0.027923958 -0.0006138689 0.0024426966 0.0025807912
0.082186475 0.010840479 -0.1786384 -0.09839616 0.00036356386 -0.02462429 0.06303418 0.21632533
-0.0016291843 0.055007942 -0.0025397802 0.12636726 -0.058578957 -0.0006780977 0.00019075476 0.0012968134
-0.026048118 0.039105296 -0.685493 -1.228298 0.002354135 -0.41912663 -0.81970215 0.5627534
-0.0029874092 2.5717032 0.0021301669 -0.32952905 1.3509377 -0.0012569124 0.0020797185 0.00047831712
0.6155551 0.0046001053 -0.5719041 -0.85759413 -0.0025867452 -0.29638666 -0.48877895 -1.2338582
0.0016179153 0.32517213 -0.0010686488 -0.3997041 1.0329006 0.00083914836 0.000498925 -0.0023334706
-0.7297799 -0.089102894 0.42829233 0.9583518 -0.0015198376 0.32542002 0.5587165 -0.47883064
0.0018733508 -2.3912675 0.0030291781 0.26162308 -1.0520447 -0.00048009507 0.0016046767 -0.00022795865
00000000: 2e9d abbb 6cf2 a43b 1f51 35ba 3ff4 6abc
00000010: e5c3 43bb 45b5 ac3c 26b4 963d 30c7 9abc
00000020: 409d 43bb 0b92 2d3d baac 3dba d283 943d
00000030: 9189 96bd ed70 c1ba 0ab8 553b b835 0939
00000040: 2150 983f 2917 fc3d 79cf 0abf fba3 82bf
00000050: eb76 e63a 0afd b2be 2c00 0fbf 12f7 08be
00000060: d467 6aba 80f9 b63f fef6 503b 5f28 8cbe
00000070: 3392 8f3f 22ac 1c3a ed66 a03a 5960 f43a
00000080: f944 04bb ce51 483b e88e cfba 2c64 9cba
00000090: 6e08 e53a 4419 dc39 f7e8 d639 562c 1bbb
000000a0: 3c0c 6a3a aaf0 5bbb cb11 13bb 0680 1b3b
000000b0: 79e0 013b 428e e13a 7bf7 07bb b77a f839
000000c0: bf82 d3ba 962b 1c3a bf92 323b 5148 4339
000000d0: 88d0 3e3b f21f 59bb 56df 5bbb 2728 59bb
000000e0: 80bb 02bb caa4 efba 668d 28bb 76dc 363b
000000f0: f522 4a3a 19a0 213b a540 04ba 227a 77b9
00000100: 590d 97ba f47c 343b 876b 17ba 7516 2e3b
00000110: 6ad3 be3a 47fb 073b 47c2 5dbb 4213 85bc
00000120: 9f05 e43a d4cb 9238 0a9b 24bb 70c6 90b9
00000130: 1638 49bb f51e e63a 0453 8dba d4ea 8dba
00000140: 0a51 77be 0091 02bd bd92 393e c589 9f3e
00000150: 1c7b 29bb ffb9 d73d 52b9 4c3e 5c9c 3d3e
00000160: f785 43bb 12ee 37bf 7975 2338 20da ad3d
00000170: 685d b0be 1cad b23a ae41 063b cbc4 42bb
00000180: 6cf0 d4bd ba9b 56bc 091a 913d e70e ed3d
00000190: 9591 58bb 6c44 273d b734 9c3d 2398 593e
000001a0: f83a d8ba 248f fbbd aad3 57bb 7493 053d
000001b0: f3f5 fbbd 1168 243b 1968 2b3b 8f42 5cba
000001c0: d459 1fbb d8a7 0a3b fe92 5b3a c593 5e3a
000001d0: 88b6 55bb ed54 4aba 0ed6 05bb a974 f839
000001e0: 5e77 093b f86f cc39 1e11 4a3b 0050 c1ba
000001f0: d0d1 3c3b a2f7 9fba 6f29 363b 749e 3dbb
00000200: f663 1b3c 41b8 3cba 00c7 2dbb 4866 5abb
00000210: 8ec4 54bb cdfb 233b 0b72 dbba 7817 4ebc
00000220: 8348 0abb 22d0 b4ba 7b8d 133b 04af 8cb8
00000230: ce5a 61bb 7d13 9a3a f7cb 923a 0cc9 593b
00000240: aced 02bf 37f9 80bd a065 d43e 70ff 253f
00000250: 48f4 e4ba 255d 643e 6627 eb3e 9bdc 113f
00000260: aea0 7b3a 0672 a8bf ecc2 5abb 5886 333e
00000270: fef6 34bf 7246 b1b9 274e cfba 969d 0fbb
00000280: 3662 1a3c 7d6e 3d3b ddf0 f0b9 7037 ac3a
00000290: 0866 223b 5358 cd39 64df 0ebb 87da 373b
000002a0: a60c 3239 eb05 0d3d 100f 12bb 8987 5abb
000002b0: 49af 5eba 7cb8 54ba a566 dfba b7ab 0c3b
000002c0: 5ea4 b4bf b748 a03c 719d 963d 8238 9f3d
000002d0: f81f 8c39 1c40 073d 1468 123e cf63 5cbf
000002e0: 799e 3f3b 7546 febf bc80 97ba 6c85 783c
000002f0: c9c0 e4bc 0bec 20ba a615 203b 7e22 293b
00000300: 6251 a83d 449c 313c fcec 36be ed83 c9bd
00000310: b79c be39 e1b8 c9bc 1018 813d 6384 5d3e
00000320: 5b8a d5ba 0250 613d 7172 26bb 6b66 013e
00000330: 7df0 6fbd 5ec2 31ba 5705 4839 d6f9 a93a
00000340: dd62 d5bc e02c 203d 787c 2fbf de38 9dbf
00000350: d547 1a3b c497 d6be 00d8 51bf 9b10 103f
00000360: 69c8 43bb c996 2440 459a 0b3b 08b8 a8be
00000370: 87eb ac3f fbbe a4ba e34b 083b a3c6 fa39
00000380: 0595 1d3f 7bbc 963b 4f68 12bf 4a8b 5bbf
00000390: 6286 29bb febf 97be 3c41 fabe 11ef 9dbf
000003a0: 3b10 d43a f67c a63e e711 8cba 04a6 ccbe
000003b0: 1636 843f 4bfa 5b3a 4aca 023a 24ed 18bb
000003c0: dbd2 3abf 947b b6bd 2249 db3e 8b56 753f
000003d0: 4a35 c7ba 749d a63e 0b08 0f3f 4a29 f5be
000003e0: 398b f53a 870a 19c0 2d85 463b 76f3 853e
000003f0: 67a9 86bf 45b5 fbb9 0454 d23a 2f08 6fb9

Operation_2_B f4 [16]
0.13157399 0.061125465 0.0004329202 -0.0012921118 -0.00015141687 0.073668465 -0.03505036 -0.002678163
-0.0069312304 -0.015605348 0.12943162 1.0342238 0.094662845 -0.6365019 0.44634873 0.5743995
00000000: 55bb 063e b25e 7a3d 91f9 e239 145c a9ba
00000010: a8c5 1eb9 7edf 963d f790 0fbd 1e84 2fbb
00000020: 601f e3bb 93ad 7fbc b989 043e 7261 843f
00000030: 98de c13d caf1 22bf d287 e43e d80b 133f

linear_3_W f4 [1, 16]
-0.03298495 0.8352446 -0.00018778883 -0.00015733433 -0.003364496 0.56971806 0.19010484 0.0010608988
-0.006585041 1.633859 -0.03885653 2.766648 0.22483082 -1.9900914 -0.33709833 -2.7009466
00000000: 3a1b 07bd 97d2 553f 2ee9 44b9 1dfa 24b9
00000010: e07e 5cbb 0bd9 113f d8aa 423e db0d 8b3a
00000020: 54c7 d7bb 4b22 d13f 0628 1fbd c310 3140
00000030: 0d3a 663e 51bb febf 2798 acbe 4fdc 2cc0
