nnv0.1/examples/Submission/ARCH2019/Other/Benchmark 7/controller7.onnx (onnx, 247642 bytes, 6 tensors)

input_AvgImg f4 [1, 1, 1, 3]
1.0 1.0 1.0
00000000: 0000 803f 0000 803f 0000 803f

Operation_1_W f4 [300, 3]
0.163975 -0.365692 -0.110607 0.00788866 -0.0073386 -0.00646295 0.0838752 0.0954162
-0.0652995 0.00275508 0.00388052 0.0289176 0.00920929 0.00966025 0.0100164 0.158898
-0.180074 -0.277752 0.0453676 0.0288044 0.0601034 -1.26 -1.28744 0.0103626
0.086828 0.0362705 0.170582 0.0113595 -0.0162686 0.00283095 0.0528221 0.0543601
-0.0175739 0.0606707 0.0549027 -0.140453 0.0839936 0.108189 -0.0206257 0.164007
-0.171358 -0.409948 0.0952068 0.0409533 -0.304998 0.169706 -0.152362 -0.248501
0.132259 0.0217475 0.217288 -0.0111577 0.00218426 -0.0975071 0.044291 0.0040802
-0.136548 0.118671 -0.0095959 -0.342545 0.176384 -0.248471 -0.223398 -0.133951
0.527175 -0.138749 0.00640471 0.056392 -0.0927426 0.0677716 0.0370414 -0.0808626
0.17607 -0.214624 -0.16883 0.153004 -0.0991389 -0.186074 -0.00122588 0.00122883
0.120331 0.0526934 0.211564 -0.00936949 0.0806868 -0.0198361 -0.320891 0.181307
-0.254506 -0.241001 0.153941 0.00247184 -0.0618812 0.18031 -0.19872 -0.210886
0.0800231 0.0397916 -0.00928159 0.12416 0.0236128 -0.002657 0.147253 0.115407
0.0592594 -0.0789012 0.0267513 0.0742244 0.104418 -0.075151 -0.0117352 0.0536191
0.0244899 -0.0325679 0.144639 -0.207897 -0.216883 0.144347 -0.0239846 -0.197741
-0.0123439 -0.0038291 -0.0535033 0.173038 -0.0957089 -0.260151 0.145743 -0.0447044
-0.269393 0.00642507 -0.00551074 0.042752 -0.041841 0.00525234 -0.0615213 -0.0251497
0.0255661 0.134438 -0.0146937 0.0208076 0.0766951 0.0142577 0.078907 -0.0182355
0.0419501 -0.000458071 0.107551 0.16684 -0.294165 -0.404269 0.0628612 0.0559677
-0.0475945 0.13823 0.0492464 -0.067959 0.169944 -0.171825 -0.228395 0.163291
-0.225177 -0.0812377 0.0387048 0.0758622 -0.02846 0.0340805 0.110357 0.0195004
0.173864 -0.243504 -0.23393 -0.0094703 -0.0220114 0.0944058 0.173119 -0.176155
-0.161888 0.170818 -0.209984 -0.357693 0.146462 -0.0300666 0.159342 0.155498
-0.109792 -0.395733 0.124414 0.023317 0.0597468 0.0299519 0.0890022 0.0971459
0.156967 -0.218962 -0.31379 0.0266254 -0.0116524 0.0361912 0.169528 -0.276464
-0.269539 0.0796466 0.0817041 -0.0664766 -0.0989934 0.0390177 -0.0403092 0.166194
-0.172017 -0.120605 0.00215638 0.0141965 0.0774597 0.133916 0.174183 0.00659612
0.0213094 -0.00927402 -0.00784236 0.00973475 0.00587729 0.0862171 0.124138 0.0424047
0.0578411 0.123252 0.089575 -0.0323968 0.0305187 0.0124846 -0.029737 0.00155627
0.0409218 0.0021615 0.158748 -0.253845 -0.297138 0.0481551 0.0320771 -0.0454709
0.00735461 -0.0310646 0.023301 0.167198 -0.105806 -0.134867 -0.00603968 0.0634036
-0.0906999 0.166664 -0.222993 -0.1958 -0.00359574 0.0539899 -0.0575534 0.14752
00000000: 10e9 273e fb3b bbbe ec85 e2bd 703f 013c
00000010: a378 f0bb 27c7 d3bb c3c6 ab3d 9269 c33d
00000020: bfbb 85bd 928e 343b 5250 7e3b 9ae4 ec3c
00000030: 90e2 163c 0646 1e3c d41b 243c 28b6 223e
00000040: 5265 38be 8335 8ebe 60d3 393d 34f7 eb3c
00000050: fc2e 763d ae47 a1bf d5ca a4bf e5c7 293c
00000060: e1d2 b13d 6090 143d 0cad 2e3e 321d 3a3c
00000070: ba45 85bc 7687 393b fd5b 583d b2a8 5e3d
00000080: 24f7 8fbc d781 783d a7e1 603d e9d2 0fbe
00000090: d604 ac3d 3292 dd3d 3af7 a8bc 73f1 273e
000000a0: 7978 2fbe b4e4 d1be c8fb c23d a6be 273d
000000b0: b328 9cbe 69c7 2d3e c904 1cbe 0c77 7ebe
000000c0: e76e 073e d027 b23c bf80 5e3e c9ce 36bc
000000d0: cd25 0f3b cdb1 c7bd 7b6a 353d 33b3 853b
000000e0: 3dd3 0bbe c809 f33d 1f38 1dbc 0f62 afbe
000000f0: 029e 343e 2f6f 7ebe 72c2 64be 732a 09be
00000100: f1f4 063f 3814 0ebe 9ade d13b 4cfb 663d
00000110: d5ef bdbd d6cb 8a3d b9b8 173d 4a9b a5bd
00000120: b24b 343e 65c6 5bbe c6e1 2cbe 15ad 1c3e
00000130: 5609 cbbd 2f8a 3ebe b5ad a0ba b110 a13a
00000140: 1970 f63d 09d5 573d 3ca4 583e 7d82 19bc
00000150: 1f3f a53d 517f a2bc d34b a4be 8ba8 393e
00000160: 9c4e 82be f7c8 76be b6a2 1d3e 98fe 213b
00000170: 2477 7dbd 2fa3 383e 417d 4bbe 80f2 57be
00000180: 27e3 a33d 84fc 223d cf11 18bc 9947 fe3d
00000190: a16f c13c 1021 2ebb 7ec9 163e 815a ec3d
000001a0: fcb9 723d f496 a1bd 8b25 db3c f602 983d
000001b0: 1bd9 d53d c4e8 99bd ff44 40bc b49f 5b3d
000001c0: 0b9f c83c eb65 05bd 3f1c 143e f3e2 54be
000001d0: 9416 5ebe b3cf 133e 5a7b c4bc 9e7c 4abe
000001e0: 123e 4abc a3f1 7abb 4726 5bbd e030 313e
000001f0: 0703 c4bd 8332 85be a73d 153e f61b 37bd
00000200: e1ed 89be 6589 d23b 7093 b4bb b91c 2f3d
00000210: 7861 2bbd d21b ac3b c2fd 7bbd be06 cebc
00000220: ff6f d13c 1daa 093e d8bd 70bc b374 aa3c
00000230: 5212 9d3d 2199 693c fe99 a13d 9e62 95bc
00000240: ded3 2b3d 4029 f0b9 b343 dc3d 1bd8 2a3e
00000250: cb9c 96be 59fc cebe 5fbd 803d 633e 653d
00000260: 73f2 42bd 2a8c 0d3e 98b6 493d 172e 8bbd
00000270: cd05 2e3e e5f2 2fbe 61e0 69be c235 273e
00000280: cd94 66be f45f a6bd ed88 1e3d a45d 9b3d
00000290: f224 e9bc ff97 0b3d da02 e23d 4ebf 9f3c
000002a0: 6809 323e 1d59 79be 598b 6fbe 5129 1bbc
000002b0: 4051 b4bc d457 c13d 1b46 313e fa61 34be
000002c0: f8c5 25be eaea 2e3e 0c06 57be 8923 b7be
000002d0: 22fa 153e 3b4e f6bc 8d2a 233e de3a 1f3e
000002e0: a1da e0bd 849d cabe c4cc fe3d 4b03 bf3c
000002f0: 10b9 743d b05d f53c c946 b63d 6ef4 c63d
00000300: f5bb 203e 9337 60be 15a9 a0be 831d da3c
00000310: b5e9 3ebc 393d 143d bf98 2d3e b08c 8dbe
00000320: 0401 8abe c21d a33d 7b54 a73d e224 88bd
00000330: 0dbd cabd 06d1 1f3d 421b 25bd c32e 2a3e
00000340: 3925 30be c1ff f6bd 0e52 0d3b 7098 683c
00000350: 31a3 9e3d 4721 093e 075d 323e 4424 d83b
00000360: 0d91 ae3c 0ff2 17bc 3e7d 00bc 807e 1f3c
00000370: 4896 c03b 9792 b03d 103c fe3d 8db0 2d3d
00000380: caea 6c3d 8b6b fc3d 1973 b73d 82b2 04bd
00000390: 5a02 fa3c 358c 4c3c 029b f3bc c2fb cb3a
000003a0: 9e9d 273d f4a7 0d3b d68e 223e f9f7 81be
000003b0: 7922 98be 483e 453d 4763 033d b23f 3abd
000003c0: f1fe f03b 307b febc bde1 be3c f435 2b3e
000003d0: d1b0 d8bd 931a 0abe 82e8 c5bb bfd9 813d
000003e0: dfc0 b9bd f8a9 2a3e 4758 64be cc7f 48be
000003f0: 82a6 6bbb 8324 5d3d 1dbd 6bbd 7c0f 173e

Operation_1_B f4 [300]
1.17824 -0.0114979 -0.167934 -0.0891668 -0.0123961 0.976735 -0.0847619 0.783389
-0.154641 -0.0660713 -0.0570559 -0.124267 -0.10081 0.748888 0.268839 0.687393
-0.193379 -0.110703 -0.101821 0.0869641 0.850687 1.079 -0.0786365 -0.0926887
0.915253 0.526029 -0.0858173 -0.197529 0.086747 0.779212 -0.125805 0.806135
-0.0562416 -0.104037 -0.180221 -0.142107 -0.0821148 -0.120786 0.7136 0.452236
-0.0883623 0.783005 0.444555 -0.0768121 -0.106486 -0.0931942 -0.0676213 -0.137504
-0.0694015 0.800142 -0.0751319 -0.108183 0.652718 0.737497 -0.111959 -0.0819112
0.892775 -0.10893 0.610062 0.630168 -0.140286 0.501631 -0.0837695 -0.150747
0.792834 -0.0703773 0.736712 -0.108984 -0.117691 0.600927 -0.0780424 -0.192702
-0.0699714 -0.0665142 -0.114291 -0.109962 -0.0874986 -0.0867992 0.698799 -0.0562783
-0.0486513 0.569188 -0.0966737 0.975382 -0.0610227 0.467419 0.00580493 -0.069554
0.713104 -0.101527 0.87514 -0.162923 0.0560415 -0.0872529 -0.0570699 -0.112157
-0.0591192 0.706182 -0.0559285 -0.091466 -0.138834 0.0606385 -0.15276 0.701864
-0.0766738 -0.111518 -0.075137 0.819214 0.695605 -0.0820343 -0.0934916 -0.127236
-0.0713178 -0.0585416 0.638964 -0.0892316 0.563231 -0.132479 -0.695382 0.882292
-0.100678 0.775506 -0.0427025 -0.049159 -0.417726 -0.110242 0.830209 -0.119712
0.665816 0.467905 -0.10136 0.534076 0.804998 0.0482009 -0.139031 0.590608
-0.0642535 -0.159534 -0.170821 0.676348 0.945328 -0.0974139 0.906457 -0.0963537
-0.0752361 -0.118712 0.622113 0.956619 0.598837 0.889134 0.73977 -0.0397753
0.762905 -0.110273 0.732673 1.23979 0.818045 -0.0586941 -0.111306 -0.0869905
-0.0846363 -0.10408 -0.103141 -0.0174701 -0.0629835 -0.0710626 -0.105892 -0.0413321
-0.151977 0.784388 -0.0555769 -0.128989 -0.0979172 -0.0587332 -0.0709907 -0.0517594
-0.151509 -0.168241 -0.083277 -0.160677 -0.176193 -0.0603529 -0.0928555 -0.0409709
0.67389 -0.102876 0.569561 0.244477 0.547435 0.725768 -0.0772925 -0.0778032
-0.136284 -0.068202 -0.126843 -0.0833507 -0.187366 -0.094091 -0.0413872 -0.121731
-0.0953906 -0.0915244 -0.0336548 -0.0959518 -0.0644282 -0.174473 -0.14021 -0.0670086
0.5948 -0.0952643 -0.188512 -0.0949624 -0.141178 -0.147717 0.684458 -0.0965187
-0.171539 -0.0823174 0.493371 -0.0983769 -0.0272823 -0.188575 -0.0880521 0.799157
-0.117567 -0.0847814 -0.0793789 -0.114137 -0.0554392 0.747397 0.49154 0.687332
-0.0583105 -0.113411 -0.107453 0.575062 -0.0780269 -0.134626 0.73913 -0.0819417
-0.103628 -0.0505865 0.873433 0.77368 0.757098 -0.0426453 -0.156637 0.759459
-0.104325 -0.100774 0.487852 -0.149216 0.482629 -0.0700886 -0.0937784 -0.114413
00000000: 91d0 963f b061 3cbc e4f6 2bbe 159d b6bd
00000010: 0319 4bbc 4e0b 7a3f a697 adbd 2e8c 483f
00000020: 365a 1ebe 6450 87bd 73b3 69bd b27f febd
00000030: 7975 cebd 20b7 3f3f 44a5 893e fdf8 2f3f
00000040: 2505 46be 41b8 e2bd 8787 d0bd 3c1a b23d
00000050: a0c6 593f ac1c 8a3f 2c0c a1bd 93d3 bdbd
00000060: 054e 6a3f d6a9 063f fbc0 afbd 0b45 4abe
00000070: 69a8 b13d 707a 473f 07d3 00be dd5e 4e3f
00000080: 985d 66bd 5a11 d5bd db8b 38be 7f84 11be
00000090: ce2b a8bd a65e f7bd 7dae 363f 7a8b e73e
000000a0: 4bf7 b4bd 0473 483f b79c e33e aa4f 9dbd
000000b0: 5515 dabd 9adc bebd 097d 8abd d9cd 0cbe
000000c0: 6022 8ebd 1bd6 4c3f c1de 99bd 0c8f ddbd
000000d0: 8718 273f 9acc 3c3f c34a e5bd 0fc1 a7bd
000000e0: e78c 643f b116 dfbd 062d 1c3f b152 213f
000000f0: 22a7 0fbe e46a 003f 588f abbd 6c5d 1abe
00000100: 2bf7 4a3f f921 90bd 2899 3c3f 0133 dfbd
00000110: fb07 f1bd 5ad6 193f b2d4 9fbd ac53 45be
00000120: 2a4d 8fbd 9938 88bd 6611 eabd c233 e1bd
00000130: 7732 b3bd c7c3 b1bd 7ee4 323f 1384 66bd
00000140: 9646 47bd 4eb6 113f dcfc c5bd a2b2 793f
00000150: f0f2 79bd 8b51 ef3e 4837 be3b 5472 8ebd
00000160: fc8d 363f 63ed cfbd 2d09 603f 49d5 26be
00000170: c68b 653d a6b1 b2bd 21c2 69bd 92b2 e5bd
00000180: f926 72bd 58c8 343f 4815 65bd 8752 bbbd
00000190: 802a 0ebe 1360 783d 1e6d 1cbe 5cad 333f
000001a0: 2707 9dbd 8d63 e4bd 6de1 99bd 02b8 513f
000001b0: 2b13 323f 9901 a8bd 8678 bfbd 274a 02be
000001c0: 110f 92bd 51c9 6fbd 2593 233f 0fbf b6bd
000001d0: e82f 103f 93a8 07be 8e04 32bf e3dd 613f
000001e0: 4430 cebd 9087 463f d1e8 2ebd f35a 49bd
000001f0: 2fe0 d5be 8fc6 e1bd 9488 543f 912b f5bd
00000200: eb72 2a3f 3f91 ef3e d595 cfbd 34b9 083f
00000210: 5914 4e3f 4f6e 453d 245e 0ebe 1632 173f
00000220: 5797 83bd e25c 23be b3eb 2ebe 2425 2d3f
00000230: 0401 723f f080 c7bd 910d 683f 1755 c5bd
00000240: 6215 9abd 471f f3bd cc42 1f3f fce4 743f
00000250: 624d 193f 499e 633f 9161 3d3f 6deb 22bd
00000260: be4d 433f d0d6 e1bd 7590 3b3f 70b1 9e3f
00000270: 666b 513f 3969 70bd 66f4 e3bd 1328 b2bd
00000280: cc55 adbd e527 d5bd 973b d3bd 751d 8fbc
00000290: 7efd 80bd 4589 91bd e8dd d8bd d94b 29bd
000002a0: dc9f 1bbe a7cd 483f 9aa4 63bd b115 04be
000002b0: d088 c8bd 3992 70bd 9263 91bd aa01 54bd
000002c0: 2d25 1bbe 5e47 2cbe 228d aabd 8388 24be
000002d0: f06b 34be 9a34 77bd 062b bebd 1ad1 27bd
000002e0: 0e84 2c3f a7b0 d2bd c0ce 113f 2e58 7a3e
000002f0: b324 0c3f efcb 393f 884b 9ebd 4957 9fbd
00000300: 088e 0bbe 7dad 8bbd 22e3 01be c6b3 aabd
00000310: dfdc 3fbe c8b2 c0bd a085 29bd 1a4e f9bd
00000320: 265c c3bd 2571 bbbd 9ed9 09bd 6182 c4bd
00000330: eff2 83bd 0da9 32be 3693 0fbe ce3b 89bd
00000340: d044 183f ee19 c3bd 4a09 41be a67b c2bd
00000350: f790 10be 2043 17be a438 2f3f 99ab c5bd
00000360: eba7 2fbe 0696 a8bd 209b fc3e d479 c9bd
00000370: 217f dfbc ce19 41be a954 b4bd 8e95 4c3f
00000380: f8c6 f0bd dfa1 adbd 6891 a2bd a9c0 e9bd
00000390: 3714 63bd 6955 3f3f 22ab fb3e fdf4 2f3f
000003a0: fed6 6ebd 0744 e8bd 5210 dcbd 4337 133f
000003b0: 91cc 9fbd 66db 09be a037 3d3f 0dd1 a7bd
000003c0: eb3a d4bd ca33 4fbd 4e99 5f3f e40f 463f
000003d0: 2dd1 413f d7ac 2ebd 7365 20be e86b 423f
000003e0: 58a8 d5bd 9962 cebd bdc7 f93e 14cc 18be
000003f0: 261b f73e 9d8a 8fbd e40e c0bd 5d51 eabd

Operation_2_W f4 [200, 300]
-0.0413785 -0.099273 -0.0368218 0.0614785 0.000417621 0.0318539 -0.154822 -0.182964
-0.0293382 -0.172307 0.044531 -0.0570082 0.0253157 0.0869887 0.062412 -0.199309
0.77872 0.069505 0.0148012 -0.118119 -0.0262436 1.08121 -0.0172594 -0.0859161
-0.096162 -0.0852715 -0.0412345 -0.0139394 -0.0471011 -0.0292559 -0.0330676 -0.0917893
0.0174481 -0.00872296 0.0563994 -0.0179705 -0.0361603 -0.00217909 -0.238376 -0.144717
-0.106145 0.00642079 0.130928 -0.00313573 -0.058225 -0.0892442 0.0901162 -0.191044
-0.165937 0.145949 -0.0153846 0.0555585 0.0178984 -0.0134297 0.0813432 -0.270034
-0.0344222 0.0289473 0.00581715 -0.0779704 -0.15147 -0.102658 -0.141302 -0.000684714
-0.10491 -0.0647161 0.021054 -0.0320434 -0.0824523 -0.102866 -0.0833517 -0.139358
-0.0544468 0.0433415 -0.120514 -0.135681 -0.0494933 -0.0557293 0.146718 -0.0104344
-0.031716 0.0651754 -0.0216169 -0.0313409 -0.192374 0.0860568 0.114932 -0.0478847
-0.188142 -0.103814 -0.157651 -0.0395073 -0.113804 -0.0423021 -0.0785731 -0.0547338
0.00148608 -0.070967 0.0516868 -0.0948733 0.0376316 -0.113069 -0.2456 -0.067836
-0.0938952 -0.0803683 -0.121849 -0.102956 -0.12116 -0.0468734 -0.0347315 -0.0931254
-0.129008 -0.0258302 -0.115391 -0.00589677 -0.0969751 -0.0739164 0.800538 0.0140648
-0.207785 -0.0797553 -0.100234 -0.104482 0.419455 -0.0373086 -0.185677 0.00375762
0.0798493 -0.0998315 0.0469254 0.137296 0.0345489 -0.0596359 -0.0087353 0.00859088
0.0167094 -0.0707374 -0.100118 -0.136922 0.0129942 -0.222496 0.110814 0.0107198
-0.00668859 -0.106376 -0.209695 0.0560896 -0.044053 0.0606738 0.0623674 -0.0327527
-0.101632 -0.00439402 -0.103197 0.061979 -0.15895 -0.0135984 -0.0725176 -0.0742193
-0.0685208 0.0455042 -0.0615351 -0.0874235 0.128577 -0.106868 0.0273434 -0.108597
-0.0753554 -0.0774487 0.163746 -0.0436624 -0.0053884 -0.0179083 -0.0077056 -0.142097
-0.121508 -0.0164109 -0.0272687 -0.0183468 0.0111993 0.0323095 -0.0977779 0.0476161
0.134265 -0.116271 -0.087041 -0.967438 0.00303026 -0.0484853 -0.168217 -0.0197359
-0.0324433 -0.134021 -0.167935 -0.208527 0.0406079 -0.163046 -0.124494 -0.055081
-0.179294 -0.163489 -0.158424 0.0153698 -0.0142365 -0.0658044 -0.0200015 -0.228766
-0.0537009 -0.2172 -0.17037 -0.128449 0.167533 0.0139328 0.104874 -0.109389
-0.00466108 -0.0319968 -0.202469 -0.0839927 -0.192535 0.0435041 -0.0652456 -0.100957
-0.0769965 -0.106792 -0.0977252 -0.0336106 -0.120441 -0.133749 0.021387 -0.0596463
-0.021368 0.0100042 0.0128166 0.0163428 0.0713726 0.0641988 -0.0528604 -0.0478697
-0.126706 -0.209713 0.0840801 -0.0131159 -0.0783573 0.0604442 -0.215161 -0.0631495
-0.0319046 -0.0344019 0.0397558 0.0839917 0.0173287 -0.00335151 0.103526 -0.127242
00000000: 817c 29bd a54f cbbd 75d2 16bd e1d0 7b3d
00000010: 24f4 da39 3c79 023d a989 1ebe ea5a 3bbe
00000020: aa56 f0bc 3f71 30be 2366 363d 6e81 69bd
00000030: df62 cf3c 2227 b23d baa3 7f3d a917 4cbe
00000040: 325a 473f a358 8e3d bb80 723c 60e8 f1bd
00000050: d1fc d6bc 1765 8a3f 9663 8dbc c8f4 afbd
00000060: 95f0 c4bd d3a2 aebd 82e5 28bd 1562 64bc
00000070: 15ed 40bd 12aa efbc e471 07bd 07fc bbbd
00000080: 51ef 8e3c bfea 0ebc 0f03 673d df36 93bc
00000090: d31c 14bd 10cf 0ebb d718 74be b130 14be
000000a0: 8d62 d9bd 7e65 d23b fd11 063e d280 4dbb
000000b0: 567d 6ebd aac5 b6bd d88e b83d 0aa1 43be
000000c0: 64eb 29be a873 153e b00f 7cbc 4f91 633d
000000d0: aa9f 923c 3f08 5cbc 4397 a63d e541 8abe
000000e0: 4bfe 0cbd e322 ed3c cb9d be3b f2ae 9fbd
000000f0: f41a 1bbe 5c3e d2bd 79b1 10be 617e 33ba
00000100: 0edb d6bd e089 84bd 7079 ac3c f13f 03bd
00000110: c0dc a8bd 69ab d2bd 4cb4 aabd ddb3 0ebe
00000120: 9c03 5fbd db86 313d 0bd0 f6bd f6ef 0abe
00000130: 7db9 4abd 6844 64bd 3e3d 163e 0cf5 2abc
00000140: a3e8 01bd ae7a 853d ed15 b1bc 515f 00bd
00000150: b1fd 44be 8c3e b03d 7861 eb3d bf22 44bd
00000160: 4ca8 40be 6f9c d4bd 446f 21be 68d2 21bd
00000170: 1212 e9bd f844 2dbd efea a0bd 8d30 60bd
00000180: 92c8 c23a 2657 91bd 8ab5 533d ef4c c2bd
00000190: 9823 1a3d b890 e7bd 917e 7bbe 9aed 8abd
000001a0: 204c c0bd 2398 a4bd f88b f9bd 98da d2bd
000001b0: bc22 f8bd 53fe 3fbd 9e42 0ebd 88b8 bebd
000001c0: ac1a 04be db99 d3bc 1e52 ecbd b139 c1bb
000001d0: e29a c6bd 7b61 97bd 0ff0 4c3f 0c70 663c
000001e0: 97c5 54be bf56 a3bd 7c47 cdbd a9fa d5bd
000001f0: cec2 d63e e7d0 18bd 1d22 3ebe 6742 763b
00000200: 0888 a33d 7574 ccbd d934 403d 5397 0c3e
00000210: 2683 0d3d c644 74bd 811e 0fbc c3c0 0c3c
00000220: 27e2 883c c5de 90bd aa0a cdbd 4835 0cbe
00000230: a0e5 543c fed5 63be 73f2 e23d 1aa2 2f3c
00000240: f62b dbbb a9db d9bd 49ba 56be 35be 653d
00000250: eb70 34bd 1785 783d f574 7f3d b227 06bd
00000260: 7024 d0bd b6fb 8fbb f358 d3bd b1dd 7d3d
00000270: cac3 22be d3cb 5ebc 1c84 94bd 4a00 98bd
00000280: a254 8cbd 9d62 3a3d 3b0c 7cbd 180b b3bd
00000290: b0a9 033e 9cdd dabd 44ff df3c 1b68 debd
000002a0: ef53 9abd 6d9d 9ebd 08ad 273e 58d7 32bd
000002b0: 2d91 b0bb 6db4 92bc 427f fcbb e081 11be
000002c0: 30d9 f8bd 2770 86bc 9c62 dfbc 074c 96bc
000002d0: 457d 373c f756 043d c83f c8bd 1a09 433d
000002e0: c47c 093e 7d1f eebd 8d42 b2bd 04aa 77bf
000002f0: 5497 463b 8698 46bd 1441 2cbe 2fad a1bc
00000300: 44e3 04bd cd3c 09be 27f7 2bbe 1a88 55be
00000310: 7854 263d 88f5 26be b6f6 febd 9d9c 61bd
00000320: d998 37be a969 27be e739 22be 9dd1 7b3c
00000330: 3540 69bc 75c4 86bd 30da a3bc a241 6abe
00000340: 7af5 5bbd ad69 5ebe 7975 2ebe 2288 03be
00000350: c58d 2b3e 6646 643c 2ec8 d63d 5707 e0bd
00000360: f9bb 98bb 140f 03bd 0954 4fbe 5d04 acbd
00000370: e527 45be 5b31 323d 7c9f 85bd 8bc2 cebd
00000380: 57b0 9dbd c4b5 dabd 2624 c8bd 45ab 09bd
00000390: c5a9 f6bd 7ff5 08be ca33 af3c ae4f 74bd
000003a0: f20b afbc a8e8 233c b7fc 513c 56e1 853c
000003b0: cc2b 923d a97a 833d 2684 58bd 0513 44bd
000003c0: 38bf 01be 01bf 56be 3032 ac3d 12e4 56bc
000003d0: cb79 a0bd 5694 773d 2a53 5cbe 8654 81bd
000003e0: 66ae 02bd 02e9 0cbd fad6 223d d703 ac3d
000003f0: ebf4 8d3c 02a5 5bbb 7105 d43d ba4b 02be

Operation_2_B f4 [200]
0.347177 1.40696 0.0880149 0.133021 0.0939945 0.0862833 0.0865589 0.1
0.561748 0.593956 0.838086 0.388978 0.395764 0.0593834 0.460859 0.0678396
0.0809564 0.0510884 0.0682345 0.593563 0.0852284 0.0477943 0.320983 0.409384
0.344695 0.0534903 0.454183 0.430435 0.413545 0.558125 0.1 0.0936984
0.761979 0.45896 0.354978 1.86741 0.0509177 0.0864288 0.0682341 0.0804908
0.0625828 0.1 0.0682341 0.086619 0.0682614 0.374044 0.0823188 0.0817701
0.319965 0.0947713 0.350433 0.068234 0.0939945 0.0816016 0.448115 0.423047
0.560887 0.0523917 0.0633258 0.419879 0.0622285 1.87234 0.310228 0.068234
0.0915324 0.1 0.0661405 0.43157 0.0839551 0.333414 0.284833 0.468102
0.0827436 0.583418 0.325092 1.64657 0.366858 0.1 0.0880184 0.0865652
0.0948444 0.0806385 0.0865865 0.0866038 0.351892 0.0763022 0.371459 1.66943
0.1 0.0682379 0.056253 1.94986 0.082803 0.474978 1.13054 0.611672
0.116235 0.304792 0.0682786 0.0841087 0.717524 0.0682343 0.0634594 0.1
0.0839464 0.813087 0.0915313 0.0553188 0.242574 0.594626 0.089646 0.0896344
0.0509962 0.0682341 0.068234 0.1 0.1 0.52929 0.0915323 0.0915719
0.055237 0.068234 1.85467 0.0682341 1.92502 0.429164 0.0865781 0.359393
0.671731 0.0578736 0.488261 0.0523153 0.0938906 0.0471875 0.1 0.0869161
0.082802 0.429288 0.781116 0.0762928 0.0766652 0.426544 0.0516832 0.0630053
0.0939945 0.0880274 0.0627076 1.93053 0.0773834 0.1 0.1 0.0772281
0.0828239 0.0523715 0.377718 0.049031 0.0865552 0.1 0.349075 0.0852791
0.1 0.368332 0.450979 0.416807 0.344918 0.068234 0.378946 0.1
0.374526 0.0733347 1.89705 1.34445 0.516171 0.0621248 0.0831351 0.1
0.0717731 0.080001 0.552562 0.5314 0.0867947 0.085316 0.0867269 0.76143
0.368343 0.0739167 0.490701 0.0921839 0.304183 0.36144 1.25761 0.1
0.355777 0.346134 0.105879 0.593527 0.0621325 0.33789 1.74347 0.592779
00000000: 2fc1 b13e 4417 b43f 2841 b43d a836 083e
00000010: 3080 c03d 4cb5 b03d cb45 b13d cdcc cc3d
00000020: b8ce 0f3f 800d 183f ce8c 563f 2028 c73e
00000030: 94a1 ca3e 023c 733d b6f5 eb3e 7def 8a3d
00000040: 78cc a53d 1242 513d 88be 8b3d bff3 173f
00000050: 3a8c ae3d f5c3 433d e257 a43e c89a d13e
00000060: dd7b b03e a518 5b3d ad8a e83e fa61 dc3e
00000070: 2cbc d33e 48e1 0e3f cdcc cc3d f2e4 bf3d
00000080: 0e11 433f cefc ea3e adbf b53e 4a07 ef3f
00000090: 148f 503d 9501 b13d 52be 8b3d 5cd8 a43d
000000a0: 692b 803d cdcc cc3d 52be 8b3d 4d65 b13d
000000b0: a2cc 8b3d b282 bf3e c296 a83d 1577 a73d
000000c0: 74d2 a33e 7517 c23d f46b b33e 44be 8b3d
000000d0: 3080 c03d bd1e a73d 546f e53e 9e99 d83e
000000e0: 4a96 0f3f ae98 563d f5b0 813d 61fa d63e
000000f0: 50e3 7e3d d6a8 ef3f 34d6 9e3e 44be 8b3d
00000100: 5775 bb3d cdcc cc3d ac74 873d bef6 dc3e
00000110: a7f0 ab3d 3db5 aa3e a2d5 913e 11ab ef3e
00000120: 7a75 a93d e25a 153f 7572 a63e cec2 d23f
00000130: d0d4 bb3e cdcc cc3d fe42 b43d 1849 b13d
00000140: c83d c23d cc25 a53d 4354 b13d 555d b13d
00000150: 302b b43e 5444 9c3d e02f be3e e2af d53f
00000160: cdcc cc3d 50c0 8b3d 8c69 663d 0395 f93f
00000170: 9f94 a93d 5130 f33e 89b5 903f 8996 1c3f
00000180: 9e0c ee3d b20d 9c3e a7d5 8b3d 2f41 ac3d
00000190: a7af 373f 6dbe 8b3d 00f7 813d cdcc cc3d
000001a0: 17ec ab3d 7826 503f c374 bb3d f795 623d
000001b0: 5265 783e 6939 183f 5298 b73d 3e92 b73d
000001c0: 64e1 503d 52be 8b3d 44be 8b3d cdcc cc3d
000001d0: cdcc cc3d 8d7f 073f 4975 bb3d 0c8a bb3d
000001e0: 3140 623d 44be 8b3d d465 ed3f 52be 8b3d
000001f0: 0e67 f63f 62bb db3e dc4f b13d 5c02 b83e
00000200: 90f6 2b3f de0c 6d3d 59fd f93e 9148 563d
00000210: b749 c03d ae47 413d cdcc cc3d 1101 b23d
00000220: 1894 a93d a3cb db3e 38f7 473f 663f 9c3d
00000230: a502 9d3d fa63 da3e c3b1 533d ec08 813d
00000240: 3080 c03d b647 b43d d86c 803d 9b1b f73f
00000250: 307b 9e3d cdcc cc3d cdcc cc3d c429 9e3d
00000260: 949f a93d 7f83 563d 4164 c13e bbd4 483d
00000270: da43 b13d cdcc cc3d f5b9 b23e cfa6 ae3d
00000280: cdcc cc3d 0396 bc3e b8e6 e63e ba67 d53e
00000290: 1899 b03e 44be 8b3d 3605 c23e cdcc cc3d
000002a0: dfc1 bf3e 8130 963d 89d2 f23f f016 ac3f
000002b0: c823 043f 9376 7e3d bc42 aa3d cdcc cc3d
000002c0: c6fd 923d 90d7 a33d b474 0d3f d509 083f
000002d0: 6bc1 b13d 28ba ae3d df9d b13d 14ed 423f
000002e0: 7497 bc3e a461 973d 293d fb3e eaca bc3d
000002f0: e0bd 9b3e aa0e b93e 5df9 a03f cdcc cc3d
00000300: 6728 b63e 7a38 b13e 17d7 d83d 63f1 173f
00000310: a67e 7e3d ebff ac3e 062a df3f 5dc0 173f

Operation_3_W f4 [1, 200]
-0.0257408 0.103618 -0.122571 0.018559 -0.0372335 0.00436579 -0.125781 -0.025193
-0.00888406 -0.00964418 0.00672035 -0.0219392 -0.012247 -0.0915617 0.0446734 0.0196253
-0.0105327 -0.00171484 -0.00639872 -0.020117 -0.0775981 -0.00628126 0.0502908 -0.054135
-0.0195083 -0.011553 0.0144497 0.0102897 -0.0196151 0.0209661 -0.136747 -0.00285363
0.00375591 -0.00108147 0.0107972 0.38451 0.0057289 0.0653506 -0.149058 -0.0896153
-0.030338 -0.0434882 0.00938935 -0.0470896 -0.0653085 -0.0239814 -0.00216945 -0.026426
-0.0286634 -0.100942 -0.0284159 -0.00138156 -0.0715341 -0.0957203 0.00040716 0.00291599
-0.0127058 0.0191057 -0.0181667 -0.0209756 -0.149412 0.387056 0.00329123 -0.0186364
-0.0905313 0.0402376 -0.0228991 0.019161 -0.104571 -0.0285891 -0.0198304 -0.00133157
-0.122677 0.00882923 -0.00643158 0.185791 -0.0144402 -0.152128 -0.0890107 -0.0889265
-0.0479805 -0.0341561 -0.0433849 -0.0295646 0.0213131 -0.010938 0.027305 0.202346
0.0680285 0.0273151 -0.05369 0.469004 -0.0522992 -0.0237007 0.00240357 0.000931613
0.0176613 0.0242956 -0.0314243 -0.0173201 0.0183954 0.0228112 -0.0763165 -0.144198
-0.13318 0.00012155 -0.186969 -0.0317297 -0.0202086 -0.028243 -0.0366549 -0.175743
-0.0565017 -0.00266133 -0.0293177 0.126213 -0.0123031 -0.0153448 -0.0965771 -0.0016273
0.0233075 -0.0783926 0.363077 -0.0286783 0.439232 -0.00352321 -0.0549247 -0.0179142
-0.0159866 -0.0372067 0.0238055 0.0102886 -0.0200227 0.0196869 0.0515044 0.000703178
-0.0528226 -0.018765 0.00859011 -0.011409 -0.0206971 -0.0109833 0.0311588 -0.0498582
-0.185511 -0.051307 0.0215434 0.443565 -0.0632894 0.101067 -0.024827 0.0131723
-0.0428813 0.0174815 0.033848 -0.0325438 -0.164545 0.0729818 -0.00648837 -0.0304487
-0.116563 -0.0285979 0.0046833 0.0301763 -0.0074628 -0.0852604 -0.0289384 0.107938
-0.0260488 -0.00285478 0.414298 0.0288163 -0.00868424 0.00237989 -0.00715112 -0.0462147
0.00820142 -0.009833 -0.0141594 0.0137841 -0.00277532 -0.0196313 -0.00567871 -0.0118621
-0.0279398 -0.0204026 -0.00454231 -0.047893 0.0286005 -0.0456963 0.662193 0.0920851
0.0194425 0.00565533 0.0207114 0.00486828 0.0216252 -0.0275057 0.264587 -0.0182079
00000000: 5fde d2bc ad35 d43d 8106 fbbd 0b09 983c
00000010: 2882 18bd e70e 8f3b bccc 00be 8d61 cebc
00000020: 738e 11bc 9f02 1ebc 6236 dc3b d6b9 b3bc
00000030: a4a7 48bc b384 bbbd 75fb 363d 3dc5 a03c
00000040: 5991 2cbc 7bc4 e0ba 5bac d1bb 68cc a4bc
00000050: c1eb 9ebd 07d3 cdbb bafd 4d3d a9bc 5dbd
00000060: dfcf 9fbc cb48 3dbc 6fbe 6c3c 2196 283c
00000070: d9af a0bc 19c1 ab3c 6807 0cbe f803 3bbb
00000080: b725 763b 1dc0 8dba bde6 303c 7fde c43e
00000090: 7fb9 bb3b 89d6 853d a9a2 18be 3a88 b7bd
000000a0: 6687 f8bc af20 32bd cad5 193c 06e1 40bd
000000b0: 76c0 85bd a474 c4bc 552d 0ebb 577b d8bc
000000c0: 82cf eabc aeba cebd 76c8 e8bc 7615 b5ba
000000d0: 7880 92bd 0109 c4bd 1778 d539 321a 3f3b
000000e0: fd2b 50bc 8f83 9c3c 55d2 94bc 06d5 abbc
000000f0: 76ff 18be 342c c63e adb1 573b 5dab 98bc
00000100: 7968 b9bd 2fd0 243d e596 bbbc 88f7 9c3c
00000110: 5229 d6bd b033 eabc 5d73 a2bc 1388 aeba
00000120: 143e fbbd 7aa8 103c 01c0 d2bb ff3f 3e3e
00000130: 9796 6cbc 71c7 1bbe 3e4b b6bd 191f b6bd
00000140: 3387 44bd 44e7 0bbd 5db4 31bd 7631 f2bc
00000150: cf98 ae3c 4c35 33bc bcae df3c ca33 4f3e
00000160: 8752 8b3d ebc3 df3c 0cea 5bbd 4b21 f03e
00000170: b037 56bd f827 c2bc 3785 1d3b 7d37 743a
00000180: 6eae 903c 9107 c73c c4b6 00bd e2e2 8dbc
00000190: f3b1 963c 8ede ba3c d34b 9cbd a4a8 13be
000001a0: 5760 08be a9e8 fe38 cd74 3fbe 00f7 01bd
000001b0: 828c a5bc dd5d e7bc 7323 16bd f9f5 33be
000001c0: 546e 67bd b569 2ebb ac2b f0bc fb3d 013e
000001d0: f192 49bc c268 7bbc 37ca c5bd 214b d5ba
000001e0: 5fef be3c 4d8c a0bd 3be5 b93e c1ee eabc
000001f0: 04e3 e03e a8e5 66bb b9f8 60bd cdc0 92bc
00000200: 55f6 82bc 0d66 18bd c003 c33c 8491 283c
00000210: a506 a4bc 6c46 a13c 47f6 523d 7a55 383a
00000220: 835c 58bd 0fb9 99bc 88bd 0c3c d0ec 3abc
00000230: f78c a9bc 4df3 33bc bd40 ff3c 1d38 4cbd
00000240: 98f6 3dbe 4a27 52bd c97b b03c f41a e33e
00000250: df9d 81bd 37fc ce3d fe61 cbbc a1d0 573c
00000260: 4da4 2fbd 5d35 8f3c 33a4 0a3d a64c 05bd
00000270: 7c7e 28be 7b77 953d 649c d4bb 8d6f f9bc
00000280: 95b8 eebd 2546 eabc 5e76 993b 4a34 f73c
00000290: 818a f4bb 019d aebd 3910 edbc 990e dd3d
000002a0: 4b64 d5bc 4317 3bbb de1e d43e 2910 ec3c
000002b0: 5848 0ebc eef7 1b3b f153 eabb a04b 3dbd
000002c0: 405f 063c 971a 21bc d4fc 67bc b5d6 613c
000002d0: 25e2 35bb d2d1 a0bc 7914 babb 4159 42bc
000002e0: 02e2 e4bc 5a23 a7bc a8d7 94bb 732b 44bd
000002f0: 994b ea3c 0b2c 3bbd 7b85 293f 1d97 bc3d
00000300: e145 9f3c 5950 b93b f4aa a93c 1886 9f3b
00000310: 5527 b13c a253 e1bc f277 873e bc28 95bc
