nnv0.1/examples/Submission/ARCH2019/MPC Quadrotor/ReluController.onnx (onnx, 4084 bytes, 7 tensors)

input_AvgImg f4 [1, 1, 1, 6]
1.0 1.0 1.0 1.0 1.0 1.0
00000000: 0000 803f 0000 803f 0000 803f 0000 803f
00000010: 0000 803f 0000 803f

Operation_1_W f4 [20, 6]
-0.4967217 0.7919399 -0.18703426 0.39473775 -0.31394377 -0.7011064 0.40145206 -0.0169097
0.29554126 -0.46269974 0.5594886 0.028350087 10.278309 -1.458071 9.297613 5.969615
-0.7899431 6.1202364 -5.781332 8.115597 -9.045232 -5.7248893 5.459698 -6.1754966
-0.09597971 0.30701268 -0.47134554 1.8065711 -2.6565194 2.0038526 0.67595595 -0.20401873
-0.18272555 -0.024157016 0.43354163 -0.14213534 3.971748 8.598176 10.513906 2.4157827
6.736602 6.4359035 0.9644822 -0.6274095 -0.17578906 0.85172975 0.29110676 -0.6079456
-0.8445709 0.92997783 0.9504447 -0.6312311 -0.49320793 -0.31511873 -0.35574096 -0.4115686
-0.35936135 0.17069691 0.38472024 -0.4762392 -8.60384 -15.522898 8.141488 -7.343527
-8.655483 4.5208573 -3.5773606 3.2802048 -1.4131545 -2.6523323 4.1160545 -2.4662995
14.751789 -8.146774 -11.700032 8.737896 -3.4881585 -8.076032 0.7240173 0.42751694
0.7156201 -0.45353663 -0.27481526 0.20000944 -0.12231901 4.484759 -3.32265 -1.7593435
1.5175328 -0.9137275 -0.48850963 0.5891567 -0.49593383 0.3649074 0.26329327 0.019226588
0.6020441 0.0031421927 0.5886743 -0.55305564 0.4123526 -0.39253658 -0.04427599 0.58364207
-0.13412298 -0.972465 0.2271774 0.7193019 -0.73132277 0.39152843 -0.28497767 -0.16655208
0.29662552 0.34319675 0.855698 0.55569696 -0.33944613 0.8769638 -0.6601186 0.266948
00000000: 4f52 febe 93bc 4a3f e985 3fbe 111b ca3e
00000010: 3dbd a0be b67b 33bf 208b cd3e 3686 8abc
00000020: 2f51 973e fbe6 ecbe a53a 0f3f 713e e83c
00000030: f473 2441 12a2 babf 06c3 1441 1607 bf40
00000040: b639 4abf fad8 c340 ac00 b9c0 7cd9 0141
00000050: 45b9 10c1 4b32 b7c0 d9b5 ae40 ab9d c5c0
00000060: 0391 c4bd c430 9d3e 3454 f1be b93d e73f
00000070: 6a04 2ac0 1f3f 0040 730b 2d3f 49ea 50be
00000080: 681c 3bbe efe4 c5bc 2bf9 dd3e ed8b 11be
00000090: 1f31 7e40 2192 0941 f538 2841 2f9c 1a40
000000a0: 3e92 d740 ecf2 cd40 4ee8 763f e99d 20bf
000000b0: 0c02 34be f60a 5a3f f20b 953e 53a2 1bbf
000000c0: cc35 58bf 0713 6e3f 5850 733f 5d98 21bf
000000d0: c085 fcbe 3e57 a1be ae23 b6be 1fb9 d2be
000000e0: 36fe b7be 2ccb 2e3e 0dfa c43e a0d5 f3be
000000f0: 54a9 09c1 ca5d 78c1 8943 0241 2cfe eac0
00000100: dc7c 0ac1 ddaa 9040 7af3 64c0 e0ee 5140
00000110: 3fe2 b4bf d0bf 29c0 b8b6 8340 dad7 1dc0
00000120: 5407 6c41 3059 02c1 5533 3bc1 6cce 0b41
00000130: fd3d 5fc0 6d37 01c1 3359 393f 80e3 da3e
00000140: e132 373f f435 e8be 96b4 8cbe 46cf 4c3e
00000150: 6482 fabd 2583 8f40 4ca6 54c0 2b32 e1bf
00000160: 843e c23f 0cea 69bf ef1d fabe f9d2 163f
00000170: 0aeb fdbe 25d5 ba3e 60ce 863e 1481 9d3c
00000180: 901f 1a3f 3fed 4d3b 5cb3 163f 0e95 0dbf
00000190: e11f d33e 8efa c8be be5a 35bd 9169 153f
000001a0: 8957 09be 77f3 78bf 31a1 683e 2b24 383f
000001b0: f837 3bbf 6a76 c83e 98e8 91be a18c 2abe
000001c0: 4ddf 973e 7cb7 af3e 060f 5b3f 2842 0e3f
000001d0: e2cb adbe b380 603f 88fd 28bf 69ad 883e

Operation_1_B f4 [20]
-0.7504974 -0.05882424 0.97253513 1.7800647 -0.21631837 -0.69655025 -0.045678202 -0.013655507
-0.06266832 -0.14392506 0.623511 0.53478235 0.3022066 -0.28443635 0.015847156 -0.87052006
-0.22908776 -0.8940109 -0.6010089 -0.15449467
00000000: 9920 40bf b0f1 70bd 10f8 783f 29d9 e33f
00000010: 9082 5dbe 1e51 32bf 1119 3bbd 59bb 5fbc
00000020: 4058 80bd 1761 13be 6b9e 1f3f 7fe7 083f
00000030: d3ba 9a3e a4a1 91be e5d1 813c 67da 5ebf
00000040: fb95 6abe e6dd 64bf b8db 19bf da33 1ebe

Operation_2_W f4 [20, 20]
-0.78498226 -0.06042192 5.9631376 -5.7599516 1.4799939 0.7540688 -2.460055 0.07201699
-0.15668423 -0.87017685 2.1071923 -2.422019 14.272837 0.16909453 2.774952 -0.9490475
-0.6183213 -0.25938863 0.94842523 -0.014238253 0.24734083 0.95896673 2.6133318 0.88052106
-1.0022199 -0.4928365 5.584946 -0.9356696 0.7276583 0.74084973 1.2770795 1.5817286
-7.711914 0.37304652 0.6015815 0.4587954 0.5876073 -0.75316226 -0.75445575 -0.4911238
-0.9040149 -0.27124387 -8.610692 10.991228 -2.0719855 -0.4523806 -1.7521559 -0.7361719
-0.83675206 0.4027606 -4.90416 4.912595 -3.4323032 -0.8605353 0.3861417 0.44983348
0.31685445 0.26903743 -0.6248602 0.76993304 -0.43075225 0.54882026 0.41692173 -0.78123415
0.30357856 -0.34327722 -0.37659416 -0.6131672 -0.053776093 0.20985374 0.19692938 -0.88164556
-0.92786336 0.9421666 -0.3588707 -0.3392165 -0.31132162 -0.17216031 0.77888495 -0.23347309
-0.87792665 0.105535194 1.2865976 1.4778194 -0.16997845 0.09512854 0.18234104 -0.30685693
-0.74891376 0.4647498 -3.0356379 0.1374323 3.198325 0.5060031 0.88441217 0.68698823
-0.6514582 0.98183125 0.16681263 -0.40485057 0.40703866 0.7782622 -2.5071723 2.3491676
-0.5333862 -0.5597426 -2.9491258 -0.8770638 0.5457712 -0.49312192 -0.7979882 1.3648065
2.3034194 0.6279882 -0.49992362 -0.14311504 0.39222372 0.85991126 -0.38150722 0.43518993
0.33691233 -0.2900943 -0.26099512 0.23058572 0.019731317 0.34285834 0.45421758 0.15396042
0.68284434 0.2009779 0.6667729 -0.15742166 -1.1422676 0.44959024 0.22625819 0.72937226
0.33780432 -0.70152795 -0.9984712 -0.6182601 -0.24283881 -0.50896263 -0.6984312 -0.712786
0.98692095 -0.71441346 -0.34838006 0.024122056 -0.9134181 0.62923837 -0.4357211 -0.61488795
-0.39330867 -0.839878 -0.1446698 0.31413084 0.64369875 -0.21023548 -0.5448045 -0.7636147
-0.62361145 0.8220385 -0.26120016 -0.83359474 0.668973 -0.81179947 0.7796547 0.23492202
-0.027118513 -0.8917727 0.767511 0.5058518 -0.9572481 -0.036607433 -0.80111885 0.16207132
0.2564792 -0.07684058 -0.70919275 0.67399555 0.49400964 -0.9129315 -0.002405829 -1.1204965
0.6276033 0.7403835 0.66573226 -0.1352888 -0.5211779 -0.7389787 1.1033424 -0.8281747
1.1428057 -0.10865409 -0.54566324 -0.598545 0.912603 0.12189751 -0.5931324 0.48827183
-0.3192414 0.90150684 0.2704763 2.8279762 0.83555144 -0.5262626 3.887503 0.68539906
0.9049476 0.68489164 -0.7987816 1.7812142 -6.652985 0.3629079 0.38445008 0.059093222
0.24222273 0.56072706 0.7926451 0.18104109 0.59060234 0.11281383 -0.045974012 -0.6166485
-0.9205426 -0.22799198 -0.061041944 -0.091881886 0.88778526 0.23669174 -0.5459977 0.8352127
-0.41324744 -0.10252548 -0.61230445 0.78886485 -0.6043344 -0.025612181 0.74618876 -0.51421684
-0.024198122 -0.24727356 -8.028148 7.9646883 -2.14216 0.14308418 -9.387675 -0.9535522
0.227868 0.06257562 -6.765242 1.7248955 10.249977 0.41235563 -0.42123473 -0.39001206
00000000: 99f4 48bf fa7c 77bd 06d2 be40 8651 b8c0
00000010: 7170 bd3f a70a 413f 8b71 1dc0 a57d 933d
00000020: d571 20be e9c3 5ebf 3ddc 0640 5c02 1bc0
00000030: 8a5d 6441 1e27 2d3e d098 3140 c7f4 72bf
00000040: 4e4a 1ebf 96ce 84be ffcb 723f 9047 69bc
00000050: ea46 7d3e d87e 753f d440 2740 d469 613f
00000060: be48 80bf 1155 fcbe e1b7 b240 0b88 6fbf
00000070: d047 3a3f 54a8 3d3f 5777 a33f 1576 ca3f
00000080: 00c8 f6c0 f4ff be3e 3f01 1a3f 3be7 ea3e
00000090: 6f6d 163f 3ecf 40bf 0324 41bf 9474 fbbe
000000a0: 856d 67bf 7ae0 8abe 65c5 09c1 12dc 2f41
000000b0: 699b 04c0 6e9e e7be a546 e0bf c375 3cbf
000000c0: 6235 56bf a336 ce3e e1ee 9cc0 fa33 9d40
000000d0: dbaa 5bc0 0b4c 5cbf 5db4 c53e 9350 e63e
000000e0: bf3a a23e 46bf 893e d7f6 1fbf 551a 453f
000000f0: 8f8b dcbe 7c7f 0c3f c476 d53e f6fe 47bf
00000100: a66e 9b3e 08c2 afbe f3d0 c0be 87f8 1cbf
00000110: 5244 5cbd e6e3 563e dba7 493e 86b3 61bf
00000120: 7488 6dbf d531 713f e6bd b7be c9ad adbe
00000130: 8c65 9fbe cb4a 30be 0165 473f 9213 6fbe
00000140: cdbf 60bf d622 d83d 3baf a43f 3029 bd3f
00000150: d50e 2ebe c1d2 c23d 9cb7 3a3e 5a1c 9dbe
00000160: d0b8 3fbf b0f3 ed3e e447 42c0 0ebb 0c3e
00000170: 5bb1 4c40 6b89 013f d668 623f 76de 2f3f
00000180: f7c5 26bf 4b59 7b3f eed0 2a3e 9348 cfbe
00000190: 5f67 d03e 313c 473f 8375 20c0 c358 1640
000001a0: ff8b 08bf 4b4b 0fbf 7abe 3cc0 4187 60bf
000001b0: a9b7 0b3f 7a7a fcbe f448 4cbf fbb1 ae3f
000001c0: 396b 1340 d6c3 203f fdf5 ffbe c08c 12be
000001d0: 8cd1 c83e 2523 5c3f ea54 c3be 37d1 de3e
000001e0: c67f ac3e 3d87 94be 27a1 85be aa1e 6c3e
000001f0: 92a3 a13c 218b af3e 358f e83e cda7 1d3e
00000200: e3ce 2e3f 27cd 4d3e a1b1 2a3f 2533 21be
00000210: d335 92bf b130 e63e 3ab0 673e 24b8 3a3f
00000220: b0f4 ac3e 5697 33bf cf9b 7fbf 4b46 1ebf
00000230: bdaa 78be 604b 02bf 63cc 32bf 2579 36bf
00000240: daa6 7c3f cde3 36bf df5e b2be 9e9b c53c
00000250: c5d5 69bf c415 213f d616 dfbe 4c69 1dbf
00000260: c15f c9be 3f02 57bf 5224 14be c2d5 a03e
00000270: 71c9 243f f847 57be 4f78 0bbf 417c 43bf
00000280: 00a5 1fbf 1d71 523f 07bc 85be 7766 55bf
00000290: d141 2b3f 17d2 4fbf 7397 473f 668f 703e
000002a0: a527 debc 374b 64bf 9a7b 443f 817f 013f
000002b0: 360e 75bf adf1 15bd 2016 4dbf 06f6 253e
000002c0: 3e51 833e 985e 9dbd a88d 35bf f98a 2c3f
000002d0: d5ee fc3e e1b5 69bf 1dab 1dbb 6e6c 8fbf
000002e0: 9caa 203f c689 3d3f 6e6d 2a3f 2689 0abe
000002f0: ea6b 05bf b52d 3dbf 533a 8d3f 4203 54bf
00000300: 7547 923f 0986 debd 96b0 0bbf 3f3a 19bf
00000310: 5aa0 693f 67a5 f93d 86d7 17bf c4fe f93e
00000320: 9c73 a3be 27c9 663f df7b 8a3e 90fd 3440
00000330: b3e6 553f 25b9 06bf d9cc 7840 5076 2f3f
00000340: a5aa 673f 0f55 2f3f f37c 4cbf d4fe e33f
00000350: 41e5 d4c0 10cf b93e a4d6 c43e bc0b 723d
00000360: 3c09 783e cf8b 0f3f caea 4a3f d662 393e
00000370: b731 173f f00a e73d 3f4f 3cbd addc 1dbf
00000380: aea8 6bbf bb76 69be 1e07 7abd 922c bcbd
00000390: e545 633f 525f 723e 81c6 0bbf 80d0 553f
000003a0: 2b95 d3be e1f8 d1bd fcbf 1cbf 0cf3 493f
000003b0: a9b5 1abf a3d0 d1bc 3a06 3f3f b7a3 03bf
000003c0: 243b c6bc 4835 7dbe 4b73 00c1 bade fe40
000003d0: 2619 09c0 a984 123e eb33 16c1 ff1b 74bf
000003e0: 3b56 693e a627 803d dd7c d8c0 60c9 dc3f
000003f0: e8ff 2341 4720 d33e 14ac d7be a9af c7be

Operation_2_B f4 [20]
0.16638596 0.06264272 0.036360696 -0.7465732 0.08900102 -0.56274724 -0.74195063 0.4834096
0.23003145 -0.015866546 -0.77720726 0.35675395 0.4044284 -0.67024857 -1.5833666 -0.6300341
0.5592992 0.96517956 0.9766018 -0.30526116
00000000: 1561 2a3e d44a 803d f4ee 143d 6c1f 3fbf
00000010: 2b46 b63d 3410 10bf 7af0 3dbf 7781 f73e
00000020: 5d8d 6b3e 8ffa 81bc 0ef7 46bf 74a8 b63e
00000030: 3d11 cf3e 6995 2bbf c2ab cabf ea49 21bf
00000040: 3b2e 0f3f 0216 773f 9302 7a3f 314b 9cbe

linear_3_W f4 [8, 20]
9.433674 0.42238268 -9.536057 0.19764178 -1.2770212 -2.4683833 0.18608794 0.47922394
-0.8938148 0.28879705 -2.4032674 -0.29270443 -7.609727 0.62781614 0.9001705 0.86640465
-0.5564913 0.28671584 0.09379145 0.7594443 7.412729 -5.17894 -3.706031 0.49331495
1.8217342 1.4094923 0.31479245 -0.92479223 0.09810689 0.19709866 -5.259059 -0.49232224
5.974158 0.9612024 0.5349802 -0.6442705 -6.6659594 -0.7775087 2.6589432 0.2639899
2.052748 4.464948 -3.1656954 0.08394212 0.099055134 -2.5336657 -0.16102207 0.5294533
0.6019891 0.5957204 3.4112194 0.82203597 -6.8826456 0.9553311 -0.36012784 0.72013354
0.4192379 0.5161233 -12.960041 -0.57874364 0.12910776 -1.7163447 3.4268088 0.40106615
2.5957718 0.89235365 -0.03740915 0.03656316 0.2991661 0.9622701 -0.40792406 0.4512851
6.118111 -0.30098587 -0.7844818 0.91478986 -5.5857954 0.7038915 -10.664372 -0.30976817
-0.14269154 1.6238403 -3.5673764 0.8611196 -2.8056872 -0.8043608 0.95305413 -0.98936695
0.86289406 0.7747755 0.53885496 -0.9481484 -6.0117655 0.08620602 -0.6733304 0.9189412
5.8025975 0.68849975 10.481799 -0.68016243 -1.8933038 -4.286417 2.8325818 0.7252334
-1.4567357 2.331425 -0.19917035 -0.4455998 -0.8505371 1.0674505 -2.4710972 -0.076957494
7.484474 0.25241628 0.08230704 -0.9242748 -0.71305513 0.78101367 13.036077 -0.11130369
-7.5117497 5.476783 3.8818958 -0.6651163 -1.8250086 -1.3925478 0.6943403 0.06966446
-0.44638708 -0.7375145 4.1811333 -0.43739745 -6.1046624 -0.19882478 -0.15147382 -0.884833
6.8931966 -0.2363152 -2.6859455 -0.8324501 -9.258003 0.375857 9.887335 -0.47372195
-0.21455315 2.0616782 0.28417104 0.53592575 0.838475 -0.61829454 1.6468238 -0.9420676
7.835156 -0.46318427 0.68771124 -0.9884052 0.12347515 -0.1123896 -0.1075777 -0.669363
00000000: 54f0 1641 8b42 d83e b193 18c1 9b62 4a3e
00000010: 6e75 a3bf fef9 1dc0 d68d 3e3e d75c f53e
00000020: 0cd1 64bf 35dd 933e 22cf 19c0 5bdd 95be
00000030: e282 f3c0 8fb8 203f 9371 663f b2cc 5d3f
00000040: 3776 0ebf 6bcc 923e bb15 c03d f16a 423f
00000050: 1335 ed40 e0b9 a5c0 9d2f 6dc0 c793 fc3e
00000060: 962e e93f 3e6a b43f 7a2c a13e 2fbf 6cbf
00000070: 44ec c83d 3bd4 493e 364a a8c0 a911 fcbe
00000080: 4d2c bf40 5c11 763f 76f4 083f e9ee 24bf
00000090: 8a4f d5c0 cf0a 47bf 202c 2a40 af29 873e
000000a0: 3960 0340 dbe0 8e40 c19a 4ac0 d9e9 ab3d
000000b0: 6bdd ca3d 9427 22c0 f8e2 24be 408a 073f
000000c0: f51b 1a3f 2281 183f 6b51 5a40 f370 523f
000000d0: a23e dcc0 9490 743f ad62 b8be ac5a 383f
000000e0: 5aa6 d63e a820 043f 545c 4fc1 8b28 14bf
000000f0: d334 043e 2fb1 dbbf d650 5b40 8b58 cd3e
00000100: 2021 2640 4a71 643f 563a 19bd 41c3 153d
00000110: 4d2c 993e 5557 763f 6cdb d0be d70e e73e
00000120: 91c7 c340 d21a 9abe cdd3 48bf ab2f 6a3f
00000130: d6be b2c0 3c32 343f 45a1 2ac1 ef99 9ebe
00000140: bb1d 12be 00da cf3f e54f 64c0 5672 5c3f
00000150: 6190 33c0 97ea 4dbf 5bfb 733f 2747 7dbf
00000160: a0e6 5c3f b057 463f 66f2 093f dbb9 72bf
00000170: 6260 c0c0 c88c b03d 625f 2cbf bb3f 6b3f
00000180: e1ae b940 8541 303f 73b5 2741 201f 2ebf
00000190: c757 f2bf 542a 89c0 0549 3540 e5a8 393f
000001a0: 5176 babf 1136 1540 50f3 4bbe a825 e4be
000001b0: cdbc 59bf 38a2 883f 7526 1ec0 e49b 9dbd
000001c0: d080 ef40 b53c 813e 9890 a83d 469d 6cbf
000001d0: c88a 36bf 83f0 473f c593 5041 30f3 e3bd
000001e0: 4160 f0c0 ce41 af40 fb70 7840 1045 2abf
000001f0: e299 e9bf 023f b2bf 49c0 313f 3eac 8e3d
00000200: d98c e4be c0cd 3cbf d8cb 8540 8ff2 dfbe
00000210: 6559 c3c0 b998 4bbe f41b 1bbe 6a84 62bf
00000220: 1195 dc40 9dfc 71be 88e6 2bc0 731b 55bf
00000230: c820 14c1 5470 c03e 8632 1e41 af8b f2be
00000240: d2b3 5bbe 89f2 0340 de7e 913e 6e32 093f
00000250: 4ca6 563f 8d48 1ebf 1fcb d23f 582b 71bf
00000260: 99b9 fa40 7d26 edbe d80d 303f 2008 7dbf
00000270: 8ae0 fc3d 852c e6bd b251 dcbd 605b 2bbf

linear_3_B f4 [8]
-1.1159012 0.24247655 0.29940623 0.86274755 -0.7164154 -0.35124165 -1.3624475 0.6016858
00000000: dad5 8ebf c64b 783e c64b 993e 06dd 5c3f
00000010: 0067 37bf f2d5 b3be ae64 aebf 1508 1a3f
