code/nnv/examples/Submission/CAV2023/NNV_vs_MATLAB/nn4sys/onnx/lindex_deep.onnx (onnx, 266851 bytes, 11 tensors)

fc1.weight f4 [128, 1]
-3.551644 -0.72962326 -0.49665856 1.5364157 -4.908923 0.7330439 -0.72684026 -0.7950419
-5.0776687 2.6313758 -4.31893 0.8573432 -0.8633962 -0.60672367 -4.1479855 -0.75174
-4.630543 1.2295386 -0.23583114 2.5329847 0.70714355 0.186306 0.27345073 1.2691455
-4.4996557 0.70919675 -0.5505245 1.2787102 1.7066869 -4.8348694 0.8536458 2.9571373
2.092501 2.734852 1.4338927 0.15418094 -2.4539893 -3.641526 -4.5615926 -3.6950495
-0.2749357 -3.0484722 -0.0909214 1.6534897 -0.07887542 -2.3151228 -0.15596056 0.15720701
0.89101267 1.2401888 0.6483606 3.2901578 2.3897126 2.455177 -2.5164645 -0.9294088
-0.6184119 1.2693521 0.059773445 -4.1880183 0.734441 0.82627165 -0.9449997 -0.67323935
-4.753996 -0.026554814 -0.2332294 -0.109891176 -4.7041373 0.46827912 2.9018085 4.080193
-0.7081324 -4.7617936 4.297186 0.022458553 0.40993094 -0.9821102 -4.3712325 2.5132308
2.9650843 -0.14673112 0.19661903 -0.09468007 -4.735732 -0.3778993 -4.8503532 1.1188833
1.4960167 0.34972262 -4.726054 2.3923397 0.31354272 0.69179463 -2.6671076 0.21199691
2.179999 0.67265916 1.3797529 -0.20998478 3.1943724 -0.7832322 0.08648896 -0.5630549
-0.23321521 -3.708565 2.330982 1.5223871 1.3145553 -0.0042362213 0.70984554 -4.7530985
1.4850553 -0.09273267 -0.17401087 1.9178673 -2.3807695 1.5051274 0.33623803 1.3549637
-3.3033905 1.530868 2.6307015 -0.42896903 2.3716257 -0.49649203 2.3559434 2.4724703
00000000: 234e 63c0 97c8 3abf 084a febe 45a9 c43f
00000010: e615 9dc0 c4a8 3b3f 3412 3abf de87 4bbf
00000020: 437c a2c0 7668 2840 ad34 8ac0 d87a 5b3f
00000030: 8907 5dbf 3e52 1bbf 4cbc 84c0 0872 40bf
00000040: 692d 94c0 8561 9d3f b87d 71be 6c1c 2240
00000050: 5c07 353f 00c7 3e3e bc01 8c3e 5c73 a23f
00000060: 2efd 8fc0 eb8d 353f 2cef 0cbf c7ac a33f
00000070: b774 da3f 40b7 9ac0 8888 5a3f bd41 3d40
00000080: 89eb 0540 d107 2f40 cc89 b73f 9ce1 1d3e
00000090: 290e 1dc0 c30e 69c0 91f8 91c0 b17b 6cc0
000000a0: 5fc4 8cbe 2b1a 43c0 0035 babd 8da5 d33f
000000b0: 7089 a1bd f92a 14c0 20b4 1fbe e0fa 203e
000000c0: 6819 643f 82be 9e3f f6fa 253f f291 5240
000000d0: 0df1 1840 9f21 1d40 c10d 21c0 bced 6dbf
000000e0: 3e50 1ebf 217a a23f 00d5 743d 3f04 86c0
000000f0: 5304 3c3f 8a86 533f 80eb 71bf 6a59 2cbf
00000100: bc20 98c0 7b89 d9bc b0d3 6ebe a00e e1bd
00000110: 4b88 96c0 48c2 ef3e 3bb7 3940 f190 8240
00000120: 2a48 35bf 9d60 98c0 8c82 8940 00fb b73c
00000130: 78e2 d13e 936b 7bbf 23e1 8bc0 c6d8 2040
00000140: f1c3 3d40 af40 16be 8056 493e a0e7 c1bd
00000150: 1e8b 97c0 047c c1be 1836 9bc0 9137 8f3f
00000160: 7a7d bf3f d80e b33e d63b 97c0 181c 1940
00000170: ac88 a03e 7419 313f e4b1 2ac0 b815 593e
00000180: 1b85 0b40 6433 2c3f be9b b03f 4006 57be
00000190: 9970 4c40 e881 48bf 2021 b13d 5e24 10bf
000001a0: f8cf 6ebe 2159 6dc0 cf2e 1540 95dd c23f
000001b0: 5943 a83f 00d0 8abb 70b8 353f 6219 98c0
000001c0: 4b16 be3f a0ea bdbd e82f 32be ad7c f53f
000001d0: 875e 18c0 04a8 c03f 6427 ac3e 736f ad3f
000001e0: c06a 53c0 7cf3 c33f 6a5d 2840 d4a1 dbbe
000001f0: b7c8 1740 3434 febe c7c7 1640 f43c 1e40

fc1.bias f4 [128]
0.2564878 0.72888404 -0.40416443 0.21507457 0.08499868 -0.7521416 -0.24281394 -0.6678231
0.36524644 0.061823647 0.06343524 -0.015589982 -0.011589249 -0.31104314 0.23930244 0.7476226
0.1149175 -0.016125357 -0.61082804 0.041809194 -0.7418462 -0.7516502 -0.650877 -0.09122851
0.061533846 0.5769127 -0.008267184 0.47036263 -0.018029457 0.09481341 -0.8888807 0.49279538
0.1632838 0.9126142 -0.19689885 0.7111002 0.755052 0.6839396 0.117621996 0.7789847
0.2690987 0.696691 -0.06496084 -0.131138 -0.012444019 0.11308268 -0.68116903 -0.57363915
-0.95874643 -0.016299937 -0.033555284 0.106998995 0.0013849706 0.024438336 0.5408588 -0.88306355
-0.77158964 -0.01761411 -0.57551813 0.47348675 0.5303215 -0.9702258 -0.84867966 -0.9738178
0.30856252 -0.00027274332 -0.7753401 -0.46295643 0.2827722 -0.65298533 0.826256 0.19508117
-0.2783836 0.07865813 0.22739482 -0.35361314 -0.77485585 -0.00572134 0.020686472 0.0018184703
0.015919186 -0.004422392 -0.27905917 -0.0967927 0.3688066 -0.6294373 0.23918289 -0.021007152
0.4289251 -0.5424644 0.09159712 0.07370223 -0.80459654 -0.7271422 0.31195733 -0.2910565
0.5671999 -0.9878626 -0.03964537 -0.8236619 0.32083496 -0.028991342 -0.18652141 -0.16637135
-0.7816489 0.21806967 0.014487672 -0.15574205 0.30188033 -0.020099044 -0.9671476 0.47173247
0.49705774 -0.18841016 -0.69043815 0.017718108 0.7242265 0.86231726 -0.75480103 -0.039433792
0.7008894 0.44842964 0.5815168 -0.4977343 0.8397042 -0.82206595 0.0012854947 0.0011019764
00000000: 5e52 833e 2598 3a3f a4ee cebe 823c 5c3e
00000010: ca13 ae3d 5a8c 40bf 38a4 78be 74f6 2abf
00000020: 9501 bb3e cb3a 7d3d 56ea 813d 206d 7fbc
00000030: d5e0 3dbc 0c41 9fbe b30b 753e 3264 3f3f
00000040: de59 eb3d 5319 84bc 3a5f 1cbf 1e40 2b3d
00000050: a2e9 3dbf 266c 40bf e09f 26bf 03d6 babd
00000060: ea0a 7c3d 8db0 133f 1573 07bc 5fd3 f03e
00000070: 83b2 93bc 882d c23d b08d 63bf ad4f fc3e
00000080: de33 273e 16a1 693f da9f 49be aa0a 363f
00000090: 164b 413f aa16 2f3f cde3 f03d 8b6b 473f
000000a0: 4ec7 893e 575a 323f 300a 85bd 0a49 06be
000000b0: 00e2 4bbc e497 e73d 1861 2ebf 04da 12bf
000000c0: 6870 75bf 7287 85bc 4471 09bd 4a22 db3d
000000d0: e787 b53a e832 c83c b975 0a3f 7410 62bf
000000e0: e686 45bf 774b 90bc 2855 13bf db6c f23e
000000f0: 26c3 073f b860 78bf 1243 59bf 204c 79bf
00000100: e8fb 9d3e fdfe 8eb9 b07c 46bf a008 edbe
00000110: 85c7 903e 0c2a 27bf 8385 533f 5cc3 473e
00000120: 4c88 8ebe 8317 a13d 30da 683e c80c b5be
00000130: f45c 46bf 147a bbbb ad76 a93c bd59 ee3a
00000140: f468 823c b7e9 90bb d8e0 8ebe 403b c6bd
00000150: 38d4 bc3e ce22 21bf 5cec 743e 3117 acbc
00000160: 129c db3e f2de 0abf 4597 bb3d 32f1 963d
00000170: 0afa 4dbf fe25 3abf dfb8 9f3e 5c05 95be
00000180: 0334 113f 90e4 7cbf 2f63 22bd 82db 52bf
00000190: 7b44 a43e 407f edbc 78ff 3ebe 405d 2abe
000001a0: 241a 48bf a84d 5f3e b35d 6d3c d87a 1fbe
000001b0: 0f90 9a3e c0a6 a4bc fc96 77bf eb86 f13e
000001c0: 5a7e fe3e 98ee 40be 8ec0 30bf 9125 913c
000001d0: e866 393f d3c0 5c3f a43a 41bf 5485 21bd
000001e0: 7d6d 333f 9298 e53e 49de 143f 08d7 febe
000001f0: dbf6 563f ea72 52bf 0b7e a83a 3170 903a

fc2.weight f4 [128, 128]
0.00056005607 -0.08096674 0.08109334 0.07260195 -0.0757543 0.0032651373 -0.047081128 0.08475422
0.035022818 0.037814923 0.014222819 -0.008799661 0.039585244 0.0015050955 -0.04651242 0.031365402
0.013489709 -0.022902712 -0.024223363 -0.092374414 -0.024228875 -0.03580737 -0.048175965 -0.085169025
0.055027243 -0.09326909 0.07346954 -0.06063807 -0.006794156 0.057838917 0.029160319 -0.03951139
-0.08545098 -0.050412234 0.07117967 -0.04764506 0.05940022 -0.029484887 -0.025586002 0.021009622
-0.027253466 -0.015018433 0.06121716 0.02953924 -0.0035182503 0.019366512 0.07698129 0.022277422
-0.025920069 0.028962323 -0.022005944 -0.08340042 -0.039412603 0.025856448 -0.011379037 0.032610375
-0.05173414 0.07924234 -0.036886446 0.0045913444 -0.057453673 -0.042632494 0.03958668 -0.024672838
-0.0703139 -0.050402485 0.06445285 0.053206865 0.039537188 -0.07543605 0.027348379 0.007775439
-0.059432715 -0.0115829725 0.0034057598 -0.04775029 -0.03730092 0.0578746 -0.02130884 -0.015256516
-0.0608954 -0.06712792 0.08137738 0.03289452 -0.028267393 0.0538464 -0.056331538 -0.08257585
-0.102025874 0.03591413 -0.04895636 0.03996974 0.07550912 0.029120848 0.06166508 -0.020358823
0.06274397 -0.04214575 -0.011598929 0.05874115 -0.060051173 0.0674459 0.021664975 -0.0017314873
0.07564379 0.052030187 -0.05078298 0.0085731745 -0.003957036 0.072400674 0.0496661 0.057290714
0.03960514 -0.07690905 0.058721855 -0.03781962 0.056639526 0.041347682 -0.051665083 -0.009303547
-0.0010826549 0.010981267 -0.096140586 0.003954428 0.031775907 0.04989681 0.034036264 -0.00016008237
-0.08478629 0.058157023 -0.06959876 -0.05194541 0.0010340519 0.026913028 0.051352087 -0.012412815
-0.045489874 -0.00760935 0.02896441 -0.04972464 -0.07676912 0.04219992 -0.05849285 -0.04974544
0.07332663 -0.058242634 -0.07172574 0.06718122 -0.042177867 0.005737735 0.08805236 -0.035270303
0.08232828 0.070224814 0.06826617 0.02621693 -0.039840687 0.055650897 -0.06054186 -0.05149521
-0.0426078 0.03822773 0.012173749 0.05623537 0.05809257 0.005161229 0.05152116 -0.06387807
-0.08447631 -0.07200948 0.04877538 0.08127384 -0.024444193 0.04890322 -0.06315762 -0.0016680353
-0.00053323136 -0.025588647 -0.042843957 0.04146742 -0.0076991436 -0.01751741 0.061405238 -0.06712193
0.057719875 0.07849921 -0.054299805 -0.08374785 0.012295142 -0.06722622 0.036959823 -0.07049269
-0.06898692 0.023909885 -0.02265156 -0.07823939 0.034488596 0.031221056 0.011911437 0.05775708
-0.035487823 0.08067444 -0.06736553 0.079697475 0.0656769 -0.07862516 -0.00785102 -0.047548883
0.086969905 -0.0036877017 0.05206403 0.07641655 -0.0681578 0.05373053 -0.07688704 -0.023871226
-0.035639912 -0.08266732 -0.083254375 -0.08521682 -0.06837129 -0.049388826 -0.029133577 0.049451433
-0.014208545 -0.08751329 -0.064202145 0.06343334 -0.086248495 -0.043475676 -0.0799923 0.047556322
0.060416874 0.0077343155 -0.04443422 -0.021428447 0.0051518306 0.03704303 0.001526875 -0.04121083
0.00428173 0.0027077876 0.0008238655 0.038445827 -0.03331118 0.0055669453 0.00037686658 0.037314385
-0.054106776 -0.06910298 -0.07193688 0.037134733 0.07031823 0.08766775 0.03156216 -0.018020485
00000000: bad0 123a e4d1 a5bd 4414 a63d 55b0 943d
00000010: 1225 9bbd eafb 553b 24d8 40bd 9f93 ad3d
00000020: 1674 0f3d d2e3 1a3d d406 693c 742c 10bc
00000030: 2324 223d a046 c53a cf83 3ebd 0279 003d
00000040: f103 5d3c 789e bbbc 1370 c6bc cc2e bdbd
00000050: a27b c6bc c0aa 12bd 2954 45bd 196d aebd
00000060: 3f64 613d dd03 bfbd 3377 963d a05f 78bd
00000070: 83a1 debb 80e8 6c3d 9fe1 ee3c b2d6 21bd
00000080: ec00 afbd 0f7d 4ebd a6c6 913d 7727 43bd
00000090: a54d 733d 4a8a f1bc bc99 d1bc 5f1c ac3c
000000a0: a942 dfbc e00f 76bc d8be 7a3d 47fc f13c
000000b0: 7292 66bb 85a6 9e3c 5ea8 9d3d 247f b63c
000000c0: 5356 d4bc 6542 ed3c cf45 b4bc d7cd aabd
000000d0: 1c6f 21bd e7d0 d33c 246f 3abc 7592 053d
000000e0: 2de7 53bd cf49 a23d 3e16 17bd fd72 963b
000000f0: 8b54 6bbd 699f 2ebd a425 223d b11e cabc
00000100: bc00 90bd d672 4ebd dbff 833d 71ef 593d
00000110: bff1 213d 377e 9abd b509 e03c 1cc9 fe3b
00000120: b86f 73bd 82c6 3dbc 2b33 5f3b cf95 43bd
00000130: d9c8 18bd eb0d 6d3d e08f aebc 77f6 79bc
00000140: 746d 79bd 5d7a 89bd 2fa9 a63d 67bc 063d
00000150: 0591 e7bc 0b8e 5c3d e6bb 66bd 871d a9bd
00000160: f1f2 d0bd b21a 133d 7786 48bd 4fb7 233d
00000170: 87a4 9a3d d88e ee3c 8694 7c3d 8cc7 a6bc
00000180: e97f 803d 06a1 2cbd 6f09 3ebc 8f9a 703d
00000190: 38f8 75bd 1321 8a3d bf7a b13c 13f3 e2ba
000001a0: 22eb 9a3d 9b1d 553d d001 50bd 8076 0c3c
000001b0: 06aa 81bb ce46 943d ae6e 4b3d aba9 6a3d
000001c0: 0039 223d 7e82 9dbd 5486 703d bfe8 1abd
000001d0: d9fe 673d 305c 293d c49e 53bd e86d 18bc
000001e0: dfe7 8dba c6ea 333c 5be5 c4bd 2594 813b
000001f0: 7427 023d 9960 4c3d 9c69 0b3d c9db 27b9
00000200: 6fa4 adbd 0f36 6e3d cb89 8ebd b6c4 54bd
00000210: 0689 873a b678 dc3c 9156 523d 1f5f 4bbc
00000220: 9753 3abd db57 f9bb c546 ed3c 10ac 4bbd
00000230: 2139 9dbd d3d9 2c3d 3396 6fbd e0c1 4bbd
00000240: 462c 963d d48f 6ebd f2e4 92bd 4f96 893d
00000250: b3c2 2cbd 9c03 bc3b cc54 b43d 9877 10bd
00000260: bb9b a83d 07d2 8f3d 22cf 8b3d e3c4 d63c
00000270: fd2f 23bd 32f2 633d befa 77bd a4ec 52bd
00000280: 8485 2ebd ae94 1c3d 6774 473c 0f57 663d
00000290: 7af2 6d3d 871f a93b da07 533d 81d2 82bd
000002a0: ea01 adbd b579 93bd b1c8 473d e672 a63d
000002b0: 303f c8bc be4e 483d c858 81bd faa1 daba
000002c0: 8dc8 0bba 489f d1bc 257d 2fbd bed9 293d
000002d0: 1949 fcbb ac80 8fbc 0f84 7b3d 3977 89bd
000002e0: ad6b 6c3d 32c4 a03d 7969 5ebd fe83 abbd
000002f0: 9071 493c e7ad 89bd 2f63 173d 795e 90bd
00000300: 0449 8dbd aade c33c c48f b9bc f93b a0bd
00000310: ea43 0d3d 4dc3 ff3c 3028 433c b092 6c3d
00000320: ae5b 11bd a438 a53d f0f6 89bd 6e38 a33d
00000330: 9c81 863d 3a06 a1bd 91a1 00bc 9ec2 42bd
00000340: 471d b23d 5ead 71bb 1841 553d 4880 9c3d
00000350: 5196 8bbd 8b14 5c3d f476 9dbd 978d c3bc
00000360: 28fb 11bd 7c4d a9bd 4581 aabd 2886 aebd
00000370: 3f06 8cbd f04b 4abd 8aa9 eebc 968d 4a3d
00000380: f5ca 68bc 2b3a b3bd 6a7c 83bd 57e9 813d
00000390: 0da3 b0bd 8d13 32bd 01d3 a3bd 6bca 423d
000003a0: af77 773d 2470 fd3b a800 36bd b68a afbc
000003b0: b0d0 a83b 6fba 173d 6c21 c83a b0cc 28bd
000003c0: c14d 8c3b 2375 313b aef8 573a 5f79 1d3d
000003d0: 4e71 08bd ec6a b63b 2d96 c539 f8d6 183d
000003e0: 119f 5dbd dd85 8dbd a553 93bd 971a 183d
000003f0: 0103 903d 268b b33d 5347 013d b29f 93bc

fc2.bias f4 [128]
0.018688481 -0.0562664 -0.078714706 0.031086905 -0.0023726674 -0.032574657 -0.047905665 0.010965283
0.06380569 0.01208323 -0.055111796 -0.07009023 0.045983806 0.033731107 -0.028566154 -0.12698285
-0.04823827 0.0026956392 0.011958622 -0.072137706 -0.10894749 -0.010316884 -0.06671633 0.045303416
0.00596797 -0.114029564 0.039870616 -0.070745975 0.014221959 0.027011236 -0.05409211 -0.011170632
-0.03101965 -0.03614794 -0.108938836 0.0111818435 -0.08979714 0.06952528 -0.00755618 -0.031007318
0.027032638 -0.020585397 0.04421651 -0.05316602 0.026341189 0.039801095 -0.028951399 -0.09384593
0.025199262 0.02649449 -0.06433459 -0.02162668 -0.010146367 0.030828902 0.035072718 -0.06553838
0.10172261 0.044999182 0.013217827 -0.0029935571 -0.06912172 0.039311726 -0.054809287 -0.061962996
-0.011101395 -0.009890093 -0.11557079 0.021537296 -0.04615757 0.056404673 0.009631928 -0.073878594
0.05333619 -0.1002383 0.070512034 0.045756195 -0.00643728 -0.098533005 -0.06118452 0.016212935
-0.026124746 -0.061370686 -0.15759023 -0.07879779 0.009222043 -0.019345613 -0.17893039 0.04625872
-0.01418179 0.055760585 -0.06577462 0.04392449 -0.1439403 -0.07948445 -0.008334592 -0.049233597
0.0046289954 0.008196438 0.056542903 0.02764334 0.02728111 -0.08836288 0.028224869 0.022495005
0.028150285 0.041164774 -0.081805766 0.042806834 -0.058887724 -0.060842406 0.032765917 0.035339616
-0.021274433 0.060665127 -0.0026288985 -0.06336736 -0.01644409 -0.084049046 -0.014189908 -0.10657404
0.0045647575 -0.08100018 -0.005727388 -0.10403154 0.033424176 0.046328872 0.048849113 0.05745329
00000000: 9618 993c 9977 66bd 2d35 a1bd f7a9 fe3c
00000010: c17e 1bbb 016d 05bd bb38 44bd bba7 333c
00000020: 8fac 823d bdf8 453c e8bc 61bd 778b 8fbd
00000030: 8459 3c3d a129 0a3d 9103 eabc cb07 02be
00000040: 7e95 45bd 52a9 303b 19ee 433c efbc 93bd
00000050: dd1f dfbd 2608 29bc 92a2 88bd 1390 393d
00000060: f68e c33b 5588 e9bd 5f4f 233d 44e3 90bd
00000070: 3803 693c ab46 dd3c b08f 5dbd 0705 37bc
00000080: ec1c febc dd0f 14bd 531b dfbd 0d34 373c
00000090: 90e7 b7bd 4563 8e3d d599 f7bb 0f03 febc
000000a0: 8d73 dd3c b5a2 a8bc 5f1c 353d 9dc4 59bd
000000b0: 7ac9 d73c 7906 233d 7c2b edbc 4c32 c0bd
000000c0: af6e ce3c f90a d93c dbc1 83bd 6f2a b1bc
000000d0: f33c 26bc e58c fc3c 69a8 0f3d fc38 86bd
000000e0: f253 d03d 1051 383d 968f 583c 8e2f 44bb
000000f0: b08f 8dbd 5505 213d b47f 60bd e9cc 7dbd
00000100: a0e2 35bc 0e0a 22bc 61b0 ecbd fc6e b03c
00000110: b80f 3dbd 9608 673d 3ccf 1d3c a94d 97bd
00000120: 0c77 5a3d bd49 cdbd 9d68 903d d96a 3b3d
00000130: d2ef d2bb accb c9bd 9f9c 7abd fdd0 843c
00000140: 9003 d6bc d45f 7bbd 555f 21be bc60 a1bd
00000150: 0d18 173c b17a 9ebc 8739 37be c979 3d3d
00000160: bd5a 68bc 3665 643d d8b4 86bd 2bea 333d
00000170: 1665 13be bec8 a2bd d08d 08bc 2ba9 49bd
00000180: d4ae 973b 5a4a 063c 8899 673d 4974 e23c
00000190: a27c df3c 99f7 b4bd d737 e73c 7247 b83c
000001a0: 6d9b e63c 659c 283d c889 a7bd 3856 2f3d
000001b0: 4134 71bd e335 79bd 8e35 063d 46c0 103d
000001c0: b847 aebc ff7b 783d 9949 2cbb bfc6 81bd
000001d0: c2b5 86bc e821 acbd ca7c 68bc 7e43 dabd
000001e0: f693 953b 6ce3 a5bd d0ac bbbb 7d0e d5bd
000001f0: cae7 083d 58c3 3d3d 0216 483d 2454 6b3d

fc3.weight f4 [128, 128]
0.01999124 -0.02706107 -0.020187046 -0.019816807 0.01408633 -0.028345788 -0.013373471 -0.044829406
0.028669959 0.051826153 -0.037542574 0.02055044 -0.08040722 0.028992679 0.019904649 0.04355524
-0.010449473 -0.036266625 -0.057147957 -0.0747073 0.004936966 0.019368175 -0.23718165 -0.0070199054
0.030975563 0.01809011 0.014426222 -0.057514317 0.016012168 0.042693708 -0.0076652053 -0.0028110894
-0.023295786 -0.060730353 -0.140238 0.24474582 0.061016478 -0.04595419 -0.048376556 -0.07150807
0.021403994 -0.049749702 0.0032523354 0.07617704 0.10605459 -0.15713185 -0.057796445 -0.1698119
-0.05691172 -0.051126365 -0.0109499125 0.07106299 -0.011561066 -0.012825423 -0.057677977 0.0078104325
-0.087406576 -0.06419054 0.049798526 -0.029460402 0.068019144 0.085626155 0.006617796 -0.061233018
0.0749036 0.08534725 -0.06638257 0.02262501 -0.14994124 0.06930405 0.052998714 0.061970867
-0.010349669 -0.03178889 -0.062353488 -0.09888375 -0.011906625 0.039590668 -0.074460045 0.05926491
0.017859684 -0.082426265 -0.046405595 0.023048108 0.09789545 -0.056851726 -0.35891873 0.11275381
0.035197992 -0.060542617 -0.012700101 0.027185056 -0.09948622 -0.060731776 0.014479661 -0.011605786
0.091912374 0.010345415 0.028914489 0.017073765 0.07146167 0.03914655 -0.07602487 -0.02304501
-0.024827821 0.17032552 -0.030247312 -0.074098185 0.0346887 0.095018715 0.04945307 -0.04983341
0.07028715 -0.00014331177 0.082628 -0.032218736 -0.034388036 0.043288127 -0.3199285 -0.25697353
-0.12171506 0.058037035 0.027421836 0.007050448 0.05849826 -0.06656215 0.06849328 -0.10575452
0.014809527 -0.034877528 0.060125407 0.05605184 -0.06683816 0.061589085 -0.0021905536 -0.03897001
-0.02818193 0.07403592 0.038877 -0.079680204 -0.07328416 0.069255345 -0.04371037 -0.018243914
-0.08036359 -0.07678707 -5.6255503e-05 0.061907776 -0.04525051 0.05906261 -0.0685843 0.0012958259
0.0019927137 0.030391721 -0.04687582 0.043483842 -0.04117747 0.04093853 0.052594926 0.043375514
-0.094794594 0.031503305 -0.010932012 0.0011404742 0.06965121 0.06894819 0.016080465 -0.07875485
0.042168997 0.03786809 -0.042872816 0.08063026 0.051768 -0.0052999714 -0.08670914 0.054676764
-0.015793245 -0.09339004 -0.100502744 0.03618725 0.019429803 0.08317173 -0.023035051 -0.07584574
-0.014821566 0.043431114 0.02623243 0.020600947 0.037154 0.08753819 0.0806403 -0.002326616
-0.07100087 -0.08473069 -0.043499146 0.027624631 -0.044625513 -0.009786309 0.03712444 -0.073691025
-0.011430783 0.030716538 -0.035116352 0.034846783 -0.082947284 0.047021084 -0.0872922 -0.044462834
0.05268378 -0.013890361 0.009425795 0.05475742 -0.07879998 -0.010243317 0.045016855 -0.06234116
0.07547427 -0.044865087 0.040586106 -0.03134349 0.06203236 -0.060069744 -0.047368307 -0.078451656
0.015516509 -0.0062203477 0.076993726 -0.08762853 0.01993193 -0.08129092 0.044682022 -0.078352645
-0.017809706 -0.005451806 0.08554004 0.044245224 -0.01835097 0.028879061 0.051019307 0.007326492
0.079735756 -0.04157908 -0.041356582 0.042395346 0.07214752 -0.019910878 -0.07094267 -0.09002646
-0.06382122 -0.08624938 -0.024519308 -0.031518064 -0.05164837 0.021909723 -0.044689134 0.014004613
00000000: abc4 a33c 2daf ddbc 4e5f a5bc db56 a2bc
00000010: 5aca 663c 6d35 e8bc 671c 5bbc 0a9f 37bd
00000020: 43dd ea3c a947 543d 3ec6 19bd 6559 a83c
00000030: 8aac a4bd 0e82 ed3c 130f a33c fb66 323d
00000040: 4434 2bbc 508c 14bd fa13 6abd 2400 99bd
00000050: 46c6 a13b 02aa 9e3c bfdf 72be 3c07 e6bb
00000060: 77c0 fd3c b631 943c f65b 6c3c 2294 6bbd
00000070: f32b 833c 99df 2e3d 672c fbbb 413a 38bb
00000080: ced6 bebc 64c0 78bd 8d9a 0fbe a69e 7a3e
00000090: 6aec 793d 763a 3cbd 7f26 46bd d372 92bd
000000a0: 6e57 af3c 58c6 4bbd 2225 553b b502 9c3d
000000b0: 2633 d93d 2ce7 20be f7bb 6cbd 2ce3 2dbe
000000c0: 441c 69bd e169 51bd 4367 33bc 7989 913d
000000d0: a06a 3dbc b921 52bc be3f 6cbd a8ee ff3b
000000e0: 3802 b3bd 5476 83bd 8af9 4b3d f156 f1bc
000000f0: 9f4d 8b3d c45c af3d 19da d83b 79cf 7abd
00000100: 0f67 993d 8aca ae3d 96f3 87bd 1658 b93c
00000110: 328a 19be 48ef 8d3d 2e15 593d 2ad5 7d3d
00000120: a891 29bc 1135 02bd 5f66 7fbd 9083 cabd
00000130: 0114 43bc d329 223d 827e 98bd c3bf 723d
00000140: 794e 923c 1acf a8bd cb13 3ebd 63cf bc3c
00000150: 697d c83d 5bdd 68bd 32c4 b7be 78eb e63d
00000160: c52b 103d 89fb 77bd 1614 50bc 32b3 de3c
00000170: 6ebf cbbd e2c1 78bd 1a3c 6d3c 3226 3ebc
00000180: 8e3c bc3d d17f 293c 14de ec3c 48de 8b3c
00000190: 7f5a 923d 2258 203d edb2 9bbd e4c8 bcbc
000001a0: b763 cbbc d069 2e3e 36c9 f7bc cac0 97bd
000001b0: bd15 0e3d 2c99 c23d 4d8f 4a3d 1e1e 4cbd
000001c0: b6f2 8f3d f645 16b9 de38 a93d cbf7 03bd
000001d0: 78da 0cbd e44e 313d abcd a3be 0992 83be
000001e0: bf45 f9bd 3eb8 6d3d c2a3 e03c 7207 e73b
000001f0: df9b 6f3d bd51 88bd 3446 8c3d d395 d8bd
00000200: a9a3 723c bddb 0ebd 0f46 763d 9d96 653d
00000210: 72e2 88bd d644 7c3d 648f 0fbb 049f 1fbd
00000220: cadd e6bc 25a0 973d 7d3d 1f3d 602f a3bd
00000230: 0116 96bd bfd5 8d3d a509 33bd 4374 95bc
00000240: aa95 a4bd 8a42 9dbd e3f3 6bb8 0293 7d3d
00000250: 9958 39bd a3eb 713d ed75 8cbd b4d8 a93a
00000260: 3098 023b 0ff8 f83c dc00 40bd 1d1c 323d
00000270: b5a9 28bd 29af 273d c76d 573d 86aa 313d
00000280: ab23 c2bd 9c09 013d 2f1c 33bc f77b 953a
00000290: 4ba5 8e3d b534 8d3d 2ebb 833c 394a a1bd
000002a0: 66b9 2c3d 921b 1b3d 689b 2fbd 7a21 a53d
000002b0: af0a 543d 62ab adbb 9094 b1bd bef4 5f3d
000002c0: d660 81bc 4743 bfbd 62d4 cdbd 1539 143d
000002d0: 402b 9f3c f155 aa3d 01b4 bcbc 0355 9bbd
000002e0: 27d6 72bc d3e4 313d 65e5 d63c 51c3 a83c
000002f0: cb2e 183d 3947 b33d be26 a53d 247a 18bb
00000300: e768 91bd 4987 adbd 292c 32bd 0d4d e23c
00000310: 3ec9 36bd c156 20bc cc0f 183d 52eb 96bd
00000320: 2e48 3bbc 40a1 fb3c 2ad6 0fbd 80bb 0e3d
00000330: 44e0 a9bd 2e99 403d 41c6 b2bd a91e 36bd
00000340: f3ca 573d 6694 63bc a66e 1a3c 5149 603d
00000350: e261 a1bd 96d3 27bc 9863 383d 7259 7fbd
00000360: 4192 9a3d 74c4 37bd 9e3d 263d 0862 00bd
00000370: a515 7e3d b10b 76bd 4505 42bd 43ab a0bd
00000380: f538 7e3c 0fd4 cbbb e3ae 9d3d 9676 b3bd
00000390: 4948 a33c db7b a6bd 7f04 373d 5a77 a0bd
000003a0: a9e5 91bc 10a5 b2bb 9e2f af3d 7b3a 353d
000003b0: c654 96bc c893 ec3c 9ff9 503d 1213 f03b
000003c0: 804c a33d d34e 2abd 8565 29bd bea6 2d3d
000003d0: 14c2 933d 231c a3bc 644a 91bd cb5f b8bd
000003e0: b3b4 82bd 84a3 b0bd b7dc c8bc 1619 01bd
000003f0: 3e8d 53bd 057c b33c f40b 37bd 9b73 653c

fc3.bias f4 [128]
0.045346178 -0.10172654 0.10815976 -0.0068602622 0.036375802 -0.0065613217 0.03560035 -0.20533632
-0.076547034 -0.043842625 -0.0036280027 -0.06505835 0.015141953 -0.00048461542 0.011197392 -0.06490469
0.024168178 -0.03404597 -0.08218762 -0.0014703714 0.012280537 0.005494017 -0.07386171 0.03846391
-0.040069513 -0.09544669 0.0042691133 0.02038374 0.050415594 -0.06526035 -0.040815197 -0.21912088
-7.32392e-05 -0.06539285 -0.022995258 0.047056377 -0.0011010255 -0.14309573 -0.0029687358 -0.016700957
0.017276527 0.014993117 -0.05658566 0.01542312 -0.10756929 -0.013131867 0.028094165 -0.11378872
-0.069905005 -0.0042615538 -0.03601568 0.06722079 0.05757082 -0.04208232 0.045923688 -0.015620399
0.00071896263 -0.12867787 -0.02450186 0.04131907 0.008385027 -0.09830756 0.05754165 0.039683796
0.024418594 0.01353296 0.011234195 0.03707883 -0.019251093 0.064765856 0.014357152 -0.023744997
0.032761298 -0.07850869 -0.008517738 -0.11262188 -0.078059174 0.050732132 -0.08694089 -0.047379266
0.007287016 -0.10672023 -0.022428578 -0.05349206 0.026467634 0.08821574 0.073037095 -0.031914666
-0.15297511 -0.13615404 -0.02393926 0.050250906 -0.036377903 -0.04166055 0.0846043 -0.01294044
-0.030742433 -0.024398305 -0.08269312 -0.031444803 -0.1064508 -0.07625669 0.00036995948 -0.08443166
-0.015251788 -0.055546265 -0.09221459 -0.081334926 -0.01710335 -0.19738083 0.020731034 0.015887916
-0.09649936 0.034280363 -0.031488836 -0.0738941 -0.017295528 0.012862926 -0.014553543 0.028390955
0.084303364 -0.04870954 0.02529015 0.02585643 0.058204688 0.064935856 -0.0010333564 -0.05474741
00000000: eabc 393d 0156 d0bd dd82 dd3d 0dcc e0bb
00000010: cbfe 143d 5b00 d7bb acd1 113d af43 52be
00000020: b1c4 9cbd 5394 33bd c9c3 6dbb 503d 85bd
00000030: f415 783c fb13 feb9 4475 373c c0ec 84bd
00000040: 58fc c53c c973 0bbd fc51 a8bd 7ab9 c0ba
00000050: 4e34 493c 2807 b43b cf44 97bd 558c 1d3d
00000060: ee1f 24bd 8e79 c3bd ebe3 8b3b cdfb a63c
00000070: 9580 4e3d 38a7 85bd d62d 27bd 3961 60be
00000080: ff97 99b8 b0ec 85bd 8d60 bcbc 30be 403d
00000090: 4950 90ba b087 12be 1f8f 42bb 72d0 88bc
000000a0: 8187 8d3c b1a5 753c 5dc6 67bd 41b1 7c3c
000000b0: 4a4d dcbd 0b27 57bc bc25 e63c 0f0a e9bd
000000c0: 5b2a 8fbd 81a4 8bbb 2d85 13bd 0eab 893d
000000d0: 61cf 6b3d 835e 2cbd 7a1a 3c3d b4ec 7fbc
000000e0: c478 3c3a 22c4 03be 20b8 c8bc 2f3e 293d
000000f0: 5a61 093c 7955 c9bd cbb0 6b3d 7a8b 223d
00000100: 8109 c83c 59b9 5d3c a10f 383c f9df 173d
00000110: 78b4 9dbc f6a3 843d 433a 6b3c de84 c2bc
00000120: b630 063d 2ac9 a0bd fc8d 0bbc 4da6 e6bd
00000130: 7ddd 9fbd 7fcc 4f3d 110e b2bd c310 42bd
00000140: ecc7 ee3b 2390 dabd 23bc b7bc 7e1a 5bbd
00000150: a7d2 d83c 74aa b43d 7994 953d f4b8 02bd
00000160: 82a5 1cbe f76b 0bbe 441c c4bc e5d3 4d3d
00000170: ff00 15bd 41a4 2abd 0545 ad3d 2404 54bc
00000180: 8ed7 fbbc f4de c7bc 035b a9bd 44cc 00bd
00000190: e102 dabd 782c 9cbd 1ff7 c139 82ea acbd
000001a0: a3e2 79bc 7b84 63bd 01db bcbd ed92 a6bd
000001b0: 531c 8cbc 331e 4abe 21d4 a93c 6027 823c
000001c0: 75a1 c5bd 9169 0c3d 70fa 00bd ca55 97bd
000001d0: 5aaf 8dbc 06bf 523c fc71 6ebc 2694 e83c
000001e0: 3ea7 ac3d a883 47bd 4a2d cf3c ddd0 d33c
000001f0: 0a68 6e3d 17fd 843d b071 87ba d23e 60bd

fc3a.weight f4 [128, 128]
-0.113929816 0.071010135 -0.07243546 0.012703796 -0.10643951 -0.052828323 -0.06753251 -0.0151659055
-0.04564608 0.069262296 0.024979267 0.020929093 -0.086036436 -0.030724473 0.03886125 -0.04709158
0.03526215 -0.021895751 -0.035870973 -0.027881289 0.08067487 -0.022527121 -0.0036490215 -0.05844063
0.005994694 0.049030986 -0.034264036 -0.097660415 -0.03839323 -0.08132664 0.0343198 -0.08862416
-0.1109101 -0.00843802 -0.040260606 -0.08628661 -0.04182321 -0.0882599 0.07444435 0.020271538
0.04201673 0.054147035 -0.044816997 0.08482193 -0.08249582 -0.0175076 -0.10313668 -0.045386508
-0.08661454 0.049486216 -0.06952451 -0.03548219 -0.022406844 0.00050060474 0.03331501 -0.025845764
-0.0359935 -0.11120063 0.040745918 0.0832763 -0.060298305 -0.015867045 0.033123657 -0.015299642
-0.010725229 -0.04070174 0.06408411 -0.07845722 -0.037306715 -0.030683398 0.0443664 0.067677364
-0.0071648797 0.08742098 0.023700058 -0.01667421 0.027003633 0.04876975 -0.05603338 0.008028675
0.04819241 -0.018757222 -0.0382592 -0.07481 -0.05830455 0.03144108 0.019130673 0.051713847
0.01601357 -0.049321588 -0.10791509 -0.08040332 0.05165132 0.010368019 -0.027874155 -0.06948615
-0.007524445 -0.03360601 -0.052260235 -0.026564274 -0.026918758 0.02579974 -0.07602093 0.027605122
-0.027226133 -0.028188085 0.037579574 0.053584535 -0.044251405 -0.029423952 -0.06962139 0.080961026
0.033456262 -0.060627818 0.0072176163 0.026818113 0.01989212 0.05537841 0.025168855 -0.03765438
0.025143303 -0.10383398 -0.07503553 -0.059176873 -0.071175024 0.023416279 0.0564164 -0.05251999
-0.04218085 -0.042079665 -0.018265741 -0.14908616 0.037683066 -0.024675503 0.023071323 -0.10355646
-0.060192812 0.0056397184 -0.03420212 -0.088167354 0.0015310462 -0.031346425 0.06123648 0.04972624
-0.0059952475 0.005857263 0.08729879 0.06636486 -0.034920376 -0.10863887 -0.0014341834 -0.20890258
0.080115974 0.042747777 -0.14646794 -0.049957257 -0.0524183 -0.10787091 -0.063109376 -0.029501311
0.024369437 0.057546433 -0.09812899 -0.05350841 -0.08155015 -0.04650357 -0.09571371 -0.032989543
-0.035314646 -0.020886542 0.0417597 -0.03774983 0.07890305 -0.080577925 -0.14272347 -0.032586783
0.023551164 0.019094637 -0.05061378 -0.046326432 -0.05906385 0.03970593 -0.1263768 -0.044954136
-0.024577344 -0.029499512 -0.03561873 -0.011952625 -0.024347095 -0.0134216845 -0.017993057 0.009556512
-0.031261858 0.05132643 -0.04792989 0.025915183 0.008672105 -0.13919736 -0.059760045 0.015413682
-0.014106281 0.056787062 0.06793166 -0.032287415 0.08207627 -0.015590015 0.021181324 -0.10689878
0.045510523 -0.084962025 -0.09300791 -0.08619071 0.050932337 -0.16428506 -0.13598318 0.0059679584
-0.005554898 -0.12739134 0.06959989 -0.11279315 0.042807933 -0.0052729575 -0.07923729 0.009387128
-0.08992294 0.030548617 -0.07259857 0.070673555 -0.0901225 0.07803052 -0.032869916 0.058270957
-0.16610022 -0.01183415 0.06833897 -0.07748852 -0.05916352 -0.0056103636 -0.02661107 0.028495397
0.04333615 -0.1008279 -0.12848713 -0.07274156 -0.020482693 -0.04199323 -0.017118633 -0.093284324
-0.1563044 -0.0983743 0.033671375 0.03165892 -0.13969623 -0.047405526 -0.03428272 0.04080619
00000000: 0954 e9bd c36d 913d 0b59 94bd 9523 503c
00000010: f5fc d9bd 8362 58bd 7c4e 8abd 6b7a 78bc
00000020: 62f7 3abd 64d9 8d3d 52a1 cc3c 7d73 ab3c
00000030: df33 b0bd e4b1 fbbc f92c 1f3d 1ae3 40bd
00000040: 0b6f 103d b85e b3bc 71ed 12bd 4d67 e4bc
00000050: de38 a53d cc8a b8bc 6c24 6fbb 715f 6fbd
00000060: 236f c43b b7d4 483d 7258 0cbd 2f02 c8bd
00000070: 3842 1dbd 958e a6bd eb92 0c3d 9580 b5bd
00000080: d624 e3bd 9f3f 0abc 4ee8 24bd 09b7 b0bd
00000090: d04e 2bbd 9bc1 b4bd 4876 983d 7f10 a63c
000000a0: bc19 2c3d 48c9 5d3d 0792 37bd 1fb7 ad3d
000000b0: 92f3 a8bd 196c 8fbc 5339 d3bd 34e7 39bd
000000c0: f762 b1bd 0fb2 4a3d de62 8ebd c655 11bd
000000d0: 8f8e b7bc 043b 033a 5275 083d 7fba d3bc
000000e0: ec6d 13bd 28bd e3bd 31e5 263d c48c aa3d
000000f0: 5bfb 76bd 9bfb 81bc acac 073d 5aab 7abc
00000100: dfb8 2fbc deb6 26bd 883e 833d 2eae a0bd
00000110: edce 18bd c05b fbbc 8bb9 353d 6e9a 8a3d
00000120: 5ec7 eabb c509 b33d a026 c23c 5a98 88bc
00000130: b936 dd3c cac2 473d 4283 65bd b48a 033c
00000140: 6865 453d bfa8 99bc aeb5 1cbd fc35 99bd
00000150: c0d0 6ebd 5dc8 003d eeb7 9c3c e6d1 533d
00000160: e42e 833c 6f05 4abd 9602 ddbd 7faa a4bd
00000170: 5690 533d a0de 293c 5758 e4bc c14e 8ebd
00000180: 9f8f f6bb 75a6 09bd d40e 56bd 529d d9bc
00000190: ba84 dcbc fa59 d33c ddb0 9bbd 2324 e23c
000001a0: 5709 dfbc b3ea e6bc 0aed 193d 757b 5b3d
000001b0: f640 35bd 800a f1bc a995 8ebd e5ce a53d
000001c0: 6f09 093d e054 78bd c181 ec3b a9b1 db3c
000001d0: cdf4 a23c 79d4 623d ea2e ce3c 7b3b 1abd
000001e0: 54f9 cd3c e9a6 d4bd 3aac 99bd 7363 72bd
000001f0: 36c4 91bd 7fd3 bf3c e214 673d 331f 57bd
00000200: d4c5 2cbd ba5b 2cbd 09a2 95bc 0baa 18be
00000210: 8f59 1a3d 4824 cabc 1200 bd3c 6915 d4bd
00000220: bd8c 76bd 63cd b83b 8617 0cbd 1691 b4bd
00000230: 63ad c83a 1c65 00bd 1ad3 7a3d bead 4b3d
00000240: c873 c4bb 49ee bf3b b5c9 b23d 4dea 873d
00000250: ab08 0fbd 0e7e debd 36fb bbba 8fea 55be
00000260: d813 a43d 4b18 2f3d b1fb 15be fb9f 4cbd
00000270: 92b4 56bd 6ceb dcbd 7d3f 81bd bcac f1bc
00000280: 6aa2 c73c cfb5 6b3d daf7 c8bd a22b 5bbd
00000290: c403 a7bd 877a 3ebd 8d05 c4bd 0b20 07bd
000002a0: 17a6 10bd 411a abbc 380c 2b3d 919f 1abd
000002b0: ec97 a13d 0a06 a5bd 1a26 12be b879 05bd
000002c0: 5fee c03c 5b6c 9c3c 6550 4fbd c9c0 3dbd
000002d0: f0ec 71bd afa2 223d eb68 01be d421 38bd
000002e0: 6d56 c9bc f6a8 f1bc f2e4 11bd f1d4 43bc
000002f0: 8f73 c7bc a0e6 5bbc 2d66 93bc eb92 1c3c
00000300: 6f0c 00bd aa3b 523d 2252 44bd 144c d43c
00000310: 7215 0e3c c189 0ebe f3c6 74bd ab89 7c3c
00000320: 081e 67bc 8d99 683d c11f 8b3d cf3f 04bd
00000330: 9a17 a83d 436d 7fbc 7584 ad3c bfed dabd
00000340: 3e69 3a3d 9200 aebd ee7a bebd c184 b0bd
00000350: 6d9e 503d 583a 28be 2d3f 0bbe dd8e c33b
00000360: dd05 b6bb e072 02be 638a 8e3d 1800 e7bd
00000370: 5f57 2f3d c6c8 acbb 2947 a2bd 78cc 193c
00000380: 8529 b8bd 1841 fa3c 8fae 94bd 4cbd 903d
00000390: 2592 b8bd 77ce 9f3d 9ba2 06bd 87ad 6e3d
000003a0: 2d16 2abe 06e4 41bc 4df5 8b3d 4db2 9ebd
000003b0: 7255 72bd 24d7 b7bb 75ff d9bc 2e6f e93c
000003c0: 3f81 313d dc7e cebd 2192 03be 87f9 94bd
000003d0: 52cb a7bc 1801 2cbd 603c 8cbc da0b bfbd
000003e0: 430e 20be 7778 c9bd ffea 093d c9ac 013d
000003f0: 870c 0fbe 4c2c 42bd 0a6c 0cbd 6424 273d

fc3a.bias f4 [128]
-0.08269428 0.0013593772 -0.07916461 0.06274806 0.0854818 0.020984927 -0.0012893492 -0.028777106
-0.06636504 -0.017288566 0.033833493 -0.04337944 -0.07619781 -0.07599411 -0.037648737 -0.079725794
0.009375135 0.06476608 -0.05492492 0.053003427 -0.09033682 0.09265669 0.013568781 0.038090594
-0.037612647 -0.08176827 0.02638692 0.004673448 -0.0077054948 0.043912638 -0.08314904 0.029611854
0.06665153 -0.05503479 0.10324741 -0.04417969 -0.07562573 0.046376385 0.018415095 0.04563251
0.04421114 -0.02899083 0.086832084 -0.023006562 0.00543084 -0.005856494 -0.09444865 0.036605768
-0.05621821 -0.067096606 -0.158712 0.017740475 -0.07890507 0.08021009 0.07111911 -0.05156117
-0.07513725 0.0148570305 0.07742424 -0.08312807 0.086927615 0.048855692 0.03889119 -0.08098938
-0.096548274 -0.17801975 -0.0030043484 0.032834966 -0.0001567222 -0.07309896 0.054254044 -0.04907227
-0.04275478 0.04738771 -0.115881845 -0.081164226 0.06607953 0.023660649 0.044363614 -0.026937354
0.058574706 0.032106202 -0.02011962 -0.048515067 0.053769298 -0.00805565 0.015172297 -0.10211868
0.06440907 -0.0020007147 0.09592637 -0.056105938 -0.051228546 -0.05325112 0.06543845 -0.013260622
0.0061743055 0.06249873 0.027210604 -0.061191745 -0.041462068 0.023142932 0.013835118 0.03320557
-0.14331616 -0.036498297 0.08544811 0.10327511 -0.04928755 0.09107344 0.06597338 -0.019886378
0.071564734 -0.0638149 -0.05277931 0.042880144 0.032579318 0.07163708 -0.0635252 -0.050760865
-0.04213025 -0.026559182 -0.096446715 0.080233954 -0.04290597 -0.032977644 -0.10008401 0.06507871
00000000: 9e5b a9bd 212d b23a 0e21 a2bd 0e82 803d
00000010: 1511 af3d 95e8 ab3c 61ff a8ba f7bd ebbc
00000020: 65ea 87bd c0a0 8dbc fd94 0a3d a4ae 31bd
00000030: 990d 9cbd cda2 9bbd 9035 1abd 4747 a3bd
00000040: 2b9a 193c 14a4 843d f4f8 60bd 1f1a 593d
00000050: 8302 b9bd cac2 bd3d 984f 5e3c e204 1c3d
00000060: b80f 1abd 1f76 a7bd 6229 d83c b923 993b
00000070: 607e fcbb bddd 333d 0b4a aabd 8f94 f23c
00000080: 9980 883d 296c 61bd 6173 d33d c3f5 34bd
00000090: aae1 9abd 2af5 3d3d 41db 963c 28e9 3a3d
000000a0: be16 353d 2d7e edbc 05d5 b13d 4278 bcbc
000000b0: 30f5 b13b d5e7 bfbb 4b6e c1bd eeef 153d
000000c0: 1145 66bd f269 89bd 6685 22be 7954 913c
000000d0: fb98 a1bd 3045 a43d e5a6 913d ce31 53bd
000000e0: 8fe1 99bd e76a 733c 9a90 9e3d 0d3f aabd
000000f0: 1b07 b23d e81c 483d 5e4c 1f3d c3dd a5bd
00000100: 1abb c5bd cf4a 36be 9ae4 44bb f57d 063d
00000110: cc55 24b9 e8b4 95bd 7d39 5e3d 0100 49bd
00000120: a31f 2fbd 9e19 423d 7653 edbd 6e39 a6bd
00000130: b454 873d fad3 c13c 9fb6 353d baab dcbc
00000140: 08ec 6f3d cb81 033d e7d1 a4bc bcb7 46bd
00000150: 323d 5c3d d8fb 03bc 3a95 783c 9923 d1bd
00000160: e7e8 833d 6c1e 03bb 0b75 c43d 57cf 65bd
00000170: 06d5 51bd d91d 5abd 9804 863d 1443 59bc
00000180: d451 ca3b abfe 7f3d c6e8 de3c 32a4 7abd
00000190: 21d4 29bd 3f96 bd3c b1ac 623c 9002 083d
000001a0: 79c1 12be 3d7f 15bd 6bff ae3d e781 d33d
000001b0: bee1 49bd b684 ba3d 0d1d 873d c2e8 a2bc
000001c0: 8890 923d 63b1 82bd 1e2f 58bd 17a3 2f3d
000001d0: e471 053d 76b6 923d 8019 82bd a0ea 4fbd
000001e0: c590 2cbd a492 d9bc db85 c5bd b351 a43d
000001f0: 2cbe 2fbd 9113 07bd d8f8 ccbd fd47 853d

fc3b.weight f4 [128, 128]
-0.08605833 0.005685905 -0.052677542 0.07352562 -0.069742985 0.046672553 0.036202036 -0.08520781
0.0072555062 -0.064154975 -0.0769977 0.06723604 -0.059023466 0.020697601 -0.0819317 0.061766386
-0.0047815545 -0.005980416 -0.063213825 -0.08921225 0.055807568 0.04316105 -0.01655291 -0.03977563
0.011945228 -0.01797427 -0.0032024228 0.04085786 0.04587868 -0.030936927 -0.0048111468 -0.026640717
-0.025173577 -0.057075735 -0.093858115 0.043353174 -0.04061345 -0.0713552 -0.07576725 0.03407715
-0.076625206 -0.06252764 0.06022089 -0.015455417 -0.06046308 0.041067805 -0.06684649 0.015100014
-0.06574349 -0.026857942 -0.052373968 0.026372548 0.0030800705 0.02576736 -0.07845295 0.023974022
0.039640397 0.06729766 0.007894042 0.06495922 0.078465015 -0.021823412 0.07855501 -0.011419942
-0.011121384 0.030700628 0.03285764 -0.010412463 0.064311825 0.05432757 0.037910875 -0.046081424
-0.051924147 -0.0057747304 -0.017582 -0.07837087 0.008196082 -0.00045857878 -0.06038531 0.013786771
0.050399106 0.0017125546 0.06829135 0.073147506 0.033122376 0.08509401 0.04118495 0.081484854
-0.024907572 0.06173569 0.044360317 -0.02947779 -0.07247861 -0.020038119 0.007156022 0.045324247
0.042606544 -0.08495575 -0.067542374 -0.061139513 0.058341436 -0.068245485 -0.054577224 -0.034160312
0.048648424 0.035517212 0.08108714 0.011627175 -0.02816776 -0.023451352 -0.09243977 -0.03212047
-0.07966158 0.061478153 -0.020258315 -0.03627189 0.06175508 0.0007018509 -0.031460863 0.039669614
-0.054656506 -0.060961213 0.06384288 -0.07947888 0.06801422 0.08815229 -0.009389612 -0.052901015
0.005278491 -0.08961877 0.044261824 -0.09123114 0.05080636 -0.009954605 -0.0045890934 0.11967432
-0.016936721 -0.067195155 0.058751814 -0.01439865 0.0032359506 -0.056208923 -0.010826061 -0.0509967
-0.023659708 0.080440365 0.08313539 0.061282318 -0.06209217 0.10360007 -0.12580085 0.04252111
0.006138005 -0.072738014 0.035571862 0.07529194 -0.05105298 0.035382207 -0.0631673 -0.072946005
0.03159122 0.02819706 0.058287866 0.07317626 0.0270721 0.03387149 0.043509085 0.027660603
-0.010855875 0.007944491 0.023385687 -0.010862001 0.041931387 0.0036796585 -0.07300127 0.114081375
0.02839315 -0.024085438 -0.08693759 0.0052843327 -0.012246838 -0.07091491 0.053515036 0.034008607
0.0079366295 -0.0030899744 -0.056062564 -0.01750289 -0.04432591 0.0430604 0.09617759 0.04080526
0.0055182097 0.044914063 -0.0436902 -0.38712806 0.031772666 0.08094241 -0.041219823 -0.046858933
0.054535195 -0.08563324 -0.012978281 0.08873207 -0.015475566 0.004912798 0.08354029 -0.01002674
-0.10716674 -0.06771893 -0.020187343 -0.057446532 -0.049887095 -0.061788026 -0.015945807 0.022744674
-0.008726442 0.036015578 -0.074472524 -0.010600671 0.07688794 -0.052786123 0.09260351 0.029953605
0.056679305 -0.13687974 -0.05201397 0.05009451 -0.009630818 -0.027673014 -0.08811597 0.027730072
0.14292867 -0.05774941 -0.057198267 -0.043912843 0.055504054 -0.027567824 -0.05347406 0.07076465
-0.07965534 -0.08271608 -0.040667664 0.07647492 0.07066364 0.052772544 -0.004927986 0.058193643
-0.014437771 -0.02005428 -0.07597758 -0.06782141 0.063682646 0.07546347 0.019234454 0.020849835
00000000: 5a3f b0bd d450 ba3b 68c4 57bd 9a94 963d
00000010: 69d5 8ebd b82b 3f3d 9648 143d 6f81 aebd
00000020: 99bf ed3b af63 83bd f8b0 9dbd 0db3 893d
00000030: 97c2 71bd 048e a93c cfcb a7bd c0fe 7c3d
00000040: 96ae 9cbb 5ef7 c3bb 4076 81bd eab4 b6bd
00000050: 7a96 643d a4c9 303d f899 87bc c5eb 22bd
00000060: ebb5 433c c73e 93bc bddf 51bb 925a 273d
00000070: 48eb 3b3d 706f fdbc d3a6 9dbb a23d dabc
00000080: d138 cebc 3fc8 69bd af38 c0bd 1993 313d
00000090: 4a5a 26bd ad22 92bd dc2b 9bbd 7b94 0b3d
000000a0: aded 9cbd 7e0e 80bd 2eaa 763d b838 7dbc
000000b0: 22a8 77bd b736 283d d0e6 88bd 0d66 773c
000000c0: 86a4 86bd 3005 dcbc 1686 56bd 3e0b d83c
000000d0: 02db 493b 1216 d33c f1ab a0bd 2b65 c43c
000000e0: f85d 223d 5bd3 893d 0356 013c 5709 853d
000000f0: 44b2 a03d 03c7 b2bc 73e1 a03d b51a 3bbc
00000100: 7736 36bc e27f fb3c bc95 063d 0999 2abc
00000110: ebb5 833d 9686 5e3d 6f48 1b3d e0bf 3cbd
00000120: 6aae 54bd f339 bdbb 2008 90bc e880 a0bd
00000130: dc48 063c 676d f0b9 9656 77bd e9e1 613c
00000140: 4b6f 4e3d cc77 e03a 56dc 8b3d 5cce 953d
00000150: 54ab 073d c545 ae3d 8db1 283d 88e1 a63d
00000160: f70a ccbc 90de 7c3d 2ab3 353d 687b f1bc
00000170: aa6f 94bd fb26 a4bc 107d ea3b eba5 393d
00000180: 3384 2e3d 48fd adbd a853 8abd 6d6d 7abd
00000190: 6ef7 6e3d 4ac4 8bbd 5e8c 5fbd afeb 0bbd
000001a0: 9243 473d 7f7a 113d 0411 a63d e87f 3e3c
000001b0: 13c0 e6bc 0d1d c0bc 1051 bdbd c190 03bd
000001c0: 9c25 a3bd 84d0 7b3d c4f4 a5bc d591 14bd
000001d0: e5f2 7c3d 6bfc 373a 1bdd 00bd 9b7c 223d
000001e0: 80df 5fbd 77b2 79bd 0ec0 823d d3c5 a2bd
000001f0: 0a4b 8b3d 3089 b43d e3d6 19bc bcae 58bd
00000200: 31f7 ac3b 0c8a b7bd e34b 353d 64d7 babd
00000210: 541a 503d a418 23bc 1b60 96bb cf17 f53d
00000220: e1be 8abc 9d9d 89bd bea5 703d 51e8 6bbc
00000230: 3e12 543b 543b 66bd ca5f 31bc eae1 50bd
00000240: 01d2 c1bc ebbd a43d e342 aa3d 2b03 7b3d
00000250: 5c54 7ebd 462c d43d f0d1 00be 9e2a 2e3d
00000260: 5121 c93b abf7 94bd cdb3 113d a932 9a3d
00000270: ee1c 51bd efec 103d db5d 81bd b764 95bd
00000280: cc65 013d 85fd e63c 42bf 6e3d 6fdd 953d
00000290: 4fc6 dd3c d5bc 0a3d 9536 323d 7d98 e23c
000002a0: d7dc 31bc 9c29 023c 5793 bf3c 89f6 31bc
000002b0: 3fc0 2b3d 6d26 713b b181 95bd 7fa3 e93d
000002c0: c098 e83c d34e c5bc 560c b2bd 3228 ad3b
000002d0: f6a6 48bc d63b 91bd 9532 5b3d 9c4c 0b3d
000002e0: a308 023c 2b81 4abb dca1 65bd 3962 8fbc
000002f0: 168f 35bd 1a60 303d c2f8 c43d 6b23 273d
00000300: 19d2 b43b cff7 373d 7ff4 32bd a635 c6be
00000310: 0e24 023d 22c5 a53d 1ed6 28bd 27ef 3fbd
00000320: 4c60 5f3d 7b60 afbd dba2 54bc 29b9 b53d
00000330: 3a8d 7dbc 89fb a03b 2c17 ab3d 3247 24bc
00000340: 3c7a dbbd 39b0 8abd ed5f a5bc 0e4d 6bbd
00000350: 6956 4cbd 7115 7dbd c8a0 82bc 0a53 ba3c
00000360: 5af9 0ebc 1285 133d 0d85 98bd 70ae 2dbc
00000370: 6d77 9d3d 4336 58bd e9a6 bd3d 4361 f53c
00000380: 8f28 683d 342a 0cbe 9a0c 55bd e72f 4d3d
00000390: 94ca 1dbc 84b2 e2bc 2576 b4bd 2d2a e33c
000003a0: e55b 123e a58a 6cbd bb48 6abd f4dd 33bd
000003b0: 3858 633d ebd5 e1bc 9e07 5bbd 0fed 903d
000003c0: 5722 a3bd 0c67 a9bd 2393 26bd e29e 9c3d
000003d0: 19b8 903d 0628 583d f17a a1bb 755c 6e3d
000003e0: 678c 6cbc e048 a4bc 229a 9bbd f4e5 8abd
000003f0: 0c6c 823d 978c 9a3d 9391 9d3c 46cd aa3c

fc3b.bias f4 [128]
-0.092047766 -0.19557734 -0.033769786 -0.022933258 -0.0024931652 -0.04113551 0.020650702 -0.005281935
-0.072215594 -0.03565121 -0.053864736 -0.005386936 -0.017286535 -0.058245983 -0.009596199 -0.06962113
-0.08631322 0.06670511 0.026770124 -0.016556166 -0.17986509 -0.008772713 -0.06748556 -0.15371817
-0.018198475 0.0016076709 -0.04774769 -0.086607695 0.004265638 0.0016668685 -0.015946735 -0.028899657
-0.08695477 0.08716021 -0.079605445 -0.021995656 -0.07759553 -0.0151362065 0.004487375 -0.08640654
0.038723566 -0.08038663 -0.15759875 -0.011657955 -0.0010909046 -0.063945346 -0.016725564 -0.026636735
-0.16227476 -0.087586485 0.0111997 -0.026802903 0.115787216 -0.05565961 0.115909226 -0.06722124
-0.18893443 0.0021361087 -0.025896493 -0.06477351 -0.024708465 -0.002246586 0.03334212 0.04707689
-0.031820618 0.0896978 0.09168143 0.061925426 -0.02132194 0.030754643 -0.045762867 -0.06372098
0.0013960773 0.042963337 0.022813972 0.003069417 -0.062319472 -0.016111031 0.11794073 -0.0196434
0.022820305 0.09549048 -0.0508525 -0.022741226 -0.0029124802 -0.028700644 -0.042645276 -0.019081056
0.012549863 0.015885275 -0.069850996 0.077473275 -0.0030785152 -0.014505512 0.026609303 -0.044466842
-0.06799091 -0.097991124 -0.066298634 0.0269544 0.08574975 -0.082896315 -0.07308197 -0.04234474
0.07567122 0.06778829 0.011563184 0.024321869 -0.021154733 0.0016349728 0.08701074 -0.06001203
-0.0780726 -0.018130878 0.03221547 -0.04506932 -0.084921815 -0.05295311 -0.05837129 -0.020247862
0.11296586 -0.069085166 -0.03329603 -0.08076049 -0.018814707 0.05795625 -0.07825355 0.0064499225
00000000: 8a83 bcbd 6d45 48be 3052 0abd 87de bbbc
00000010: 5f64 23bb b57d 28bd a92b a93c 1514 adbb
00000020: c5e5 93bd 0107 12bd 45a1 5cbd e584 b0bb
00000030: 7e9c 8dbc 5793 6ebd 6039 1dbc 8695 8ebd
00000040: fcc4 b0bd b09c 883d 054d db3c cca0 87bc
00000050: 8e2e 38be 6dbb 0fbc df35 8abd 4c68 1dbe
00000060: f814 95bc 7cb8 d23a 1593 43bd 605f b1bd
00000070: c4c6 8b3b d37a da3a baa2 82bc f9be ecbc
00000080: 5815 b2bd 0d81 b23d 2e08 a3bd 3c30 b4bc
00000090: 68ea 9ebd dafd 77bc d40a 933b e9f5 b0bd
000000a0: 9a9c 1e3d bfa1 a4bd 9161 21be 0201 3fbc
000000b0: affc 8eba c7f5 82bd 0d04 89bc 4835 dabc
000000c0: 5b2b 26be 8b60 b3bd f27e 373c c391 dbbc
000000d0: d921 ed3d 55fb 63bd d161 ed3d 4aab 89bd
000000e0: 0778 41be f5fd 0b3b e224 d4bc f9a7 84bd
000000f0: 6869 cabc 753b 13bb bf91 083d b2d3 403d
00000100: 5656 02bd 7bb3 b73d 79c3 bb3d 84a5 7d3d
00000110: 59ab aebc 29f1 fb3c d871 3bbd 2580 82bd
00000120: 95fc b63a 53fa 2f3d 5ee4 ba3c 4628 493b
00000130: b442 7fbd 48fb 83bc e98a f13d 32eb a0bc
00000140: a6f1 ba3c 8390 c33d b64a 50bd cf4b babc
00000150: 4fdf 3ebb 9d1d ebbc d0ac 2ebd e04f 9cbc
00000160: f19d 4d3c d621 823c 0a0e 8fbd 4faa 9e3d
00000170: eac0 49bb 87a8 6dbc c1fb d93c dd22 36bd
00000180: d13e 8bbd 92af c8bd 94c7 87bd 79cf dc3c
00000190: 919d af3d 8bc5 a9bd 00ac 95bd ae71 2dbd
000001a0: 83f9 9a3d 96d4 8a3d 8273 3d3c a83e c73c
000001b0: b14c adbc 954c d63a b032 b23d 2dcf 75bd
000001c0: 87e4 9fbd 3587 94bc 5ef4 033d 9b9a 38bd
000001d0: 7deb adbd 5ce5 58bd bc16 6fbd d8de a5bc
000001e0: a55a e73d 867c 8dbd 6b61 08bd c165 a5bd
000001f0: 4d21 9abc 8863 6d3d 6643 a0bd df59 d33b

fc4.weight f4 [1, 128]
-0.07006624 0.004907201 0.058023322 -0.0991727 0.008680175 -0.07467235 -0.0050874664 -0.0047885426
-0.004265861 -0.02413719 -0.010505492 0.009751717 0.002353394 0.019649735 0.0018289692 -0.029201334
0.029481461 -0.077945724 -0.042592205 -0.06861319 -0.11357466 -0.0042467886 -0.044760857 -0.05582212
-0.004498352 0.009392889 -0.061067622 0.049367312 -0.03595486 -0.0055317376 -0.005813297 -0.16232966
0.012222807 0.05973891 0.074422926 -0.0006153849 -0.07621105 0.005429536 -0.0014112603 -0.032839775
0.006175726 0.034310836 -0.12594837 0.08368302 -0.035871506 0.020500345 0.0011246322 0.074650675
-0.059095394 0.08624483 -0.064259835 0.0008432729 0.07561202 -0.065578885 0.058633335 -7.15232e-05
-0.04909321 0.0008440993 -0.022698686 0.051562995 0.016434405 0.08722717 0.037465766 0.009041856
-0.01569722 -0.08179221 0.07306132 0.0017023098 0.00058281823 -0.0044723577 -0.056036595 0.028671598
0.0015059271 -0.09592078 0.21488391 0.002502326 -0.016492201 -0.12460828 0.049694926 0.004214694
0.06473 0.022979736 0.00043490645 -0.05565999 -0.019056277 -0.0045162034 -0.0048900084 -0.072905995
-0.004253731 0.0022861408 0.024760872 0.06907808 0.005272873 -0.005416356 -0.0006416552 -0.012002527
0.025320478 -0.004464588 -0.07906165 -0.0052567357 0.03145859 0.0080335 0.04909725 0.021543456
0.052307364 -0.015236288 0.24117297 -0.015466349 0.0038437624 -0.0018015493 0.026247738 0.021068217
-0.0054718093 0.008265419 0.04989596 -0.044723805 0.031495195 -0.0051986245 0.04472843 -0.0055406163
0.080133565 -0.007223285 0.014993836 0.033185944 0.004758302 0.019663293 -0.00043092802 -0.004315903
00000000: e47e 8fbd 96cc a03b dda9 6d3d 0e1b cbbd
00000010: 4b37 0e3c d1ed 98bd c3b4 a6bb 35e9 9cbb
00000020: a3c8 8bbb 5bbb c5bc 3a1f 2cbc aac5 1f3c
00000030: 663b 1a3b 7bf8 a03c 06ba ef3a a337 efbc
00000040: 1b83 f13c 02a2 9fbd 2a75 2ebd 1285 8cbd
00000050: d599 e8bd a528 8bbb 2957 37bd bca5 64bd
00000060: e966 93bb a2e4 193c 0b22 7abd 6135 4a3d
00000070: 6745 13bd 9443 b5bb 787d bebb bf39 26be
00000080: 2b42 483c cab0 743d 0c6b 983d c851 21ba
00000090: 8a14 9cbd 40ea b13b 0afa b8ba 0083 06bd
000000a0: bf5d ca3b 8589 0c3d 9cf8 00be 0162 ab3d
000000b0: 00ee 12bd 57f0 a73c 6568 933a 74e2 983d
000000c0: 030e 72bd 21a1 b03d a99a 83bd 160f 5d3a
000000d0: 7ada 9a3d 394e 86bd 8229 703d bafe 95b8
000000e0: f615 49bd 8c46 5d3a 98f2 b9bc b833 533d
000000f0: 72a1 863c 29a4 b23d b475 193d 4b24 143c
00000100: 7597 80bc ad82 a7bd 2ca1 953d 0a20 df3a
00000110: 45c8 183a db8c 92bb a186 65bd b3e0 ea3c
00000120: 8762 c53a 1d72 c4bd 870a 5c3e 10fe 233b
00000130: a71a 87bc a032 ffbd e88c 4b3d 6a1b 8a3b
00000140: 2a91 843d 0040 bc3c 2804 e439 bbfb 63bd
00000150: e91b 9cbc a9fc 93bb 5d3c a0bb bd4f 95bd
00000160: e262 8bbb 14d3 153b 50d7 ca3c cf78 8d3d
00000170: 11c8 ac3b b07b b1bb c034 28ba 3fa6 44bc
00000180: e46c cf3c ae4b 92bb 13eb a1bd b240 acbb
00000190: b9da 003d f19e 033c 331a 493d e77b b03c
000001a0: 3f40 563d a0a1 79bc 0cf6 763e 9266 7dbc
000001b0: a2e7 7b3b f721 ecba 7f05 d73c 4197 ac3c
000001c0: dd4c b3bb ae6b 073c b55f 4c3d 4f30 37bd
000001d0: 1b01 013d 3959 aabb 2935 373d 0f8e b5bb
000001e0: 111d a43d 4eb1 ecbb b5a8 753c fced 073d
000001f0: 88eb 9b3b ea14 a13c 2eee e1b9 6b6c 8dbb
