code/nnv/examples/Submission/CAV2023/NNV_vs_MATLAB/nn4sys/onnx/mscn_128d.onnx (onnx, 413963 bytes, 15 tensors)

sample_mlp1.bias f4 [128]
00000000: ef4d 753e f714 bcbe 50fd 37be ffc9 3b3e
00000010: c4a9 a8be 2101 41be c28f 2e3e 9276 6dbb
00000020: c899 8d3e 24dd fe3d 000d e2bc b736 1b3e
00000030: 528c 99be db12 8e3d 4b4f aabe 95c8 8ebe
00000040: 1c5c d9bd 13c0 a93e e69d 48be 5e41 63be
00000050: 6935 2e3e a758 453e 64a4 1d3e b2c8 83be
00000060: a310 a2be 96d2 72be 0b8f 4a3e 03c7 08bd
00000070: bde5 a5be 9ab2 67be fb17 b8be 6a09 73be
00000080: 7980 21be 44e7 b8be 190a 113e 8f69 b9be
00000090: 5352 92be 65cd 59be 5f68 51be 9498 523d
000000a0: f57d 87bd 6027 d8bd e6ce 25be d714 83be
000000b0: fe27 753e f41f 83be 50ed 7fbe 596a a9be
000000c0: d044 3d3e 0958 4f3d 9143 803e fc45 823e
000000d0: 1d30 cabd 0adc 303e fb17 c0be 9b3a 283e
000000e0: 86c0 1c3e e93c b9be 9133 f13d 2b00 933e
000000f0: 6b25 c0bd 04ed 03be 7126 3f3e f870 d23d
00000100: d61f 00be 384e a9bd 0348 823e e41c 95be
00000110: f2d3 57be 7d3a a33e 7b24 323e f5ae 5d3d
00000120: c370 f3bc 8321 373e 3b5c 8a3d d958 093d
00000130: 5692 9fbd e1a7 54be aa7f c8bc eaad 2dbe
00000140: 140e 25bd ceab a4be d1c5 9cbe 1ec6 683d
00000150: b15d 19bd ebb5 3ebd c86a 0fba 2048 483e
00000160: a671 27be 6371 19bd ea7b a7be 9478 a8be
00000170: d72c fabd ed6e 9abd 3f36 893d a54c 253e
00000180: 6b96 9f3d b1f6 3fbc 56bb 173e 7a65 8ebd
00000190: 7682 abbc 29b8 a43e eaea bd3e f38f 0ebe
000001a0: e14b f93d c6b9 bebe 7d61 fdbd 6e30 54bc
000001b0: 46ba 223c bf64 f73d f708 133e 7516 6c3e
000001c0: cd68 763c d761 013e 6c92 173e 2db2 57be
000001d0: cb80 0dbe e509 7a3e 9a8f 37bd 74a9 a13e
000001e0: 81c6 3f3d 6a00 443e 9866 1b3e f1a7 0d3e
000001f0: efcf 103e ceca 5f3e 434d 093e efb2 24be
0.2395551 -0.36734745 -0.17967725 0.18338774 -0.3294202 -0.18848087 0.17047027 -0.0036234003
0.27656388 0.12444523 -0.02759409 0.15157591 -0.29989868 0.0693719 -0.3326362 -0.27887407
-0.106132716 0.33154353 -0.19591483 -0.22192904 0.17012562 0.192721 0.15394741 -0.25739056
-0.31653318 -0.23713145 0.19781129 -0.033392917 -0.3240184 -0.22626725 -0.35955796 -0.2373406
-0.15771665 -0.36113942 0.14164008 -0.36213347 -0.28578433 -0.21269758 -0.2044997 0.05141504
-0.06615821 -0.10554385 -0.16192207 -0.25601837 0.23941037 -0.25610316 -0.24992871 -0.3308895
0.18483281 0.050621066 0.2505155 0.2544402 -0.09872458 0.17271438 -0.37518296 0.16428606
0.15307817 -0.36179283 0.11777414 0.28711066 -0.09382137 -0.12883383 0.18667008 0.10275453
-0.12512144 -0.08266872 0.25445566 -0.29123604 -0.21076944 0.3188056 0.17396729 0.05412193
-0.029716855 0.17883877 0.06755873 0.033531997 -0.07791583 -0.20767166 -0.024474937 -0.16960874
-0.04029663 -0.32162327 -0.30619672 0.056829564 -0.037442867 -0.04656021 -0.0005470929 0.19558764
-0.16351947 -0.03746165 -0.32711726 -0.32904494 -0.12215584 -0.07540689 0.066998 0.16142519
0.07792362 -0.011716531 0.14817557 -0.06952949 -0.020936232 0.32171753 0.37093288 -0.139221
0.12172676 -0.3725111 -0.1237211 -0.012951 0.009932106 0.12079763 0.14358889 0.23055442
0.015039635 0.12634979 0.1480195 -0.21064062 -0.13818662 0.24417837 -0.044814683 0.31574595
0.046820167 0.19140783 0.15175855 0.13833596 0.1414182 0.21854708 0.1340838 -0.16083883

sample_mlp2.bias f4 [128]
00000000: 5376 713d cf9c 87bd c628 b7bd c901 48bd
00000010: ffff ecbd 5bf1 66bc d5ad 1cbc a8f6 08bd
00000020: fe81 5f3d ee9b 89bd 1cb8 41bd 7339 3dbc
00000030: dc4d 4fbd b244 e8bb 65b0 8abd fc74 83bd
00000040: c5eb 003c 6831 8a3b 76e0 8abd f73d 68bd
00000050: 128d 87ba 4bf6 4e3d bda1 84bd 6d9d 98bc
00000060: 8b08 2cbc 2978 74bd bf76 ad3c cabc 73bd
00000070: f1f5 533a 82f3 a4bd 2645 27bc 17a0 56bd
00000080: 0f17 123d b2e3 fdbc 4ab2 5b3d d85b d6bc
00000090: 58db 94bd 2319 903d bd68 c2bc 53a0 1bbd
000000a0: d44f a6bd a396 0bbd 3aff ff3a b787 773c
000000b0: 44d0 45bc 53a8 6abd 6c00 07bd 81d8 c73d
000000c0: ec59 30bd fc8e a23b 726a 693c 57ab 3e3c
000000d0: cc9f 4bbd 24d5 b13d 99fc 1f3d 277b 9a3b
000000e0: f35c 283c 8489 ce3b e236 a4bd 0a7e 2bbd
000000f0: b3c4 473d c9f7 7fbd 2451 383d 9a5c 08bc
00000100: dca5 70bd b2eb b9bd 1418 76bd 589a 2dbd
00000110: dca7 983b 77bc 18bd 9c3a b13b bf29 73bc
00000120: 3497 32bd 0fa9 fa3c 2a30 05bc 0206 92bd
00000130: 4c26 d0bc bac4 6639 d3dc 1fbd 6ce7 b9bd
00000140: 487a b4bc bf27 1a3d 77fc 513c 048f 85bd
00000150: f697 c2bc 2280 6cbd 5037 803d 7ed6 08bc
00000160: 0f95 5abd 37f8 213d 10f0 fb3c 07b0 acbc
00000170: d0fa abbc 2847 ff3c 9a4d 3d3d a5ee 963d
00000180: ecf3 6b3d 3757 43bd 2bbe c3bc a801 69bd
00000190: c963 1b3d b08c c2bd dd02 003c d334 513d
000001a0: 5c1d 333d 394c 173d c720 663c 77c0 b03d
000001b0: 4ca3 be39 0fa0 a33c 6e9b 6abd 52b1 98bd
000001c0: 5c02 413d 8dd3 00bc 675d 7bbc e633 1bba
000001d0: c724 1abd c82a 60bc ca21 473c ba94 893c
000001e0: aa22 053d 7a0f 9ebd c8e8 f73c 9cbe 6dbc
000001f0: 5a1c 83bb 6e20 2dbd 3c07 4abd 0aaf a93c
0.058950733 -0.06621706 -0.08943324 -0.048829827 -0.11572265 -0.01409563 -0.009562929 -0.033438355
0.05456733 -0.06719194 -0.04729472 -0.0115493415 -0.05061136 -0.0070882672 -0.06771926 -0.064187974
0.007868712 0.0042173155 -0.06781094 -0.05669972 -0.0010341725 0.050527852 -0.06476162 -0.018629754
-0.010500084 -0.059684906 0.021174787 -0.059506215 0.00080856594 -0.08054258 -0.010209357 -0.052398767
0.03566652 -0.030992363 0.053636827 -0.026166841 -0.07268399 0.070360444 -0.023731584 -0.037994694
-0.08120695 -0.034079205 0.001953102 0.0151080405 -0.01207358 -0.057289433 -0.032959387 0.09758092
-0.043054506 0.0049608927 0.01424657 0.01163753 -0.04971294 0.086832315 0.039059255 0.004714388
0.010276067 0.0063030142 -0.080182806 -0.041868247 0.04877157 -0.062492166 0.044999257 -0.008322859
-0.058751926 -0.090781584 -0.060081556 -0.04238352 0.0046586823 -0.03728911 0.005408598 -0.014841496
-0.04360123 0.030598192 -0.008129159 -0.07130052 -0.025408886 0.00022007796 -0.039028954 -0.09077343
-0.022030964 0.03763556 0.01281654 -0.06521419 -0.023754101 -0.057739384 0.0626055 -0.00835192
-0.05336481 0.039543357 0.03075412 -0.02108003 -0.02099362 0.03116186 0.046216585 0.073697366
0.05760567 -0.047690596 -0.02389439 -0.056886345 0.03793696 -0.0949949 0.007813183 0.051075768
0.04372917 0.036937926 0.014045901 0.0863046 0.0003636129 0.019973783 -0.057277136 -0.07455696
0.04712139 -0.007862938 -0.015342093 -0.0005920514 -0.03763273 -0.013682075 0.012154052 0.016794551
0.03250376 -0.07717796 0.030262366 -0.014510777 -0.0040011825 -0.042267255 -0.049323305 0.020713348

predicate_mlp1.bias f4 [128]
00000000: 71a6 89bd 82cb 3dbd 10a3 e2bd 8183 f23d
00000010: 77ee f53d 683f 023d 3bee be3d 9e0e fc3d
00000020: 0ef8 0f3e 63b7 0d3e 46d1 2fbe bfa0 e03d
00000030: 6ed3 63be ad89 52be 602f b13c a0e3 e63d
00000040: 4094 4c3d 085b 72bd 1abb 6e3d fcf7 ce3d
00000050: 3d9f 7cbe dba5 d13d 7281 22be df02 8cbd
00000060: e1d5 eebd 4683 0abe c5b4 aabd 1eac ddbd
00000070: 1e4f 21bd d64b 18bd 5c1b 3bbe 3cd6 103d
00000080: 0b75 0ebe e65f 19be 2bd8 cc3d 1250 05bd
00000090: d259 b6bc c0b7 d4bd 363f 25be 48b5 26be
000000a0: 78f2 86bd c4aa f0bd 35a0 e4bd 1365 033e
000000b0: 55a1 aabd e9a1 cc3c c31b a2bd 488e 4c3c
000000c0: 400c f33d 73fd 4d3d ca1c d43d ad1a eebd
000000d0: 81da ec3c 3957 14be 49ab 5bbe 04f0 46be
000000e0: 70a6 33be b1bc 38be d587 14be d7e5 2ebd
000000f0: b0c3 ad3d e3d2 88bd 06f6 323e 255d 243d
00000100: 7e1f 363e 1cbe 663d da07 81bd 9df5 053d
00000110: 11cb e43d ac04 023d 173c 49bd 0b66 3e3e
00000120: 76f6 cf3d d1cc 11be d9b6 9ebd f426 17be
00000130: a22c 28be 73ac ad3d f314 d4bd 231a 4fbe
00000140: 3d2a 3d3e 2f4a 373e 1088 0b3e 48bd 403e
00000150: 2110 393e ff83 853c b216 19be 15e7 8bbe
00000160: 4d62 383d ea8f 123d 4e89 33be 3910 373e
00000170: a988 c7bc 3195 27be 9b51 e9bd b240 c83d
00000180: bff3 193e 9aa2 17be 9c21 acbd 53fd 093e
00000190: 8270 8abd e028 ef3d a8ac 4ebe 1cfe 563e
000001a0: 31a3 9cbd 598d 5bbe 2dbd 813e 7ef4 3b3e
000001b0: 2dc3 bbbd 15a3 88bd e508 4f3e 3bb7 673e
000001c0: 7cd8 973d bc7a 69bc d27d 02be ab5e 33be
000001d0: ad6e acbb 7b78 cfbd 7430 03be f591 22be
000001e0: e8a3 483e f20e 313e 0e85 e93d 7737 3abb
000001f0: f4cd 0c3e 58d0 c1bc 5ce2 163e eced 183d
-0.06721199 -0.04633666 -0.11066258 0.11841489 0.12008374 0.03179875 0.093227826 0.123074755
0.14059469 0.13839488 -0.17169675 0.1096816 -0.22248623 -0.20560332 0.021629035 0.11273885
0.04994607 -0.059168845 0.058283903 0.10105893 -0.2467012 0.102367125 -0.15869692 -0.06836485
-0.11661888 -0.1352664 -0.0833526 -0.108238444 -0.039382093 -0.037181698 -0.18272156 0.03536056
-0.13911836 -0.14977989 0.10002168 -0.032547064 -0.022259627 -0.1038661 -0.16137394 -0.16280091
-0.06589216 -0.11751321 -0.111633696 0.12831526 -0.08331553 0.024979549 -0.079154514 0.012485094
0.11867571 0.050290536 0.103570536 -0.11626182 0.028912785 -0.14486398 -0.21452059 -0.19427496
-0.1754396 -0.1804073 -0.14504941 -0.04269966 0.0848459 -0.066808484 0.17476663 0.040127892
0.17785451 0.056333646 -0.06300326 0.03270494 0.11171544 0.031742737 -0.04912957 0.18593614
0.101544306 -0.14238288 -0.07749719 -0.14760953 -0.16423276 0.08480158 -0.10355558 -0.20224814
0.18473144 0.17899393 0.13626122 0.18822205 0.18072559 0.016298292 -0.14950064 -0.2732474
0.045015622 0.03578178 -0.17532846 0.17877282 -0.024357157 -0.16365506 -0.11392518 0.09777965
0.15034388 -0.14808121 -0.08404848 0.13475542 -0.067597404 0.11677718 -0.2018305 0.20995373
-0.07648314 -0.21440639 0.25339642 0.18354985 -0.09168086 -0.066717304 0.20218237 0.2262849
0.07414338 -0.014250454 -0.12743309 -0.17516582 -0.005262217 -0.10130402 -0.12811452 -0.1587599
0.19593775 0.17290857 0.11402331 -0.0028414407 0.1375044 -0.023658916 0.14734787 0.037336275

predicate_mlp2.bias f4 [128]
00000000: 03b0 073d cbc5 4abd 9030 963a 167d 06bc
00000010: f5ce b73d dc0d b93c 0ace dbbc 91ab babd
00000020: e0f8 02bc ea24 7a3d d69a 573a 0767 5d3d
00000030: 5504 ec3c 8d3e 863c f97f cf3c cec9 103d
00000040: 7727 e33c 9bfc 36bc ccda 393d 787c 27bd
00000050: ecfc c13b 3fda 9e3d f99b 843a db56 5cbd
00000060: ff81 73bd 8b63 903c c398 793c 0b92 443d
00000070: cf05 4fbd fc77 90bc b4fa 80bd a9e0 e4bc
00000080: 4de1 0fbd 8d43 62bd 6c7e 0e3d 57ee 1dbd
00000090: 9058 453c a0ac 0ebd d8b7 86bb fdb6 913d
000000a0: a64b 0ebc 8c9c 53bd 5178 823c 507b 3d3c
000000b0: 3959 983c e010 b33d 9898 983a 688f 063c
000000c0: 0746 9f3a d189 c03c 2275 ba3c 3a0b f4bc
000000d0: 550e 5ebc e9b3 073e 534a b23d 73ab b4bd
000000e0: a450 9ebc 1dec b0bb b82e 6cbd 320f 22bd
000000f0: 98f6 8fbc f867 31bd 5652 f9bc b578 903b
00000100: 551d 2c3c 7399 c43c cd1e 023c b80d a5bd
00000110: 77d4 6fbd 220e 05bd 9db7 e7bd c482 efbc
00000120: bae7 d43d 8b1c 493c c0ad 663d fd92 a63d
00000130: 665b 823d dc8e 1c3d b575 b13c 26b2 e73c
00000140: 450f 72bd e90e 8f3c 1662 46bc 6aa0 723d
00000150: 5471 4a3d f2a5 cd3d 520a 6d3d 09e4 8bbd
00000160: f4dc a53c 3213 3e3d 6391 3b3d 6baa c93d
00000170: 6be1 393d e942 ab3b 1f69 fb3c b5f0 49bd
00000180: 2600 9ebd 2269 953d 3cb1 bcbc 8203 73bd
00000190: 2de9 3c3d 116d 243b 91d5 acbd 8ff3 8c3d
000001a0: 4f81 443d f736 573d b1c8 c5bd 6e8f 2d3d
000001b0: da44 c43d d6dd 27bd 0f29 a53c 71bb 1d3d
000001c0: 0f56 b33b f1ea 043d 0b42 9e3c cf7c 193d
000001d0: deeb 93bc 6dc4 c0bd e9c1 573d 8026 cabd
000001e0: 6a4b 9cbc 0a2c 3e3d d934 a63d 4567 ef3c
000001f0: 3ba2 593d 2caf 4a3d 702f 483d 1c5f d1bc
0.033126842 -0.049505036 0.0011458565 -0.008208534 0.08975021 0.022589616 -0.026831646 -0.09114755
-0.007993907 0.06107036 0.00082246715 0.054053333 0.02881066 0.016387248 0.025329577 0.035348706
0.02772878 -0.011168624 0.045374677 -0.040890187 0.005920043 0.07756471 0.0010117284 -0.05379377
-0.059450146 0.01762559 0.015234175 0.04799084 -0.05054265 -0.017635338 -0.06297818 -0.027939158
-0.035126973 -0.055240203 0.034788534 -0.038557377 0.012045041 -0.034832597 -0.0041112714 0.0711498
-0.008685028 -0.051662967 0.015926512 0.0115650445 0.018597232 0.08743453 0.0011642156 0.008212902
0.0012151607 0.023503216 0.022760931 -0.02979051 -0.013553222 0.13252224 0.087055825 -0.08821764
-0.019325562 -0.0053992406 -0.057661742 -0.039565273 -0.01757364 -0.043312043 -0.030434769 0.0044089206
0.01050504 0.023998952 0.007941914 -0.08059257 -0.05855223 -0.03248418 -0.11314318 -0.029237159
0.10395761 0.012274872 0.056318045 0.081335045 0.06365089 0.03822218 0.021662572 0.02828319
-0.059096593 0.017463164 -0.012108346 0.059235014 0.049424484 0.10041417 0.05787117 -0.06830604
0.02024696 0.046405025 0.04579295 0.09846958 0.04538099 0.005226482 0.030689774 -0.04930182
-0.07714872 0.07295443 -0.02303373 -0.059329517 0.04612081 0.0025089423 -0.08439172 0.068823926
0.04797488 0.052542653 -0.096574195 0.042373113 0.09583445 -0.040983044 0.02016118 0.038508836
0.0054729055 0.03245062 0.019318601 0.037472542 -0.018056806 -0.09412465 0.05267516 -0.098706245
-0.019078929 0.046428718 0.08115549 0.029224047 0.05313323 0.049483463 0.048873365 -0.025558047

join_mlp1.bias f4 [128]
00000000: 132b e2bd e64a f13c b75a cabd 7685 08be
00000010: b604 9cbe d984 cebd 4650 4cbd 3870 aa3e
00000020: 7616 29be d112 1bbe 4ba2 1bbe e091 24be
00000030: d2fd 953e fab7 dbbd 4c5f 043e 8379 3dbe
00000040: df9c b9be 8881 a0be c7a5 943e 26b2 623e
00000050: 45a3 ba3d 979b 663e 3a29 983e 23dd 033c
00000060: 7953 7abe 8c38 b1be 12af 793d 7ade b2be
00000070: d158 9d3d 2a9b 9cbe d821 cabd 181b 563e
00000080: ce3c 4cbe bc86 953d 7b60 3dbe 5ff2 01be
00000090: de8b 0e3c 79fb 893e d82f be3d 9e26 a33c
000000a0: 4b1b 5ebe 8b75 a73b 4b3b 9abe 3ee2 97be
000000b0: 2e4e b4be f044 4c3e 032f 7abb 928f df3d
000000c0: 0e58 b1be 9e72 8bbe e25d a5be cff1 943e
000000d0: 49fa 173e c2e4 8fbe a9aa be3d 6e17 9bbe
000000e0: d0ec a8be 8ee2 313d 3246 5d3e 5a7c 59bc
000000f0: 80c3 ae3d 87ee 483e f5a4 a3bd 0bfb 55be
00000100: e654 923e fff7 74bd 94d3 923e 6284 a53e
00000110: 04b3 b33d 64f2 d03d 3b66 03be 5a9b 733d
00000120: 736d 95be bbcd 91bd a042 92bc 27c8 a6be
00000130: e265 22be 4850 aa3d 6e75 c1bd d473 b93d
00000140: 7409 64be a102 ab3d 8a25 18be 4301 17be
00000150: e8c6 333e cfc1 433e f3f3 e03d a67f b63e
00000160: cf02 283e 1c45 c53e 6df1 aa3d d371 58be
00000170: 95bd 89be bed0 bbbe 44ce 0fbe 1273 f0bd
00000180: 2161 0f3e b49b f33d d0dd 533e af5f 4cbd
00000190: 616a 4bbd 94cf 07be b071 ae3e 3b01 3bbe
000001a0: 060f 343e 51da 9d3e 142c 92be 2e9d 793e
000001b0: fba7 60be 2c6c 213e a814 4ebe 490c 51bd
000001c0: d6c0 ab3d f180 bbbe ff25 99be 7f3c 043e
000001d0: 6087 b2be e90a b43d 7fd6 da3b 9f81 b5bc
000001e0: d773 a2be bf20 863e d097 58be aa25 bcbe
000001f0: 5605 a33e 565e 0f3d 3cc3 fbbd 0350 98be
-0.11043372 0.02945466 -0.09880584 -0.13332161 -0.30472344 -0.100839324 -0.049881242 0.3328874
-0.16512474 -0.15143897 -0.15198629 -0.16071272 0.29295212 -0.1072845 0.12926978 -0.18503384
-0.36252496 -0.31348825 0.29032728 0.2213827 0.091131724 0.2252029 0.29718953 0.008048329
-0.24445905 -0.34613454 0.060957976 -0.3493536 0.07682956 -0.3058713 -0.098697364 0.20908773
-0.1994507 0.07301089 -0.18493836 -0.12690113 0.008700339 0.2694967 0.09286469 0.019915875
-0.21690099 0.0051104478 -0.30123362 -0.29664797 -0.35215896 0.19948173 -0.0038174994 0.10916056
-0.34637493 -0.27235883 -0.3229819 0.29090735 0.1484157 -0.28104216 0.093098946 -0.30291313
-0.32993174 0.04342895 0.21608809 -0.013274277 0.085333824 0.19622241 -0.079904474 -0.20896547
0.28580397 -0.05980682 0.28677046 0.32327563 0.08774379 0.10202482 -0.12831967 0.059474327
-0.29185066 -0.07119318 -0.017854035 -0.3257458 -0.15859178 0.08316094 -0.09446226 0.090552956
-0.22269231 0.08350111 -0.1485807 -0.14746575 0.17556345 0.19116901 0.109840296 0.35644263
0.16407321 0.3852929 0.083468296 -0.2113717 -0.26902452 -0.36682695 -0.14043528 -0.11740698
0.14001895 0.118949324 0.20690084 -0.04989594 -0.049661998 -0.13262779 0.34071112 -0.18262188
0.17583856 0.30830625 -0.28549254 0.24376366 -0.2193908 0.1576392 -0.20125067 -0.051037107
0.0838639 -0.36621812 -0.299118 0.12913702 -0.34868908 0.087911434 0.006678402 -0.022156535
-0.31729004 0.26196858 -0.21151662 -0.36747485 0.31840008 0.035002075 -0.122930974 -0.29748544

join_mlp2.bias f4 [128]
00000000: 5d27 933c 7153 d3bc ccca 51bd 11d4 7abc
00000010: b32f c6bb 2614 8ebd 8789 143d 11f3 09bd
00000020: 613e 77bd bb20 61bd 2b7b 153d 7d56 70bd
00000030: 3a11 05bc f7d3 7fbc 2d23 8a3c 495f eebc
00000040: fb8f 0f3d 0715 113c c6c9 a9bc eef4 1cbd
00000050: 3776 83bb 8059 8bbd 112b 3f3d b72c 22bd
00000060: a708 183d 8936 50bd b862 86bd 17cc b8bc
00000070: c7c3 2bbd ee60 5d3c 3e84 9cbd 41c3 56bd
00000080: 68fc 8bbd 1292 9cbd 1ada a6bd 8789 53bd
00000090: 080d 3c3d 7be6 3dbd 6ed3 263d d3aa 533d
000000a0: 65ac 453c 0da0 8e3c b971 9d3d eda6 87bd
000000b0: 61f5 333d 352c c3bc 8cd5 81bd 0ecf 8ebd
000000c0: 620f 4fbd 8233 83bd 980d 63bd dd29 3c3d
000000d0: 0630 e1bc d3a5 6dbd d197 2fbd 10f3 f4bd
000000e0: 6e7c 00bd 5f57 a53c 618a 4f3d 6c80 ccbd
000000f0: 008a 483c e31a 5ebc a86e 8abd 2026 bbbd
00000100: 3d9a 81bd e486 88bd 7386 84bd d2cb 87bd
00000110: ad75 633d 8b6d 4d3d 91a5 82bd 2627 ca3c
00000120: 5402 153d 12d6 5c3c d6a0 88bd 167c 90bd
00000130: 7a72 09bd b00e 8bbd e20d 30bd 6261 29bd
00000140: 994a cabd c340 54bd ed08 0bbd 547e 0ebd
00000150: 49f0 a03c 5e63 59bd cc61 03bc b35d 93bd
00000160: 689e 97ba b8a8 91bc 6657 623c 1a9e 7fbd
00000170: a6ad 5fbd 40d6 60bd e12e 18bd 58ea 81bd
00000180: 97ae 62bd 8656 85bd 0c6f 12bc 0391 7d3c
00000190: 1028 debc 66a2 a8bc 190b 3cbd 3e4f 26bd
000001a0: fb94 163c 2451 0b3c 958a 703b 2e95 f4bc
000001b0: 9194 243d fb6f 29bd fd55 d4bd 2087 f33c
000001c0: e20e 4c3c e243 133d 6961 233d e126 f0bc
000001d0: d8ab 66bd 35a3 0e3c 7e9d a23b 3dd9 b63c
000001e0: e0a1 853d 61f1 43bd 2f4c 0ebc 7082 cb3c
000001f0: 3a4f 35bc 7611 b93c 361a 223d 8635 8dbc
0.017963106 -0.025796624 -0.051218793 -0.01530935 -0.0060481667 -0.06937437 0.03626397 -0.03367907
-0.060362224 -0.054962855 0.036494415 -0.05867623 -0.008121783 -0.015614501 0.016862476 -0.02909817
0.03504942 0.008855111 -0.020726096 -0.03831952 -0.004011895 -0.0680418 0.04667193 -0.039593425
0.037117627 -0.05083326 -0.06561798 -0.022558255 -0.041934755 0.013511879 -0.07642411 -0.052432302
-0.06835252 -0.07645048 -0.08147068 -0.05164483 0.045910865 -0.04636238 0.04072898 0.051676583
0.012065028 0.017410303 0.076877065 -0.066236354 0.043935183 -0.02382479 -0.06339559 -0.06973086
-0.05055178 -0.06406309 -0.055432886 0.04593836 -0.02748872 -0.05801947 -0.042869393 -0.11960423
-0.031368665 0.020183263 0.050669078 -0.09985432 0.012239933 -0.013556215 -0.06759387 -0.09138131
-0.06328247 -0.06666353 -0.06470957 -0.066306725 0.055532146 0.050153296 -0.063792355 0.02467687
0.036379173 0.013478773 -0.06671302 -0.070549175 -0.03355644 -0.06789911 -0.04298199 -0.041352637
-0.098775096 -0.051819574 -0.03394406 -0.034788445 0.019645827 -0.05307328 -0.008018922 -0.07195606
-0.0011567594 -0.017780647 0.013814783 -0.062406637 -0.054608963 -0.054891825 -0.037154082 -0.06343526
-0.055342283 -0.06510644 -0.008937608 0.015476468 -0.027118713 -0.02058525 -0.04590902 -0.040602915
0.009190793 0.008503232 0.0036703695 -0.02985629 0.040180746 -0.04136656 -0.103679635 0.029727519
0.01245472 0.03595341 0.03988782 -0.029315414 -0.056316227 0.008705904 0.004962622 0.022320384
0.06525016 -0.04783762 -0.008685156 0.02484247 -0.011066252 0.022591334 0.039575778 -0.017237436

out_mlp1.weight f4 [128, 384]
00000000: c37b fd3b bc48 44bc ffb1 7fbc c4e2 383b
00000010: 16bf 183d 0124 e73a e121 3d3d 20ef 083d
00000020: 4786 7e3c 1741 b33b 7b2b 963c 0f4c a63c
00000030: 200b e43c fc87 193d 505a f7bc e458 b53c
00000040: ca6f 96bb 4c09 59bc 1a1e fe3c 64b8 b53c
00000050: 6d40 e53c 336a b4bc e840 dcbc bf8c 8338
00000060: 327f 383d b7ba 39bc 7b60 f03c 7092 eabc
00000070: ad35 babc 8b5c ee3c b11d 5d3d b20c 8f3d
00000080: ae38 ee3b b32d 11bc 1df3 ba3b 0149 e73a
00000090: 34c7 62bc 76f7 eabc 8cbb 02bc 5356 6c3d
000000a0: f769 343d 7ee3 293d 1d82 07bc ead7 aa3c
000000b0: 147b b13c 9eba bc3c a2ad d1bc 63d2 903d
000000c0: 1db3 9fbc aa69 963d ddce cf3c 4ed3 25bd
000000d0: fcfa 29bd dee6 763d d289 433c cd12 323d
000000e0: 6952 9c3c a208 c53c b693 05bd e768 08bd
000000f0: 9e71 5c3d b55e 193d a2fb a43c 77fd c8bb
00000100: 181f 58bc eaa5 45bd 7546 22bd b8c2 a7bc
00000110: e4ef 013d ab43 3abc cfe6 773d 6e44 913d
00000120: 3ea9 053c eece f3bc d3eb 79bc 5be1 093c
00000130: 5c62 e7bc f949 38bc 009d e03c f1da 87bc
00000140: d695 c53c a19b 953b fe97 a3bb c83d 02bd
00000150: c644 a33c d6c4 e13b 2cc0 fd3c 05a9 263c
00000160: db1c f7bc 635a a03c 30be 993b 6112 63bc
00000170: d38a 9b3c 7243 983c a41f 1abd 81e9 783a
00000180: 9f7b 2c3c 5c6e 48bd 85a7 f73b 99a4 f5bb
00000190: 6a01 9fbc a8a5 5cbc bf10 383d 579b d33c
000001a0: c428 b9bc b8bb e93c a208 cc3c cedb 6b3b
000001b0: f1d0 c53c c5db d1bc 30b9 febc 0d88 8ebb
000001c0: 1f31 61bc 44e4 6a3c b80a e1bc 27a1 933a
000001d0: 3a16 4cbc ad7d 02bd b7a5 2cbd 2d3e 273d
000001e0: a1c3 d53c 3ab4 cd3c 800a 2cbd 4da8 08bc
000001f0: b948 cdbc a555 b8bc fdbe adbc 2195 7abc
00000200: 09ea 5f3d bebc 773c f288 ffbc 1176 36bc
00000210: 9778 81bc b574 70bd 1ece e03c 9a29 5cbe
00000220: 6bdb 80bc c016 16bd 0d46 043e d2f4 48be
00000230: d1f3 293f 6b12 1f3d 7988 03bd b4ff 1f3d
00000240: c117 42bc b3ef a83c 7f7f f23c fd44 63be
00000250: fc70 cfbd 558a ea3d 1e96 ce3b cb4d 30bc
00000260: dcc7 4fbd d766 efbc 2c70 4c3d 8552 78bc
00000270: 8454 07bd fe12 903d 337f 9d3c b524 493c
00000280: 817f 66b9 335c f13c 5363 7cbd 7499 93bd
00000290: 4376 153d 2e76 80bd 51f0 de3c 7fc1 0abd
000002a0: d3da 89bd 9a90 e23c f546 133e 336e fbbc
000002b0: 9ec2 65bd 0ff8 03be 535f ffbc e000 35bd
000002c0: e32b 213c 2746 58bc 2df9 93bd 2a1d fd39
000002d0: 94da 09bd 2de3 63be b526 09bd 5327 573d
000002e0: 3c33 debb 8191 1fbe 2661 173e 65b9 b4bc
000002f0: d444 cc3c c114 60bd 0042 df3a ab2b fcbc
00000300: 36c3 5f3c b8bd 77bc 2549 cbbd 451e 6cbd
00000310: 204c 733d 4ad0 383d 5260 afbc 7052 84be
00000320: 20d6 9f3d 5fda dd3c e1f0 3cbd cad3 b7bd
00000330: fd21 093d 1d19 0b3d 6820 353c 57c2 d5bc
00000340: 0423 6dbd 6918 eebc 229c 74bd 733f ee3c
00000350: ff89 903c 6f34 2fbc a2b5 683d a3e4 c53d
00000360: 76bd 103d a1a7 813c 5267 503d 5bdd 6c3d
00000370: 15b0 edbb 11cc 6abc c034 643a 952f fd3c
00000380: bf58 63bb 12e3 85bb 4b9c f0bd 58e4 6cbd
00000390: e82f 8c3c 61e5 bd3d 008b 91bd abd4 ac3c
000003a0: 349d 3fbe 9003 db3c 118b 7abb 4d74 083d
000003b0: 89b6 123d 8004 b0bc f135 fe3d c0d8 27bc
000003c0: 0ee7 6a3c ba4f 84bc bf6c 143e f1cf 40be
000003d0: 4106 4dbd 2f1a aa3c 2716 79bc 5a30 153b
000003e0: 87c0 d6bc 1849 5c3d 3b9a 1dbd 231d a53d
000003f0: 9aa0 edbd 2700 343b 2fe7 11bd f279 0abe
0.007735701 -0.011980232 -0.015606402 0.0028211335 0.03729161 0.0017634631 0.046174888 0.033431172
0.015534944 0.005470406 0.01833128 0.02029994 0.027837336 0.0374832 -0.030194432 0.022137113
-0.004590963 -0.013246845 0.031020213 0.02218265 0.027984822 -0.022023296 -0.026886418 6.272783e-05
0.045043178 -0.01133602 0.02934288 -0.02863428 -0.022730673 0.029096862 0.053983394 0.06984843
0.0072699403 -0.008860993 0.005705251 0.0017645658 -0.013841439 -0.028682452 -0.007979285 0.057699513
0.04404637 0.04147672 -0.0082707675 0.020854909 0.021665134 0.023038205 -0.02559549 0.07071378
-0.019494588 0.073443726 0.025367195 -0.04048472 -0.041499123 0.060278766 0.011934714 0.04347496
0.019082265 0.024051968 -0.03261157 -0.033303168 0.05381929 0.037443835 0.02013952 -0.006133731
-0.013191007 -0.04825393 -0.039617974 -0.020478591 0.03172292 -0.011368672 0.06052285 0.0709313
0.008158026 -0.029761758 -0.015253979 0.008415545 -0.028245144 -0.011248105 0.027418613 -0.016583892
0.024119299 0.0045656716 -0.004992484 -0.0317972 0.019930255 0.0068899198 0.030975424 0.010172133
-0.030165127 0.01957435 0.0046918616 -0.013859362 0.018987095 0.018586848 -0.03762783 0.0009495244
0.01052752 -0.048933372 0.0075578117 -0.007496428 -0.019409854 -0.01346723 0.044937845 0.025830908
-0.022602446 0.028531894 0.02490646 0.0035989168 0.024147483 -0.02561749 -0.031094164 -0.0043497146
-0.013744622 0.014336649 -0.027470931 0.0011263237 -0.012456471 -0.031858135 -0.042150225 0.04083078
0.02609426 0.025110353 -0.0420022 -0.008340907 -0.02505909 -0.022501776 -0.021209234 -0.015294344
0.054666553 0.015120683 -0.03119323 -0.011136548 -0.015804572 -0.05870505 0.027442034 -0.21500245
-0.015729627 -0.03664279 0.12917347 -0.19624642 0.6638766 0.038835924 -0.032112572 0.039062217
-0.011846484 0.02062211 0.02960181 -0.22194286 -0.10128972 0.11452166 0.0063045165 -0.010760735
-0.05072771 -0.029223843 0.049911663 -0.015156393 -0.033039585 0.070348725 0.019225692 0.012276818
-0.00021982008 0.02946291 -0.06161816 -0.07207003 0.036489736 -0.06272541 0.027214201 -0.03387594
-0.067311905 0.027656842 0.14382537 -0.030692196 -0.056093805 -0.12887596 -0.031173384 -0.044190288
0.009837124 -0.013200319 -0.07225261 0.0004827765 -0.033655718 -0.2225463 -0.03348418 0.052527737
-0.00678101 -0.15582849 0.14783153 -0.02206106 0.024935164 -0.054707292 0.0017033219 -0.030782541
0.013657382 -0.015120916 -0.099260606 -0.057646055 0.05939877 0.045120515 -0.021408234 -0.25844145
0.07804513 0.027081667 -0.046128158 -0.089759424 0.03347968 0.033959497 0.0110550895 -0.026093645
-0.05789472 -0.029064374 -0.059719212 0.02908299 0.017643927 -0.0106936535 0.056813844 0.096627496
0.035336934 0.015827002 0.050879784 0.05782829 -0.0072536566 -0.01433088 0.000870537 0.030906478
-0.0034690348 -0.004085907 -0.117485605 -0.057834953 0.017112687 0.09272266 -0.0710659 0.021097502
-0.18712312 0.026735097 -0.0038229863 0.033314038 0.03581861 -0.02148652 0.12412632 -0.010244548
0.014337314 -0.016151298 0.14494608 -0.18829323 -0.050054792 0.020764438 -0.015203035 0.0022764415
-0.026214851 0.053780645 -0.038477164 0.08062198 -0.11602898 0.002746591 -0.035620864 -0.13523081

out_mlp1.bias f4 [128]
00000000: e961 233d 0bd7 bf3c fada b53b e756 17bd
00000010: b71a 74bc 7f84 82bc 6d53 40bc d1cd db3a
00000020: c035 f83c 827e 173d 9dde 9ebd 9cef 913a
00000030: 8c65 db3b e4d4 583b a8ef 2d3c 2807 8c3c
00000040: 298c 353d 803b 9fbc df87 973c 2075 8c3d
00000050: 9b1e b63c 2eaf 313d df5e 18bd 147b 023d
00000060: cbec 813c 6cca cebb 9b88 443c 4c8d 0ebd
00000070: a0f8 36bc 9ef9 1c3d c416 6ebc 3395 723d
00000080: b205 373d 7fd9 813c 6007 babc d327 5a3d
00000090: 183a 06bd 1c92 3dbd 1f8f d2bc 8f26 81bd
000000a0: bcdf 22bc ad93 113d f8cc 823c 3126 033d
000000b0: b3b9 3cbd df72 823c 1291 6dbd 378d b23b
000000c0: 0df6 19bb 951e 23bd 99c8 5a3d c5f2 d03c
000000d0: 3da7 c93c 6173 8b3c ec7a b3bb 9e3f c93c
000000e0: 2417 e13c 94c3 3ebc 929f 603b ae1c 0a3d
000000f0: cd56 26bd 780d 06ba a75a 07bc ade6 e43c
00000100: f17f 293c 446e 9ebc b5cc 903b 0dba 3d3c
00000110: 8484 90bb 23ed 4a3b 6659 1f3c 4a66 703d
00000120: d120 633c 6529 dbbc b717 9abb 6377 1a3c
00000130: 76d2 80bd a6e1 5fbd d8cf 0c3d a000 fc3d
00000140: acdc 993d b0b4 5c3d 3bf7 c4bc c032 cc3b
00000150: 65b5 f03c 4d7f 5b3c ad16 2b3d 5928 4abd
00000160: 50e1 18bd 6c58 cabc 587e 813d 143d 4a3a
00000170: c1e5 3dbd a433 103d b0ee ecbc 1b59 8ebd
00000180: fe4a 46bd 914e 2e3c ac1c 73bd c62b 9dbc
00000190: 90ed 773c 4774 533b 969f 5cbd 4ff6 1b3b
000001a0: f27e e8ba 3131 52bd 39fd a9bb b679 d23c
000001b0: 0025 22ba b9a6 f5bc b02a 10bd 211b e0bc
000001c0: 87b5 0f3d f727 f0bc 77f4 e6bc a196 e13b
000001d0: 30b4 233c 0c91 59ba 0880 9a3c dee0 02bc
000001e0: 0ead 0cbc d96a cf3a 78b2 c53c 94ad d5bc
000001f0: 9a29 12bd 5e65 a93a e1ea d73a 1a13 5e3d
0.039888296 0.02341797 0.0055497857 -0.03694811 -0.014898947 -0.01593232 -0.01173864 0.0016769712
0.030299067 0.03698588 -0.07757304 0.0011134031 0.006695455 0.0033085877 0.0106162205 0.017093256
0.04432312 -0.019437551 0.018497406 0.06858277 0.02223139 0.043379955 -0.03719985 0.031855658
0.015859982 -0.0063107517 0.01199546 -0.03480272 -0.011167675 0.03832399 -0.014531795 0.05922432
0.044683166 0.01585078 -0.022708595 0.053260636 -0.032770246 -0.04628192 -0.025703011 -0.063061826
-0.009941038 0.035541225 0.015966877 0.032018844 -0.046075534 0.015923915 -0.057999678 0.005448963
-0.0023492605 -0.039824087 0.05341396 0.025506387 0.024615878 0.01702279 -0.0054773 0.024566468
0.027476855 -0.011643309 0.0034274799 0.033718757 -0.040610123 -0.00051137013 -0.008261359 0.027942026
0.010345445 -0.019339688 0.004418934 0.0115800025 -0.0044103283 0.0030964098 0.009725904 0.0586913
0.0138628045 -0.026753137 -0.004702534 0.009427878 -0.06290142 -0.054658554 0.034377903 0.12304807
0.07512793 0.053883255 -0.02404367 0.006231636 0.02938337 0.01339705 0.041769672 -0.049354885
-0.03732425 -0.024700366 0.06322926 0.000771479 -0.04636169 0.0352055 -0.028922409 -0.06950589
-0.048411362 0.010638849 -0.059353516 -0.019185912 0.015132323 0.0032265352 -0.05386313 0.0023797934
-0.0017738028 -0.051316444 -0.005187657 0.025692802 -0.0006185323 -0.029986726 -0.03519696 -0.027356686
0.035085227 -0.029315932 -0.028192742 0.0068844114 0.0099916905 -0.0008299507 0.018859878 -0.007988183
-0.008586181 0.001582469 0.024132952 -0.026083745 -0.035684206 0.0012923887 0.0016473198 0.054217435

out_mlp2.weight f4 [1, 128]
00000000: f681 c93d 3c01 e4bc 5a6c 43bd 8a03 b93d
00000010: 9d2c 763a e5f5 de3d 5f89 c8be 9b3a 0fbd
00000020: ff94 86bd a6da 83bc 5e17 a53e ccd0 373e
00000030: 54f7 8b3d 760e b8bd 4383 40bd f66b 6e3e
00000040: 3f01 4dbd 8372 403e 40e5 f9bc e3b7 18be
00000050: 5a58 243e a00c 0dbd 4be1 97bc 0d41 a3bd
00000060: 9230 b73e 1066 a1bd a79d fa3d 48f6 0e3e
00000070: f2bc f53d b614 6a3e 45ed 97bc 9668 6f3e
00000080: 3e90 ab3e bc42 b83e 452c a23e 5a20 bd3e
00000090: a696 cebc 8c9f 26bd eefb 86bd d96e 0b3d
000000a0: 81cc 7abd 03d4 79bd 3430 473e a3ca a33d
000000b0: 7268 133e 3fde 7abd eae1 68bb 2d33 ee3a
000000c0: 91ee fa3d 48dd 833c f519 e23d 6d4f 523e
000000d0: af58 013e c689 85bd 2522 153e 86da aa3d
000000e0: 1a70 4a3d 337d 213e 2166 eabc d58c 2a3e
000000f0: cd01 463e 9c76 0a3e e02f 983e 3615 8e3d
00000100: f792 3d3d 3af4 7abd 971b 99bc 770d 2c3e
00000110: 8544 b63d b6ba af3d b0e1 30bd ca3e 75bd
00000120: 4ca8 ff3e 4ca9 58bd 20de 6b3e f35d 353e
00000130: 76e0 3e3b 0afa dc3c 6591 013c 6800 b9be
00000140: 1e0b 293e 1603 2dbe 8d23 3fbd a603 14bc
00000150: 0eeb 81bc 9238 b63d e9c8 123e 3166 bf3c
00000160: 59d6 313e b3cf 40bd 55e4 8e3e d570 8c3d
00000170: 0189 81be b240 b13d 79e4 763e a6c0 aabc
00000180: 863c 8cba 57c3 b93e a822 233d ee48 f83d
00000190: a1cb e63d 76a2 26bd f8c7 433c becb eb3d
000001a0: ed02 80bd 12d7 e7be 7566 8b3d 2429 003f
000001b0: 9c82 a73e 6446 78bc 9f0e 983e abb4 80bd
000001c0: 9dfe 083e 8bd2 f73d 8280 9abd 71c4 8e3b
000001d0: 5412 993e 7604 93bd bc7f d7bc 097a 16bd
000001e0: 7410 b3bc 5337 66bd 3caa 0f3e c377 bb3d
000001f0: 94cd 3b3c 66e9 213e 016b a73d 3e05 8abd
0.09839241 -0.02783262 -0.047710754 0.09033878 0.0009390803 0.108867444 -0.39167306 -0.034968
-0.065713875 -0.01609547 0.3224439 0.17950743 0.068342835 -0.08987133 -0.04700018 0.23283371
-0.050050016 0.18793683 -0.030504823 -0.14913897 0.16049328 -0.03443587 -0.018540045 -0.07971392
0.35779244 -0.07880795 0.12237101 0.13961136 0.11998929 0.22859463 -0.018545756 0.2337974
0.33508486 0.35988414 0.316744 0.36938745 -0.02521832 -0.0406795 -0.065910205 0.03404126
-0.061230186 -0.060993206 0.19451982 0.07997634 0.14395311 -0.061247107 -0.0035535046 0.001817321
0.12252534 0.016096726 0.11040107 0.20538111 0.12631486 -0.06520419 0.14563806 0.08342461
0.049423315 0.15770416 -0.028613152 0.16655286 0.19336624 0.13521808 0.29724026 0.069376394
0.046282735 -0.06126807 -0.018689914 0.16802011 0.08899788 0.08580534 -0.043183982 -0.059874333
0.49933088 -0.05289583 0.23033953 0.1771162 0.0029125488 0.026974697 0.0079082 -0.36133122
0.16508147 -0.16895708 -0.046664763 -0.009034073 -0.015859153 0.08897509 0.14334454 0.023364158
0.17366923 -0.047073077 0.2790858 0.068574585 -0.25299838 0.08654918 0.24110593 -0.020843815
-0.001069919 0.36281845 0.039827973 0.12123285 0.11269308 -0.04068228 0.011949532 0.1151347
-0.06250558 -0.45281273 0.068066515 0.50062776 0.32716835 -0.015153501 0.29698655 -0.0628446
0.13378377 0.12100705 -0.07544042 0.0043569137 0.29896796 -0.07178585 -0.026306026 -0.036737476
-0.021858431 -0.056205105 0.14029783 0.09153702 0.011462588 0.1581169 0.08174706 -0.06739281

94 f4 [6, 128]
00000000: 309c 91be 45c7 c3bd 0ac3 82bd 9915 2b3e
00000010: 9462 29bc 22cb 1fbd f646 8e3e e8ad e4bd
00000020: f4f2 8cbe 1d51 61be 18ca 87be 33ff 7d3e
00000030: 30b9 27be 7d8d 9ebe 6a28 53bd 3daf 2c3e
00000040: d9c5 4dbe 3f9b 21be f68b 2bbe 7194 66be
00000050: b410 513e 039c 0dbd 1e06 883e 1273 39bd
00000060: 56c4 a5be bb5f 4b3e d8d2 94be 42c2 d4bc
00000070: c52c 793e 83fa 433e f7f4 24be e8f7 0f3e
00000080: 0d6a 0e3d 210d 8cbe 405b 0c3e 346e ef3d
00000090: 6d4f 01bd 0ea2 a23e d34a 253e 1a17 54bd
000000a0: e779 63be 64ea 8cbd e70f 233e 57f7 5f3e
000000b0: 1317 bebe b497 a5be 2baa 91be be29 353c
000000c0: efc7 4d3d 4f47 8c3e 0e28 293e 9fa9 413e
000000d0: 53a3 a73d 5fb6 a13e e2e8 b33e 649c ae3e
000000e0: 105a a83e 2b6f e53d 28ee 4cbd b7b7 a3bc
000000f0: c0c6 9dbd ed74 f9bd b0dc 90be dd31 70be
00000100: 96da 29bd f1fe d13c f3d3 3d3e 7956 663e
00000110: 1a7b 4d3d c695 823e b61e 9f3e 9fc4 813e
00000120: 1cb3 2cbc ae95 48be 2cef 8abe bc33 cf3e
00000130: 4e73 b73b 2b37 cc3e 3da7 8d3e 2cb4 723e
00000140: 5afc 1e3d be7e 92be f940 e03c a9cd ebbd
00000150: 1f91 c4bd 23c4 89bd 9e3f e5bd 027e 5fbe
00000160: 621b 973e d607 b5bd 3561 893e 7ad1 5fbe
00000170: 0c0b babe 3519 673d 0a3c 51be 5396 953e
00000180: 74e7 b23e e78a 85be fd43 92be 3c7b 4dbe
00000190: fe91 76be e72d a0be d05f b73e 8b4d a9be
000001a0: 3c12 813e 76e3 b83e 8f8d 4abe 40d2 40bd
000001b0: fe2a a93e d4cd 18be f43d ee3d 00ed 6ebe
000001c0: 343c b7be 0472 893d 2402 2d3e b1b5 813e
000001d0: 8e7d b03e e2ba 74be 79ac af3e 0240 c6be
000001e0: 3865 b5bd ead4 99be 9d6c 2fbe 22d4 9ebe
000001f0: 9d7f babd b68d 03be bbb4 8f3d 494b 8e3e
00000200: 2af9 4e3e ea47 3b3e efdb c5bd 4213 453e
00000210: e19b 82be 70d1 90be 9174 49bd 0da2 c2bd
00000220: f5ff bebe 9a02 b5be e00c eebd bbfb d3bd
00000230: 4aa9 983e d619 05be 15dc 6bbe bc65 fd3d
00000240: 40f3 ee3d 555d 9f3e 7747 9fbe 189e 833d
00000250: fbda 523d 78d0 5abe 2f07 98be caa8 47be
00000260: 80ed 82be dba9 49be cab7 27be 93eb 08bd
00000270: 3419 36be 1298 9abe fc27 8fbd 7603 d43e
00000280: 2394 91be a69c dcbb 2117 9d3c 472e babe
00000290: 96c5 03be 20b7 95be 39db 97be 5f07 803e
000002a0: 4d50 b13d 6a0c 873e f58a ae3e e446 3a3e
000002b0: 67a7 153e 8cb8 aebe e243 9fbe f4f5 95be
000002c0: 962c ac3e b75b 873e d8b5 a73e b3c4 93be
000002d0: f242 d6bd 82b1 083c 64b7 603e 288c 26bd
000002e0: 0913 2abe 2f39 923e e1b6 37be d26b 1cbe
000002f0: dddf a8be a005 98be 4913 6f3d e839 a53d
00000300: 3700 063e 6de1 a63d 172d 4cbe 4083 7f3e
00000310: 7adb 533e 33c4 a03e fa4f febc 776a 55be
00000320: 06f8 81be a389 183e b5a7 5abe 7f9c b7bd
00000330: daf1 a23e 685d 4dbe 10ed 52be 5c4c a63a
00000340: 149f 013c 0249 083e e203 8e3e 630b 83be
00000350: 4f69 d0bc 72b1 88be 7e8b 97be 51a2 9f3e
00000360: 6998 8d3e 679d 95be 71a8 eebd fdd4 003d
00000370: 7dcb 943d 925e a5be af43 ecbc 5d08 bdbe
00000380: d89f e33d 25f0 663e dec6 853e a619 883d
00000390: 0479 74be f673 aebe 49bf ecbb b690 953e
000003a0: 125c 823d 073f e63c 64c2 923e d0d9 383e
000003b0: 8a38 90be 2128 42be 612f 30be 3b0e c0be
000003c0: cd28 c1bc 322c 053b e076 023e 5eea fe3c
000003d0: 66a4 2abc 09be abbe ab30 6b3e 1cb8 d13c
000003e0: c877 9c3e 7e9d 12be 3014 34be 920e 313e
000003f0: ca0b 993d 6c4b 04be 20ee 99be bed9 23be
-0.28439474 -0.09559492 -0.06384857 0.16707458 -0.010338444 -0.039012082 0.27788514 -0.111659825
-0.2752911 -0.22003599 -0.26521373 0.24804382 -0.16379237 -0.30967322 -0.051552214 0.16863723
-0.20095004 -0.15781878 -0.1675261 -0.22517563 0.20416528 -0.034572612 0.26567167 -0.045275755
-0.32376355 0.19860737 -0.2906711 -0.025971536 0.24333484 0.19138531 -0.16109072 0.14059412
0.034769107 -0.27353767 0.13706684 0.116909415 -0.031569887 0.31764263 0.16141824 -0.051779844
-0.22214471 -0.06880644 0.15924035 0.21871696 -0.3712698 -0.32342303 -0.2845014 0.011057315
0.0502395 0.27398154 0.16519186 0.18912362 0.081854485 0.3158445 0.35138613 0.34103692
0.32881212 0.11202844 -0.05003181 -0.019985063 -0.07703924 -0.12180505 -0.2829337 -0.23456521
-0.041468225 0.02563426 0.18537883 0.22493924 0.050166227 0.25504893 0.31078118 0.25345322
-0.01054075 -0.19588348 -0.271356 0.40469158 0.005598462 0.3988584 0.27666655 0.23701543
0.03881488 -0.28612322 0.027374731 -0.11513836 -0.09597992 -0.06726863 -0.11193775 -0.21825412
0.2951308 -0.08839385 0.26831976 -0.21857253 -0.36336553 0.056420524 -0.2043306 0.2921625
0.3494221 -0.26082537 -0.28567496 -0.20066541 -0.24079129 -0.3128502 0.35815287 -0.33066973
0.25209224 0.3611104 -0.19780563 -0.04707551 0.33040613 -0.14922267 0.1163291 -0.23332596
-0.3578812 0.067112 0.16895348 0.25333932 0.3447079 -0.23899415 0.34311274 -0.3872071
-0.088571966 -0.30045253 -0.17131276 -0.3102122 -0.091063716 -0.12847027 0.070168935 0.27791813
0.20212236 0.18289152 -0.0966109 0.19245628 -0.2550955 -0.28284788 -0.049183432 -0.09503565
-0.37304655 -0.35353547 -0.116235495 -0.10350748 0.29816657 -0.12998137 -0.23033173 0.1237292
0.1166749 0.31125894 -0.3110921 0.06426638 0.051478367 -0.21368587 -0.2969298 -0.19497982
-0.25571823 -0.19693701 -0.16378704 -0.033427786 -0.17783052 -0.30194145 -0.06990048 0.4140889
-0.28433332 -0.006732541 0.019176068 -0.36363432 -0.12868342 -0.29241276 -0.2965944 0.25005624
0.08657894 0.2637666 0.3409039 0.18191105 0.1461464 -0.34125173 -0.31106478 -0.2928921
0.33627766 0.2643716 0.32755923 -0.28861007 -0.104619876 0.008343102 0.21944958 -0.040661007
-0.16608824 0.28559253 -0.17940857 -0.15275505 -0.32983294 -0.29691792 0.058368 0.08067685
0.1308602 0.08148465 -0.19939075 0.24952412 0.20689192 0.31399688 -0.031043995 -0.20841394
-0.2538454 0.14896254 -0.21353038 -0.08965396 0.31825143 -0.20055163 -0.20598245 0.0012687552
0.007911462 0.133091 0.27737337 -0.25594625 -0.02544084 -0.2669788 -0.29598612 0.31178525
0.27655342 -0.2922165 -0.116532214 0.03145312 0.07265375 -0.32298714 -0.028840868 -0.36920443
0.11114472 0.22552545 0.26128286 0.06645517 -0.23874289 -0.34072846 -0.0072249514 0.29211968
0.06365217 0.028106226 0.28663933 0.18051839 -0.28168136 -0.1896062 -0.17205574 -0.37510857
-0.023579026 0.0020320532 0.1274066 0.031117614 -0.010415172 -0.33543423 0.22967784 0.025600486
0.30560136 -0.14317891 -0.17585826 0.17290714 0.07472952 -0.12919396 -0.30064487 -0.16001031

95 f4 [128, 128]
00000000: 1b3a 9bbd c96c b8bd 54f5 733d bef3 a9bd
00000010: f3db 853c 1219 b23b db34 28bd a09d 013d
00000020: fab9 ba3c ec1c 083d c7aa 96bd 872f 353b
00000030: 345e 33bd cefa 9d3c aa4d 953c 14ca 383d
00000040: 8e10 ddbc 6e54 99bd eae5 b2bc 42f1 b3bd
00000050: b628 2d3d 13a6 14bd 2221 4d3d faf8 b4bb
00000060: 1dd8 56bd 50c3 4b3d 6a49 adbd 411c 1dbd
00000070: 27b3 33bd 4059 9abc 17ea 9dbd f48c 373d
00000080: 9b8d 85bd e187 4bbd 55b5 fcbd d1f3 dbbd
00000090: f945 ca3b 49ad 98bd fe56 613d f556 cbbd
000000a0: bf82 1fbc b46b c1bc 10fd 893d 78c3 7a3d
000000b0: 2f31 13bd c677 463d 1783 b1bd 594c 01bd
000000c0: 78ad 57bd be32 9dbd 70cd 37bc 7cc9 bebd
000000d0: 845a 273d 7ad6 e23c ccc3 03bc d48a 91bc
000000e0: 7b9a ac3d f7d6 55bd 904a 52bd 42cb 1f3d
000000f0: 416d 3d3d e4b9 5a3d c748 8cbd 245a 59bd
00000100: d10d 0fbd 218c ddbc 011e c3bc 3881 2dbb
00000110: 85a4 4c3d 35f2 763d fe5a 1f3e 4c7e 18be
00000120: ec7f 8cbd c6e5 98bd a45d 3e3d c2ce c7bb
00000130: f2ff ea3d 7e3e 93bc 5c8d 16bd 41c1 dd3c
00000140: 43a2 9e3d 40d5 9fbd 809e d63b f48d 1c3c
00000150: 25d7 cf3c f732 303d 9d72 9abd 777b 58bd
00000160: 549e a53b 014c 8e3c cbd8 a1bc 45c7 923c
00000170: bc88 afbd 519c 17bd b759 90bd 6d26 e83c
00000180: 9e85 1fbd af43 d7bd cb3b 7bbd e394 513d
00000190: cf43 a8bd ecef 3e3c a9b0 4ebd e34d a6bd
000001a0: 94ac 86bd 5cef 223d 57f2 bfbd 69ab 9b3d
000001b0: 0ac3 64bc e2a1 74bd b102 1f3c bcb0 9ebd
000001c0: 8459 b2bd 9238 263d a5f1 22bd e78c efbc
000001d0: 9165 00bd 7f16 8a3c 14a6 b0bc bfc7 adbc
000001e0: 4728 ca3c 826b 753d 5543 9fbd 2858 9d3c
000001f0: 41cc 073c e38f 27bd 86a2 7bbd 4282 a7bd
00000200: 1779 3b3d dfec 46bd d42d 60bc c1ea 0ebd
00000210: b7ee 893d c819 03bd 755c 3ebd f34e 29bd
00000220: e05a 5d3d 8cb7 9d3c fbc5 f23b fbc3 2f37
00000230: 6751 26bd b194 0e3d 580a 8dbd f997 393d
00000240: 42fb 2fbc 98ce 843d 84d1 9d3d ac13 a5bd
00000250: b8b0 3bbd d4f5 52bd 74f7 90bd 8e6b 3fbd
00000260: ab10 ac3b 999a da3c c32c 193d f956 963b
00000270: f435 863c 2d34 76bd 2efc 403d 3e96 fa3c
00000280: 80d5 173d 8c29 54bc c54f 05bd 0371 67bd
00000290: 50e3 41bd 6399 67bc 3a13 fdbc 862b 86bd
000002a0: 300e 5dbd a1a8 f3bc e384 643d 4926 7d3d
000002b0: f39a 05bd 060a 99bd 3b67 083d 0a04 85bd
000002c0: a33c a53c d516 32bc fe62 a1bc 7b0c 963c
000002d0: 831c 2eba 54d5 b73c 5035 49bd 0118 c8bc
000002e0: d63a 36ba 223f 7ebc cfa8 8bbd c7c9 a03d
000002f0: eb46 7abc 0ed3 adbb 94e1 103d b6e8 1dbd
00000300: 1f42 09bc 1cc1 92bd cfd0 713d ef7e 11bd
00000310: b7b2 823d 8adb 0a3d 62b1 89bd ef90 073d
00000320: efaf a23d f1b4 833d d993 9d3d ef45 823c
00000330: 0192 363c 7553 40bc e03e 84bd 3615 66bc
00000340: 12c6 ffbb 3038 7f3c 0501 9bbc 3096 a33d
00000350: 65e9 6cbd 32ce 08bd f678 94bb bf51 2dbd
00000360: d89a 53bd c463 f7b8 0d2a 4b3d cdbb f4ba
00000370: a6ea 583d 1862 e43c 1184 40bd 1c53 153d
00000380: b1e7 3f3d 5152 0b3d bee6 79bc 07ba 83bd
00000390: ffc4 163c ca9e 883b eb4c 553d ed27 a63d
000003a0: 8434 953d d04a dfbc 35c8 253d f5d5 37bd
000003b0: 222d bfbb 5a13 3b3d 74de b03c 18a2 aabb
000003c0: bd47 4ebd 67ed 6f3d 5add 3bbd 42fc 843d
000003d0: 7d9f 9fbd 28c8 8a3d ce15 5d3b 0bfa 27bb
000003e0: 7922 913c 6ac1 363c c8a2 4b3d fb77 40bc
000003f0: 93c3 9bbd 28c2 3abc a839 2d3b fa10 313d
-0.07579442 -0.09005124 0.059560135 -0.08298443 0.016340232 0.0054351175 -0.041066032 0.031644464
0.022793759 0.033230707 -0.07356792 0.0027646737 -0.04379101 0.019284632 0.01822551 0.04511459
-0.026985433 -0.07486807 -0.021838147 -0.08786251 0.042275153 -0.036291193 0.050080426 -0.0055228444
-0.052452195 0.04974681 -0.08461268 -0.038357023 -0.043872025 -0.018841386 -0.07710665 0.044812158
-0.0652115 -0.04969013 -0.12339274 -0.10739864 0.006172892 -0.074549265 0.055014603 -0.09928695
-0.009735762 -0.023610927 0.06737721 0.06122157 -0.035935577 0.04845407 -0.086675815 -0.03156695
-0.052655667 -0.07675694 -0.011218414 -0.09315774 0.040857807 0.027690161 -0.008042287 -0.017766394
0.08427902 -0.05220696 -0.05134064 0.0390122 0.04624677 0.053399935 -0.06849819 -0.05306448
-0.034925286 -0.027044358 -0.023818018 -0.0026474725 0.049961586 0.06028958 0.15562055 -0.14891928
-0.06860337 -0.07465701 0.04647602 -0.0060976455 0.11474599 -0.017974135 -0.036755905 0.02706969
0.07745793 -0.07804346 0.0065496564 0.009555329 0.025371144 0.043017354 -0.07541392 -0.05285212
0.0050542746 0.017370226 -0.019756695 0.017917285 -0.08571002 -0.03701431 -0.07048362 0.028338635
-0.038945787 -0.105109565 -0.06133632 0.05116738 -0.082160585 0.0116538815 -0.050461445 -0.081203245
-0.065758854 0.039779052 -0.093723945 0.07601053 -0.013962517 -0.059724696 0.0097052315 -0.07748553
-0.0870848 0.040581293 -0.03978123 -0.029241992 -0.03134686 0.01685643 -0.021563567 -0.02121341
0.024677409 0.05991698 -0.077765144 0.019207075 0.008288444 -0.040908705 -0.06143429 -0.081791416
0.045769777 -0.04856574 -0.013682801 -0.034891848 0.06734984 -0.03200701 -0.046474893 -0.041335057
0.054041743 0.019252561 0.007408855 1.0476443e-05 -0.040604975 0.034809772 -0.068867385 0.045310948
-0.010741057 0.06484717 0.077059776 -0.08060393 -0.04582283 -0.05150397 -0.07078448 -0.04673343
0.0052510104 0.026685046 0.037396204 0.0045880047 0.016383149 -0.060108352 0.047115497 0.03058922
0.037068844 -0.012949359 -0.032546777 -0.05650426 -0.047335923 -0.014135691 -0.030892957 -0.0655127
-0.05396861 -0.029743494 0.055790793 0.06180409 -0.032618474 -0.07472615 0.033301573 -0.06494911
0.020170515 -0.010869701 -0.019700523 0.018316498 -0.0006641822 0.02244059 -0.04912311 -0.024425508
-0.0006951516 -0.015517982 -0.06819307 0.07850986 -0.015275697 -0.0053047007 0.035371378 -0.03855201
-0.008377581 -0.07165739 0.059037026 -0.035521444 0.063817434 0.033900775 -0.06723286 0.033097204
0.07943713 0.06430996 0.07694215 0.015902488 0.0111432085 -0.011738648 -0.06457305 -0.014043143
-0.0078055942 0.015577361 -0.018921385 0.0798763 -0.05783977 -0.03339977 -0.004531021 -0.042314287
-0.051661342 -0.000117964606 0.04960065 -0.0018671692 0.052958153 0.027878806 -0.04700095 0.036456212
0.046851818 0.03401405 -0.015252767 -0.06431966 0.009202241 0.0041693198 0.052075308 0.08113084
0.07285407 -0.027257353 0.040474135 -0.04488178 -0.0058342377 0.045672752 0.021590449 -0.0052073114
-0.050361384 0.058576014 -0.045865394 0.06493427 -0.07794092 0.06776458 0.003373492 -0.0025631215
0.017716633 0.011154512 0.049715787 -0.011747356 -0.07605662 -0.0113988295 0.002643207 0.04322908
