code/nnv/examples/NNV/Submission/ARCH-COMP2022/benchmarks/VCAS/onnx_networks/VertCAS_noResp_pra02_v9_20HU_200.onnx (onnx, 10061 bytes, 13 tensors)

input_Mean f4 [1, 1, 1, 3]
0.0 0.0 0.0
00000000: 0000 0000 0000 0000 0000 0000

Operation_1_W f4 [20, 1, 1, 3]
1.25809 0.0689761 -0.272701 0.151965 -0.208923 -0.204511 -0.107274 0.418343
-0.228562 -1.42234 -0.126879 -0.22043 0.810223 -0.326521 -0.0983673 -0.728898
0.0732054 -0.253481 -0.850225 0.122228 -0.346459 1.40976 -0.000279285 -0.304243
-1.16017 -0.131499 -0.146556 -0.913608 0.0178753 -0.1855 -0.0184431 0.00118461
-0.00388807 2.1446 0.138358 -0.164569 0.97314 0.717452 0.0301279 1.55195
0.175836 -0.253292 -0.452315 0.131359 -0.360236 0.596184 -0.266904 -0.144873
-1.05784 -0.203456 -0.179379 1.2055 -0.078333 -0.175057 0.0935289 -0.317482
-0.113999 0.809685 0.0898033 -0.188392
00000000: 1809 a13f 5743 8d3d 779f 8bbe b79c 1b3e
00000010: e9ef 55be 556b 51be 79b2 dbbd 0e31 d63e
00000020: 280c 6abe 3d0f b6bf 92ec 01be 67b8 61be
00000030: c66a 4f3f c32d a7be cc74 c9bd 0f99 3abf
00000040: b6ec 953d 43c8 81be 58a8 59bf ac52 fa3d
00000050: 1363 b1be 0473 b43f 006d 92b9 bdc5 9bbe
00000060: 7380 94bf ada7 06be c712 16be 37e2 69bf
00000070: 396f 923c b6f3 3dbe fc15 97bc ea44 9b3a
00000080: fdce 7ebb 2041 0940 b8ad 0d3e c784 28be
00000090: b41f 793f efaa 373f c9ce f63c 4ca6 c63f
000000a0: 5a0e 343e 7daf 81be d595 e7be f982 063e
000000b0: da70 b8be 849f 183f a4a7 88be 9659 14be
000000c0: 4d67 87bf c556 50be 21af 37be d34d 9a3f
000000d0: 0d6d a0bd 2442 33be 148c bf3d 008d a2be
000000e0: 4f78 e9bd 8447 4f3f cbea b73d d5e9 40be

Operation_1_B f4 [20]
-0.119845 0.0871222 -0.0550028 0.00549045 0.0594201 -0.049895 -0.0479927 -0.159854
0.0448315 0.0203763 -0.0129028 -0.0245078 -0.168376 0.0124328 0.0535296 0.0710606
-0.00528564 -0.0422886 0.124188 0.0340689
00000000: 4c71 f5bd 206d b23d 9e4a 61bd 3ce9 b33b
00000010: 7e62 733d b35e 4cbd fe93 44bd c4b0 23be
00000020: 3ca1 373d 33ec a63c 4466 53bc 95c4 c8bc
00000030: c26a 2cbe f1b2 4b3c db41 5b3d 3888 913d
00000040: 2933 adbb d036 2dbd 4756 fe3d d58b 0b3d

Operation_2_W f4 [20, 20, 1, 1]
-0.0612168 0.0173444 0.208954 0.139324 -0.00265321 0.181835 0.204887 0.38412
0.125169 0.138535 0.0267127 -0.266414 0.352666 -0.149567 0.105072 -0.0265957
0.141367 -0.023808 0.0150916 0.0208448 0.262453 0.103129 0.141377 0.18261
0.122668 -0.0379778 -0.100732 -0.240464 0.181125 0.0650697 0.0205123 0.229682
0.245736 0.169558 0.028809 0.117494 0.141577 -0.0282199 0.135735 0.0525004
0.327355 0.141831 0.162987 0.107586 0.0300447 -0.0180526 -0.10511 -0.11682
0.156973 0.100677 -0.0273415 0.302662 0.320356 0.190158 -0.0708465 0.0783815
0.107734 0.0202397 0.171897 0.0709447 -0.0101149 -0.0567611 -0.0518009 0.0412202
0.044379 0.000589788 0.0138477 0.0375619 -0.0295107 -0.033576 -0.0495518 -0.0499001
0.0358733 0.00201836 0.00980937 0.0247781 0.00939413 -0.0145405 -0.0376516 -0.0246834
0.32205 -0.0750707 0.231204 0.300137 -0.12593 -0.0819978 -0.0957757 -0.223123
0.336681 0.180614 0.0355535 0.451314 0.490383 0.131941 -0.0734242 -0.140892
0.154301 -0.26645 -0.0166388 -0.0474063 -0.490124 -0.355162 -0.00267113 -0.122299
0.132668 -0.0407341 -0.115795 -1.16325 0.133087 -0.0491778 0.00590808 0.0620786
0.278459 -0.107862 -0.0701839 -0.106396 -0.00577532 -0.094665 -0.234856 -0.149519
0.611778 -0.0788385 -0.0887888 -0.262086 0.136192 -0.289408 -0.282867 1.06344
-0.238725 -0.253137 -0.0464168 0.286903 0.108867 0.249004 -0.266814 0.164468
-0.0640268 0.210017 0.093595 -0.00289942 0.389039 0.103474 0.219794 0.0272208
0.00301004 0.0524423 -0.0773677 0.201891 0.0593433 0.0612367 0.0299636 0.395938
0.200722 0.332169 -0.0320362 0.0784962 0.0247983 0.0599856 0.0814698 0.23663
0.354709 0.00607028 0.179989 0.37871 -0.0623181 -0.0769728 -0.129446 -0.26862
0.347302 0.124313 -0.0261443 0.36842 0.512355 0.0768578 -0.112955 -0.0616951
0.219798 -0.288731 0.09266 -0.121144 0.183184 0.0528725 0.118947 -0.134548
0.321449 -0.255038 -0.255008 0.362378 -0.120092 -0.178844 -0.0128797 0.357333
-0.587714 0.280676 -0.243912 0.255937 0.00813452 0.29012 0.223374 -0.00404694
0.273429 0.0620825 0.138806 0.202501 0.0703595 -0.0394622 -0.049357 -0.244785
0.238831 0.0931654 -0.0295943 0.248725 0.285147 0.15608 -0.0180982 0.0270257
0.110408 -0.0817374 0.130066 0.0680977 0.199758 -0.0121002 0.233722 0.361626
-0.10533 -0.0517955 0.0220746 -0.375852 0.275385 0.21584 0.0290917 0.37143
0.394842 0.12665 -0.0026987 -0.148336 0.188104 -0.385288 0.0101195 -0.0560971
0.542837 -0.0833715 0.609238 0.240804 -0.287382 0.0318412 -0.0736852 -0.14273
0.19749 0.140745 -0.0223682 0.564788 0.284625 0.383768 -0.0554453 -0.241452
00000000: 78be 7abd d815 8e3c 0af8 553e f3aa 0e3e
00000010: 7ae1 2dbb f432 3a3e e6cd 513e 60ab c43e
00000020: 4d2c 003e 1edc 0d3e 98d4 da3c 6a67 88be
00000030: a390 b43e 1728 19be fd2f d73d 3adf d9bc
00000040: 83c2 103e ff08 c3bc c242 773c b7c2 aa3c
00000050: 3d60 863e 4c35 d33d 22c5 103e 1efe 3a3e
00000060: 5c39 fb3d 9c8e 1bbd 944c cebd 323c 76be
00000070: d578 393e 4343 853d 6909 a83c c231 6b3e
00000080: 38a2 7b3e 9da0 2d3e da00 ec3c b2a0 f03d
00000090: 90f9 103e 6b2d e7bc 1efe 0a3e a90a 573d
000000a0: 139b a73e 253c 113e 10e6 263e 0c56 dc3d
000000b0: 4d20 f63c 0ce3 93bc e943 d7bd 533f efbd
000000c0: 88bd 203e be2f ce3d 48fb dfbc 83f6 9a3e
000000d0: b405 a43e c7b8 423e f817 91bd 7b86 a03d
000000e0: a5a3 dc3d bacd a53c c405 303e 744b 913d
000000f0: f7b8 25bc 547e 68bd 2e2d 54bd 83d6 283d
00000100: c1c6 353d 019c 1a3a 77e1 623c 82da 193d
00000110: 6cc0 f1bc fd86 09bd d4f6 4abd 0c64 4cbd
00000120: e2ef 123d 7646 043b 7bb7 203c 71fb ca3c
00000130: d6e9 193c 473b 6ebc 9038 1abd d734 cabc
00000140: bde3 a43e abbe 99bd bec0 6c3e 8fab 993e
00000150: cbf3 00be 76ee a7bd 0d26 c4bd 5b7a 64be
00000160: 7461 ac3e e0f2 383e 8ca0 113d a112 e73e
00000170: 7b13 fb3e 8b1b 073e 6d5f 96bd fe45 10be
00000180: 1501 1e3e 226c 88be 184e 88bc 1c2d 42bd
00000190: 88f1 fabe cbd7 b5be 200e 2fbb e677 fabd
000001a0: 1fda 073e cdd8 26bd ee25 edbd 60e5 94bf
000001b0: f547 083e a96e 49bd 9198 c13b 2146 7e3d
000001c0: 2e92 8e3e c1e6 dcbd 94bc 8fbd 25e6 d9bd
000001d0: e53e bdbb b9df c1bd 177e 70be 821b 19be
000001e0: 7c9d 1c3f 1476 a1bd e7d6 b5bd 2330 86be
000001f0: ea75 0b3e 492d 94be f2d3 90be cd1e 883f
00000200: 5474 74be 2c9b 81be 8b1f 3ebd f3e4 923e
00000210: a9f5 de3d e8fa 7e3e d89b 88be 4d6a 283e
00000220: 7c20 83bd b20e 573e bcae bf3d 3204 3ebb
00000230: 1f30 c73e 2dea d33d ae11 613e 28fe de3c
00000240: 1744 453b bdcd 563d f572 9ebd 84bc 4e3e
00000250: f611 733d 55d3 7a3d 3976 f53c 63b8 ca3e
00000260: 118a 4d3e 0e12 aa3e 6438 03bd 9ec2 a03d
00000270: ce25 cb3c 76b3 753d a3d9 a63d 224f 723e
00000280: 6b9c b53e 33e9 c63b 094f 383e 47e6 c13e
00000290: 4441 7fbd eaa3 9dbd 7e8d 04be 9088 89be
000002a0: 91d1 b13e d097 fe3d 922c d6bc 8ca1 bc3e
000002b0: b329 033f 9f67 9d3d f354 e7bd 00b4 7cbd
000002c0: ba12 613e 8dd4 93be 87c4 bd3d 581a f8bd
000002d0: 9694 3b3e d690 583d 7c9a f33d f3c6 09be
000002e0: f794 a43e 5794 82be 6990 82be 9c89 b93e
000002f0: cbf2 f5bd e222 37be 6105 53bc 5af4 b63e
00000300: 6d74 16bf c4b4 8f3e 11c4 79be 2d0a 833e
00000310: a646 053c 9c8a 943e 27bc 643e 319c 84bb
00000320: e3fe 8b3e 384a 7e3d 2923 0e3e 6c5c 4f3e
00000330: a418 903d 1ea3 21bd 912a 4abd eba8 7abe
00000340: 1d90 743e 80cd be3d bf6f f2bc c4b1 7e3e
00000350: cafe 913e 6fd3 1f3e ad42 94bc 0065 dd3c
00000360: 971d e23d f065 a7bd 0630 053e cf76 8b3d
00000370: 5c8d 4c3e eb3f 46bc d254 6f3e 0b27 b93e
00000380: 41b7 d7bd 8527 54bd cbd5 b43c ac6f c0be
00000390: 43ff 8c3e 2905 5d3e b851 ee3c 132c be3e
000003a0: bb28 ca3e 8ab0 013e acdc 30bb 64e5 17be
000003b0: 569e 403e 7844 c5be 42cc 253c 13c6 65bd
000003c0: 5ef7 0a3f adbe aabd 06f7 1b3f 5395 763e
000003d0: bc23 93be eb6b 023d 44e8 96bd d027 12be
000003e0: d23a 4a3e 751f 103e 843d b7bc f295 103f
000003f0: 5eba 913e 3d7d c43e 9c1a 63bd 313f 77be

Operation_2_B f4 [20]
0.00558737 0.0180434 0.0224277 -0.00963643 0.0124282 0.106617 0.125307 0.0235724
-0.00124066 -0.0455383 0.0110599 0.0314419 0.0068697 0.0192388 0.0268779 0.0161044
0.00890116 0.0136942 0.0607521 0.0334814
00000000: 4216 b73b c1cf 933c 4cba b73c 1ee2 1dbc
00000010: a69f 4b3c 045a da3d 7a50 003e e81a c13c
00000020: a49d a2ba 5e86 3abd 9534 353c 39c9 003d
00000030: 381b e13b b09a 9d3c 0b2f dc3c 60ed 833c
00000040: 2cd6 113c a35d 603c 32d7 783d cb23 093d

Operation_3_W f4 [20, 20, 1, 1]
-0.0602303 0.0503092 0.0660446 -0.0111585 0.250245 -1.16742 -0.971727 0.0627722
0.17165 -1.86941 0.158076 0.1983 0.0224765 0.142175 0.0718699 0.113635
0.149442 0.0836119 -0.0209959 0.125596 0.0249375 -0.0797773 -0.0185461 0.012421
-0.0164691 0.23972 1.11914 0.0785114 -0.0869544 1.58545 0.00475753 -0.0452964
0.212199 -0.0535407 -0.0279595 -0.102278 -0.0225917 -0.0403979 0.759148 0.0454149
0.192585 -0.0365352 -0.0688389 0.0474285 -0.0454836 0.640696 0.903358 -0.041268
-0.0367401 1.09798 -0.0065275 -0.00564551 0.0347636 -0.0593054 -0.0243408 -0.0499097
-0.0460729 -0.107936 1.12065 -0.00920357 -0.489014 -0.0627999 0.00311874 -0.045291
-0.107409 -0.440609 0.850194 0.065078 -0.0958162 -0.234017 -0.0653034 -0.173741
-0.045996 0.0443658 0.00842223 -0.0434879 -0.0623841 0.00859819 -0.812218 0.0535114
-0.249409 0.137066 0.1625 -0.0108982 0.224801 -1.44171 -0.533269 0.172396
0.255022 -1.20935 0.0726831 0.219607 0.254297 0.140831 0.066211 0.14076
0.130129 0.13867 -0.643134 0.132029 -0.263448 0.185237 0.16091 0.00541573
0.321945 -0.651572 -0.61931 0.128171 0.290603 -0.429261 0.195652 0.178484
0.390014 0.173924 0.122059 0.185595 0.214123 0.17194 -1.17389 0.142841
-0.561075 0.00116078 0.0208862 0.0265693 -0.1563 -0.469152 0.91209 0.0653716
-0.0563501 -0.130784 0.00476915 -0.21974 -0.0765514 0.0292038 0.00594904 -0.0147513
-0.0475228 -0.0137218 -0.83594 0.129801 -0.221261 0.0733546 0.0442058 0.0227374
0.0517348 -1.16372 -1.2518 0.124756 -0.00275655 -0.778473 0.0869069 0.070688
0.18657 0.0768453 0.185643 0.0905831 0.0830042 0.0206081 -1.50845 0.152748
0.0357768 -0.0212247 -0.0409282 -0.0321953 0.0493332 -0.0416815 -0.0293722 0.0252682
-0.0309938 -0.0352837 -0.0145245 -0.042465 0.0449904 -0.0260941 -0.0482201 -0.0376896
0.0307417 0.0340155 -0.0245343 -0.0254875 0.106714 -0.0762456 0.00500159 0.0447017
0.00454579 0.563356 1.05799 -0.0189319 -0.0833746 1.44822 -0.0422948 -0.0117821
0.179412 0.00396594 0.0467815 -0.110694 -0.0414541 -0.0744189 0.840183 -0.0254712
-0.0582854 0.135541 0.138875 -0.0385245 -0.0373751 -0.942395 -1.50535 0.046719
0.0275007 0.195279 0.10751 0.0146771 -0.0706188 0.108496 0.0571345 0.128753
0.0699276 0.137638 -1.72077 0.0842713 -0.216967 0.0265331 0.0535708 0.00124857
0.0419395 -0.110348 -1.29191 0.147293 -0.0584108 -1.86666 0.00881308 0.117152
0.127551 0.0151341 0.0737491 -0.0120433 0.0497569 0.0407168 -1.12761 0.0853657
-0.0870748 0.111933 0.156047 -0.0234414 0.328986 -0.778568 -0.77739 0.161693
0.288408 -1.65417 0.178325 0.214609 0.183356 0.152814 0.12741 0.0886399
00000000: 0cb4 76bd 0511 4e3d 6442 873d 24d2 36bc
00000010: 1d20 803e 056e 95bf 1ac3 78bf b68e 803d
00000020: 05c5 2f3e d448 efbf adde 213e 280f 4b3e
00000030: a320 b83c 5396 113e 8730 933d 78b9 e83d
00000040: 5307 193e b73c ab3d 98ff abbc 3d9c 003e
00000050: ba49 cc3c 4862 a3bd feed 97bc 7381 4b3c
00000060: 35ea 86bc 2979 753e fb3f 8f3f 96ca a03d
00000070: 2615 b2bd 07f0 ca3f 0ee5 9b3b b888 39bd
00000080: b24a 593e 7e4d 5bbd 520b e5bc 2177 d1bd
00000090: 3b12 b9bc 4578 25bd 8657 423f f904 3a3d
000000a0: 0135 453e efa5 15bd 69fb 8cbd 6344 423d
000000b0: 034d 3abd a704 243f 7842 673f a208 29bd
000000c0: c97c 16bd 9c8a 8c3f a4e4 d5bb f8fd b8bb
000000d0: 4764 0e3d 38ea 72bd 5b66 c7bc 1d6e 4cbd
000000e0: f0b6 3cbd 8d0d ddbd 7671 8f3f 92ca 16bc
000000f0: 0b60 fabe 3c9d 80bd c663 4c3b 0e83 39bd
00000100: 40f9 dbbd 8197 e1be 50a6 593f 9d47 853d
00000110: 493b c4bd 27a2 6fbe cabd 85bd 29e9 31be
00000120: 4d66 3cbd eab8 353d 65fd 093c 5e20 32bd
00000130: 7886 7fbd 6cdf 0c3c 85ed 4fbf c52e 5b3d
00000140: 1365 7fbe 085b 0c3e 6666 263e 5d8e 32bc
00000150: 3c32 663e f489 b8bf 5184 08bf 9488 303e
00000160: 3e92 823e fbcb 9abf e1da 943d a8e0 603e
00000170: 3733 823e 0036 103e a299 873d 6423 103e
00000180: 8940 053e 82ff 0d3e 6ea4 24bf 9c32 073e
00000190: a8e2 86be c5ae 3d3e 97c5 243e 7076 b13b
000001a0: fad5 a43e 6ccd 26bf 1a8b 1ebf 423f 033e
000001b0: ebc9 943e 19c8 dbbe ff58 483e 82c4 363e
000001c0: eaaf c73e 2219 323e 12fa f93d 9e0c 3e3e
000001d0: 0f43 5b3e 0a11 303e 0742 96bf e944 123e
000001e0: 9ca2 0fbf 5025 983a 8919 ab3c dca7 d93c
000001f0: 1b0d 20be b134 f0be bb7e 693f 8ce1 853d
00000200: 5dcf 66bd 3eec 05be 8846 9c3b 8603 61be
00000210: fbc6 9cbd cf3c ef3c 2af0 c23b 70af 71bc
00000220: 44a7 42bd 67d1 60bc 2a00 56bf 8eea 043e
00000230: 3e92 62be f03a 963d 2411 353d c943 ba3c
00000240: dfe7 533d c7f4 94bf fb3a a0bf 1380 ff3d
00000250: 3ca7 34bb 024a 47bf 3ffc b13d dfc4 903d
00000260: 350c 3f3e 1261 9d3d 3319 3e3e a283 b93d
00000270: 1bfe a93d 51d2 a83c e414 c1bf f969 1c3e
00000280: b28a 123d 6cdf adbc 54a4 27bd 38df 03bd
00000290: 9c11 4a3d 38ba 2abd f89d f0bc 42ff ce3c
000002a0: b6e6 fdbc a485 10bd 2bf8 6dbc c8ef 2dbd
000002b0: db47 383d 4bc3 d5bc 7182 45bd 6960 1abd
000002c0: 05d6 fb3c d653 0b3d 28fc c8bc 29cb d0bc
000002d0: df8c da3d a726 9cbd 61e4 a33b 2119 373d
000002e0: daf4 943b 1938 103f 376c 873f 1217 9bbc
000002f0: 4dc0 aabd 465f b93f 503d 2dbd b609 41bc
00000300: c8b7 373e b7f4 813b f59d 3f3d 89b3 e2bd
00000310: c6cb 29bd f068 98bd 3c16 573f faa8 d0bc
00000320: acbc 6ebd 43cb 0a3e 3f35 0e3e decb 1dbd
00000330: a216 19bd cc40 71bf 4faf c0bf 6c5c 3f3d
00000340: 2649 e13c 38f7 473e 342e dc3d 3878 703c
00000350: 97a0 90bd 2733 de3d de05 6a3d d4d7 033e
00000360: 3436 8f3d faf0 0c3e 3142 dcbf 6e96 ac3d
00000370: 992c 5ebe f25b d93c 0e6d 5b3d 0fa7 a33a
00000380: c1c8 2b3d 22fe e1bd 4f5d a5bf fad3 163e
00000390: 2a40 6fbd b7ee eebf bd64 103c 63ed ef3d
000003a0: bb9c 023e 04f5 773c c509 973d 4351 45bc
000003b0: e4cd 4b3d a9c6 263d 8655 90bf 36d4 ae3d
000003c0: 4654 b2bd 213d e53d c9ca 1f3e 2e08 c0bc
000003d0: da70 a83e 3c50 47bf 0803 47bf da92 253e
000003e0: 37aa 933e d8bb d3bf d49a 363e 76c2 5b3e
000003f0: adc1 3b3e 467b 1c3e c477 023e d688 b53d

Operation_3_B f4 [20]
0.0763728 0.088663 0.128178 0.210338 0.0749303 0.0217904 0.211989 0.0280637
-0.000699992 0.0752639 0.0549772 0.0476461 0.0968417 -0.000694361 0.0527241 0.0575326
0.036218 0.0603997 0.0723092 -0.0037573
00000000: 5869 9c3d f294 b53d 1841 033e d862 573e
00000010: 0f75 993d c881 b23c a513 593e d8e5 e53c
00000020: ab7f 37ba f623 9a3d c62f 613d 8f28 433d
00000030: f154 c63d c705 36ba 3af5 573d 4ea7 6b3d
00000040: 5359 143d ad65 773d d916 943d 093d 76bb

Operation_4_W f4 [20, 20, 1, 1]
0.0035672 -0.0150784 0.0177084 -0.0444909 0.0315591 -0.0221334 0.00213203 -0.0183108
0.0194067 -0.0200353 -0.00912916 0.0214752 -0.0315075 0.0345462 0.0100452 -0.00116536
-0.00311578 -0.0384649 -0.0356456 0.0298587 0.281613 -0.247343 -0.0840379 0.244473
0.170063 0.0252845 0.242975 -0.026063 0.0333038 -0.29783 -0.0739486 0.100808
0.259072 0.0113362 0.211493 0.190697 -0.0865745 -0.265434 -0.174357 -0.00811945
0.208196 -0.0651528 -0.249961 -0.394091 0.231104 0.139513 -0.349366 0.273041
-0.0303881 -0.226197 0.275421 0.457022 0.238254 0.0133728 0.199474 0.239715
0.292215 -0.214204 -0.207482 -0.0034106 0.0615903 -0.366945 -0.541373 0.709628
0.121394 0.101988 0.70623 0.202443 -0.0191569 -0.483915 0.149422 0.252318
0.0215155 0.0316126 0.11106 0.115712 0.111847 -0.443002 -0.501501 -0.00321053
-0.00244443 -0.0350253 0.023144 0.020209 0.0277699 -0.00849762 -0.050979 -0.0144068
-0.0191152 -0.0351888 -0.00919175 0.0212901 -0.0104247 0.0339967 -0.0133774 0.00183826
-0.0469175 -0.0374683 0.012844 0.0380644 0.0422945 0.028849 0.0228588 0.0273385
-0.0161429 -0.000776341 -0.0380756 0.0109438 0.0158452 -0.0388364 -0.054606 -0.0212183
-0.0307061 -0.00958407 0.0045306 0.0172364 -0.0171647 -0.0090684 -0.0293783 0.00376483
0.143899 -0.405217 -0.463286 0.792465 0.149987 0.0873415 0.823015 -0.0962158
-0.0305764 -0.479841 -0.105498 -0.117104 0.209824 -0.0117376 0.125271 0.11263
-0.122882 -0.470625 -0.49117 0.0199878 0.0253754 0.0212518 0.00477129 0.0318
-0.0340199 -0.0360678 -0.00998695 -0.010828 0.00163441 -0.0149215 -0.0209961 0.022789
0.0015114 -0.00630647 -0.0383438 -0.0313942 0.0327311 -1.96478e-05 -0.0546435 -0.0371065
0.282587 -0.514784 -0.626383 0.316998 0.221309 0.175569 0.230089 0.306544
0.000121259 -0.623496 0.166165 0.516064 0.278609 -0.0148227 0.147637 0.214691
0.22453 -0.563505 -0.673007 -0.0445213 0.195211 -0.559869 -0.637445 0.194629
0.209887 0.191022 0.180536 0.278149 0.00537976 -0.671388 0.359897 0.458445
0.177925 -0.0451166 0.129509 0.20923 0.354141 -0.613302 -0.649018 0.0112934
0.134795 0.146658 0.168637 -0.268515 0.207742 0.225319 -0.383209 0.314797
0.021184 0.160624 0.227392 0.229563 0.22931 0.0487671 0.282807 0.268392
0.51963 0.0702646 0.111383 0.0189136 -0.087731 -0.00600094 -0.43422 0.543205
0.132251 0.364542 0.654952 0.46258 -0.0379362 -0.138991 0.406782 0.366173
-0.0479135 0.0189998 0.0253234 -0.00210365 0.485096 -0.000497878 -0.209582 -0.0108163
-0.0357204 0.00880612 -0.0496462 0.0444512 -0.0160011 -0.00427126 -0.0263334 0.011303
-0.0499378 -0.00961957 0.00484828 0.0407373 0.0200813 -0.0164941 0.00678742 -0.0175575
00000000: afc7 693b 650b 77bc 3511 913c 173c 36bd
00000010: 1d44 013d 1b51 b5bc 87b9 0b3b 8800 96bc
00000020: cdfa 9e3c 1221 a4bc 7992 15bc c2ec af3c
00000030: 020e 01bd 5180 0d3d 9f94 243c febe 98ba
00000040: 1d32 4cbb 5f8d 1dbd 1f01 12bd 3c9a f43c
00000050: 942f 903e 7c47 7dbe 101c acbd 2157 7a3e
00000060: ff24 2e3e 7121 cf3c 70ce 783e 1382 d5bc
00000070: 9169 083d 2c7d 98be 5d72 97bd 6d74 ce3d
00000080: 16a5 843e 78bb 393c 9f91 583e 1346 433e
00000090: f94d b1bd f7e6 87be a48a 32be 7107 05bc
000000a0: 5531 553e d56e 85bd c7f5 7fbe 4cc6 c9be
000000b0: 87a6 6c3e 7fdc 0e3e 1ae0 b2be 08cc 8b3e
000000c0: 77f0 f8bc 30a0 67be fb03 8d3e cafe e93e
000000d0: dbf8 733e 9719 5b3c ea42 4c3e d977 753e
000000e0: 349d 953e 4b58 5bbe 2976 54be 5f84 5fbb
000000f0: 1c46 7c3d 37e0 bbbe 6c97 0abf 2eaa 353f
00000100: 6b9d f83d 16df d03d 7dcb 343f 384d 4f3e
00000110: eeee 9cbc b5c3 f7be 1502 193e d32f 813e
00000120: 4641 b03c 377c 013d 6d73 e33d 6afa ec3d
00000130: 0a10 e53d 28d1 e2be 5f62 00bf c167 52bb
00000140: bb32 20bb b076 0fbd 7c98 bd3c 588d a53c
00000150: b47d e33c 9a39 0bbc 5bcf 50bd 800a 6cbc
00000160: 7b97 9cbc 2222 10bd fe98 16bc 9368 ae3c
00000170: 5ccc 2abc 2040 0b3d e22c 5bbc c5f1 f03a
00000180: 912c 40bd 5c78 19bd a46f 523c 6be9 1b3d
00000190: ff3c 2d3d bd54 ec3c 6142 bb3c fdf4 df3c
000001a0: 1d3e 84bc 5d83 4bba 29f5 1bbd a04d 333c
000001b0: cbcd 813c eb12 1fbd 8baa 5fbd 00d2 adbc
000001c0: 5c8b fbbc 8106 1dbc 6d75 943b 5a33 8d3c
000001d0: fc9c 8cbc a093 14bc c3aa f0bc 5ebb 763b
000001e0: 425a 133e 9a78 cfbe d333 edbe fcde 4a3f
000001f0: 3196 193e 1ae0 b23d 1cb1 523f ca0c c5bd
00000200: 5c7b fabc b8ad f5be 560f d8bd 39d4 efbd
00000210: 1adc 563e 104f 40bc 0b47 003e 8faa e63d
00000220: 8fa9 fbbd c3f5 f0be a27a fbbe 74bd a33c
00000230: 12e0 cf3c 4118 ae3c 7b58 9c3b b840 023d
00000240: 7358 0bbd d4bb 13bd 4ea0 23bc ec67 31bc
00000250: b339 d63a 4f79 74bc 0300 acbc ffaf ba3c
00000260: 2b1a c63a 81a6 cebb 630e 1dbd 3497 00bd
00000270: 0c11 063d 54d1 a4b7 ddd1 5fbd fcfc 17bd
00000280: 3eaf 903e e2c8 03bf a35a 20bf 904d a23e
00000290: d49e 623e 5cc8 333e 739c 6b3e 56f3 9c3e
000002a0: 6e4c fe38 6f9d 1fbf 2827 2a3e c51c 043f
000002b0: d7a5 8e3e e9da 72bc 272e 173e f5d7 5b3e
000002c0: 31eb 653e dd41 10bf 304a 2cbf f75b 36bd
000002d0: 64e5 473e 9353 0fbf 982f 23bf d34c 473e
000002e0: 9eec 563e 459b 433e 6ede 383e 8c69 8e3e
000002f0: b348 b03b 15e0 2bbf 6b44 b83e 4eb9 ea3e
00000300: f931 363e 2fcc 38bd 029e 043e 6440 563e
00000310: f851 b53e 5c01 1dbf 0b26 26bf f407 393c
00000320: b307 0a3e 842d 163e 2daf 2c3e cc7a 89be
00000330: 52ba 543e 06ba 663e f833 c4be 132d a13e
00000340: 118a ad3c 9e7a 243e 73d9 683e 9012 6b3e
00000350: 3ed0 6a3e 03c0 473d 14cc 903e ad6a 893e
00000360: 7906 053f e3e6 8f3d c51c e43d b2f0 9a3c
00000370: 4fac b3bd 89a3 c4bb 1552 debe 7c0f 0b3f
00000380: ce6c 073e 40a5 ba3e efaa 273f 49d7 ec3e
00000390: fd62 1bbd a853 0ebe bb45 d03e 077b bb3e
000003a0: f240 44bd 78a5 9b3c 0573 cf3c 64dd 09bb
000003b0: 815e f83e 0784 02ba aa9c 56be da36 31bc
000003c0: 8e4f 12bd 8b47 103c d059 4bbd 7612 363d
000003d0: bd14 83bc edf5 8bbb 24b9 d7bc 3830 393c
000003e0: 948b 4cbd 679b 1dbc 52de 9e3b 28dc 263d
000003f0: 8a81 a43c a31e 87bc 0169 de3b bfd4 8fbc

Operation_4_B f4 [20]
-0.00103008 0.07112 -0.0373949 -0.0207512 -0.012278 -0.00280749 0.0981778 -0.00696498
0.118822 0.128706 -0.00203331 -0.0841051 -0.000694538 -0.0999236 0.194229 -0.014702
-0.0686263 -0.083436 -0.00927521 0.144934
00000000: c003 87ba 5da7 913d 652b 19bd 6cfe a9bc
00000010: aa29 49bc defd 37bb 7111 c93d 7d3a e4bb
00000020: f358 f33d 81cb 033e 4841 05bb 4b3f acbd
00000030: a811 36ba bfa4 ccbd f8e3 463e a8e0 70bc
00000040: f28b 8cbd 7ee0 aabd 0df7 17bc 9469 143e

Operation_5_W f4 [20, 20, 1, 1]
0.0136582 -0.0199532 0.0711273 -0.478974 -0.0204405 0.0385497 0.408375 0.043367
0.309644 0.278967 0.0926141 0.381168 -0.0490892 0.0898398 0.419696 0.254529
-0.0297957 -0.29453 0.00857224 0.238968 -0.00730462 -0.111516 0.0200864 -0.416427
-0.0255438 9.98449e-05 -0.404994 -0.00700739 0.0836942 -0.199197 0.178348 -0.423106
0.0322948 0.426614 0.138015 0.0722252 -0.254486 -0.852238 -0.0322108 -0.337662
0.00533152 0.124431 0.236097 -0.818933 0.00957952 -0.011049 -0.183932 0.00924795
0.182542 0.214437 0.111011 -0.204983 0.049967 -0.114472 0.0761726 -0.190334
-0.0783274 -0.209322 0.00564152 0.438425 -0.0358274 0.0454673 -0.166927 0.287131
-0.0365065 0.0442977 0.569316 -0.0421644 0.252235 0.166202 -0.00615156 -0.0542496
0.00456434 0.159828 -0.981968 0.399371 -0.00888669 -0.204186 -0.00584112 -0.020695
0.00246631 -0.0660319 -0.215542 0.387346 0.0249298 0.0406652 0.153896 0.00992275
0.0280256 0.0617821 -0.244425 0.378469 0.0281707 0.350783 -0.035667 0.094602
0.145078 0.28302 0.0125203 -0.0870329 -0.0116347 -0.0508926 0.0271459 -0.0599116
0.0026924 -0.0131936 -0.0416162 0.0479557 0.000539532 -0.00124891 -0.0692839 0.00453535
0.0460121 0.0142554 0.00150597 -0.0158607 -0.0390257 0.0122921 -0.0312822 -0.0315323
0.0120563 0.061677 0.321379 0.0327414 0.00341521 -0.0333357 -0.422585 0.0118075
-0.00481068 0.0927953 0.285198 0.150748 -0.00484222 0.410265 0.0726878 0.084684
-0.303 0.0474959 -0.00720826 0.131596 -0.00245862 0.142457 0.21238 -0.158631
-0.0287393 -0.0274939 -0.288345 0.0436275 -0.181508 -0.137856 -0.100512 0.345364
0.00827973 0.467757 -0.37573 -0.0659339 0.0888379 0.338629 -0.00423262 0.14046
-0.0489709 -0.0180594 0.0320221 0.0211836 -0.00703735 0.0221351 0.0128929 0.0179153
-0.0217768 -0.00385869 -0.0424554 -0.0261584 0.00679698 -0.0460235 -0.0462915 0.0486015
0.0378698 -0.029867 0.0122091 -0.0153517 0.00251152 -0.136623 -0.0191741 0.0938554
-0.0312708 0.0291204 -0.155981 0.0451532 0.455966 0.571839 -0.192785 0.559425
-0.0165757 0.326308 -0.26059 0.328737 0.242269 -0.136781 -0.0139264 0.651578
0.0173024 0.280733 0.20003 -0.0807608 0.0367443 0.0318441 0.0599592 -0.0425082
0.136014 0.244719 0.0485925 0.16595 0.0100977 0.318525 -0.155256 0.173407
-0.0126234 0.0432168 -0.0427874 0.359175 0.0189998 -0.206897 0.00735581 0.108257
0.0364661 0.017207 -0.0497228 -0.0395663 0.137998 0.117655 -0.106842 0.245997
0.0421427 0.497113 0.199473 0.177595 0.187141 0.243815 -0.0296942 0.0752538
0.0433785 0.15619 0.390077 0.298222 -0.0268806 0.0191919 -0.027562 -0.0423068
-0.38631 -0.334008 -0.00910927 0.0701312 -0.0425005 0.146638 0.00889221 -0.158709
00000000: a5c6 5f3c e574 a3bc 31ab 913d 153c f5be
00000010: d672 a7bc 4ae6 1d3d 8716 d13e 98a1 313d
00000020: a989 9e3e c3d4 8e3e 76ac bd3d 7428 c33e
00000030: c211 49bd eefd b73d 65e2 d63e a051 823e
00000040: 1d16 f4bc a3cc 96be 9572 0c3c 07b4 743e
00000050: 985b efbb 8062 e4bd 3c8c a43c eb35 d5be
00000060: 3b41 d1bc d363 d138 605b cfbe 3f9e e5bb
00000070: dd67 ab3d 4cfa 4bbe dca0 363e 5aa1 d8be
00000080: 8d47 043d 266d da3e ce53 0d3e ceea 933d
00000090: fd4b 82be 452c 5abf 79ef 03bd 09e2 acbe
000000a0: 08b4 ae3b aed5 fe3d 69c3 713e 98a5 51bf
000000b0: 6bf3 1c3c dd06 35bc ac58 3cbe b784 173c
000000c0: 4aec 3a3e 5f95 5b3e bc59 e33d 10e7 51be
000000d0: 32aa 4c3d 4c70 eabd 6100 9c3d ebe6 42be
000000e0: 1e6a a0bd 8258 56be 80dc b83b 3e79 e03e
000000f0: c0bf 12bd eb3b 3a3d e9ee 2abe d602 933e
00000100: d787 15bd 8171 353d b2be 113f 94b4 2cbd
00000110: f224 813e db30 2a3e 0793 c9bb d434 5ebd
00000120: 7690 953b f4a9 233e 4162 7bbf 5b7a cc3e
00000130: 7b99 11bc 2316 51be de66 bfbb 9088 a9bc
00000140: d1a1 213b bc3b 87bd 0bb7 5cbe 3752 c63e
00000150: 9439 cc3c 8e90 263d ea96 1d3e 0893 223c
00000160: f195 e53c 3a0f 7d3d 8c4a 7abe b0c6 c13e
00000170: 3dc6 e63c d499 b33e 8f17 12bd b2be c13d
00000180: 548f 143e ffe7 903e f221 4d3c 4e3e b2bd
00000190: 789f 3ebc c274 50bd 1461 de3c de65 75bd
000001a0: fa72 303b f829 58bc c075 2abd 326d 443d
000001b0: 616f 0d3a 77b2 a3ba b8e4 8dbd 469d 943b
000001c0: 2f77 3c3d 7b8f 693c f863 c53a 4cee 81bc
000001d0: 6ad9 1fbd ce64 493c c421 00bd 0328 01bd
000001e0: ca87 453c 06a1 7c3d ca8b a43e d91b 063d
000001f0: b7d1 5f3b 048b 08bd 105d d8be 3f74 413c
00000200: e9a2 9dbb 760b be3d 7905 923e af5d 1a3e
00000210: 7cab 9ebb 410e d23e 57dd 943d ce6e ad3d
00000220: d122 9bbe 108b 423d 4433 ecbb 1ac1 063e
00000230: cc20 21bb 3fe0 113e 257a 593e 2a70 22be
00000240: ae6e ebbc e33a e1bc f5a1 93be c0b2 323d
00000250: 3cdd 39be 202a 0dbe 3cd9 cdbd 8dd3 b03e
00000260: b4a7 073c d87d ef3e af5f c0be 5a08 87bd
00000270: a5f0 b53d c860 ad3e cab1 8abb bfd4 0f3e
00000280: b695 48bd 4ff1 93bc 9b29 033d 3b89 ad3c
00000290: 9299 e6bb ab54 b53c be3c 533c 1bc3 923c
000002a0: 4265 b2bc 13e2 7cbb b7e5 2dbd 244a d6bc
000002b0: 33b9 de3b 2383 3cbd 289c 3dbd 5e12 473d
000002c0: 5d1d 1b3d a4ab f4bc ad08 483c b285 7bbc
000002d0: 5098 243b e6e6 0bbe 0113 9dbc 4337 c03d
000002e0: cf15 00bd e88d ee3c 7cb9 1fbe 90f2 383d
000002f0: 6074 e93e 0a64 123f 6e69 45be 7a36 0f3f
00000300: c3c9 87bc d811 a73e 0d6c 85be 3750 a83e
00000310: 5d15 783e 5210 0cbe 8e2b 64bc d1cd 263f
00000320: c3bd 8d3c 3cbc 8f3e aad4 4c3e eb65 a5bd
00000330: 3181 163d f66e 023d c797 753d 141d 2ebd
00000340: 4147 0b3e 9e97 7a3e ee08 473d ccee 293e
00000350: d370 253c b515 a33e 6efb 1ebe 9b91 313e
00000360: 61d2 4ebc 1904 313d d741 2fbd c9e5 b73e
00000370: 78a5 9b3c cfdc 53be 0209 f13b d9b5 dd3d
00000380: 7a5d 153d b2f5 8c3c 22aa 4bbd 4610 22bd
00000390: 594f 0d3e 1bf5 f03d facf dabd a3e6 7b3e
000003a0: d39d 2c3d 9885 fe3e a642 4c3e 77db 353e
000003b0: e4a1 3f3e a4aa 793e 4041 f3bc aa1e 9a3d
000003c0: a7ad 313d 45f0 1f3e 2cb8 c73e 8eb0 983e
000003d0: b434 dcbc 5538 9d3c b4c9 e1bc e549 2dbd
000003e0: 6dca c5be 1903 abbe 0c3f 15bc f2a0 8f3d
000003f0: 0115 2ebd 4628 163e a2b0 113c 9d84 22be

Operation_5_B f4 [20]
-0.0712603 0.0817612 0.0621764 0.00686179 -0.00656141 -0.0113892 -0.240725 0.0385245
-0.0100602 -0.0307282 -0.0611687 -0.00948959 0.0704316 0.0278208 0.0255692 -0.0156032
0.0 0.0323124 -0.0170593 -0.0125082
00000000: ecf0 91bd 6b72 a73d aeac 7e3d ded8 e03b
00000010: 1901 d7bb c499 3abc 9d80 76be decb 1d3d
00000020: 89d3 24bc b5b9 fbbc 088c 7abd 3a7a 1bbc
00000030: 713e 903d 72e8 e33c 8076 d13c 90a4 7fbc
00000040: 0000 0000 025a 043d f2bf 8bbc 31ef 4cbc

linear_6_W f4 [9, 20, 1, 1]
0.0392826 -0.0840128 0.0533142 -0.0332592 0.120967 -0.0307036 0.150625 -0.183257
-0.023478 -0.48496 -0.14813 -0.128173 0.160842 -0.176177 -0.0670905 -0.0263817
-0.0468031 -0.0806345 0.195467 -0.0167114 0.084478 -0.0721902 -0.111588 -0.881099
-0.333836 0.0083563 -0.611515 -0.0119022 -0.001851 -0.135128 0.0137509 0.198254
0.226521 -0.232285 0.0446972 0.00334163 0.0251804 -0.103146 -0.128609 -0.000312994
-0.114087 0.10097 0.0610141 -0.155304 -0.307512 0.00780433 -0.169953 0.268931
0.0090331 -0.204411 -0.0319491 -0.0827287 0.0126015 -0.220081 -0.132153 0.00769898
-0.0223606 -0.174952 -0.764266 -0.0260369 -0.377059 0.0928347 -0.429945 -0.177719
0.674524 0.018196 -0.313774 0.237937 0.0401437 -0.0448942 0.0178748 0.15444
0.269685 -0.303889 -0.16802 -0.0507593 0.0313733 -0.0647701 -0.375314 -0.0385267
-0.190522 -0.39032 0.176806 0.00364344 -0.43352 0.016516 -0.702437 -0.030481
-0.0144017 -0.028315 -0.00193641 -0.81438 0.0666309 -0.0626651 -0.127812 0.0172929
-0.00437609 0.0622479 -0.816428 -0.0428247 -0.254893 0.122432 -0.263504 -0.170372
0.823326 -0.0294188 -0.389088 -0.142992 0.0192231 -0.104139 -0.228122 -0.0221567
-0.275742 -0.00889743 -0.258736 0.0426368 -0.0265561 -0.0596382 -0.0947119 0.033789
-0.134753 -0.169905 0.0766163 0.0871247 0.269347 0.00696134 -0.294128 0.129318
-0.0426463 -0.116635 -0.286856 -0.279144 -0.371943 0.00635188 -0.0773947 0.0147395
0.0466094 -0.288243 -0.0271322 0.0255397 -0.0444519 0.416231 -0.544601 -0.180632
0.598253 0.0394586 -0.294891 -0.554704 -0.0344424 -0.165921 -0.180793 0.312917
-0.212356 -0.0317804 -0.123076 -0.00512523 -0.0472708 -0.0989939 -0.799096 -0.00391902
-0.135676 -0.0484257 -0.0884016 0.274107 -0.268885 0.0360871 -0.2772 0.0140993
-0.0417656 -0.131609 -0.110234 -0.114941 -0.431656 -0.122618 -0.19093 -0.0449586
0.0310658 -0.21687 -0.0876837 0.0120724
00000000: cbe6 203d e70e acbd fe5f 5a3d cd3a 08bd
00000010: 8cbd f73d 1e86 fbbc 713d 1a3e b9a7 3bbe
00000020: ef54 c0bc ad4c f8be 64af 17be c83f 03be
00000030: c4b3 243e be67 34be be66 89bd 6f1e d8bc
00000040: 9bb4 3fbd b323 a5bd 8028 483e 59e6 88bc
00000050: cd02 ad3d 75d8 93bd 4088 e4bd b48f 61bf
00000060: 8dec aabe dde8 083c 3f8c 1cbf 7201 43bc
00000070: 419d f2ba ff5e 0abe 744b 613c 1903 4b3e
00000080: 1ff5 673e 1edc 6dbe 6914 373d 40ff 5a3b
00000090: 2047 ce3c 363e d3bd 14b2 03be 5819 a4b9
000000a0: 72a6 e9bd 5cc9 ce3d ece9 793d 0308 1fbe
000000b0: 3672 9dbe 77bb ff3b 2908 2ebe 53b1 893e
000000c0: 91ff 133c 1e51 51be 0fdd 02bd aa6d a9bd
000000d0: 8676 4e3c ea5c 61be 1e53 07be ba47 fc3b
000000e0: 942d b7bc 9e26 33be f0a6 43bf 564b d5bc
000000f0: e10d c1be 1f20 be3d c021 dcbe f8fb 35be
00000100: 9bad 2c3f c70f 953c fca6 a0be c2a5 733e
00000110: b86d 243d fbe2 37bd 2c6e 923c 8525 1e3e
00000120: 2714 8a3e 5797 9bbe 6f0d 2cbe fce8 4fbd
00000130: 4a81 003d 30a6 84bd 2829 c0be 2cce 1dbd
00000140: 3318 43be 06d8 c7be a20c 353e c8c6 6e3b
00000150: 55f6 ddbe 904c 873c e9d2 33bf 4ab3 f9bc
00000160: 1cf5 6bbc dcf4 e7bc 23cf fdba 357b 50bf
00000170: c875 883d 8f56 80bd 26e1 02be d7a9 8d3c
00000180: 4e65 8fbb a7f7 7e3d 6d01 51bf f468 2fbd
00000190: 5681 82be a1bd fa3d ffe9 86be ff75 2ebe
000001a0: 7ec5 523f b2ff f0bc 8b36 c7be 7f6c 12be
000001b0: c379 9d3c d446 d5bd d098 69be f881 b5bc
000001c0: 0e2e 8dbe 87c6 11bc 0c79 84be eda3 2e3d
000001d0: 2e8c d9bc 2f47 74bd 50f8 c1bd 5666 0a3d
000001e0: b1fc 09be 94fb 2dbe 02e9 9c3d 6f6e b23d
000001f0: dae7 893e f41b e43b f297 96be f06b 043e
00000200: e3ad 2ebd 55de eebd cade 92be f6eb 8ebe
00000210: 506f bebe 6e23 d03b 1d81 9ebd f27d 713c
00000220: 80e9 3e3d 9694 93be 5944 debc a238 d13c
00000230: 3213 36bd 3b1c d53e f96a 0bbf 98f7 38be
00000240: 1c27 193f 579f 213d f4fb 96be 1501 0ebf
00000250: 7913 0dbd 32e7 29be cd21 39be a836 a03e
00000260: da73 59be 2a2c 02bd 450f fcbd 8cf1 a7bb
00000270: 079f 41bd 50bd cabd 8e91 4cbf 1f6b 80bb
00000280: a6ee 0abe 075a 46bd e60b b5bd c157 8c3e
00000290: 4bab 89be 11d0 133d 29ed 8dbe c000 673c
000002a0: 6812 2bbd 82c4 06be 5dc2 e1bd 3066 ebbd
000002b0: 0402 ddbe 251f fbbd 2783 43be 8226 38bd
000002c0: b47d fe3c 2b13 5ebe 8393 b3bd 51cb 453c

linear_6_B f4 [9]
0.0337852 0.0317936 0.00571527 0.0410552 0.0366297 0.0156892 0.00122508 0.00206561
0.0141047
00000000: 5a62 0a3d 023a 023d 2947 bb3b 7f29 283d
00000010: 0609 163d a386 803c dd92 a03a 2f5f 073b
00000020: 6617 673c
