code/nnv/examples/NNV3.0/ToolComparison/benchmarks/collins_rul/onnx/NN_rul_full_window_20.onnx (onnx, 251718 bytes, 11 tensors)

conv_1_W f4 [10, 1, 5, 1]
0	0xbebf14db	-0.373206
1	0x3e56831b	0.2094845
2	0x3cca17fb	0.024669638
3	0xbc57402e	-0.01313786
4	0xbe144ed2	-0.14483193
5	0xbe543b45	-0.20725735
6	0x3e823bb4	0.25436175
7	0x3ebf4b4d	0.37362137
8	0x3e9d833b	0.30764183
9	0x3e8e69af	0.27815005
10	0xbeaf4519	-0.34232405
11	0x3e035a83	0.12827496
12	0xbe9a3a35	-0.30122533
13	0xbdcf3fe0	-0.10119605
14	0xbe99e478	-0.3005712
15	0x3e3d9e68	0.18517458
16	0xbe34c157	-0.17651878
17	0xbe08f274	-0.13373739
18	0x3c80b3d4	0.015710749
19	0xbcc9170e	-0.024547126
20	0x3e240bf2	0.16020182
21	0xbe1dede7	-0.15422784
22	0x3e954c31	0.29159692
23	0xbd1d0896	-0.038338266
24	0xbd90d38b	-0.070715986
25	0xbea5732d	-0.32314435
26	0xbdebb72d	-0.115095474
27	0xbe1d7805	-0.15377815
28	0x3d329bd0	0.043605626
29	0xbdf114de	-0.11771558
30	0x3c43bdf5	0.011947145
31	0x3e953cae	0.29147857
32	0xbde22ec1	-0.11044074
33	0x3e4f9f76	0.20275673
34	0x3d8b36c9	0.06797559
35	0xbd403d0e	-0.046933226
36	0x3e3c15e3	0.18367724
37	0x3e9408b9	0.28912905
38	0xbda44e1f	-0.08022713
39	0x3e996cb2	0.2996574
40	0xbeb94c9c	-0.3619126
41	0x3d8ff338	0.07028812
42	0x3e3457ea	0.17611662
43	0xbdb1363d	-0.08652923
44	0xbda3485a	-0.07972784
45	0xbe09f718	-0.13473165
46	0x3db89905	0.09013561
47	0x3dd6e1a5	0.10492257
48	0xbe90a894	-0.28253615
49	0xbe7f786d	-0.24948283

conv_1_B f4 [10]
0	0xbd4a180c	-0.04933934
1	0x3da9f2ab	0.08298238
2	0x3ce392e1	0.027779998
3	0xbe09131d	-0.13386197
4	0x3d9f6967	0.07783776
5	0x3c5d7951	0.013517694
6	0x3e189869	0.1490189
7	0x3e01e649	0.12685503
8	0xbe880ed7	-0.26573822
9	0x3ca15f7b	0.019698849

conv_2_W f4 [20, 10, 5, 1]
0	0x3d92b3cc	0.071632
1	0x3e15adf3	0.14617138
2	0x3c4a6529	0.01235322
3	0x3dd538da	0.10411234
4	0x3d00500b	0.031326335
5	0xbc7f86b9	-0.015596085
6	0x3d96e15d	0.073672034
7	0x3e56d026	0.2097784
8	0x3e665ddf	0.22496746
9	0x3c5d1d93	0.013495821
10	0xbe202afe	-0.156414
11	0xbdbbe7a6	-0.09175043
12	0xbe621c8f	-0.22081207
13	0xbe782e04	-0.24236304
14	0x3db17861	0.086655386
15	0xbe19bc12	-0.1501315
16	0xbe4501d8	-0.19238985
17	0x3d9091a4	0.07059029
18	0xbdaae522	-0.08344485
19	0x3ddcdaf7	0.10783952
20	0xbd1a7e35	-0.037718017
21	0xbe20e5c8	-0.15712655
22	0x3df107d8	0.11769074
23	0x3d8c460a	0.068492964
24	0x3e290546	0.16505918
25	0xbe49ef70	-0.19720244
26	0xbdd35879	-0.10319609
27	0x3c46b873	0.012128937
28	0xbd795435	-0.06087132
29	0xbe21c2f4	-0.15797025
30	0x3de8b6e7	0.11363011
31	0x3d88e07f	0.06683444
32	0xbca6e43c	-0.020372503
33	0xbdfe81a9	-0.124270745
34	0xbcd16fb9	-0.025565969
35	0xbe2c0351	-0.1679814
36	0x3d8ed672	0.06974496
37	0xbd302c43	-0.04301096
38	0x3cee8586	0.029116403
39	0x3e0aafa8	0.1354357
40	0x3ccb2d96	0.02480201
41	0x3b9c8985	0.004777136
42	0x3ddbfdce	0.10741769
43	0xbe07cc5f	-0.13261555
44	0x3e0ffa62	0.14060357
45	0x3cd71623	0.026255673
46	0xbe2d7da4	-0.1694246
47	0x3d595f15	0.053069193
48	0x3d9ed0f9	0.07754702
49	0xbe8682c6	-0.26271647
50	0x3e2117d5	0.15731747
51	0x3e5e901f	0.21734665
52	0x3e07e4e4	0.13270909
53	0x3e193cdc	0.14964622
54	0xbd9aa193	-0.07550349
55	0xbd48807c	-0.048950657
56	0xbdbbfe0b	-0.09179314
57	0xbd11ffe7	-0.035644438
58	0x3e398092	0.18115452
59	0x3d2ef866	0.04271736
60	0xba66ec41	-0.0008809008
61	0x3d967e81	0.073483475
62	0xbd8413b4	-0.064490706
63	0xbe1155b1	-0.14192845
64	0x3e0882ed	0.13331194
65	0x3e158fdf	0.14605664
66	0xbd89210f	-0.066957586
67	0xbc02af96	-0.007976433
68	0xbdaa8599	-0.08326263
69	0x3d710e11	0.058851305
70	0x3e3738f9	0.17892827
71	0xbce05f94	-0.027389325
72	0xbe32ebe8	-0.17472804
73	0x3da0c590	0.07850182
74	0x3dc5184a	0.096237734
75	0xbdb194ab	-0.08670934
76	0xbdeed846	-0.11662345
77	0x3dee2988	0.11629015
78	0xbe17a7fa	-0.14810172
79	0x3e4736da	0.19454518
80	0x3e192564	0.1495567
81	0x3d152028	0.03640762
82	0xbe2aa191	-0.16663195
83	0xbdd4569e	-0.103680834
84	0xbd28eee2	-0.04124344
85	0x3db6060c	0.08887872
86	0x3df80f3c	0.12112281
87	0xbe069168	-0.13141406
88	0xbe24bb5b	-0.16087095
89	0x3e4683ee	0.19386265
90	0xbcb8ac17	-0.022542996
91	0xbe252143	-0.1612597
92	0x3d234a36	0.039865695
93	0xbe33a2c0	-0.17542553
94	0xbdd945d3	-0.10609021
95	0x3df00dc1	0.11721373
96	0x3d13ee16	0.03611573
97	0xbc72b095	-0.014812608
98	0xbda7c5ff	-0.08192062
99	0x3e1ea4eb	0.15492599
100	0x3e85b6a0	0.26115894
101	0x3e765d2b	0.24058978
102	0x3e17240f	0.14759849
103	0x3e4a1892	0.19735935
104	0xbc2b3020	-0.010448486
105	0xbc60652f	-0.013695999
106	0x3dcc8129	0.09985573
107	0xbd8db1d5	-0.069186844
108	0xbe112255	-0.14173253
109	0xbdae77b2	-0.08518924
110	0x3dab770a	0.08372314
111	0x3e52c8d0	0.20584416
112	0xbb0b3476	-0.0021240986
113	0xbdfaad41	-0.12240077
114	0x3a7f3e1a	0.0009736732
115	0xbe038d0a	-0.12846771
116	0x3cdc94d9	0.026926445
117	0xbe759bf8	-0.23985279
118	0xbcff5de7	-0.031172706
119	0xbd9eef91	-0.077605374
120	0x3cc5cb67	0.024144841
121	0xbe541140	-0.20709705
122	0xbe2f8a48	-0.17142594
123	0x3d3c88b1	0.046028797
124	0x3e05515d	0.13019319
125	0x3e21138b	0.15730111
126	0x3e34a5cf	0.17641376
127	0x3e299f59	0.16564693
128	0xbd7fc211	-0.062440936
129	0xbe08d127	-0.13361035
130	0xbcf323d1	-0.029680165
131	0xbdb96b7a	-0.09053703
132	0xbe197620	-0.14986467
133	0xbde6c475	-0.1126794
134	0xbcb96460	-0.02263087
135	0x3dcb8bb7	0.09938758
136	0x3dab9550	0.083780885
137	0x3d50381a	0.050834753
138	0xbe322998	-0.1739868
139	0x3e17ed45	0.14836605
140	0xbe666e31	-0.22502972
141	0x3c5c129b	0.01343217
142	0xbebc4637	-0.3677232
143	0xbddcf44e	-0.10788785
144	0xbd46f5d2	-0.048574276
145	0x3e3b59e5	0.18296011
146	0xbcb149b8	-0.021641597
147	0xbd601c64	-0.054714575
148	0xbb47d5b1	-0.003049236
149	0x3e620dab	0.22075526
150	0xbe0a2450	-0.13490415
151	0xbd1b81f8	-0.037965745
152	0x3d6edf46	0.0583184
153	0xb9551203	-0.00020319973
154	0xbdf79ea7	-0.120908074
155	0x3c37c0ed	0.011215431
156	0x3e42b02e	0.1901252
157	0x3e24d145	0.16095455
158	0x3df8a44a	0.12140711
159	0x3dced2d7	0.10098808
160	0xbd33427f	-0.043764587
161	0x3e2db149	0.1696216
162	0xbdf60771	-0.12013138
163	0x3e728ff2	0.23687723
164	0x3e49007e	0.19629094
165	0xbd4991db	-0.049211364
166	0xbe0023b9	-0.12513627
167	0xbe0f93aa	-0.14021173
168	0x3cec775b	0.028865507
169	0xbc31a433	-0.010842371
170	0x3e536dd7	0.2064737
171	0xbc123a78	-0.008925073
172	0x3e2a1bc5	0.16612156
173	0x3d9ffcf3	0.07811918
174	0xbd041eea	-0.032256044
175	0xbd2fbba3	-0.042903554
176	0x3e0f1302	0.13972095
177	0x3dc9acef	0.098474376
178	0x3e05c3dc	0.13062996
179	0x3e7ce95a	0.24698392
180	0xbd40971a	-0.0470191
181	0x3ddeb50a	0.10874374
182	0x3da3abae	0.0799173
183	0x3df15b2f	0.1178497
184	0xbcf84ec3	-0.030310994
185	0x3c2a8d50	0.010409668
186	0x3dc85e63	0.09783628
187	0x3e1ae6a4	0.15127045
188	0xbcdca80f	-0.026935605
189	0x3e6b6301	0.22986986
190	0x3d934253	0.07190385
191	0xbde9b9c6	-0.114123866
192	0x3e394ff5	0.18096907
193	0xbdcd2097	-0.10015982
194	0xbc283465	-0.010266398
195	0xbcd6d596	-0.026224893
196	0xbac42875	-0.001496567
197	0x3e4b1c97	0.19835125
198	0x3e27a203	0.16370396
199	0xbc9e75fe	-0.019343372
200	0xbd30a009	-0.04312137
201	0x3a2a17cf	0.0006488533
202	0xbe16f5fe	-0.14742276
203	0x3bce374e	0.006293214
204	0x3d25398b	0.04033808
205	0xbdc23557	-0.0948283
206	0xbd0de534	-0.034642413
207	0x3e34ecd4	0.17668468
208	0xbe139d7d	-0.14415546
209	0xbdba8fe0	-0.09109473
210	0xbbaace0f	-0.0052125524
211	0xbd8ed86f	-0.06974875
212	0xbe4c2b06	-0.19938287
213	0x3e2455a7	0.16048299
214	0xbd2207c0	-0.039558172
215	0xbe1d73d4	-0.15376216
216	0xbc817d3d	-0.015806789
217	0xbe152466	-0.14564666
218	0x3da35acf	0.07976305
219	0x3deab17d	0.114596345
220	0xbe44bcb2	-0.19212607
221	0xbe4fd61c	-0.2029652
222	0xbd458278	-0.048220128
223	0x3c1a03f5	0.0094003575
224	0x3d0a6df4	0.033796266
225	0x3db37245	0.087620296
226	0x3df2c8f4	0.11854735
227	0xbe101c13	-0.1407321
228	0x3e0e9fae	0.139281
229	0xbe093483	-0.13398938
230	0xbdd827c9	-0.105544634
231	0xbdfb45d1	-0.12269176
232	0xbe256dbb	-0.1615514
233	0xbdacaaea	-0.08431037
234	0x3d2dc6d5	0.04242595
235	0xbe02ab41	-0.1276064
236	0x3e289390	0.1646254
237	0x3e244ffa	0.16046134
238	0xbe46a9f7	-0.19400774
239	0xbd598d19	-0.053113077
240	0x3d86f484	0.065896064
241	0x3dac225b	0.0840499
242	0xbe3b0c37	-0.18266378
243	0xbc2df66e	-0.010617835
244	0xbde044cf	-0.10950624
245	0x3dce9a83	0.100880645
246	0xbe1d3b97	-0.15354763
247	0xbd3ee8c5	-0.046608705
248	0xbe136e18	-0.14397466
249	0xbdf5653f	-0.11982202
250	0xbd4d2747	-0.050086286
251	0x3e176b51	0.14787032
252	0xbdfa7833	-0.122299574
253	0x3da48128	0.08032447
254	0x3e359f67	0.17736588
255	0xbe1cdef6	-0.15319428

conv_2_B f4 [20]
0	0x3d2046fa	0.03913019
1	0x3d7f5473	0.062336396
2	0x3d71363f	0.058889624
3	0x3d9b620f	0.075870626
4	0xbcdb0cf8	-0.026739582
5	0x3cfe2a5d	0.03102606
6	0x3d98c87f	0.074601166
7	0x3d83da07	0.0643807
8	0x3dc0eba3	0.09419944
9	0xbd55eb50	-0.052226365
10	0x3d941ebd	0.07232425
11	0xbd2055a2	-0.039144166
12	0xbcfca27a	-0.030839194
13	0x3c849df8	0.016188607
14	0x3d9bf9ed	0.07616029
15	0x3d6d0654	0.057867363
16	0x3d8d42f4	0.06897536
17	0xbd38cb82	-0.045115955
18	0x3d78d770	0.060752332
19	0x3d7add9c	0.0612465

conv_3_W f4 [10, 20, 5, 1]
0	0x3deab3df	0.11460089
1	0x3db56efe	0.08859061
2	0x3e447baf	0.19187807
3	0x3de1d176	0.1102628
4	0x3d8439b4	0.064563185
5	0xbd32c6b2	-0.043646522
6	0xbdc215e1	-0.09476829
7	0xbdb533d9	-0.0884778
8	0x3e519878	0.20468318
9	0x3e0bf33e	0.13667008
10	0xbd9ec8e6	-0.07753162
11	0x3daf55d8	0.08561295
12	0xbe0bf93f	-0.13669299
13	0x3dfb1075	0.12258998
14	0xbe3495dc	-0.17635292
15	0x3e295be6	0.16538963
16	0xbe0e9bc3	-0.13926606
17	0x3c9d5e60	0.01921004
18	0x3e52c80a	0.20584121
19	0x3dc6b188	0.0970183
20	0x3d64de9f	0.05587637
21	0xbb948f6f	-0.0045337
22	0xbd4f60e4	-0.05062951
23	0x3dbdb8ae	0.092637405
24	0x3e30f002	0.17279056
25	0x3df65ad8	0.12029046
26	0xbc6b7862	-0.014371963
27	0xbe05f8db	-0.13083212
28	0xbe16dfe9	-0.14733852
29	0xbc144d00	-0.009051561
30	0xbe07085e	-0.13186786
31	0xbe054e63	-0.13018183
32	0x3d902efe	0.07040213
33	0x3d68776b	0.05675451
34	0x3e14b1b7	0.14520918
35	0x3dfca998	0.12337035
36	0xbe263f61	-0.16235115
37	0x3e352e12	0.17693356
38	0x3cc1cf0d	0.0236583
39	0x3e271eb8	0.16320312
40	0xbc9d013b	-0.019165626
41	0x3ddd3d06	0.10802655
42	0x3d4d1a9d	0.05007421
43	0xbdea422e	-0.11438404
44	0x3e456eba	0.1928052
45	0xbe098530	-0.13429713
46	0xbd9f309f	-0.077729456
47	0x3d9880a0	0.07446408
48	0x3d0aa4ce	0.033848576
49	0xbe029bda	-0.12754765
50	0x3e2a82ce	0.1665146
51	0x3e1a66f8	0.15078342
52	0x3e6b8d48	0.23003113
53	0x3db4748a	0.088112906
54	0xbda3daf7	-0.080007486
55	0x3dcd6fd6	0.10031097
56	0x3d056edd	0.03257643
57	0xbda79d9a	-0.08184357
58	0xbd851f75	-0.065001406
59	0x3d3a6674	0.045507863
60	0xbdd31dd3	-0.10308423
61	0x3e580b11	0.21097971
62	0x3e13ea23	0.14444785
63	0x3d6f29a9	0.05838934
64	0x3d23e69e	0.040014856
65	0x3e12191f	0.14267395
66	0x3d6f7db2	0.05846948
67	0x3e008afe	0.12553021
68	0xbc6652a4	-0.014057789
69	0xbd530842	-0.051521547
70	0x3e633c52	0.22190979
71	0xbdcf913a	-0.10135122
72	0x3e1c57b5	0.15267833
73	0x3e334139	0.17505349
74	0xbd835946	-0.06413512
75	0x3d1d4676	0.038397275
76	0x3c2e64e2	0.0106441695
77	0xbd00cde0	-0.031446338
78	0xbdae3909	-0.08506972
79	0x3d3473a9	0.044055615
80	0x3dd7364a	0.10508402
81	0xbdd3fedc	-0.10351345
82	0xbd990a5a	-0.074726775
83	0x3d4923e5	0.049106497
84	0x3e7366e0	0.23769712
85	0x3d7f7cec	0.062374994
86	0xbbf60375	-0.0075077363
87	0xbda46d4c	-0.08028659
88	0xbdbfff24	-0.09374836
89	0xbd0b2a07	-0.033975627
90	0xbc9f611b	-0.019455483
91	0xbd50052d	-0.050786186
92	0x3e5cc6f6	0.21560273
93	0xbda7ad2c	-0.08187327
94	0xbc4580b3	-0.01205461
95	0x3e0764f7	0.13222109
96	0xbd0b03c1	-0.033939127
97	0x3e427321	0.1898923
98	0x3da41810	0.08012402
99	0xbdc72149	-0.097231455
100	0xbdf10b5d	-0.117697455
101	0x3de3a5c3	0.11115601
102	0xbd49a8bd	-0.049233187
103	0xbdf68bc2	-0.120383754
104	0xbe4b22c8	-0.19837487
105	0xbe4b0a14	-0.19828063
106	0xbe478982	-0.19486049
107	0x3e086342	0.13319114
108	0xbd7963d5	-0.060886223
109	0x3deb0259	0.11475057
110	0xbbd3f403	-0.0064682974
111	0x3b583218	0.0032988843
112	0xbde5213d	-0.1118798
113	0x3dc5684e	0.09639035
114	0xbdcad3c6	-0.09903674
115	0xbe20a107	-0.15686427
116	0xbe02b252	-0.12763336
117	0x3e1a5640	0.15071964
118	0xbe506cb1	-0.20353962
119	0x3da441de	0.08020376
120	0x3e1543df	0.14576672
121	0x3b9700f1	0.0046082665
122	0x3e4383bb	0.1909322
123	0x3e4e248a	0.20131126
124	0x3d3d0c1d	0.04615413
125	0xbe19a7f4	-0.15005475
126	0xbd8dd462	-0.069252744
127	0xbd32909c	-0.04359494
128	0x3d2affd8	0.041747898
129	0xbddbfa56	-0.10741107
130	0xbd1423e1	-0.03616703
131	0xbca482c0	-0.020081878
132	0xbd692b4a	-0.05692605
133	0x3c7337e6	0.01484487
134	0x3e369c24	0.17833
135	0x3da412f6	0.08011429
136	0x3cacb4fa	0.02108239
137	0xbe266294	-0.16248542
138	0xbcef72a9	-0.029229479
139	0xbdb131a8	-0.08652049
140	0x3d54d009	0.05195621
141	0x3dc7e497	0.09760397
142	0xbdc2603e	-0.09491013
143	0x3e0a735d	0.1352057
144	0x3d9472fa	0.072484925
145	0xbd21efbb	-0.039535265
146	0x3d62e49a	0.055393793
147	0x3b11c16a	0.0022240528
148	0x3d9dae95	0.076993145
149	0x3e135500	0.14387894
150	0x3dd9fc77	0.10643857
151	0xbe580168	-0.21094286
152	0x3df42226	0.11920576
153	0x3e150554	0.14552814
154	0xbe1cdd29	-0.15318741
155	0x3cefd2b4	0.029275276
156	0x3dfdc826	0.12391691
157	0xbd3e6703	-0.04648496
158	0xb9414eed	-0.00018435316
159	0xbb67537f	-0.003529757
160	0x3dc8f133	0.0981163
161	0x3dab5645	0.08366064
162	0x3e1560b5	0.14587672
163	0x3d14fb05	0.036372203
164	0x3dee3d9b	0.11632844
165	0xbde20625	-0.11036328
166	0x3e19aeee	0.15008137
167	0xbe32dfe5	-0.17468221
168	0x3e43752e	0.19087669
169	0xbe3d174c	-0.18465918
170	0xbde3e95c	-0.11128494
171	0xbe29bdb7	-0.16576277
172	0xbc26ecbb	-0.010188277
173	0xbdfbe99d	-0.123004176
174	0x3ddaddcc	0.10686836
175	0xbd547fd9	-0.051879738
176	0x3dd325ad	0.103099205
177	0xbd771fd2	-0.06033308
178	0x3d211831	0.03932971
179	0xbd4d05d3	-0.050054383
180	0xbdf5c568	-0.12000543
181	0xbcf2cc39	-0.029638397
182	0x3b8e74cf	0.0043474208
183	0xbe284f46	-0.1643649
184	0xbd38392b	-0.044976395
185	0xbdf6b800	-0.12046814
186	0x3e1ed055	0.1550916
187	0xbc26d494	-0.0101825185
188	0xbe356eb4	-0.17718011
189	0xbca13f38	-0.019683465
190	0xbe27000f	-0.16308616
191	0xbdec51d6	-0.115390465
192	0x3de92b11	0.113851674
193	0x3d6e8a04	0.05823709
194	0xbe32d90b	-0.17465608
195	0x3e37bf79	0.17944135
196	0x3d838bed	0.06423173
197	0xbe1605c5	-0.14650638
198	0xbe002939	-0.12515725
199	0xbe25c0a0	-0.16186762
200	0x3e1565bb	0.14589588
201	0x3dd9a6c9	0.10627515
202	0xbe3349ab	-0.17508571
203	0x3c83e74d	0.016101504
204	0xbe175dcb	-0.14781873
205	0x3d14c824	0.03632368
206	0xbdb8c772	-0.09022416
207	0xbc0e6978	-0.008692138
208	0x3e04e159	0.12976588
209	0xbe179cdf	-0.14805935
210	0x3ea45e21	0.32103065
211	0x3e0a2878	0.13492
212	0x3a5b40e2	0.00083638553
213	0x3e089aab	0.13340251
214	0x3d9d0760	0.07667422
215	0xbce4ef5f	-0.027946172
216	0xbceed62f	-0.029154865
217	0x3ccac315	0.024751225
218	0x3dfbeb8a	0.12300785
219	0x3e3246b2	0.1740978
220	0xbe17e9f5	-0.14835341
221	0x3df956e0	0.12174773
222	0x3defbfe3	0.11706521
223	0xbd22f2d1	-0.03978235
224	0xbde9b6c4	-0.11411813
225	0x3e5de281	0.21668436
226	0x3e8ed837	0.27899334
227	0x3eb9f433	0.36319122
228	0x3e9ddcfd	0.30832663
229	0x3d10bd6e	0.035336904
230	0x3c34699a	0.0110115055
231	0x3c42a498	0.0118800625
232	0x3d831c56	0.06401889
233	0xbe475859	-0.19467296
234	0xbe11b997	-0.14230953
235	0x3e941153	0.28919467
236	0x3eb5a5ea	0.35478145
237	0x3e17bae7	0.14817391
238	0x3e50f9db	0.20407812
239	0x3e1b42a9	0.15162148
240	0x3e217329	0.15766586
241	0xbdc051f3	-0.093906306
242	0xbe20e9a4	-0.15714127
243	0x3d575fde	0.05258166
244	0xbe42aafc	-0.19010538
245	0xbe000a36	-0.12503895
246	0x3df4c3d6	0.11951415
247	0xbc1bcc54	-0.009509165
248	0x3caad997	0.020855708
249	0x3de7762e	0.11301838
250	0x3e456e81	0.19280435
251	0x3d0b3eaf	0.033995327
252	0x3d05fbb3	0.032710742
253	0x3de4b7b6	0.111678526
254	0xbd02b5ae	-0.031911545
255	0xbb0c1533	-0.002137494

conv_3_B f4 [10]
0	0x3da2087a	0.07911773
1	0xbca32abb	-0.019917836
2	0x3dce1cff	0.10064124
3	0x3d099c13	0.03359611
4	0xbd3ce3d1	-0.0461157
5	0x3daea6a5	0.08527879
6	0xbc19c727	-0.0093858605
7	0x3d9df549	0.077128
8	0x3d99743d	0.07492874
9	0x3d847a59	0.064686485

conv_4_W f4 [5, 10, 3, 1]
0	0x3eaa9fd4	0.33325064
1	0xbe8d98ef	-0.27655742
2	0x3e7939a9	0.24338402
3	0xbe84cba0	-0.25936604
4	0xbd8940d7	-0.0670182
5	0xbe5d67a6	-0.2162157
6	0x3ea53930	0.32270193
7	0x3f105fad	0.5639599
8	0x3edb7b87	0.4286768
9	0xbeb03a02	-0.34419256
10	0x3e9acf6f	0.30236384
11	0xbd87dc6f	-0.06633841
12	0xbea8cca3	-0.32968625
13	0xbe1264a5	-0.14296205
14	0x3eaff921	0.34369758
15	0xbf1cf36b	-0.61308926
16	0xbf279d5f	-0.65474504
17	0xbebfbeb7	-0.3745019
18	0xbe223f20	-0.15844393
19	0x3e4e8c35	0.20170672
20	0xbe59765a	-0.21236554
21	0x3c6c80a7	0.01443497
22	0xbe1516a4	-0.14559418
23	0xbddbe77a	-0.1073751
24	0x3ed437b8	0.4144876
25	0xbe43ad9c	-0.19109195
26	0xbe91aebd	-0.28453627
27	0x3cdfdb28	0.027326182
28	0x3e4f0fd4	0.20220882
29	0xbe52a48c	-0.20570582
30	0xbe669acb	-0.22519986
31	0xbc932ca4	-0.017965622
32	0x3e96fa20	0.29487705
33	0xbe93ed0c	-0.2889179
34	0x3e9bb3c7	0.30410597
35	0xbe960585	-0.29301086
36	0xbcd886dc	-0.026431493
37	0xbd7c7d5b	-0.061642986
38	0xbe98e643	-0.29863176
39	0xbe871fec	-0.26391542
40	0x3d9b5619	0.07584781
41	0x3e5bffa6	0.21484241
42	0xbce5ebca	-0.028066535
43	0x3dd6d09b	0.10489007
44	0x3e5e97e7	0.21737634
45	0x3e498f4f	0.19683574
46	0xbe019ad3	-0.12656717
47	0xbe8354ee	-0.25650734
48	0x3e0d9d74	0.13829595
49	0xbe0bdf9a	-0.13659516
50	0x3e8a053f	0.26957127
51	0x3ec693d4	0.3878466
52	0x3d62a7e8	0.05533591
53	0x3e23a53d	0.15981002
54	0x3ee7db57	0.4528453
55	0x3dd1dd0c	0.102472395
56	0x3e77bf48	0.24194062
57	0xbc18a195	-0.009315868
58	0x3d275f32	0.04086227
59	0x3ecab917	0.39594337
60	0x3e9ed150	0.31019068
61	0x3dfe985e	0.124314055
62	0xbe652c5a	-0.223802
63	0x3ec56270	0.38551664
64	0x3e26d7ad	0.16293211
65	0xbe5f47cd	-0.21804734
66	0xbea125f5	-0.3147427
67	0xbd8f4bcf	-0.06996881
68	0xbea30f46	-0.3184759
69	0xbdf33f75	-0.11877338
70	0xbeaac868	-0.33356023
71	0x3eae69e0	0.3406515
72	0xbeb58a86	-0.35457247
73	0x3e10d089	0.1414205
74	0x3ea5cc8d	0.32382622
75	0x3e975a8f	0.29561278
76	0xbcbdf0f4	-0.023186184
77	0x3e9610a4	0.2930957
78	0xbe9371ff	-0.2879791
79	0x3e55ea65	0.20890196
80	0x3e8b29ba	0.27180272
81	0xbea6b3f5	-0.3255917
82	0xbe2c1ecb	-0.16808622
83	0x3cd82569	0.026385026
84	0xbddbd6d2	-0.10734333
85	0x3e0ddcbb	0.13853733
86	0x3e5eb176	0.21747383
87	0xbe205cc9	-0.15660395
88	0x3c621c02	0.013800623
89	0xbeb986bb	-0.36235604
90	0x3e851ac2	0.25996977
91	0x3e69d12e	0.22833702
92	0x3ea91d4e	0.3303017
93	0x3e34f3c7	0.17671119
94	0x3ead65fa	0.33866864
95	0x3e228151	0.15869643
96	0x3daca7f5	0.08430473
97	0x3e3dcee6	0.18535957
98	0xbe4a7e58	-0.19774759
99	0x3e5bf315	0.21479447
100	0xbea0f2ea	-0.3143533
101	0x3c87b539	0.016565906
102	0xbda0b2f2	-0.07846631
103	0xbe84cf09	-0.25939205
104	0x3e4a0345	0.1972781
105	0x3e8c1026	0.2735607
106	0xbd8e1c91	-0.06939042
107	0xbe10b9c5	-0.14133365
108	0xbeae4a64	-0.3404113
109	0xbe6c4116	-0.23071703
110	0x3e84e01b	0.2595223
111	0x3e62eb61	0.22160102
112	0x3e3dcd7d	0.18535419
113	0x3e8d9c49	0.276583
114	0x3e968f4e	0.29406208
115	0x3e91cfd5	0.28478876
116	0xbd7eb686	-0.062185787
117	0xbcb15b5e	-0.021650013
118	0x3e0ea0b6	0.13928494
119	0x3e947ce1	0.29001525
120	0xbcb0556f	-0.021525113
121	0xbea4f5e7	-0.3221886
122	0x3eaaf0c4	0.33386815
123	0xbd63227d	-0.055452812
124	0x3d90c001	0.07067872
125	0xbe8feea9	-0.2811177
126	0x3ecc6989	0.39924267
127	0x3ecf58d1	0.4049745
128	0x3ebb44d3	0.36575946
129	0x3de6828f	0.11255371
130	0xbd658230	-0.05603236
131	0x3e371713	0.17879896
132	0x3e8256b0	0.25456762
133	0xbdeab42f	-0.114601485
134	0xbe29be2d	-0.16576453
135	0x3ea7400c	0.3266605
136	0x3d952321	0.07282091
137	0x3eb2f911	0.34955648
138	0x3e1473ac	0.1449725
139	0xbde62ba3	-0.11238792
140	0x3e3ee80e	0.1864321
141	0x3e8bb96f	0.27289912
142	0xbe951c83	-0.29123315
143	0x3ea5555c	0.32291687
144	0xbc32869f	-0.010896354
145	0xbe09efed	-0.1347043
146	0x3e297dd1	0.16551901
147	0xbe525031	-0.20538403
148	0xbe3d97ea	-0.18514982
149	0x3d626d4f	0.055280026

conv_4_B f4 [5]
0	0x3e80d9ae	0.25166076
1	0x3d9e7e54	0.07738939
2	0x3ca635a9	0.020289259
3	0x3da51fa5	0.08062676
4	0x3d9917bf	0.07475232

fc_1_W f4 [100, 5, 6, 20]
0	0x08cb43ea	1.2233585e-33
1	0x3be03b5d	0.006843014
2	0x86920566	-5.492703e-35
3	0x08bc0ec5	1.1318311e-33
4	0x85f132a0	-2.2682128e-35
5	0x0982545a	3.1375685e-33
6	0x88103cf8	-4.340509e-34
7	0x3cd57090	0.02605465
8	0x06c806b8	7.524151e-35
9	0x3a6a2f5e	0.000893345
10	0x888ae7bf	-8.360056e-34
11	0x3b9371e5	0.0044996613
12	0x38a5e803	7.911029e-05
13	0xbc9d6586	-0.01921345
14	0x3c237d00	0.009978533
15	0x878eaba8	-2.1466676e-34
16	0x84d58a00	-5.0202792e-36
17	0xbc3fafbf	-0.011699616
18	0x0882736d	7.851227e-34
19	0x88b77d06	-1.1043305e-33
20	0x0827fbd2	5.055075e-34
21	0x8842afb1	-5.8586276e-34
22	0x080569a7	4.0147425e-34
23	0x87dd9035	-3.3337141e-34
24	0x8717d870	-1.1423583e-34
25	0x8878c079	-7.4856036e-34
26	0x0818e651	4.601157e-34
27	0xb0ad31a9	-1.2601521e-09
28	0xbca22a36	-0.019795518
29	0xbccd71b0	-0.025078624
30	0x886c59ab	-7.112407e-34
31	0x3bd006f7	0.0063484865
32	0xbbafc83c	-0.005364446
33	0xbc825866	-0.015911292
34	0xba2645ee	-0.0006342818
35	0xbcaf027c	-0.02136349
36	0xb89c5946	-7.455288e-05
37	0x3b201aa4	0.0024429942
38	0x079ee26c	2.3906277e-34
39	0x070f0390	1.0759171e-34
40	0x088ea6d8	8.585539e-34
41	0x07c5a34f	2.973725e-34
42	0x07ae375a	2.6213143e-34
43	0x08432563	5.8724626e-34
44	0x86861cec	-5.0447695e-35
45	0x881f1897	-4.7876227e-34
46	0x88e12f7c	-1.3552858e-33
47	0xbd11e3d7	-0.035617676
48	0x3b9609e2	0.004578815
49	0x3d25eb78	0.040507764
50	0x08c80d4b	1.2040187e-33
51	0xb7e1af4f	-2.6903725e-05
52	0xbb4b1e5e	-0.0030993442
53	0xbbdf2615	-0.0068099597
54	0xbc268233	-0.010162878
55	0x89117e49	-1.751312e-33
56	0x08e046b6	1.3498134e-33
57	0x07f9a479	3.7562024e-34
58	0x080c9020	4.2299136e-34
59	0x86d44025	-7.983979e-35
60	0xae8b8336	-6.344296e-11
61	0x88d0a965	-1.2558369e-33
62	0x077b5074	1.8906784e-34
63	0x08c96b71	1.2122507e-33
64	0x87ddd950	-3.338011e-34
65	0x898b6aa2	-3.356331e-33
66	0x87fccb2a	-3.8036155e-34
67	0x3d0ffd9c	0.03515397
68	0xbd85f601	-0.06541062
69	0x3d3a7b4d	0.045527745
70	0x8774a814	-1.8405914e-34
71	0xb8360fb1	-4.3406795e-05
72	0xb9a57118	-0.00031555514
73	0xbaf9deea	-0.0019063626
74	0x8737b9f0	-1.3822032e-34
75	0x3cc4308a	0.023948926
76	0xba142508	-0.000565127
77	0x075faf42	1.6828159e-34
78	0x8943ae72	-2.3554295e-33
79	0x081bcf02	4.6886952e-34
80	0xb7098388	-8.196461e-06
81	0x07c9be97	3.0355137e-34
82	0x890094bc	-1.5477374e-33
83	0x87acb9be	-2.5988853e-34
84	0x844364d8	-2.2968445e-36
85	0x097015f3	2.889927e-33
86	0x09c3c579	4.7130245e-33
87	0xba0c95a8	-0.00053628767
88	0x3d5f3df0	0.054502428
89	0x3c2035e7	0.009778476
90	0x095621d4	2.5775219e-33
91	0x0991d360	3.5106256e-33
92	0x88e48cff	-1.3755399e-33
93	0x3c1863b4	0.009301115
94	0x3b0cfbd1	0.00215124
95	0xb4170b24	-1.4067024e-07
96	0xbabd54bc	-0.0014444808
97	0x2a961aec	2.6664033e-13
98	0x86bca068	-7.0953436e-35
99	0x0882eb38	7.87939e-34
100	0x88d2b242	-1.26808235e-33
101	0xbc522644	-0.012826506
102	0x8911922b	-1.7522468e-33
103	0x886a5fc3	-7.052938e-34
104	0x8869ba4b	-7.0334873e-34
105	0x88bb38c2	-1.1267997e-33
106	0x0900464d	1.5440495e-33
107	0x3793ab38	1.7603496e-05
108	0x3d884544	0.06653836
109	0xbb816d39	-0.003949788
110	0x093eef26	2.2982865e-33
111	0xba0bd191	-0.0005333657
112	0x06e3dd12	8.5712743e-35
113	0x3cbbeeda	0.022941042
114	0x36dfb39b	6.6668267e-06
115	0xba6ac947	-0.0008956384
116	0x07c3f078	2.9481674e-34
117	0x897f6b1d	-3.0744873e-33
118	0x0901e0ae	1.5633454e-33
119	0x081892ee	4.591355e-34
120	0xbda0cd6d	-0.07851682
121	0xbd0e9bb2	-0.03481645
122	0xbced6e9b	-0.028983405
123	0xbd5a5af8	-0.05330941
124	0x3cdf079d	0.02722531
125	0x3ceacbeb	0.028661689
126	0x3c807119	0.01567893
127	0xbcbf8828	-0.023380354
128	0xbdcc6563	-0.099802755
129	0xbdcb359a	-0.09922333
130	0xbdc27167	-0.09494286
131	0x3cb2232f	0.021745292
132	0x3c93d9da	0.018048216
133	0x3d078d6a	0.033093847
134	0xbdd7ae09	-0.105312414
135	0xbd90a6f4	-0.07063094
136	0x3b9821cf	0.004642702
137	0xbd91ed87	-0.07125383
138	0xbd50ab06	-0.05094435
139	0x3d04024b	0.03222875
140	0x390bb011	0.00013321663
141	0xbdb9af8e	-0.090666875
142	0x3b8a3d0b	0.0042187027
143	0x3d4b84d4	0.04968722
144	0xbc823bed	-0.015897715
145	0xbda73859	-0.08165044
146	0xbd14e7b3	-0.036353778
147	0xbcd0519e	-0.025429543
148	0x3d85d41f	0.065345995
149	0xbd7991b2	-0.06092996
150	0xbbe4c214	-0.0069811437
151	0x3b8cba52	0.004294672
152	0x3d29521c	0.04133807
153	0xbddc5592	-0.10758509
154	0xbdbf44a3	-0.09339263
155	0xbc243ad4	-0.010023791
156	0x3b861775	0.0040921518
157	0xbd7aa681	-0.061193947
158	0xbdc017d8	-0.09379548
159	0xbd86fbca	-0.06590994
160	0x3c69eb5d	0.014277306
161	0x3d756b13	0.059916567
162	0x3d75f238	0.06004545
163	0x3d63e27d	0.055635918
164	0xbdc1592d	-0.09440837
165	0xbc82f365	-0.0159852
166	0x3b8aaf16	0.0042322977
167	0xbc1e811b	-0.009674336
168	0x3c9c97ea	0.019115407
169	0xbd862e26	-0.06551771
170	0x3d7b95aa	0.061422028
171	0xbc1355bc	-0.008992609
172	0x3d500ff6	0.05079647
173	0xbddf0c29	-0.10890991
174	0xbd659d34	-0.056058124
175	0xbdb0f5c5	-0.08640627
176	0xbbe061d9	-0.006847602
177	0xbd9283da	-0.07154055
178	0xbd9bbb49	-0.07604081
179	0xbccc5328	-0.024941996
180	0x3d15405c	0.03643833
181	0xbd3bd150	-0.045853913
182	0x3d1b5519	0.037922952
183	0xbd01c43e	-0.03168129
184	0xbdec0bdd	-0.115257
185	0x3bbb0d0b	0.005708342
186	0xbd89e6fd	-0.06733511
187	0xbdbb16c9	-0.09135205
188	0xbc82fd80	-0.015990019
189	0xbd8738b2	-0.06602611
190	0x3d702e88	0.058638126
191	0xbd96a30d	-0.07355318
192	0x3d373866	0.04473152
193	0xbdb48b9b	-0.0881569
194	0xbd0494bc	-0.032368407
195	0xbd626b33	-0.055278014
196	0xbd5cbad4	-0.05388911
197	0x3d390fe6	0.045181178
198	0x3b79f82d	0.003814231
199	0x3c6286c4	0.013826076
200	0xbdc78d4a	-0.097437456
201	0xbdb9110d	-0.09036455
202	0xbd6833a7	-0.056689885
203	0x3cbf49bd	0.02335059
204	0x3c3365b0	0.010949537
205	0xbd5d1f64	-0.053985015
206	0xbdb6a7d8	-0.089187324
207	0xbb249ca9	-0.002511779
208	0xbdbd5b51	-0.09245933
209	0xbd454320	-0.04815972
210	0x3c0e60cf	0.008690073
211	0x3c2c753b	0.010525997
212	0xbd7b3c95	-0.061337072
213	0xbdbed982	-0.0931883
214	0x3d82065d	0.0634887
215	0x3d1fb9d1	0.038995568
216	0x3d7a320d	0.06108289
217	0xbd7585cd	-0.059942055
218	0xbdbd74a8	-0.09250766
219	0xbd704c2d	-0.058666397
220	0x3d02b38a	0.031909503
221	0xbd7d6012	-0.061859198
222	0x3d834618	0.06409854
223	0x3cef0f01	0.02918196
224	0xbd97f73e	-0.074202046
225	0x3c0f3891	0.008741514
226	0x3b767e2c	0.0037611825
227	0x3d81f31d	0.06345198
228	0x3cce1925	0.025158474
229	0xbd58435a	-0.052798606
230	0xbd7c33a6	-0.061572693
231	0xbd5cef1b	-0.053938966
232	0xbbfe0079	-0.007751521
233	0xbde6350f	-0.11240589
234	0x3d1ed67c	0.038778767
235	0xbcdd897f	-0.027043102
236	0xbd0bc06d	-0.03411906
237	0xbdc2f254	-0.09518877
238	0x3d1560b7	0.036469188
239	0xbdc14c28	-0.09438354
240	0x08ebdc9e	1.4195415e-33
241	0x85d5ede8	-2.0117817e-35
242	0x88413486	-5.8140566e-34
243	0x0945bd62	2.380206e-33
244	0x0bff4430	9.8325024e-32
245	0x08ebd928	1.4194601e-33
246	0x895f8341	-2.6904364e-33
247	0xbd409d3d	-0.047024954
248	0x88e19c39	-1.3578423e-33
249	0xbd06493c	-0.032784685
250	0x3d7c6fac	0.061629936
251	0x358f80db	1.0691832e-06
252	0x3be097cf	0.0068540345
253	0xbd4cd23c	-0.050005183
254	0xbc6684f3	-0.0140697835
255	0xbda14450	-0.07874358

fc_1_B f4 [100]
0	0xbcbca4eb	-0.023027858
1	0x3da63f7d	0.08117578
2	0xbc9396e0	-0.018016279
3	0x3d51f377	0.051257577
4	0xbc939735	-0.018016437
5	0xbcc7066b	-0.024295053
6	0xbcf03f45	-0.029327044
7	0xbc9aa84d	-0.01887908
8	0x3d985ffb	0.07440182
9	0xbccc8099	-0.024963664
10	0x3d8f2b7b	0.06990715
11	0x3decc2ad	0.11560569
12	0xbc9cb4b2	-0.019129131
13	0x3db29539	0.08719868
14	0xbce03e15	-0.027373353
15	0x3d9bdf60	0.07610965
16	0xbcd2ae5c	-0.025717907
17	0xbc9b925e	-0.018990692
18	0xbcd0e50a	-0.02549984
19	0xbcf1ef14	-0.029532947
20	0xbc9396b7	-0.018016202
21	0xbce448ea	-0.0278668
22	0x3ddc9a68	0.10771638
23	0x3da86fad	0.082244255
24	0x3d91e656	0.07124011
25	0xbc9b74cc	-0.018976592
26	0x3d9c999c	0.07646486
27	0xbcacd720	-0.021098673
28	0x3da547e2	0.08070351
29	0xbc950551	-0.018191012
30	0xbd126496	-0.035740457
31	0x3da20c24	0.07912472
32	0x3d8e524a	0.06949289
33	0x3db34505	0.08753399
34	0xbd08f39f	-0.03343546
35	0xbcb1a970	-0.02168724
36	0xbc8e16c9	-0.01734485
37	0x3d8e0c1b	0.06935903
38	0xbc99a52c	-0.018755518
39	0x3da5a7fd	0.08088682
40	0xbca23162	-0.019798938
41	0xbc94ca4d	-0.01816287
42	0xbc9a2aa7	-0.018819166
43	0xbccb3859	-0.024807142
44	0xbc9845ef	-0.018588034
45	0xbcbfbb4e	-0.023404744
46	0xbd093fdd	-0.03350817
47	0x3dd1e541	0.10248805
48	0x3d958453	0.073006295
49	0xbc983c19	-0.018583344
50	0xbc975b33	-0.018476104
51	0x3db6ec0f	0.08931743
52	0x3df57b01	0.11986352
53	0xbca25d7c	-0.019819967
54	0x3dfe3055	0.12411562
55	0x3dbfd6fa	0.093671754
56	0xbcd7c0da	-0.026337076
57	0xbc991425	-0.018686363
58	0xbca3509c	-0.019935898
59	0xbc944613	-0.01809982
60	0xbcfcc651	-0.030856283
61	0xbcca1444	-0.024667867
62	0xbc9b4213	-0.018952405
63	0xbca809f4	-0.020512559
64	0xbc939754	-0.018016495
65	0xbcbbe542	-0.022936467
66	0xbca3fdc4	-0.020018466
67	0x3d8f515b	0.06997939
68	0x3da19b9d	0.07891009
69	0x3db3b225	0.08774213
70	0xbc9c8732	-0.019107435
71	0xbc8e6677	-0.017382843
72	0x3dd76704	0.105176955
73	0x3da4b4af	0.08042275
74	0x3dadf8fe	0.08494757
75	0x3db8a595	0.09015957
76	0xbc9b881c	-0.0189858
77	0x3d94010a	0.07226761
78	0x3e03d804	0.12875372
79	0x3db5c142	0.088747516
80	0x3db69d38	0.08916706
81	0xbcd3498a	-0.025791902
82	0x3db4ec8b	0.088341795
83	0xbd014c47	-0.031566884
84	0x3ddc0160	0.1074245
85	0xbcada752	-0.021197949
86	0x3dbb7d46	0.091547534
87	0xbc99ec6e	-0.018789496
88	0xbcabd9c1	-0.020977857
89	0x3d9b73fc	0.07590482
90	0x3dc83bdb	0.097770415
91	0xbc939750	-0.018016487
92	0x3debbf77	0.115111284
93	0x3dc60fb4	0.09670964
94	0xbc8368ac	-0.016041122
95	0x3d9273db	0.07151004
96	0xbc95c059	-0.018280195
97	0x3e097c48	0.13426316
98	0xbc939760	-0.018016517
99	0x3d8e40f6	0.06945984

fc_2_W f4 [1, 100, 1, 1]
0	0xbe575278	-0.21027553
1	0x3e571501	0.21004106
2	0xba746a9b	-0.0009323747
3	0x3ea17de5	0.31541362
4	0xbd8be320	-0.0683043
5	0xbe4f033e	-0.2021608
6	0xbda7b7eb	-0.081893764
7	0xbd15b018	-0.03654489
8	0x3e84215a	0.25806695
9	0x3c0a391a	0.008436466
10	0x3eb02ab8	0.34407592
11	0x3dd7e2c5	0.105413
12	0xbdfc4f47	-0.123198085
13	0x3e47d15b	0.19513457
14	0xbdaf3b7f	-0.0855627
15	0x3e65795b	0.22409575
16	0xbdd819e6	-0.10551815
17	0xbd15b419	-0.036548708
18	0xbde59f43	-0.112120174
19	0xbe468aef	-0.19388936
20	0xbbb58d38	-0.005540516
21	0xbd590fbd	-0.052993525
22	0x3dec09f7	0.11525338
23	0x3e38195c	0.17978424
24	0x3e78d623	0.24300437
25	0xbb7c27ba	-0.0038475827
26	0x3e9016df	0.2814245
27	0xbd1d34e0	-0.038380504
28	0x3e5ba550	0.2144978
29	0xbe41f287	-0.18940173
30	0xbdc18f31	-0.0945114
31	0x3e54e612	0.2079089
32	0x3eac431c	0.3364495
33	0x3e352184	0.17688566
34	0xbda55dd7	-0.08074539
35	0xbd5850a0	-0.052811265
36	0x3d53e11f	0.051728364
37	0x3e8e49d9	0.27790716
38	0xbdb88465	-0.09009627
39	0x3e4e8374	0.20167333
40	0x3c23d16f	0.009998663
41	0xbde4fee9	-0.11181433
42	0xbd8cc15a	-0.068728164
43	0xbe1dd189	-0.15411963
44	0xbccb9cda	-0.024855066
45	0xbd9ae96b	-0.07564052
46	0xbce7bc97	-0.028288169
47	0x3df0e7a2	0.117629305
48	0x3e95e9b2	0.29279858
49	0xbd8c3fe7	-0.06848126
50	0xbe3643dd	-0.17799325
51	0x3e3085c3	0.17238526
52	0x3dda5a1b	0.106617175
53	0xbe238e3f	-0.15972231
54	0x3e36d9a2	0.17856458
55	0x3e13d88e	0.14438078
56	0x3bf5e48b	0.007504051
57	0xbc6345d1	-0.013871626
58	0xbe42e692	-0.19033268
59	0xbe0c4636	-0.13698658
60	0xbd83cee0	-0.06435943
61	0xbe46aa87	-0.19400989
62	0xbd89476d	-0.067030765
63	0xba7e8faf	-0.00097107416
64	0xbda814e1	-0.08207107
65	0xbe0a5f93	-0.13513021
66	0xbe58c380	-0.21168327
67	0x3eb21c4f	0.34787223
68	0x3e53e2ab	0.20691936
69	0x3e196404	0.14979559
70	0xbd8c790d	-0.06859026
71	0x3c86721e	0.016411837
72	0x3df45ef1	0.11932171
73	0x3e60ef1e	0.21966216
74	0x3e228eef	0.15874837
75	0x3e173dc9	0.14769663
76	0xbdaefe53	-0.08544602
77	0x3e7e8e46	0.2485896
78	0x3dd37d9e	0.10326694
79	0x3e1495a6	0.14510211
80	0x3e2ecfbe	0.17071435
81	0xbe00068b	-0.12502496
82	0x3e2b351e	0.16719481
83	0xbe016619	-0.12636603
84	0x3de856f9	0.11344714
85	0xbe21d957	-0.15805565
86	0x3e1d10d8	0.15338457
87	0xbdccf9e1	-0.10008598
88	0xbd009119	-0.031388376
89	0x3e83d4c5	0.25748268
90	0x3e055898	0.13022077
91	0xbc1d89b7	-0.009615353
92	0x3ddfc775	0.10926715
93	0x3e0a2b04	0.13492972
94	0xbdbe0872	-0.092789546
95	0x3eb99782	0.36248404
96	0xbe5df72a	-0.21676317
97	0x3dd4733a	0.1037354
98	0xbe233a4b	-0.15940206
99	0x3e8b781d	0.27240077
