code/nnv/examples/NNV3.0/ToolComparison/benchmarks/collins_rul/onnx/NN_rul_small_window_20.onnx (onnx, 245236 bytes, 11 tensors)

conv_1_W f4 [5, 1, 5, 1]
0.1629151 0.3910406 0.09587079 0.31523848 -0.1178075 0.10509414 0.47320825 0.44370258
-0.110205024 0.12043075 -0.5609819 -0.5345787 -0.059190344 -0.12786105 -0.27674863 0.5114982
0.50460726 0.43588278 0.38478565 0.24077918 -0.15620549 0.23408404 -0.42039642 -0.49832886
0.2491221
00000000: 37d3 263e 7936 c83e e857 c43d f066 a13e
00000010: 0f45 f1bd 993b d73d 5a48 f23e fc2c e33e
00000020: 2cb3 e1bd 66a4 f63d 839c 0fbf 26da 08bf
00000030: 9371 72bd 02ee 02be ffb1 8dbe 8cf1 023f
00000040: f12d 013f 072c df3e a002 c53e d18e 763e
00000050: 55f4 1fbe bab3 6f3e 333e d7be f624 ffbe
00000060: dd19 7f3e

conv_1_B f4 [5]
0.24761838 0.16255234 0.10590101 0.16504322 0.103721
00000000: ac8f 7d3e 1f74 263e a1e2 d83d 1701 293e
00000010: ad6b d43d

conv_2_W f4 [10, 5, 5, 1]
-0.16312681 -0.09754763 -0.090594016 -0.06377631 0.009450146 -0.20842266 0.32896948 -0.06670117
0.07620503 -0.16274165 0.25011557 0.23517138 0.14882293 0.17474689 0.22086465 0.28973266
0.3215245 -0.15325725 -0.101479605 0.10903013 0.22767009 0.1285639 0.2793665 0.15377277
0.13770826 0.20302452 0.1978134 0.07495423 0.16796376 0.32095268 0.142562 0.34040552
-0.0970249 0.107076205 0.14693607 -0.09933285 -0.034450334 -0.2795289 0.18195924 -0.36383137
0.13902065 0.06461667 0.018790254 0.29987645 0.07010675 0.35567793 0.25360838 -0.18863072
0.3301509 0.01502019 0.26508147 -0.15427572 0.17552806 -0.22181386 0.23404957 0.20492542
-0.2483588 0.28989485 0.09305862 0.1173136 0.14243565 -0.016397806 0.32312548 0.19424416
0.278835 0.070869684 -0.12324146 -0.12806728 0.3179226 -0.18922386 0.28094694 0.32925996
0.15147988 0.3140987 0.20666686 0.049625628 0.34101495 0.23403175 0.34906873 0.07304753
0.11940319 0.29164144 0.02654197 0.14145218 0.25430232 0.018656978 0.3679914 0.09840359
0.33549318 0.00888405 0.052720975 -0.05122259 -0.007741145 0.22044688 0.063344255 -0.1145907
0.27276328 -0.09539053 -0.13354647 0.11595076 0.0049749054 -0.22275317 0.0014505162 0.02661299
-0.24782944 0.13530941 0.08120165 -0.024052164 0.1662827 0.10109345 -0.17705083 0.1607748
0.023137027 -0.24081033 -0.21005277 -0.24577793 0.14830723 -0.09956719 -0.24915422 -0.1537853
0.02392352 -0.14226608 -0.18215178 -0.02921949 -0.17043625 0.3408088 -0.13824545 0.27660674
0.19923562 0.1491642 0.008076191 0.31394556 0.037749797 0.01890556 -0.11829174 -0.21386752
-0.14052376 -0.052932225 0.21082827 0.13475685 0.20998424 0.25063416 0.16110548 0.32558385
0.29716447 0.1752314 0.25916627 0.2043249 0.22968827 -0.0651458 -0.2911145 -0.07173243
-0.31294572 0.1585078 0.008151376 -0.027364919 0.09190463 -0.042670384 -0.204801 -0.19215472
-0.312441 -0.042467155 0.2084007 -0.12912208 0.07212504 -0.12297915 0.16641957 0.2325452
0.027885575 -0.06599613 0.021187091 -0.25110045 0.0720664 0.09457754 0.05891494 0.029997187
0.2977685 0.3378789 -0.03511892 -0.03719302 0.12143272 0.2827941 0.23300073 0.19307134
0.19042905 0.24015838 0.2546124 -0.16935354 0.06839754 0.09689918 0.0613057 0.11221607
-0.17368996 0.21384996 0.1864647 0.26962727 0.13897121 -0.17717147 0.17508677 0.023496993
-0.12139228 0.01119697 -0.4214008 -0.3227449 -0.38825342 0.06593615 0.16994153 -0.17872287
-0.18566611 -0.1502196 0.34986615 0.012373515 0.1331082 0.25063312 -0.06999757 -0.3024675
-0.1913058 0.13859083 -0.08659476 -0.3304499 0.104101576 0.037086472 -0.08594646 -0.036864605
-0.16799593 -0.13471432 0.35523465 -0.15704286 0.28380808 -0.08437331 0.36063412 -0.09886372
-0.15101612 0.10613457 0.16137326 0.23927733 0.08774865 0.2660569 0.096047066 0.09091918
0.27665135 0.21409039 0.15307897 0.396487 0.038287755 0.18003307 0.29804796 0.10535564
-0.15486881 0.18112674
00000000: b70a 27be 0dc7 c7bd 5b89 b9bd 279d 82bd
00000010: c9d4 1a3c c06c 55be b06e a83e 9f9a 88bd
00000020: 6211 9c3d bfa5 26be 260f 803e c4d0 703e
00000030: 0a65 183e d9f0 323e 582a 623e d757 943e
00000040: dc9e a43e 78ef 1cbe 8ad4 cfbd 304b df3d
00000050: 5922 693e 41a6 033e 2009 8f3e 9c76 1d3e
00000060: 6503 0d3e a9e5 4f3e 998f 4a3e 9a81 993d
00000070: b1fe 2b3e e953 a43e c6fb 113e a249 ae3e
00000080: feb4 c6bd c54a db3d 6976 163e 056f cbbd
00000090: cb1b 0dbd 691e 8fbe 8653 3a3e 1b48 babe
000000a0: 6e5b 0e3e bf55 843d 05ee 993c 6889 993e
000000b0: 2194 8f3d 6b1b b63e f5d8 813e 6928 41be
000000c0: 8a09 a93e 3e17 763c c2b8 873e 74fa 1dbe
000000d0: a1bd 333e 2c23 63be b1aa 6f3e f8d7 513e
000000e0: c551 7ebe 196d 943e 8595 be3d 1d42 f03d
000000f0: a7da 113e b154 86bc b470 a53e f1e7 463e
00000100: 76c3 8e3e 2024 913d 0566 fcbd 1224 03be
00000110: c0c6 a23e e6c3 41be 47d8 8f3e c394 a83e
00000120: 8b1d 1b3e 8bd1 a03e 7aa0 533e 3e44 4b3d
00000130: 8399 ae3e 05a6 6f3e 23b9 b23e f299 953d
00000140: a989 f43d 0752 953e 8c6e d93c d7d8 103e
00000150: ea33 823e 85d6 983c 5e69 bc3e d287 c93d
00000160: c3c5 ab3e 688e 113c f3f1 573d c7ce 51bd
00000170: 6ea9 fdbb d4bc 613e a2ba 813d 87ae eabd
00000180: a1a7 8b3e 1c5c c3bd 68c0 08be 9877 ed3d
00000190: 8804 a33b 6819 64be 3f1f be3a 7c03 da3c
000001a0: 00c7 7dbe 8d8e 0a3e 0d4d a63d 0b09 c5bc
000001b0: 0346 2a3e 150a cf3d d04c 35be 26a2 243e
000001c0: dd89 bd3c fc96 76be 1318 57be 36ad 7bbe
000001d0: dadd 173e e2e9 cbbd 4922 7fbe e579 1dbe
000001e0: 42fb c33c 33ae 11be ff85 3abe b65d efbc
000001f0: d786 2ebe 7e7e ae3e 3790 0dbe 669f 8d3e
00000200: 6c04 4c3e 80be 183e 0052 043c 79bd a03e
00000210: 889f 1a3d d5df 9a3c f142 f2bd 1600 5bbe
00000220: 76e5 0fbe 76cf 58bd 5ee3 573e b3fd 093e
00000230: 1c06 573e 1f53 803e d6f8 243e edb2 a63e
00000240: f125 983e dc6f 333e 71b1 843e 8c3a 513e
00000250: 6733 6b3e 296b 85bd f60c 95be 74e8 92bd
00000260: 6c3a a0be de4f 223e 598d 053c 652c e0bc
00000270: 7f38 bc3d 24c7 2ebd 5ab7 51be 35c4 44be
00000280: 44f8 9fbe 0af2 2dbd fe66 553e 9438 04be
00000290: 4bb6 933d 7edc fbbd e469 2a3e 5420 6e3e
000002a0: 4a70 e43c fb28 87bd 8d90 ad3c 3d90 80be
000002b0: 8c97 933d dfb1 c13d cb50 713d a9bc f53c
000002c0: 1d75 983e 77fe ac3e dbd8 0fbd b557 18bd
000002d0: b8b1 f83d 63ca 903e be97 6e3e 7eb4 453e
000002e0: d5ff 423e 14ec 753e 8e5c 823e 046b 2dbe
000002f0: 0214 8c3d 1473 c63d b01b 7b3d 8ad1 e53d
00000300: c8db 31be 7cfb 5a3e 9af0 3e3e 960c 8a3e
00000310: 784e 0e3e 706c 35be f249 333e c47c c03c
00000320: 849c f8bd 7f73 373c d8c1 d7be d23e a5be
00000330: 27c9 c6be 8809 873d 2705 2e3e 2103 37be
00000340: 421f 3ebe 2bd3 19be a821 b33e 49ba 4a3c
00000350: 844d 083e fc52 803e e35a 8fbd 05dd 9abe
00000360: abe5 43be c1ea 0d3e 9858 b1bd bb30 a9be
00000370: 3533 d53d fce7 173d b304 b0bd 57ff 16bd
00000380: 2007 2cbe 8df2 09be 51e1 b53e d8cf 20be
00000390: 4b4f 913e eacb acbd 09a5 b83e 1079 cabd
000003a0: f8a3 1abe 155d d93d 083f 253e 1e05 753e
000003b0: 90b5 b33d 9c38 883e 53b4 c43d d633 ba3d
000003c0: 3fa5 8d3e 833a 5b3e bcc0 1c3e 5800 cb3e
000003d0: 9fd3 1c3d 975a 383e be99 983e b3c4 d73d
000003e0: ee95 1ebe 4a79 393e

conv_2_B f4 [10]
0.10450959 0.17083377 0.080426715 0.12010242 -0.021260263 0.1433544 -0.058031674 0.14741234
0.012450137 0.16210414
00000000: 2009 d63d 0cef 2e3e c3b6 a43d 42f8 f53d
00000010: 012a aebc 7fcb 123e 9fb2 6dbd 43f3 163e
00000020: a9fb 4b3c a1fe 253e

conv_3_W f4 [5, 10, 5, 1]
0.25117272 0.14058831 0.33089328 0.3495511 0.14531372 0.14301285 0.06207802 0.13772286
-0.005392516 0.14796767 0.22683723 0.025119446 0.06216369 -0.0061828494 0.21168709 -0.055293843
0.32338428 0.31662244 0.34855297 -0.053492814 0.0694302 0.29424837 -0.19999972 0.13639335
0.051713686 0.11787374 0.12234997 0.11663282 0.17278618 0.21566135 -0.10939182 0.010511702
-0.056927975 -0.035930082 0.25078264 -0.031486638 0.1383838 -0.16805299 0.36538118 0.13139609
0.10481254 0.01835032 0.12177465 0.0090028215 0.26366326 0.38069266 0.15759622 -0.09266333
0.1831515 0.2658635 0.051010065 0.22601555 -0.16107628 -0.18351881 -0.008907962 -0.12779595
-0.24089746 -0.18490618 0.170272 0.1521901 -0.2866341 0.23825932 0.19598648 0.04343752
-0.15109175 -0.26178804 0.019282779 -0.031513523 -0.09790743 0.054801553 -0.0043221535 -0.0013393095
0.14930917 0.08309539 -0.120280154 0.12827504 -0.018845128 -0.1492175 0.12779972 0.14368337
-0.16325973 -0.022845548 0.013396866 -0.133718 0.037771616 0.029701665 -0.13790704 0.2605683
0.3127098 -0.15723404 0.1581407 0.22612818 -0.24902225 0.011263406 -0.18419611 -0.18097232
-0.08584716 -0.13629732 0.2997852 -0.022053877 -0.058118027 -0.2694455 -0.2571931 -0.21356641
-0.23609143 0.1606531 -0.15097554 -0.28423187 -0.058578983 -0.020364335 0.12156989 0.0149240615
-0.1901653 0.01228084 -0.06229736 -0.26958698 -0.0038975745 0.09448062 0.0014837158 -0.030440122
0.21373343 -0.15183996 0.05030862 -0.0468297 -0.15256539 0.023379344 -0.11024067 0.009074336
0.078028575 0.033710387 -0.23633592 0.16149686 -0.007905078 -0.19544327 0.09040547 0.08911491
0.22332494 -0.18405122 -0.27708876 -0.29033497 -0.040029984 0.18177325 0.19437389 -0.29898563
-0.07505072 0.1191704 -0.24998099 0.07590757 -0.07410166 0.10267438 0.14020956 -0.27821577
0.073724836 -0.38101155 -0.36617517 0.3752749 0.3824394 -0.037343673 0.190355 0.14029682
0.027652461 -0.34756595 -0.25333434 -0.07941924 0.03134199 -0.055728745 -0.046474986 0.016748592
0.036992762 0.08250658 -0.028266802 0.043669567 -0.1444909 0.09164798 0.011680291 0.35922915
-0.07276441 0.31195495 0.34030357 0.12802659 -0.20090485 0.2545159 -0.05108495 0.08557334
0.12514326 0.07436942 0.3949423 -0.093111314 0.14505498 0.2533442 -0.17138436 -0.41340962
0.11928979 0.099285014 -0.23617007 0.41012803 0.00051872054 0.32710832 0.1308116 0.23074743
0.052243434 0.11436039 -0.047241278 -0.23079124 -0.026077004 0.08022001 -0.28849632 0.0381112
-0.042945005 0.000163354 -0.22708853 0.055971608 -0.0006498613 -0.066257365 0.14622083 -0.20143642
0.2093453 -0.19091588 0.17598605 0.037337556 0.14018637 0.17908178 0.17882052 -0.045630246
-0.12169372 0.19648993 0.2445357 -0.17448948 -0.2620368 0.2002171 -0.30900866 -0.14296293
0.18610178 0.064141 -0.29156554 0.2014376 0.13397117 -0.16991863 -0.31306607 0.05982743
-0.2878294 0.026940461 -0.13223888 -0.102662876 0.16435802 -0.31284872 0.08263706 -0.22697376
-0.23797826 -0.10976599
00000000: b699 803e 62f6 0f3e d86a a93e 5df8 b23e
00000010: 1fcd 143e f671 123e 8645 7e3d 3907 0d3e
00000020: b4b3 b0bb d684 173e 0548 683e 4cc7 cd3c
00000030: 5a9f 7e3d 8099 cabb 80c4 583e cc7b 62bd
00000040: a092 a53e 561c a23e 8975 b23e 481b 5bbd
00000050: 6c31 8e3d b9a7 963e bacc 4cbe b3aa 0b3e
00000060: bbd1 533d ca67 f13d 9f92 fa3d 30dd ee3d
00000070: dcee 303e 54d6 5c3e d208 e0bd 4639 2c3c
00000080: 4f2d 69bd 6c2b 13bd 9566 803e 22f8 00bd
00000090: 7cb4 0d3e 1516 2cbe 3e13 bb3e b28c 063e
000000a0: f5a7 d63d 6953 963c fd64 f93d 9280 133c
000000b0: dffe 863e 26ea c23e e760 213e 46c6 bdbd
000000c0: 118c 3b3e 431f 883e eeef 503d 9f70 673e
000000d0: 2ef1 24be 5bec 3bbe b3f2 11bc f1dc 02be
000000e0: d3ad 76be 0c58 3dbe c85b 2e3e b9d7 1b3e
000000f0: b4c1 92be 40fa 733e aeb0 483e 8aeb 313d
00000100: ccb7 1abe 1509 86be ebf6 9d3c 5314 01bd
00000110: b183 c8bd 9877 603d daa0 8dbb c58b afba
00000120: 81e4 183e ea2d aa3d 7155 f6bd 885a 033e
00000130: 1961 9abc 79cc 18be eedd 023e bc21 133e
00000140: 8f2d 27be 9626 bbbc 877e 5b3c 5fed 08be
00000150: 69b6 1a3d e850 f33c 8137 0dbe 3569 853e
00000160: 801b a03e f601 21be a3ef 213e 258e 673e
00000170: b0ff 7ebe 268a 383c e89d 3cbe cf50 39be
00000180: a3d0 afbd 8691 0bbe 727d 993e 55aa b4bc
00000190: 2b0d 6ebd c3f4 89be d0ae 83be 27b1 5abe
000001a0: f4c1 71be 3f82 243e 5599 1abe d786 91be
000001b0: 84f0 6fbd 1bd3 a6bc a2f9 f83d 0d84 743c
000001c0: b1ba 42be 9435 493c 842b 7fbd 4e07 8abe
000001d0: 736e 7fbb 0e7f c13d 3e79 c23a 905d f9bc
000001e0: f0dc 5a3e ef7b 1bbe 6910 4e3d 80d0 3fbd
000001f0: 1a3a 1cbe 0a86 bf3c dcc5 e1bd 86ac 143c
00000200: 72cd 9f3d e713 0a3d 0b02 72be 6f5f 253e
00000210: 4d84 01bc 4822 48be 8126 b93d e181 b63d
00000220: 4baf 643e ec77 3cbe 94de 8dbe c9a6 94be
00000230: 7bf6 23bd c422 3a3e f309 473e a514 99be
00000240: 31b4 99bd 9c0f f43d 04fb 7fbe 6e75 9b3d
00000250: 9cc2 97bd f246 d23d 1893 0f3e 4c72 8ebe
00000260: 0cfd 963d f213 c3be 507b bbbe 0824 c03e
00000270: 19cf c33e aef5 18bd 6cec 423e f8a9 0f3e
00000280: 6a87 e23c 2af4 b1be 0ab5 81be 8ea6 a2bd
00000290: 7560 003d d343 64bd 8e5c 3ebd 5834 893c
000002a0: b985 173d 36f9 a83d c88f e7bc dcde 323d
000002b0: 6cf5 13be f0b1 bb3d b15e 3f3c e2ec b73e
000002c0: 8205 95bd 8fb8 9f3e 453c ae3e 6719 033e
000002d0: 00ba 4dbe e84f 823e 743e 51bd 1341 af3d
000002e0: 8e25 003e ff4e 983d e135 ca3e 25b1 bebd
000002f0: 4b89 143e 55b6 813e 627f 2fbe 6daa d3be
00000300: 354e f43d f155 cb3d 91d6 71be 4dfc d13e
00000310: bffa 073a be7a a73e 7af3 053e 0e49 6c3e
00000320: 36fd 553d c835 ea3d 1280 41bd 8a54 6cbe
00000330: 719f d5bc 634a a43d cab5 93be 7d1a 1c3d
00000340: 1ae7 2fbd 014a 2b39 e589 68be 7c42 653d
00000350: 745b 2aba f1b1 87bd eaba 153e 5945 4ebe
00000360: 9d5e 563e 747f 43be b035 343e 44ef 183d
00000370: 048d 0f3e 3761 373e ba1c 373e c8e6 3abd
00000380: 8f3a f9bd a834 493e 9167 7a3e 5fad 32be
00000390: b029 86be b605 4d3e 6236 9ebe e064 12be
000003a0: 7791 3e3e 5b5c 833d 1448 95be a945 4e3e
000003b0: bd2f 093e 26ff 2dbe 324a a0be 9b0d 753d
000003c0: 605e 93be 3eb2 dc3c a169 07be ea40 d2bd
000003d0: 784d 283e b52d a0be 9e3d a93d cf6b 68be
000003e0: 93b0 73be fecc e0bd

conv_3_B f4 [5]
0.1267663 0.01579767 -0.045097873 0.013758163 -0.064936645
00000000: 06cf 013e 1e6a 813c 8cb8 38bd eb69 613c
00000010: 81fd 84bd

conv_4_W f4 [5, 5, 3, 1]
0.09351518 0.123782344 0.44222188 0.26784432 0.18345587 -0.1018562 0.13416697 -0.100860775
-0.2145869 -0.119256526 0.28384003 0.26265833 0.12069947 -0.15393439 -0.36976573 -0.29913566
0.032145597 -0.36919802 3.4155586e-33 -1.8417471e-22 -3.1837442e-32 0.14851594 -0.27357656 -0.077131726
-0.10853972 0.04598067 0.29578036 0.17647418 -0.20287468 0.18206935 -0.41713086 -0.3599414
-0.15399629 -0.0038964597 -0.2999708 0.33079985 0.36657947 -0.12841739 0.07084658 -0.35830972
0.27175772 0.39775202 -0.3749911 0.15488696 -0.09684208 -0.14260873 0.042467184 0.3036588
0.17594065 -0.37010464 -0.2377184 0.16402185 -0.23491259 0.31338105 0.15204944 -0.2259753
-0.120210566 -0.14076567 -0.026538355 0.27806652 0.44224888 0.23338869 -0.108753055 -0.31314996
-0.43389732 0.044025812 -0.3442907 0.09079895 -0.30280662 -0.42179537 0.09612561 -0.20750387
-0.11698244 -0.0011301134 -0.06326743
00000000: e384 bf3d 9981 fd3d e86a e23e e422 893e
00000010: dbdb 3b3e fc99 d0bd 1163 093e 1890 cebd
00000020: abbc 5bbe c43c f4bd 7b53 913e 277b 863e
00000030: 4931 f73d faa0 1dbe ef51 bdbe 4f28 99be
00000040: 1aab 033d 8607 bdbe 73e0 8d09 50a7 5e9b
00000050: 384f 258b 9014 183e 3a12 8cbe 3df7 9dbd
00000060: 134a debd 3a56 3c3d 8670 973e a6b5 343e
00000070: 61be 4fbe 6370 3a3e 2d92 d5be 3d4a b8be
00000080: 34b1 1dbe bf5b 7fbb c695 99be 995e a93e
00000090: 4eb0 bb3e d97f 03be 0318 913d 5f74 b7be
000000a0: d423 8b3e 27a6 cb3e d5fe bfbe b09a 1e3e
000000b0: 2455 c6bd 0608 12be 12f2 2d3d 2b79 9b3e
000000c0: c929 343e 5b7e bdbe 746c 73be 58f5 273e
000000d0: ed8c 70be 7b73 a03e d9b2 1b3e 1266 67be
000000e0: f530 f6bd e024 10be f766 d9bc bc5e 8e3e
000000f0: 726e e23e 72fd 6e3e ecb9 debd 3155 a0be
00000100: ca27 debe 6954 343d df46 b0be cdf4 b93d
00000110: 7809 9bbe 90f5 d7be 81dd c43d e57b 54be
00000120: 7d94 efbd 5020 94ba 5b92 81bd

conv_4_B f4 [5]
0.084391706 -0.013545008 0.01996621 0.15697363 0.16983135
00000000: 8fd5 ac3d e2eb 5dbc 2d90 a33c b2bd 203e
00000010: 45e8 2d3e

fc_1_W f4 [100, 5, 6, 20]
-0.14431779 -0.08052795 -0.11011166 -0.209279 -0.031964574 -0.051802367 -0.08537877 0.028905885
0.089794345 -0.013691317 0.062219456 0.28739858 0.15775953 0.048410475 0.2638967 -0.062638946
0.16035624 0.0062840777 0.16200203 0.10175124 -0.101482816 -0.18874569 -0.1749887 -0.23642018
0.01636026 -0.07016883 -0.13566117 0.011970547 0.025253328 0.10881531 -0.07302335 0.18656476
0.00044904315 -0.10658193 0.23218878 -0.089983955 0.04559401 0.017093312 0.14626749 0.12893946
-0.14475085 -0.1614886 -0.18383852 -0.089083344 -0.11369681 -0.0062024808 -0.020015888 0.12595487
0.021346351 0.1041588 -0.045631073 0.14722207 0.16533296 -0.08467671 0.25218123 -0.09629689
-0.0043320092 0.102452666 0.20962106 0.101880416 -0.2003311 -0.13232885 -0.1642103 -0.07544275
-0.0793619 -0.0058317306 -0.07848798 0.10448621 0.06713931 0.112170674 0.003254877 0.12926002
0.1787097 -0.10687041 0.18545881 -0.13948998 -0.02964577 0.008061403 0.10856028 -0.018359168
-0.12960024 -0.20752357 -0.26920766 -0.20685796 -0.0026704262 -0.12556413 -0.057914596 -0.049911138
0.05251014 -0.0045585125 0.10844889 0.16834368 0.09939051 -0.044277336 0.27196124 -0.075765684
0.0783806 0.16185638 0.21120715 -0.0064822617 -0.208945 -0.20364572 -0.20307429 -0.120922185
-0.10214309 -0.070109814 -0.15291229 0.10066188 0.09191425 0.12258574 -0.067088135 0.12504852
0.028699828 0.00506683 0.22337851 -0.09527717 0.120309554 0.19618745 0.23948984 0.06393422
4.099999e-34 2.3585613e-33 2.11966e-33 -1.8071451e-33 -5.185564e-34 -1.4309511e-33 7.5015605e-33 -1.9973862e-34
-1.5202146e-33 -0.0004669497 1.3354209e-33 -0.007973521 0.019584311 -0.008032615 2.5970975e-10 0.009066585
0.016199796 0.005853246 1.0922605e-06 0.000957186 -1.0121142e-33 2.1945383e-33 1.8420005e-34 7.705411e-34
1.9817388e-34 2.71821e-34 -2.2891288e-34 8.381515e-06 8.243047e-34 -0.00067722396 -4.596495e-34 0.013668531
-0.0087228445 -0.003651262 -6.7151736e-11 -0.0040530604 -0.005526094 0.011262952 -9.12003e-07 0.0027291141
6.4946605e-34 3.5651903e-35 1.8090493e-33 -6.473172e-34 5.2293744e-34 -3.5248677e-34 1.00950955e-32 -1.6699468e-33
3.0043402e-33 0.006688271 -1.11231575e-33 -0.008532897 0.000102044345 0.002241526 -1.6493569e-12 0.0064986297
-0.0044755097 -0.0057792235 1.9991976e-06 -0.0062219934 1.4474898e-33 -1.1343171e-33 -7.913456e-34 8.643896e-34
-5.37887e-34 -1.1646643e-33 -3.2217894e-33 1.03553935e-33 6.5870927e-35 0.002884646 -1.0178675e-33 0.008201364
-0.00726874 -0.0065042083 1.7853994e-12 -0.0023278752 -0.003980951 0.017277325 4.8074673e-07 -0.010043987
-3.5363926e-34 5.6398474e-34 -4.194603e-34 -1.0377077e-33 1.9426945e-33 2.7829925e-34 -3.5157412e-33 -1.5379141e-33
3.2416566e-34 0.0106733255 1.4221049e-33 -0.005958863 -0.0019677335 -0.0073706037 -5.6091548e-11 -0.009206919
0.0025335385 -0.010278447 -1.6075056e-06 0.00051285734 -4.2508364e-34 -2.9894474e-35 -2.4099691e-33 -2.4728597e-34
-8.61851e-34 -1.8112252e-33 -5.6190966e-33 1.8426937e-09 7.3372163e-34 0.0139382705 -1.4770991e-33 0.010125527
0.005124725 -0.008139907 5.723421e-13 0.011794357 0.009428364 0.009017414 1.0538482e-07 -0.008556716
0.012366628 -8.931826e-34 -2.7529596e-34 3.8713414e-35 -9.367172e-34 -2.4299016e-23 -1.1420028e-33 0.04634668
-0.0066816607 0.028857116 3.870282e-33 0.0005082971 0.017812692 8.830687e-05 -0.017891241 -0.0002958779
00000000: 0bc8 13be d6eb a4bd 3982 e1bd 3c4d 56be
00000010: 49ed 02bd b82e 54bd 11db aebd 09cc ec3c
00000020: 19e6 b73d 8c51 60bc d4d9 7e3d e825 933e
00000030: b78b 213e 104a 463d 781d 873e d948 80bd
00000040: 6d34 243e aaea cd3b dce3 253e f462 d03d
00000050: 39d6 cfbd 8d46 41be 3d30 33be 2218 72be
00000060: f405 863c adb4 8fbd c3ea 0abe 1d20 443c
00000070: 11e0 ce3c 90da de3d 448d 95bd d50a 3f3e
00000080: 8d6d eb39 a047 dabd e5c2 6d3e 8249 b8bd
00000090: c9c0 3a3d 4607 8c3c 25c7 153e b508 043e
000000a0: 9139 14be 445d 25be 2a40 3cbe 5471 b6bd
000000b0: e0d9 e8bd 2e3e cbbb 5cf8 a3bc 50fa 003e
000000c0: 8bde ae3c 3551 d53d a6e7 3abd 62c1 163e
000000d0: 0b4d 293e fc6a adbd e61d 813e 4e37 c5bd
000000e0: 87f3 8dbb b4d2 d13d e7a6 563e aea6 d03d
000000f0: 9923 4dbe 3781 07be bf26 28be ba81 9abd
00000100: 7e88 a2bd 1a18 bfbb 4ebe a0bd defc d53d
00000110: 5680 893d bdb9 e53d c64f 553b bd5c 043e
00000120: adff 363e e0de dabd eae8 3d3e 76d6 0ebe
00000130: b0db f2bc fa13 043c da54 de3d f765 96bc
00000140: edb5 04be 0f81 54be 96d5 89be 93d2 53be
00000150: 5102 2fbb e293 00be db37 6dbd 9f6f 4cbd
00000160: df14 573d 935f 95bb 741a de3d 4962 2c3e
00000170: 408d cb3d 275c 35bd 813e 8b3e 0a2b 9bbd
00000180: 0286 a03d aebd 253e b046 583e 2769 d4bb
00000190: aef5 55be 8188 50be b5f2 4fbe 0da6 f7bd
000001a0: 6530 d1bd bc95 8fbd 0a95 1cbe d127 ce3d
000001b0: 8a3d bc3d 3c0e fb3d 8165 89bd b80c 003e
000001c0: e71b eb3c a707 a63b 56bd 643e ad20 c3bd
000001d0: db64 f63d 5de5 483e d33c 753e f2ef 823d
000001e0: ef3e 0808 0df1 4309 2f18 3009 ba21 1689
000001f0: e651 2c88 eec1 ed88 23cd 1b0a c4bf 8487
00000200: c796 fc88 eed0 f4b9 86e2 dd08 5fa3 02bc
00000210: 476f a03c 3b9b 03bc e6c6 8e2f 048c 143c
00000220: 6fb5 843c 96cc bf3b c999 9235 aaeb 7a3a
00000230: 942a a888 ab50 3609 07d8 7407 3207 8008
00000240: 8ab5 8307 f2a7 b407 8223 9887 559e 0c37
00000250: 0bf6 8808 bb87 31ba a8be 1888 f9f1 5f3c
00000260: 43ea 0ebc 034a 6fbb 11ab 93ae 89cf 84bb
00000270: 3d14 b5bb 3f88 383c 5ed0 74b5 f0da 323b
00000280: 76d2 5708 db8e 3d06 394a 1609 a81b 5788
00000290: 99c6 2d08 8444 ea87 bcaa 510a d7bb 0a89
000002a0: 4097 7909 4929 db3b aed0 b888 90cd 0bbc
000002b0: a400 d638 91e6 123b 5820 e8ab 75f2 d43b
000002c0: 4ca7 92bb a45f bdbb f429 0636 dde1 cbbb
000002d0: 6881 f008 8378 bc88 1f7c 8388 119f 8f08
000002e0: 5ebe 3288 5783 c188 f1d3 8589 f90e ac08
000002f0: 6e1d af06 540c 3d3b 4c1f a988 045f 063c
00000300: 9c2e eebb 4121 d5bb cb45 fb2b 448f 18bb
00000310: a372 82bb 2d89 8d3c aa0c 0135 898f 24bc
00000320: 9a08 eb87 846a 3b08 bc63 0b88 346b ac88
00000330: 8b64 2109 2af6 b807 c609 9289 a287 ff88
00000340: ee71 d707 2cdf 2e3c a749 ec08 9142 c3bb
00000350: 17f5 00bb 1b85 f1bb 78b1 76ae 9ed8 16bc
00000360: b909 263b ee66 28bc 79c1 d7b5 4671 063a
00000370: 1e42 0d88 40f2 1e86 6036 4889 8759 a487
00000380: 1633 8f88 8078 1689 7c68 e989 0542 fd30
00000390: 22d2 7308 585d 643c d96c f588 8ae5 253c
000003a0: 4fed a73b 3f5d 05bc 9819 212b 1e3d 413c
000003b0: 6d79 1a3c c7bd 133c eb4f e233 7831 0cbc
000003c0: 669d 4a3c c967 9488 2ef7 b687 f8d5 4d06
000003d0: 8ba3 9b88 7301 eb99 6dbf bd88 04d6 3d3d
000003e0: d5f1 dabb c265 ec3c e6c3 a009 3e3f 053a
000003f0: eceb 913c 6431 b938 a790 92bc 0f20 9bb9

fc_1_B f4 [100]
0.10545318 0.08793777 -0.026649175 -0.038206343 0.10230687 -0.022860125 -0.028101103 0.093457974
0.08342507 0.088021815 0.09382183 0.09841682 0.11018927 0.086807005 0.11468311 -0.020053586
-0.018300556 0.09464956 -0.025732266 -0.019586148 0.08272142 0.08342531 -0.02588765 -0.038831398
0.082588114 0.07115355 0.08035591 0.091131434 0.07942244 -0.018016502 0.09518516 -0.028038045
-0.03971038 -0.018146029 0.08608606 -0.034101456 0.08443695 0.082605906 -0.018016517 -0.044097107
0.086969696 -0.03123263 0.112093404 0.0939479 -0.018016517 0.09494334 0.07093695 -0.032233804
0.070866786 0.10398109 -0.024486557 0.08657284 0.07093379 -0.025863633 -0.027819077 -0.042727657
-0.018016519 0.09318544 0.07462699 0.07712412 0.08379413 0.06687004 0.063969225 -0.020130506
-0.042486984 0.08836662 -0.025078934 -0.018016377 -0.018016519 0.07004061 0.07660287 0.06758963
-0.03414569 -0.018016515 -0.018449182 0.07134131 0.07782291 0.06921855 -0.028921034 0.0779418
0.109343246 -0.01857397 -0.018016515 -0.020718612 -0.01842473 0.07126674 -0.018016517 0.072051816
0.11534937 -0.01734442 0.08093888 0.104501724 -0.02378928 -0.035657633 -0.038354404 0.07520635
0.08668833 0.08737998 0.082289934 -0.018179005
00000000: d6f7 d73d b818 b43d 5f4f dabc 417e 1cbd
00000010: 4486 d13d 2845 bbbc 4934 e6bc e566 bf3d
00000020: c3da aa3d c844 b43d a925 c03d c28e c93d
00000030: e9aa e13d dfc7 b13d fade ea3d 6b47 a4bc
00000040: 0ceb 95bc a1d7 c13d 79cc d2bc 2173 a0bc
00000050: d969 a93d e4da aa3d 5612 d4bc ac0d 1fbd
00000060: f523 a93d f4b8 913d a491 a43d 1ea3 ba3d
00000070: 3ba8 a23d 5897 93bc 70f0 c23d 0bb0 e5bc
00000080: 5aa7 22bd fba6 94bc e34d b03d f8ad 0bbd
00000090: 48ed ac3d 492d a93d 6097 93bc 2b9f 34bd
000000a0: 2b1d b23d 93db ffbc 3a91 e53d c267 c03d
000000b0: 6097 93bc a771 c23d 6447 913d 9807 04bd
000000c0: 9b22 913d 0af4 d43d 0898 c8bc 1a4d b13d
000000d0: bc45 913d f8df d3bc d5e4 e3bc 3203 2fbd
000000e0: 6197 93bc 02d8 be3d 09d6 983d 40f3 9d3d
000000f0: 429c ab3d 29f3 883d 4c02 833d bbe8 a4bc
00000100: d506 2ebd 8ff9 b43d 5672 cdbc 1597 93bc
00000110: 6197 93bc 7471 8f3d f7e1 9c3d 6f6c 8a3d
00000120: 5adc 0bbd 5f97 93bc bd22 97bc 651b 923d
00000130: 9e61 9f3d 75c2 8d3d ceeb ecbc f39f 9f3d
00000140: 5aef df3d 7028 98bc 5f97 93bc 14ba a9bc
00000150: 76ef 96bc 4cf4 913d 6097 93bc e78f 933d
00000160: 4a3c ec3d e315 8ebc 49c3 a53d 0005 d63d
00000170: bce1 c2bc bd0d 12bd 8219 1dbd c905 9a3d
00000180: a789 b13d 46f4 b23d a087 a83d 23ec 94bc

fc_2_W f4 [1, 100, 1, 1]
0.12756762 0.17286402 -0.12242828 -0.071183085 0.13759881 -0.08023 -0.13724433 0.14915428
0.23635581 0.15419507 0.17146103 0.14176446 0.13258338 0.2035174 0.12607192 -0.107638195
-0.12831654 0.16771214 0.0020097792 -0.17900619 0.24063669 0.23603825 -0.142642 0.015247318
0.20679511 0.39167917 0.22989939 0.17821148 0.24009722 -0.15057957 0.16087702 -0.1683505
-0.1170265 0.02019638 0.19490944 0.0020979347 0.22135304 0.18739128 -0.22277546 -0.06506695
0.20422193 -0.18882033 0.12504795 0.15610668 -0.06424087 0.14180274 0.32350895 -0.14660366
0.34402695 0.13044742 -0.019864663 0.21776377 0.43732828 0.01811015 -0.16813958 -0.14949706
-0.022595601 0.16836944 0.30436623 0.23424588 0.2369118 0.4361197 0.28672957 -0.011518225
-0.06425414 0.16290155 -0.07721395 -0.022503525 -0.20060803 0.41844243 0.26112416 0.4730524
-0.045301374 -0.056804195 -0.11434531 0.33419833 0.29560176 0.4462745 -0.033526983 0.27216318
0.121897645 -0.15655892 -0.12563248 -0.011862095 -0.021625143 0.2248607 -0.19776766 0.28858623
0.13151562 -1.48108965e-08 0.205397 0.12689646 0.021561109 -0.087570824 -0.15753873 0.24828142
0.1779909 0.2291428 0.24762495 -0.0381629
00000000: 16a1 023e 4403 313e aebb fabd 70c8 91bd
00000010: b4e6 0c3e a04f a4bd c789 0cbe e6bb 183e
00000020: 4207 723e 50e5 1d3e 7b93 2f3e b42a 113e
00000030: f0c3 073e de66 503e ff18 013e 6a71 dcbd
00000040: 6965 03be bbbc 2b3e 80b6 033b 664d 37be
00000050: 7769 763e 03b4 713e bf10 12be e3cf 793c
00000060: 19c2 533e 2c8a c83e bf6a 6b3e 127d 363e
00000070: 0cdc 753e 8831 1abe f2bc 243e 1364 2cbe
00000080: 97ab efbd e172 a53c 5796 473e 817d 093b
00000090: 5faa 623e 80e3 3f3e 401f 64be d241 85bd
000000a0: 8e1f 513e 1e5a 41be 920c 003e 6eda 1f3e
000000b0: b890 83bd bd34 113e f7a2 a53e 451f 16be
000000c0: 4d24 b03e 0294 053e 38bb a2bc 77fd 5e3e
000000d0: 7ee9 df3e bd5b 943c c82c 2cbe c215 19be
000000e0: 691a b9bc 0a69 2c3e e4d5 9b3e 27de 6f3e
000000f0: 0299 723e 154b df3e 38ce 923e f0b6 3cbc
00000100: ad97 83bd aacf 263e 5922 9ebd 5059 b8bc
00000110: 316c 4dbe 163e d63e 11b2 853e ed33 f23e
00000120: ef8d 39bd 84ab 68bd e02d eabd 0b1c ab3e
00000130: 1d59 973e 177e e43e 9753 09bd f958 8b3e
00000140: 79a5 f93d fb50 20be cda5 00be 3c59 42bc
00000150: 3627 b1bc e241 663e 9b83 4abe 93c1 933e
00000160: 08ac 063e 0373 7eb2 9753 523e 25f1 013e
00000170: eca0 b03c 5558 b3bd d551 21be 7c3d 7e3e
00000180: 3f43 363e 69a4 6a3e 6591 7d3e b350 1cbd
