code/nnv/examples/Submission/ARCH2019/ACC/controller_10_20.onnx (onnx, 19296 bytes, 22 tensors)

input_AvgImg f4 [1, 1, 1, 5]
0	0x3f800000	1.0
1	0x3f800000	1.0
2	0x3f800000	1.0
3	0x3f800000	1.0
4	0x3f800000	1.0

Operation_1_W f4 [20, 5]
0	0x3f4705e5	0.7774337
1	0x3f3aedf1	0.7301932
2	0xbf326789	-0.6968923
3	0x3f08fffe	0.53515613
4	0x3f58e13f	0.847187
5	0x3f22def6	0.6362146
6	0x3d6ee227	0.058321144
7	0x3e828a5f	0.25496194
8	0xbd8db25a	-0.069187835
9	0xbf07859b	-0.5293824
10	0xbf0e3d62	-0.5556241
11	0x3f540986	0.8282703
12	0x3f02204a	0.5083052
13	0xbd90e278	-0.070744455
14	0x3f3f169b	0.7464387
15	0x3f417c43	0.75580233
16	0x3f6fbd87	0.9364857
17	0xbbe6d6a8	-0.007044632
18	0xbdf952e6	-0.12174015
19	0xbf0634a7	-0.5242409
20	0xbf9ddc2b	-1.2332815
21	0x3e1db6c3	0.1540175
22	0x3ea69b97	0.3254058
23	0x3f06b729	0.5262323
24	0x3e2025ad	0.15639372
25	0xbe597a5e	-0.21238086
26	0xbf43d775	-0.76500636
27	0x3e508379	0.20362653
28	0x3e70b217	0.23505436
29	0xbf1ccb2f	-0.61247534
30	0xbe156a66	-0.14591369
31	0x3f5aed18	0.85518026
32	0x3f1f7191	0.62282664
33	0x3e78cb7b	0.24296372
34	0x3ee0ac08	0.4388125
35	0xbe4c333f	-0.19941424
36	0x3e3f9cca	0.18712154
37	0x3e89803a	0.26855642
38	0xbf2d8eab	-0.6779582
39	0xbf243ea7	-0.641581
40	0xbf46b213	-0.7761547
41	0x3f44693a	0.76723063
42	0x3e4dbbac	0.20091122
43	0xbe0a7e05	-0.13524635
44	0xbf2b51b5	-0.6692155
45	0xbdb60695	-0.08887974
46	0xbe17af17	-0.14812885
47	0x3efad10b	0.48987612
48	0xbb91f20c	-0.004453903
49	0xbebbf24f	-0.36708304
50	0x3e8403f1	0.25784257
51	0x3e5d21f1	0.21594979
52	0xbe316cd4	-0.17326671
53	0xbe6b68cc	-0.22989196
54	0xbe94027b	-0.28908142
55	0x3f7e33e2	0.99297917
56	0xbf5b9152	-0.85768616
57	0xbe2d4345	-0.16920193
58	0xbd13bf89	-0.036071334
59	0xbf52dfac	-0.82372546
60	0xbf0f692a	-0.5601984
61	0x3f597bc6	0.8495449
62	0x3f6a0e25	0.9142783
63	0xbea15c49	-0.3151572
64	0xbecebd9a	-0.4037903
65	0xbe68e15f	-0.22742222
66	0x3e930753	0.28716525
67	0xbe57d900	-0.21078873
68	0x3ec511ca	0.38490134
69	0x3eb48dcb	0.3526443
70	0xbeef5e4a	-0.46751624
71	0xbf4a7f05	-0.79100066
72	0x3e4ff590	0.20308518
73	0xbe6daed7	-0.23211227
74	0x3b16bec6	0.0023001893
75	0xbebd91d2	-0.37025315
76	0x3ece25d0	0.40263224
77	0x3ee87ee1	0.454093
78	0x3e5f918d	0.21832867
79	0x3f5777b9	0.8416706
80	0xbf1f8b68	-0.6232209
81	0xbe55648a	-0.20839134
82	0x3eb711ab	0.35755667
83	0xbd1c318b	-0.038133185
84	0xbf62611b	-0.8842942
85	0xbf3d68bf	-0.73987955
86	0xbf51f7a1	-0.82018477
87	0xbeb858eb	-0.3600534
88	0x3eb3445f	0.350131
89	0xbc087730	-0.008329198
90	0xbe41f1ff	-0.1893997
91	0xbf133d95	-0.5751584
92	0xbf256bb9	-0.64617497
93	0x3f1c2b62	0.61003697
94	0xbc901e8f	-0.017592696
95	0xbea3e40b	-0.3200992
96	0xbefca0b9	-0.49341372
97	0xbe84509d	-0.25842753
98	0x3d1bbb64	0.038020507
99	0x3d25b65e	0.040457122

Operation_1_B f4 [20]
0	0x3f247783	0.6424486
1	0xbf3f3c71	-0.747016
2	0xbeccae30	-0.39976645
3	0xbf807f2a	-1.0038807
4	0x3f63e377	0.8901896
5	0x3f07cdf6	0.53048646
6	0x3f010e0d	0.50412065
7	0xbf38e6b5	-0.7222703
8	0xbe9a4bfa	-0.3013609
9	0xbf31fac3	-0.69523257
10	0xbbb55458	-0.005533736
11	0x3f1e2c7c	0.6178663
12	0x3e880ec2	0.2657376
13	0x3ec205d1	0.37895063
14	0x3e8eeb7f	0.27914044
15	0x3eeb9f8f	0.4602017
16	0x3f383db2	0.7196914
17	0x3e85a958	0.26105762
18	0xbf244a2b	-0.6417567
19	0x3e1cb4f9	0.1530341

Operation_2_W f4 [20, 20]
0	0xbf2c410f	-0.6728677
1	0x3f6a3f52	0.9150287
2	0x3dae852a	0.08521493
3	0x3f637f64	0.8886626
4	0x3f050257	0.51956695
5	0xbf6f71b7	-0.9353289
6	0xbf158c8f	-0.584176
7	0x3e916844	0.2839986
8	0x3f159595	0.5843137
9	0xbf58f725	-0.8475211
10	0xbf65963b	-0.8968236
11	0xbf1d1371	-0.6135779
12	0xbe8186b8	-0.25298095
13	0xbd94a117	-0.07257288
14	0x3f62e059	0.8862358
15	0xbdb32192	-0.087466374
16	0xbf63cf75	-0.8898843
17	0x3f3eae7e	0.74485004
18	0xbe8b51b1	-0.27210763
19	0xbf1e3ff8	-0.6181636
20	0x3f392418	0.723207
21	0xbf63c163	-0.8896696
22	0x3f3902a1	0.72269636
23	0xbf090e95	-0.53537875
24	0x3f425fad	0.7592724
25	0x3d8d4f44	0.06899884
26	0xbf77ccb4	-0.9679673
27	0xbf4a1379	-0.7893596
28	0xbf35886f	-0.70911306
29	0xbeba402d	-0.36377087
30	0x3de3b2b2	0.11118068
31	0x3eee5802	0.4655152
32	0xbf2ae114	-0.6674969
33	0x3dfdc005	0.123901404
34	0xbf464c41	-0.77460104
35	0xbe344609	-0.17604841
36	0xbf4da381	-0.8032761
37	0x3e9a8899	0.3018234
38	0xbf5d9b3f	-0.8656501
39	0xbf4193fd	-0.7561644
40	0xbf586687	-0.84531444
41	0x3f71356b	0.94222134
42	0x3f517aac	0.8182781
43	0xbf02c447	-0.51080745
44	0x3f2a58a6	0.66541517
45	0x3ee113a9	0.43960312
46	0xbd7b022d	-0.06128137
47	0xbeed673a	-0.46367818
48	0xbcb1e3dd	-0.021715099
49	0x3dfb3a75	0.12267009
50	0x3f09688c	0.5367515
51	0xbf662ac3	-0.89909
52	0xbf0995eb	-0.5374438
53	0xbf202afb	-0.62565583
54	0x3e97d8aa	0.2965749
55	0xbdbba7a6	-0.09162836
56	0x3e9960a9	0.29956558
57	0xbeb71a60	-0.3576231
58	0xbf336680	-0.7007828
59	0xbf7e9241	-0.99441916
60	0xbea5572c	-0.3229307
61	0xbecf4314	-0.40480864
62	0x3f30d1ca	0.6907011
63	0x3e904fb9	0.28185824
64	0xbef65f8b	-0.48119769
65	0xbf477899	-0.7791839
66	0xbf332686	-0.6998066
67	0x3f071688	0.52768755
68	0xbf796c48	-0.9743085
69	0x3e888892	0.26666695
70	0xbede3915	-0.43402925
71	0xbf2191da	-0.63113177
72	0xbf6544e9	-0.89558274
73	0x3e64010f	0.22266029
74	0xbd1d40d2	-0.038391896
75	0x3f63fc01	0.890564
76	0x3f07344d	0.5281418
77	0xbedce247	-0.43141386
78	0xbe98c756	-0.2983958
79	0xbf31b02c	-0.6940944
80	0x3ed72d1d	0.42026606
81	0xbdccc9d7	-0.099994354
82	0x3f41fba0	0.75774574
83	0x3ed7379a	0.42034608
84	0xbf41f85d	-0.757696
85	0xbf33f66a	-0.70297873
86	0x3f62ff87	0.88671154
87	0x3f1c6bd4	0.6110203
88	0xbf207464	-0.626776
89	0x3f25d297	0.6477446
90	0xbf04238f	-0.5161676
91	0xbf84e6aa	-1.0382893
92	0x3f4db301	0.80351263
93	0xbf4582be	-0.7715262
94	0xbf5df100	-0.8669586
95	0xbeba9888	-0.36444497
96	0x3f79d5c1	0.9759179
97	0xbe047926	-0.1293684
98	0xbda9892c	-0.082781166
99	0x3d8bec39	0.06832165
100	0xbed3d158	-0.41370654
101	0x3f3b3a8d	0.73136216
102	0x3efc1732	0.49236447
103	0x3f66933d	0.9006842
104	0x3e8da24d	0.27662888
105	0x3eff7289	0.4989207
106	0xbeb9daeb	-0.36299834
107	0xbf4a9f5a	-0.791494
108	0xbcf1fbf4	-0.029539086
109	0x3f76146e	0.96124923
110	0xbebd16e1	-0.36931518
111	0x3f79f118	0.97633505
112	0x3f162a54	0.5865834
113	0xbe0adeb8	-0.13561523
114	0x3f4ba8ac	0.7955425
115	0x3ed21059	0.41028097
116	0xbf3fd56e	-0.7493504
117	0x3f538f49	0.8264051
118	0x3e5d6996	0.21622309
119	0x3dc7573a	0.09733434
120	0x3e9d0abe	0.30672258
121	0x3f5aa02b	0.85400647
122	0xbf43d86f	-0.76502126
123	0x3d57466a	0.052557386
124	0xbe6dd6bf	-0.2322645
125	0xbf2828e0	-0.6568737
126	0x3f238337	0.6387209
127	0xbd77bc71	-0.060482446
128	0x3f2d2bf8	0.67645216
129	0xbf40d50e	-0.75325096
130	0xbe02f757	-0.12789665
131	0x3f5fc9f7	0.8741755
132	0xbe820888	-0.25397134
133	0x3ed585e0	0.417037
134	0xbbb586ba	-0.0055397423
135	0xbfa3b511	-1.2789632
136	0xbe8ac67f	-0.27104566
137	0x3f394811	0.7237559
138	0xbe85df1d	-0.26146784
139	0xbe809eb3	-0.25121078
140	0x3d40a72b	0.047034424
141	0xbef2571a	-0.47332078
142	0x3c93d217	0.018044515
143	0xbf036ea4	-0.513407
144	0xbd90dc64	-0.07073286
145	0x3f454977	0.77065223
146	0x3ee793bc	0.452299
147	0xbf0fd71f	-0.56187624
148	0xbf37c762	-0.7178861
149	0x3e98fb05	0.29879013
150	0x3ef314f5	0.47476926
151	0xbf06b69f	-0.5262241
152	0x3f2a0313	0.6641094
153	0xbcedf83c	-0.029049031
154	0x3f0ae848	0.54260683
155	0xbeaf2303	-0.342064
156	0x3eb475a9	0.35246018
157	0xbd3a560e	-0.045492224
158	0xbe0147fc	-0.12625116
159	0xbeec02b9	-0.46095827
160	0xbf162b02	-0.58659375
161	0x3ef627b4	0.48077166
162	0xbf298ee2	-0.66233647
163	0xbf375e70	-0.71628475
164	0x3f6b2447	0.9185223
165	0x3f6fddb9	0.93697697
166	0x3e3df43f	0.18550204
167	0x3f586d2c	0.84541583
168	0x3eedca4a	0.46443397
169	0x3eb9fc2f	0.36325213
170	0x3ca1f771	0.01977131
171	0xbc093136	-0.008373549
172	0x3f01f69a	0.5076691
173	0xbe51a496	-0.20472941
174	0xbf611834	-0.87927556
175	0x3ee04d54	0.43808997
176	0xbe7e7280	-0.24848366
177	0x3e855966	0.26044768
178	0xbf5c8436	-0.8613924
179	0xbf733ccd	-0.9501465
180	0x3ec92141	0.39283183
181	0x3f6984f4	0.91218495
182	0x3f298772	0.662223
183	0xbe4c26e8	-0.19936717
184	0x3e69202c	0.22766179
185	0xbf436510	-0.76326084
186	0xbbfc51ba	-0.0077001723
187	0xbeb7fd58	-0.35935473
188	0x3ec3a70c	0.38213384
189	0xbda7f40a	-0.08200844
190	0xbf2bfdea	-0.6718432
191	0xbf2d1c44	-0.67621255
192	0x3e79935c	0.2437262
193	0xbf4e090f	-0.8048257
194	0xbef33e5a	-0.47508508
195	0xbf12a597	-0.5728392
196	0x3f3a173b	0.72691697
197	0x3e1f032d	0.15528555
198	0x3f45ba00	0.7723694
199	0x3f1502a2	0.5820714
200	0xbf6aa9d2	-0.91665375
201	0x3f80dd9d	1.0067631
202	0x3f5b243d	0.8560217
203	0x3f1fa48b	0.6236045
204	0x3f8aff5c	1.085918
205	0xbe2e5642	-0.17025092
206	0x3f09c03c	0.5380895
207	0x3f370ffb	0.7150876
208	0xbf6e56fc	-0.9310148
209	0xbe2d7aa7	-0.1694132
210	0x3eeb2b82	0.4593163
211	0x3dce7007	0.10079961
212	0xbe58e5ad	-0.21181364
213	0xbf74df87	-0.95653576
214	0x3e9ab1ee	0.30213875
215	0x3e920b0a	0.28524047
216	0xbed5040c	-0.4160465
217	0xbf3cc992	-0.7374507
218	0x3e7c6b12	0.24650219
219	0x3e8dbd91	0.2768369
220	0x3e51dd49	0.2049457
221	0xbf2d6474	-0.67731404
222	0xbf293956	-0.6610311
223	0xbf2b41ea	-0.6689745
224	0xbd8dc80a	-0.0692292
225	0xbf1f9e42	-0.6235086
226	0xbf5e5f02	-0.8686372
227	0xbef5eac1	-0.48030666
228	0xbcb69006	-0.022285473
229	0x3d47627e	0.048677914
230	0x3f68f9d1	0.9100619
231	0x3f494492	0.78620255
232	0xbe901970	-0.28144407
233	0x3f02bd3f	0.51070017
234	0xbf3b9845	-0.7327922
235	0xbda3a159	-0.07989759
236	0xbf3ba92b	-0.73305005
237	0x3d994ac8	0.074849665
238	0x3f12773c	0.5721319
239	0xbe159f42	-0.14611533
240	0x3ddc160d	0.10746393
241	0xbf2f982a	-0.6859156
242	0x3f447938	0.76747465
243	0x3f0fcd4d	0.5617264
244	0xbea08279	-0.31349543
245	0x3d9f29b8	0.07771629
246	0x3f27399b	0.65322274
247	0x3f419177	0.75612587
248	0x3f715a15	0.9427808
249	0x3ee12d11	0.43979695
250	0x3f03e860	0.5152645
251	0xbec4d69d	-0.38444987
252	0xbf5281ee	-0.82229507
253	0x3f1e013d	0.6172064
254	0x3e8ddeef	0.27709147
255	0xbf7174b0	-0.94318676

Operation_2_B f4 [20]
0	0xbf065970	-0.5248022
1	0x3f22f1ce	0.63650215
2	0xbe40dce0	-0.18834257
3	0xbd89fc32	-0.067375556
4	0x3f66a709	0.90098625
5	0x3f6e2d3c	0.9303777
6	0x3f08530a	0.5325171
7	0x3e19b3de	0.1501002
8	0x3f56043f	0.8360023
9	0xbba3c9cc	-0.0049984213
10	0xbf2b9553	-0.67024726
11	0xbeb307fa	-0.34967023
12	0xbed26694	-0.41093886
13	0x3dee0071	0.11621178
14	0xbf5d73ae	-0.8650464
15	0xbf5caef0	-0.86204433
16	0xbf2b3cde	-0.6688975
17	0x3f656eaa	0.89621985
18	0x3f1e0604	0.6172793
19	0x3ed89649	0.42302158

Operation_3_W f4 [20, 20]
0	0x3f70c407	0.94049114
1	0x3f175568	0.59114695
2	0x3f067b83	0.52532214
3	0x3f6d08ef	0.92591757
4	0x3ec15117	0.3775718
5	0xbe87f17d	-0.26551428
6	0xbf45a407	-0.7720341
7	0xbefebf21	-0.49755195
8	0x3f70c91f	0.94056886
9	0x3ef6b19b	0.48182377
10	0xbf6eee2e	-0.93332183
11	0x3e321af0	0.17393088
12	0x3f1cf539	0.6131168
13	0x3e2c584a	0.16830555
14	0x3f035e8f	0.5131616
15	0xbf7d9569	-0.99056107
16	0xbf72a210	-0.9477854
17	0x3f1609c0	0.5860863
18	0xbeba9b92	-0.36446816
19	0x3f1bc04d	0.608403
20	0x3f7f31cc	0.9968536
21	0xbe22b2bb	-0.15888493
22	0x3f1d30e9	0.61402756
23	0x3d8b5201	0.068027504
24	0xbf32f406	-0.699036
25	0xbf7f47fb	-0.9971921
26	0x3eb4b7c6	0.35296458
27	0xbf3d0453	-0.73834723
28	0x3d704780	0.058661938
29	0xbf11d58e	-0.56966484
30	0xbe48375c	-0.19552368
31	0xbebc083d	-0.36725035
32	0x3f0e6ca5	0.5563453
33	0x3d82753a	0.063700154
34	0x3f2fc121	0.68654066
35	0x3e99a43d	0.30008116
36	0xbf30c86a	-0.6905581
37	0x3f2b2323	0.6685049
38	0x3e447c65	0.19188078
39	0xbf4e93d2	-0.80694306
40	0x3f7993ad	0.9749096
41	0xbecde0d2	-0.40210587
42	0x3e8824af	0.26590487
43	0xbd270003	-0.040771496
44	0x3f0e1c7b	0.5551221
45	0x3e3531e9	0.1769482
46	0xbf702d24	-0.9381888
47	0xbd325a0e	-0.043542914
48	0x3e98fb44	0.298792
49	0xbf774cd5	-0.9660161
50	0x3edd7fc0	0.43261528
51	0x3f78fa90	0.9725733
52	0xbdeb9ce7	-0.11504536
53	0xbeb5ebef	-0.35531566
54	0x3f0a5200	0.5403137
55	0x3eb6d137	0.35706493
56	0x3f2af65e	0.66782176
57	0xbec4c38a	-0.38430434
58	0x3d60ff60	0.054931045
59	0x3ecad205	0.39613357
60	0xbf3327da	-0.69982684
61	0xbf66a060	-0.9008846
62	0x3ed77a42	0.42085463
63	0x3f165b67	0.5873322
64	0xbe4ebe3a	-0.20189753
65	0xbd904943	-0.070452236
66	0xbf6ea146	-0.93214834
67	0x3f4d65d2	0.8023349
68	0x3eb3fc06	0.35153216
69	0xbe0e1018	-0.13873327
70	0x3f57b968	0.8426728
71	0xbc34d818	-0.011037849
72	0xbf008d45	-0.5021556
73	0xbe430b29	-0.19047226
74	0x3f75130c	0.9573219
75	0xbefc4a4b	-0.4927543
76	0xbf1c36f0	-0.6102133
77	0x3d7da669	0.06192628
78	0xbf4934e9	-0.7859636
79	0x3f490642	0.78525174
80	0x3f6abdbc	0.9169576
81	0xbf272faf	-0.65307134
82	0x3ec13104	0.37732708
83	0xbf5087d4	-0.8145726
84	0x3f51cfb5	0.8195756
85	0xbf376833	-0.7164337
86	0xbe6ee009	-0.2332765
87	0xbe478ce8	-0.19487345
88	0x3f569b33	0.83830565
89	0x3f761985	0.9613269
90	0x3f5b5e5f	0.85690874
91	0x3f02a636	0.5103487
92	0xbf60c96c	-0.87807345
93	0x3f40247f	0.7505569
94	0xbf46fbe5	-0.7772811
95	0x3f2fb569	0.68636185
96	0x3e809798	0.25115657
97	0xbdf63733	-0.12022247
98	0x3e1dce3c	0.15410703
99	0xbf7a2b96	-0.97722757
100	0x3d798542	0.0609181
101	0xbf058ab9	-0.521648
102	0xbeb75972	-0.3581043
103	0x3f42f828	0.76159906
104	0xbec5964a	-0.38591224
105	0x3efa4fa5	0.4888889
106	0xbf586055	-0.8452199
107	0xbf1187be	-0.5684775
108	0xbf31bfb9	-0.6943317
109	0xbef39ef3	-0.47582206
110	0x3f7782f1	0.96684176
111	0xbf797817	-0.9744887
112	0x3e80d297	0.25160667
113	0xbea08e06	-0.31358355
114	0xbe54d59d	-0.20784612
115	0xbed2fc79	-0.41208246
116	0xbea5cfb4	-0.32385027
117	0xbf2f4167	-0.6845917
118	0xbec21452	-0.37906128
119	0x3d42023b	0.04736541
120	0xbf5a1155	-0.85182697
121	0xbf6b1d9c	-0.91842055
122	0x3d81a1da	0.06329699
123	0xbf7e044a	-0.99225295
124	0xbf4f0563	-0.80867594
125	0x3f0fc962	0.5616666
126	0x3f566c7b	0.8375928
127	0xbf2a0639	-0.66415745
128	0xbe88384b	-0.26605448
129	0x3e7b1f7d	0.2452373
130	0x3f773aa2	0.9657384
131	0x3e497985	0.19675262
132	0xbf73b594	-0.9519894
133	0x3d74bc66	0.059749983
134	0xbc82140b	-0.015878698
135	0xbf723f5b	-0.9462792
136	0x3e5106e6	0.20412788
137	0x3dcbad07	0.09945112
138	0xbdd0de3f	-0.1019864
139	0x3ed73486	0.4203226
140	0xbec0b205	-0.37635818
141	0x3ebd3a81	0.36958697
142	0x3f3f1347	0.7463879
143	0x3cbce484	0.023058183
144	0xbefb7a48	-0.4911673
145	0xbf0bac67	-0.5455994
146	0x3f68676c	0.9078281
147	0x3f3a157c	0.7268903
148	0xbecc2e37	-0.3987901
149	0xbede3498	-0.433995
150	0x3f0c44f8	0.5479274
151	0xbced3099	-0.028953837
152	0xbf560c38	-0.83612394
153	0xbee0f1f8	-0.43934608
154	0xbef7b60b	-0.48381075
155	0xbf503a0b	-0.81338567
156	0xbf36b735	-0.713733
157	0x3f8bea6d	1.0930916
158	0x3f5910a9	0.84791046
159	0x3d5fa342	0.054599054
160	0x3f4a53d3	0.79034156
161	0xbf7d6bd9	-0.9899269
162	0xbf641360	-0.89092064
163	0x3eb6bf2c	0.35692728
164	0xbf5596ec	-0.83433414
165	0x3d019369	0.031634722
166	0xbe533195	-0.20624383
167	0x3e5b84f8	0.21437442
168	0x3ec8c53d	0.3921298
169	0xbf734f7b	-0.9504315
170	0x3f1a178e	0.6019219
171	0x3f1b79aa	0.6073252
172	0xbf3d12d7	-0.7385687
173	0x3eb8fcb0	0.36130285
174	0xbf6d12c3	-0.92606753
175	0x3f188461	0.59576994
176	0x3eefeeb7	0.46861812
177	0xbf47ef23	-0.7809927
178	0xbe10ff30	-0.14159846
179	0x3e9677ec	0.29388368
180	0x3f2b66c1	0.66953665
181	0x3e667710	0.22506356
182	0x3a521f2e	0.00080155104
183	0x3e06a6b4	0.1314953
184	0x3f67fe95	0.90622836
185	0xbdf5e1a4	-0.12005928
186	0xbf2b0a78	-0.6681285
187	0xbe7b9250	-0.24567533
188	0x3f465020	0.7746601
189	0x3b9c1d00	0.0047641993
190	0x3dd8f8ea	0.105943516
191	0x3e9f0934	0.3106171
192	0xbdbb8dfe	-0.09157942
193	0x3e070360	0.13184881
194	0x3f72e21c	0.94876266
195	0x3ed879ee	0.42280525
196	0xbb8df781	-0.0043324833
197	0x3f498132	0.7871276
198	0xbf6d768e	-0.92759025
199	0x3f08606e	0.5327214
200	0xbf7ecc25	-0.9953025
201	0xbe7812e7	-0.2422596
202	0xbe09b371	-0.13447358
203	0xbd30777e	-0.043082707
204	0xbf877ff4	-1.0585923
205	0xbdefab43	-0.117025875
206	0x3c8ad3b6	0.016946655
207	0x3e95bd8e	0.2924618
208	0x3d5a7be0	0.053340793
209	0x3edd2b56	0.43197125
210	0xbecc02f9	-0.39846018
211	0x3f3e00ff	0.7422027
212	0x3e98c816	0.29840153
213	0x3e8f01ff	0.2793121
214	0x3ee7dc36	0.45285195
215	0x3f111ab2	0.5668136
216	0x3f859403	1.0435795
217	0x3e83ab5d	0.25716677
218	0x3ed3e9c6	0.41389292
219	0x3e995c34	0.29953158
220	0x3e8f932b	0.28041968
221	0xbed7804e	-0.42090076
222	0x3f4efe1d	0.80856496
223	0xbeb7cb7b	-0.3589743
224	0xbf591b77	-0.84807533
225	0x3f06055c	0.5235193
226	0xbe0d8088	-0.13818562
227	0x3f1f311a	0.621843
228	0x3f20157a	0.6253277
229	0xbe9677dc	-0.2938832
230	0xbe6456c0	-0.22298717
231	0x3f55fd92	0.8359004
232	0x3f05ef66	0.5231842
233	0x3e6d4df2	0.23174265
234	0xbf343df4	-0.7040703
235	0x3e7dcb28	0.24784529
236	0xbed8d0f5	-0.42346922
237	0xbe51c4dc	-0.20485252
238	0x3f6310d1	0.88697535
239	0x3e74d22d	0.239083
240	0x3f1b3abf	0.60636514
241	0x3e960b87	0.2930567
242	0x3e854ec9	0.2603667
243	0x3e500912	0.2031596
244	0xbf8c9417	-1.0982693
245	0x3f852fae	1.0405176
246	0x3efb2a49	0.490557
247	0xbeb32b75	-0.34994093
248	0xbecc7cdc	-0.3993901
249	0xbf716a30	-0.94302654
250	0x3f170c43	0.59003085
251	0xbf33856f	-0.7012548
252	0xbd26e7d0	-0.040748417
253	0x3da450ae	0.08023201
254	0xbf34472a	-0.7042109
255	0x3f269cdb	0.6508309

Operation_3_B f4 [20]
0	0xbde6374f	-0.11241018
1	0xbf51cf40	-0.81956863
2	0x3ef76e9e	0.48326582
3	0xbf6f7148	-0.9353223
4	0xbe0529d2	-0.13004234
5	0xbf6cebf5	-0.9254754
6	0x3f733c13	0.9501354
7	0x3d5cbdae	0.05389183
8	0x3f51d74c	0.8196914
9	0xbe6f05ad	-0.23342009
10	0x3f428e3f	0.759983
11	0xbefa8399	-0.48928526
12	0x3f52e486	0.8237995
13	0x3f4a03d4	0.7891209
14	0xbe52bc51	-0.2057965
15	0x3e79b08e	0.24383757
16	0x3e09b7e4	0.13449055
17	0x3f4adda8	0.7924447
18	0xbf1258dc	-0.5716684
19	0xbf8039de	-1.001766

Operation_4_W f4 [20, 20]
0	0x3f42db93	0.76116294
1	0xbf31fd09	-0.69526726
2	0x3f645312	0.89189255
3	0x3f4c5474	0.79816365
4	0xbeccbc2b	-0.3998731
5	0x3de04e76	0.10952465
6	0x3efbf252	0.49208313
7	0xbd987205	-0.074436225
8	0xbebc167b	-0.367359
9	0xbc9cbec4	-0.019133933
10	0xbf2f0314	-0.6836407
11	0xbf0031d4	-0.5007603
12	0x3f4ec64a	0.80771315
13	0x3f548907	0.8302159
14	0xbeb40e07	-0.35166952
15	0xbe6dcdf8	-0.23223102
16	0x3de92ac3	0.11385109
17	0xbf2fc570	-0.6866064
18	0x3be25261	0.006906793
19	0xbeee38a2	-0.46527582
20	0xbf079e23	-0.5297567
21	0xbf09d8c2	-0.5384637
22	0x3f45d7c6	0.7728237
23	0x3db7a33a	0.0896668
24	0xbf59ff07	-0.85154766
25	0x3f4230ca	0.75855696
26	0x3f23cfb8	0.6398883
27	0x3f427d3d	0.7597235
28	0x3f111c5a	0.56683886
29	0xbf5298ad	-0.82264215
30	0xbf63536b	-0.8879916
31	0xbeb6a8cb	-0.35675654
32	0x3d06a77a	0.03287456
33	0x3f4d4c97	0.8019499
34	0x3e85e0fc	0.26148212
35	0x3ea97d04	0.33103192
36	0xbf008f87	-0.50219005
37	0xbf63dffd	-0.89013654
38	0x3f099c99	0.53754574
39	0xbf2b37c2	-0.66881955
40	0xbf02a11b	-0.5102708
41	0x3ea1beaf	0.31590793
42	0x3cf5d5e8	0.030009225
43	0x3f4d601e	0.8022479
44	0x3f08e87d	0.5347975
45	0x3decfc30	0.115715384
46	0x3efb1e8a	0.49046737
47	0xbf1176fa	-0.5682217
48	0x3f71de6c	0.94480014
49	0xbeff20c0	-0.49829674
50	0x3eceb00f	0.40368697
51	0xbe21b6a3	-0.15792327
52	0xbf5bced3	-0.85862464
53	0xbf124f76	-0.571525
54	0xbed09857	-0.40741226
55	0x3f227e64	0.63474107
56	0xbf3c6354	-0.7358906
57	0xbea423dc	-0.3205861
58	0xbe6533f7	-0.22383104
59	0xbe0cee2a	-0.13762727
60	0x3e904c8e	0.28183407
61	0x3e00eb15	0.12589677
62	0x3eb7b6ed	0.3588175
63	0xbf6576f8	-0.89634657
64	0xbf548125	-0.8300956
65	0x3f0131ee	0.5046681
66	0xbea6c3e7	-0.32571337
67	0xbf7f7bc4	-0.99798226
68	0x3e311414	0.17292815
69	0xbdd6cc5a	-0.10488196
70	0xbf53b8ac	-0.8270366
71	0x3e8f706c	0.2801546
72	0xbf047731	-0.5174437
73	0x3dc0c325	0.09412221
74	0x3f5c22ad	0.8599041
75	0x3f08540c	0.53253245
76	0x3ecc7252	0.3993097
77	0x3f2264f2	0.6343528
78	0xbdbf7338	-0.09348148
79	0xbd476f16	-0.048689924
80	0xbe57b001	-0.21063234
81	0xbed80e0a	-0.4219821
82	0x3f707b49	0.9393812
83	0x3f1c108c	0.6096275
84	0x3eff36c3	0.49846467
85	0x3f4a3070	0.7898016
86	0x3dea1dc2	0.11431457
87	0x3f4de991	0.8043452
88	0x3f0f1d2d	0.55903894
89	0x3e8ff9df	0.28120324
90	0x3e8e8615	0.2783667
91	0x3ec9fb13	0.39449367
92	0x3e30cd67	0.17265855
93	0x3f11c571	0.56941897
94	0xbf0e0311	-0.5547343
95	0xbe996c9a	-0.2996567
96	0xbd8b3fd0	-0.06799281
97	0xbe2a67ad	-0.16641112
98	0xbf3bfa91	-0.7342921
99	0x3ee4780f	0.44622847
100	0x3f26b7c5	0.6512416
101	0x3e7a7b09	0.24460997
102	0xbf3fc3a9	-0.7490793
103	0xbea90ec6	-0.33019084
104	0xbdd571ab	-0.10422071
105	0x3f2f0633	0.68368834
106	0xbd7e5828	-0.06209579
107	0x3eb85cea	0.36008388
108	0x3ee92985	0.4553949
109	0x3ed678d4	0.4188906
110	0xbf270769	-0.6524568
111	0xbeeb8695	-0.46001115
112	0xbf6b44af	-0.9190168
113	0xbf1c7238	-0.61111784
114	0xbf298890	-0.66224
115	0xbf1eca58	-0.620275
116	0xbf227304	-0.6345675
117	0x3f71f946	0.94520986
118	0x3f045af1	0.51701266
119	0xbf3d1b3c	-0.7386968
120	0x3f46826f	0.77542776
121	0x3edd164f	0.43181083
122	0x3eff4209	0.49855068
123	0xbf0aa687	-0.5416035
124	0x3e9ae0ee	0.30249733
125	0xbf3d005a	-0.7382866
126	0xbf4cd280	-0.800087
127	0x3d030062	0.031982787
128	0x3e9bad9b	0.30405888
129	0x3f7bb6f7	0.9832606
130	0x3ea82090	0.32837343
131	0x3f35d772	0.7103187
132	0xbe1a93cf	-0.15095447
133	0x3efcd083	0.49377832
134	0x3f012588	0.50447893
135	0x3e96048e	0.2930035
136	0xbf4a03f7	-0.789123
137	0x3e57b146	0.21063718
138	0x3e059af1	0.13047387
139	0xbf60a797	-0.8775572
140	0x3f50706c	0.8142154
141	0xbedffd29	-0.43747833
142	0x3f107ac1	0.5643731
143	0x3f28e991	0.65981394
144	0xbf3c0520	-0.7344532
145	0xbf1f2737	-0.6216921
146	0x3f3eb024	0.7448752
147	0xbd35aaff	-0.044352528
148	0x3ea7f2b2	0.3280235
149	0x3f5bf3c3	0.85918826
150	0xbe9c410b	-0.30518374
151	0x3e816ff6	0.25280732
152	0x3f005566	0.5013031
153	0xbd483a1e	-0.04888355
154	0xbd2d3f5f	-0.042296764
155	0xbf541727	-0.8284783
156	0xbe9cc0c5	-0.3061582
157	0xbec07237	-0.3758714
158	0x3e983431	0.2972732
159	0x3c9cd2a4	0.01914341
160	0xbe5fa6b2	-0.21840933
161	0xbe33aa21	-0.17545368
162	0x3f1017a3	0.56286067
163	0xbe9b6865	-0.30353084
164	0x3d80d0eb	0.06289848
165	0xbf31561f	-0.69272035
166	0x3ebe684a	0.3718894
167	0xbf4b4e42	-0.79416287
168	0x3f60a7bf	0.8775596
169	0xbf50c74c	-0.815541
170	0xbedca93b	-0.43097863
171	0x3f26f6d6	0.6522039
172	0x3f685c1f	0.90765566
173	0x3e2a837a	0.16651717
174	0x3e9d2091	0.3068891
175	0xbede52a2	-0.4342242
176	0xbf3b0292	-0.73050797
177	0x3f5b20af	0.85596746
178	0x3f189b11	0.5961161
179	0xbf711b70	-0.9418249
180	0x3f1a46a0	0.60264015
181	0xbe8d19f2	-0.27558857
182	0xbf1e44a1	-0.6182347
183	0xbf2b4770	-0.6690588
184	0x3e890318	0.26760173
185	0xbf7133c0	-0.9421959
186	0xbeee4257	-0.46534988
187	0x3f7e671f	0.993761
188	0x3d8fb160	0.070162535
189	0x3f683664	0.90707994
190	0x3f293f20	0.66111946
191	0xbf22b7b3	-0.6356155
192	0xbf150a4e	-0.5821885
193	0xbef532e2	-0.47890383
194	0x3f6ee30a	0.93315184
195	0x3e8ded50	0.27720118
196	0xbeb4709e	-0.3524217
197	0x3f4bfe52	0.79684937
198	0xbf0f2168	-0.5591035
199	0xbf3a44b3	-0.72761077
200	0xbf1e4d10	-0.6183634
201	0x3f1104fa	0.5664822
202	0x3d283493	0.041065764
203	0xbf70d139	-0.9406925
204	0xbf4dc99b	-0.8038575
205	0xbf7b5939	-0.9818302
206	0x3f60d22a	0.87820685
207	0xbed3e4b4	-0.41385424
208	0xbe4d1d0b	-0.2003061
209	0xbf2caf9e	-0.6745547
210	0x3f0a6309	0.54057366
211	0xbf655d67	-0.89595646
212	0xbeafa648	-0.3430655
213	0xbf549227	-0.8303551
214	0xbe9e240c	-0.30886877
215	0x3cac6a54	0.021046795
216	0x3f8c5389	1.0962993
217	0x3f3282c0	0.6973076
218	0x3f373d76	0.71578157
219	0x3ebf4a63	0.3736144
220	0x3e9ba266	0.30397338
221	0xbf380bf5	-0.71893245
222	0xbf684a45	-0.90738326
223	0x3f6a9ef2	0.9164878
224	0xbd8ec522	-0.06971194
225	0x3e45887e	0.19290349
226	0xbddf338b	-0.10898503
227	0xbe789dde	-0.24278972
228	0x3eb13c23	0.34616193
229	0x3f6fd882	0.9368974
230	0x3f1e6799	0.6187683
231	0x3d9fdd94	0.078059345
232	0x3f7573e2	0.9587995
233	0xbeceb643	-0.4037343
234	0xbeec0318	-0.4609611
235	0xbeccf3f8	-0.40029883
236	0x3e238235	0.15967639
237	0xbeaed9cc	-0.3415054
238	0x3f4f38a1	0.80945784
239	0x3d9b3f83	0.07580473
240	0x3ecbc2d1	0.3979707
241	0x3f4ddc0e	0.804139
242	0xbeb2e85c	-0.349429
243	0x3eb89e21	0.36058143
244	0x3f45cc85	0.772652
245	0x3e5f5541	0.21809866
246	0xbeccdc49	-0.40011814
247	0xbe5a62a7	-0.21326695
248	0xbdf39220	-0.118931055
249	0x3e46ab6e	0.19401333
250	0xbf7fd542	-0.9993478
251	0x3ece63dc	0.40310562
252	0xbf487e57	-0.7831778
253	0x3f5591fb	0.83425874
254	0x3f15345e	0.5828303
255	0x3f7a57d2	0.97790253

Operation_4_B f4 [20]
0	0x3f6292cf	0.8850526
1	0x3e8b9ec2	0.2726956
2	0xbf519e2b	-0.8188197
3	0xbf59bfdc	-0.8505838
4	0xbf204dda	-0.6261879
5	0xbf6fc6a3	-0.9366247
6	0x3ee61a16	0.44941777
7	0xbf3ad166	-0.72975767
8	0x3e8b3066	0.27185363
9	0x3f1466e6	0.5796951
10	0x3e01f964	0.12692791
11	0xbe884386	-0.26614016
12	0x3f24a6ef	0.6431722
13	0xbec87471	-0.39151338
14	0xbeb8f642	-0.3612538
15	0x3f11e8e2	0.56995976
16	0x3c11433a	0.008866126
17	0xbef48ace	-0.4776215
18	0x3eed3edc	0.4633702
19	0xbf2ec6be	-0.68272007

Operation_5_W f4 [20, 20]
0	0x3f57972c	0.84215045
1	0x3ea938f2	0.33051258
2	0x3f1124ed	0.5669697
3	0x3e8c4fb4	0.2740456
4	0xbef62546	-0.48075312
5	0xbeee5b7f	-0.4655418
6	0x3ea2ff0d	0.31835213
7	0xbf04ca10	-0.5187082
8	0x3eedb8ab	0.46429953
9	0xbe2953ab	-0.16535823
10	0xbf71ca7c	-0.9444959
11	0x3f2c5f59	0.6733299
12	0x3e890c27	0.26767084
13	0xbf5a8d9e	-0.8537234
14	0x3f1f2572	0.6216651
15	0x3ea3e9e4	0.32014382
16	0xbeb48662	-0.35258776
17	0x3f3ebc5c	0.74506164
18	0xbe05c851	-0.13064696
19	0xbd51070e	-0.05103212
20	0xbf0e38ba	-0.5555531
21	0x3ebc9fa8	0.36840558
22	0xbf011516	-0.504228
23	0x3f6866f1	0.90782076
24	0xbf3e91b2	-0.74441063
25	0xbf6bc5d4	-0.92098737
26	0x3e23da69	0.16001286
27	0xbf773a5e	-0.96573436
28	0x3f70e85d	0.9410456
29	0xbf311f44	-0.6918833
30	0x3ec5ed08	0.38657403
31	0x3f29b376	0.6628946
32	0x3daa6b75	0.08321277
33	0x3e42471c	0.18972439
34	0x3f5b960e	0.8577584
35	0x3ec2aadd	0.38020983
36	0x3f1a2b1a	0.6022202
37	0xbe881b86	-0.265835
38	0xbf63ccc7	-0.8898434
39	0x3f20edae	0.6286267
40	0xbf55313d	-0.83278257
41	0x3f15b6ae	0.5848187
42	0x3ddeed0d	0.108850576
43	0x3f64d389	0.8938528
44	0xbe256b92	-0.16154316
45	0xbed0521c	-0.40687644
46	0x3f51e52d	0.8199032
47	0x3eafb637	0.34318706
48	0x3e5eff62	0.21777108
49	0x3da3d645	0.07999853
50	0xbf2eb14d	-0.6823929
51	0x3d3f821d	0.046754945
52	0xbebd725d	-0.37001315
53	0x3f395519	0.72395474
54	0x3eb0dccd	0.34543458
55	0x3f351b43	0.70744723
56	0xbecd2cd3	-0.4007326
57	0xbf07108b	-0.5275962
58	0xbe73a683	-0.23793988
59	0xbec911a9	-0.39271286
60	0xbf5a43ca	-0.8525969
61	0xbe9ddc9f	-0.30832383
62	0xbf0a73c8	-0.5408292
63	0x3f6ee6e2	0.9332105
64	0xbe904f58	-0.28185534
65	0x3de6def6	0.11272995
66	0x3e8dbdad	0.27683774
67	0x3f69dd4d	0.91353303
68	0x3ee0f006	0.43933123
69	0x3f5fca71	0.87418276
70	0x3f1109ce	0.56655586
71	0xbe14045e	-0.14454791
72	0xbf2e6cba	-0.68134654
73	0xbdedc0c2	-0.11609031
74	0xbe82bb54	-0.25533545
75	0xbd83797c	-0.06419656
76	0x3e7f5623	0.24935202
77	0xbf207cf4	-0.62690663
78	0x3ebf28ca	0.37335807
79	0x3f1d86bf	0.6153373
80	0x3f0a02ad	0.5391033
81	0xbeffec69	-0.49985054
82	0xbf7c75ee	-0.98617446
83	0xbf5d8510	-0.8653116
84	0xbea3df5f	-0.32006356
85	0x3f702a87	0.9381489
86	0x3d29f037	0.041488852
87	0x3e2c1826	0.16806087
88	0xbec9fb4b	-0.39449534
89	0x3ea4d168	0.32191014
90	0xbe5dc8f8	-0.21658695
91	0x3f46aa6d	0.776038
92	0xbf31dc49	-0.69476753
93	0x3e931395	0.28725877
94	0xbe41229e	-0.18860862
95	0xbdaa1242	-0.08304264
96	0x3db7e3a6	0.08978967
97	0x3db8a931	0.09016646
98	0xbf549142	-0.83034146
99	0x3e1247be	0.1428518
100	0x3f22a690	0.63535404
101	0xbea00ab4	-0.31258166
102	0x3f0884f6	0.5332788
103	0xbdffdb84	-0.12493041
104	0x3ed08533	0.40726623
105	0x3ec1a9e9	0.37824944
106	0xbef6255e	-0.48075384
107	0xbf13f3e5	-0.5779403
108	0xbda7d822	-0.08195521
109	0xbe57bdd7	-0.21068512
110	0xbef568a7	-0.47931406
111	0xbf48805c	-0.7832086
112	0xbf39e197	-0.7260985
113	0xbec93e58	-0.39305377
114	0xbdfa93c4	-0.12235215
115	0x3f1cb9b0	0.61220837
116	0x3de0046d	0.10938344
117	0xbefac2c1	-0.4897671
118	0x3da13aaa	0.078725174
119	0xbf6420b8	-0.89112425
120	0x3ef6321d	0.48085108
121	0xbeaf7af0	-0.3427348
122	0xbf74d246	-0.9563335
123	0xbeb775bc	-0.35832012
124	0xbe0baf52	-0.13641098
125	0x3edf1c4d	0.4357628
126	0xbf65ccef	-0.8976583
127	0x3d835f88	0.064147055
128	0xbf6768cb	-0.90394276
129	0xbef6cb2f	-0.48201892
130	0x3e3bcb70	0.18339324
131	0xbc0db63c	-0.008649405
132	0x3ed6d6a1	0.41960624
133	0x3e5c097a	0.2148799
134	0x3eb6efd1	0.3572984
135	0x3f2647e4	0.64953446
136	0x3e8f0217	0.27931282
137	0xbec6d62d	-0.38835278
138	0xbe01e363	-0.12684397
139	0xbdf256e3	-0.118329786
140	0x3f04392f	0.51649755
141	0x3f5baa7d	0.8580702
142	0xbe5aec96	-0.21379313
143	0xbf3b5d87	-0.73189586
144	0x3e1dc3d1	0.1540673
145	0x3df1c885	0.11805824
146	0x3ee8e291	0.45485356
147	0xbe9e735c	-0.30947387
148	0xbe6acc84	-0.22929579
149	0x3f32218b	0.6958243
150	0x3f043268	0.51639414
151	0x3e9036dc	0.28166854
152	0xbd8fea47	-0.07027107
153	0xbede3d9b	-0.43406376
154	0xbd8f126a	-0.06985934
155	0xbf1e7f29	-0.6191278
156	0x3f1cbbe2	0.61224186
157	0xbf770f41	-0.9650765
158	0x3e1bfc30	0.1523292
159	0xbcc3c302	-0.023896698
160	0x3f6c21c0	0.92239
161	0x3f031bed	0.51214486
162	0xbefd661d	-0.4949197
163	0xbf3b17a8	-0.7308297
164	0x3f0feea1	0.56223494
165	0x3d889e6c	0.066708416
166	0xbf28d154	-0.6594441
167	0xbf2cdc69	-0.6752382
168	0xbe8d9a39	-0.27656725
169	0x3f63de64	0.89011216
170	0xbf26758a	-0.650231
171	0x3ec6c9ed	0.38825932
172	0xbf460152	-0.77345765
173	0x3ee6c3b0	0.45071173
174	0x3f68123e	0.90652835
175	0xbf72daf6	-0.9486536
176	0x3f5d8cce	0.86542976
177	0x3e3551c0	0.17706966
178	0xbf3e0fcf	-0.7424287
179	0xbd9454e9	-0.07242758
180	0xbd8985fb	-0.06715008
181	0xbed93cd4	-0.4242922
182	0xbf1770e1	-0.59156615
183	0x3f1ca52c	0.6118953
184	0x3f1d0aac	0.6134441
185	0x3f405ee5	0.751448
186	0xbee0df9b	-0.43920597
187	0xbeb5184e	-0.35370106
188	0xbed98391	-0.4248319
189	0xbe7be782	-0.24600032
190	0xbf479a88	-0.7797017
191	0xbf0a2824	-0.539675
192	0x3ecdb330	0.40175772
193	0x3f17a37b	0.59233826
194	0xbe94ca0d	-0.29060403
195	0xbf62e926	-0.88637006
196	0xbf394228	-0.7236657
197	0x3f6cd471	0.9251166
198	0xbe0978ff	-0.13425063
199	0xbf1a4a77	-0.60269874
200	0x3f12f134	0.57399297
201	0x3e5974d6	0.21235976
202	0x3ea62c97	0.32455894
203	0x3d4ade6d	0.049528528
204	0x3f0114e9	0.5042253
205	0xbe5aef20	-0.21380281
206	0xbef658a7	-0.4811451
207	0x3edd38e5	0.4320747
208	0x3f22282c	0.6334255
209	0xbf5d8d74	-0.86543965
210	0xbf26e48e	-0.65192497
211	0xbf74cd36	-0.9562563
212	0xbf23d8db	-0.6400277
213	0x3f687e14	0.9081738
214	0xbea4d7b7	-0.32195827
215	0xbf36d126	-0.71412885
216	0x3f16913d	0.58815366
217	0x3f331f3c	0.69969535
218	0xbf7981b5	-0.9746354
219	0xbf05a022	-0.5219747
220	0xbe1e94a0	-0.15486383
221	0x3f0602a7	0.523478
222	0x3f545913	0.82948416
223	0x3f6375a6	0.8885139
224	0x3ecec69b	0.403859
225	0xbdabc201	-0.08386613
226	0x3dbe8e1a	0.093044475
227	0x3e81fafa	0.25386792
228	0xbdcaa30d	-0.09894381
229	0xbf2307b7	-0.63683647
230	0x3eab461a	0.3345192
231	0xbf14931c	-0.5803697
232	0x3f1b7a62	0.60733616
233	0xbe0eb172	-0.13934878
234	0x3f4aae2b	0.7917201
235	0xbf283bce	-0.65716255
236	0xbeeb39f0	-0.4594264
237	0xbf7b09ba	-0.98061717
238	0xbf17f582	-0.5935899
239	0x3f0a41df	0.5400676
240	0x3f633093	0.88745993
241	0x3f399e1c	0.7250688
242	0xbf7c7745	-0.9861949
243	0x3f7a07b6	0.97668016
244	0xbded07ba	-0.11573739
245	0xbf1560e2	-0.58350956
246	0x3da63bd2	0.081168786
247	0xbed599c4	-0.41718876
248	0x3f1cfef0	0.61326504
249	0x3e1b2191	0.15149523
250	0x3f0b9520	0.5452442
251	0x3e4e2161	0.2012992
252	0x3ce4a825	0.027912209
253	0xbdc4c7df	-0.09608435
254	0x3dba1946	0.09086852
255	0x3e80dd74	0.25168955

Operation_5_B f4 [20]
0	0xbf59c8ba	-0.8507191
1	0x3e39d880	0.18148994
2	0xbddd2d83	-0.10799696
3	0x3f584a55	0.8448842
4	0xbf4fbeaf	-0.81150335
5	0xbe80f31d	-0.2518548
6	0x3dd65b05	0.10466579
7	0xbf4200c4	-0.7578242
8	0x3f4f0eaa	0.8088175
9	0x3e8866f6	0.26641053
10	0x3f4f921d	0.81082326
11	0x3e802098	0.25024867
12	0xbf7619bb	-0.9613301
13	0xbed71c94	-0.4201399
14	0xbf475b05	-0.7787326
15	0x3e8492bc	0.258932
16	0xbf6367ae	-0.8883008
17	0x3eb2732e	0.348535
18	0xbd6fcfc5	-0.058547754
19	0xbec71f41	-0.38891032

Operation_6_W f4 [20, 20]
0	0x3d05ccbf	0.032665964
1	0x3f3f96c8	0.7483945
2	0xbefd903a	-0.495241
3	0xbf361691	-0.71128184
4	0xbf57746a	-0.8416201
5	0x3f2a05f5	0.6641534
6	0xbe53e153	-0.20691423
7	0x3f6e3ff0	0.9306631
8	0x3f80a4b8	1.0050268
9	0xbe7d8fcf	-0.2476189
10	0x3e7dfbdd	0.2480311
11	0xbee8ccb2	-0.4546867
12	0x3e7e9a60	0.24863577
13	0xbe9df530	-0.30851126
14	0x3f47b17f	0.7800521
15	0xbd4f817d	-0.0506606
16	0xbed3e864	-0.41388237
17	0xbf28d0b3	-0.6594345
18	0x3e610dd1	0.21977927
19	0x3f0f4435	0.5596345
20	0x3ed3ff37	0.4140565
21	0xbe816520	-0.25272465
22	0xbf198fd2	-0.5998508
23	0xbf609318	-0.8772445
24	0xbde2d0ed	-0.11075006
25	0x3f71749b	0.9431855
26	0x3f1527f9	0.5826412
27	0xbf7f3ecf	-0.99705213
28	0xbf3c7c26	-0.73626935
29	0x3f33884b	0.7012984
30	0xbed1292a	-0.40851718
31	0x3f5d1029	0.86352783
32	0xbf6e7b0e	-0.93156517
33	0xbf1d2f60	-0.61400414
34	0xbf3b07cf	-0.7305879
35	0x3f5da6a8	0.8658242
36	0xbf029fc4	-0.51025033
37	0xbf07a6a1	-0.5298863
38	0x3ea5be17	0.3237159
39	0x3e09ef0f	0.134701
40	0x3f20919e	0.62722194
41	0x3f01b21a	0.50662386
42	0xbf5caabe	-0.8619803
43	0x3e885b89	0.26632336
44	0xbf2f1d02	-0.6840364
45	0xbf147db2	-0.58004296
46	0x3e905a63	0.2819396
47	0xbec1ce3d	-0.3785266
48	0x3f74f70f	0.9568948
49	0xbf0c6c70	-0.5485296
50	0xbf59c38d	-0.8506401
51	0x3e15943b	0.14607327
52	0x3eb6898a	0.3565181
53	0x3f13c756	0.5772604
54	0xbf370c86	-0.71503484
55	0xbf4ea22e	-0.80716217
56	0xbf3f5088	-0.74732256
57	0xbee2d7ac	-0.4430517
58	0xbe35830b	-0.1772577
59	0xbf57fc63	-0.84369487
60	0xbebc9cbd	-0.36838332
61	0xbf29f08c	-0.6638267
62	0x3dd4a05a	0.10382147
63	0xbf7679b7	-0.9627947
64	0xbe4f5cb3	-0.20250206
65	0x3ed30604	0.41215527
66	0xbec301e5	-0.38087383
67	0xbf6730f7	-0.9030909
68	0xbf409320	-0.75224495
69	0x3f180aeb	0.5939166
70	0xbed33ebc	-0.412588
71	0xbe76f0fe	-0.24115369
72	0xbf294e5f	-0.6613521
73	0xbed8611c	-0.4226159
74	0x3f497299	0.7869049
75	0x3e4af891	0.19821383
76	0x3f6d1ff4	0.9262688
77	0x3f6738fc	0.90321326
78	0x3f6b8351	0.9199725
79	0xbefe56d9	-0.49675635
80	0xbec13a00	-0.37739563
81	0x3d216158	0.039399475
82	0xbe44fe69	-0.19237675
83	0xbee3dbd7	-0.44503662
84	0x3f5627cc	0.83654475
85	0xbf6c0666	-0.92197263
86	0x3f4db91c	0.8036058
87	0xbdfe2ffe	-0.124114975
88	0xbf1fa3f5	-0.62359554
89	0x3f7e6730	0.993762
90	0xbf07d02f	-0.5305204
91	0x3e2975cd	0.16548844
92	0x3e3ab2ab	0.18232219
93	0x3dc73452	0.09726776
94	0x3e9e34af	0.3089957
95	0xbf086942	-0.5328561
96	0xbf09e24d	-0.5386093
97	0xbe9d0248	-0.30665803
98	0x3e9f58bd	0.3112239
99	0xbf3babd9	-0.73309094
100	0xbe9ebe62	-0.31004626
101	0x3e84c8aa	0.25934345
102	0x3f000f2e	0.5002316
103	0x3f7631ee	0.96169937
104	0xbbc37c6f	-0.0059657614
105	0x3e4d6d81	0.20061304
106	0xbf292a7d	-0.66080457
107	0x3f2ba9be	0.6705588
108	0x3e95e40b	0.29275545
109	0xbee08983	-0.43854913
110	0xbe9dcd14	-0.30820525
111	0xbf3592a6	-0.7092689
112	0x3d963f23	0.07336261
113	0x3f351870	0.70740414
114	0xbf6f96b3	-0.93589324
115	0xbf6f74b8	-0.93537474
116	0xbd0e9c1d	-0.03481685
117	0xbecf68d3	-0.40509662
118	0xbe953709	-0.2914355
119	0x3e091f99	0.1339096
120	0x3eaa4bd4	0.33260977
121	0x3ed5af3e	0.41735262
122	0xbcd1fc49	-0.025632994
123	0x3f0689e0	0.5255413
124	0x3f562281	0.836464
125	0x3f0d7afc	0.55265784
126	0xbecbd08e	-0.39807552
127	0x3f2aebf4	0.66766286
128	0xbf40128b	-0.75028294
129	0x3ed7b4b1	0.42130044
130	0x3f326d54	0.6969807
131	0xbeff4ae9	-0.4986184
132	0x3f0bcbc8	0.5460782
133	0xbf5610c4	-0.8361933
134	0xbcc1cd83	-0.023657566
135	0x3e238bdd	0.15971322
136	0xbed562b9	-0.41676882
137	0xbe52ab3c	-0.20573133
138	0x3f1ca81b	0.6119401
139	0x3daaed62	0.083460584
140	0x3f38de61	0.72214323
141	0xbec64019	-0.38720778
142	0xbe6bf541	-0.23042776
143	0xbf01e3d6	-0.50738275
144	0xbf50ee09	-0.8161321
145	0xbf6cf3da	-0.9255959
146	0x3f461fd5	0.7739232
147	0x3d922302	0.071355835
148	0xbf565d29	-0.837359
149	0x3ea8976c	0.32928026
150	0xbf2de4b8	-0.6792712
151	0x3ee767b8	0.4519632
152	0xbf632fce	-0.8874482
153	0xbef81dfd	-0.4846038
154	0x3f49f5ce	0.78890693
155	0x3f2f3499	0.6843963
156	0xbe071435	-0.13191302
157	0xbeca8246	-0.39552516
158	0x3defa71b	0.11701795
159	0xbf5cb669	-0.86215836
160	0x3f0607ee	0.5235585
161	0xbeef6006	-0.46752948
162	0xbf608f10	-0.87718296
163	0x3edb3455	0.42813364
164	0x3f7f2b89	0.99675804
165	0xbf699656	-0.9124502
166	0x3e726d4f	0.2367451
167	0x3f015444	0.50519204
168	0x3eab80a9	0.33496597
169	0xbe2ea923	-0.17056708
170	0xbf2f2c67	-0.6842713
171	0x3c867652	0.016413841
172	0x3f208adf	0.627119
173	0xbe207a06	-0.15671548
174	0xbe82ddb9	-0.25559786
175	0x3de912bc	0.113805264
176	0xbf2b84da	-0.6699959
177	0x3eff9237	0.4991624
178	0xbf31c658	-0.69443274
179	0x3f798e35	0.97482616
180	0x3f406dc8	0.7516751
181	0x3f54fe69	0.832007
182	0xbf129707	-0.572617
183	0xbf396b22	-0.72429097
184	0xbf4ea041	-0.8071328
185	0xbf370eea	-0.7150713
186	0x3ebcf1ff	0.36903378
187	0x3e005413	0.12532072
188	0xbf71f8c7	-0.9452023
189	0xbb62c472	-0.0034601954
190	0x3c8ddf9c	0.01731854
191	0xbf197b20	-0.599535
192	0xbe6cfc57	-0.23143135
193	0x3e1f2d63	0.15544657
194	0xbed4f05a	-0.41589624
195	0x3f2e0525	0.679766
196	0xbe7ecdef	-0.24883245
197	0xbe8f9f4c	-0.2805122
198	0xbd0de184	-0.034638897
199	0xbefee0d6	-0.4978091
200	0x3f3e1294	0.742471
201	0x3e6b133d	0.22956558
202	0x3db3b48f	0.08774673
203	0x3e6ee7b8	0.23330581
204	0xbebfac87	-0.37436315
205	0x3f06787f	0.5252761
206	0xbb7de7cb	-0.0038742896
207	0x3f258d41	0.6466866
208	0x3f76e39b	0.9644105
209	0x3f65c92c	0.8976009
210	0x3e538f7a	0.206602
211	0x3f1a1920	0.6019459
212	0xbe49a20c	-0.19690722
213	0x3f32dff5	0.6987298
214	0xbf01d393	-0.5071346
215	0xbf170fda	-0.5900856
216	0x3f1ca46f	0.61188406
217	0xbf3e8238	-0.7441745
218	0x3edfcc7d	0.437107
219	0xbebbfa00	-0.36714172
220	0xbf278804	-0.6544192
221	0xbf504b5c	-0.8136499
222	0xbe36fff5	-0.17871077
223	0x3f63486b	0.88782376
224	0x3f110382	0.5664598
225	0xbeb16f42	-0.34655195
226	0xbf2c9a88	-0.67423296
227	0xbf8a8ac3	-1.0823597
228	0x3e719c43	0.23594765
229	0x3f685f96	0.9077085
230	0xbf2d5d60	-0.67720604
231	0xbe455f42	-0.19274619
232	0xbe814395	-0.25246873
233	0xbeceffc2	-0.40429503
234	0xbf074d3a	-0.52852213
235	0x3e78547b	0.24250977
236	0x3eed0cad	0.46298733
237	0x3e769a68	0.24082339
238	0x3eb0e43b	0.34549126
239	0xbecb27c4	-0.39678776
240	0x3f33508f	0.700448
241	0x3e872656	0.26396435
242	0x3f4d4b0d	0.80192643
243	0x3f3283f1	0.69732577
244	0x3e53cefe	0.2068443
245	0x3dc0d9ca	0.0941654
246	0x3f489a1c	0.7836015
247	0xbe2128a5	-0.15738161
248	0xbe5ad1bf	-0.21369074
249	0x3eef0c4a	0.46689063
250	0x3e8ab48a	0.27090865
251	0x3d574696	0.05255755
252	0x3e0ff9dd	0.14060159
253	0x3f9ed31a	1.2408173
254	0xbe68978c	-0.2271406
255	0xbf26e578	-0.6519389

Operation_6_B f4 [20]
0	0xbe8ff08f	-0.2811322
1	0x3ee091ff	0.43861386
2	0x3d096fe1	0.03355396
3	0xbef4e57b	-0.4783133
4	0xbc616fd8	-0.013759576
5	0x3f3c5dae	0.73580444
6	0x3ee9f4ed	0.45694676
7	0xbf1a0814	-0.60168576
8	0xbf27d95a	-0.6556603
9	0xbe84a211	-0.25904897
10	0x3f3dbd7d	0.7411726
11	0x3ecab62b	0.39592108
12	0x3e444d36	0.19170079
13	0xbf37a479	-0.7173534
14	0xbf5765b2	-0.8413955
15	0x3f3b7c76	0.7323679
16	0xbe1ebf3d	-0.15502639
17	0xbcca1e95	-0.024672786
18	0xbda2e332	-0.0795349
19	0x3cdd94e4	0.027048536

Operation_7_W f4 [20, 20]
0	0xbee97a4d	-0.4560112
1	0xbea8784d	-0.32904282
2	0x3e5be1a2	0.21472791
3	0xbeb55e4a	-0.354235
4	0x3f3b8f44	0.7326548
5	0x3e204abe	0.15653512
6	0x3d8de3fd	0.06928251
7	0xbd9f33eb	-0.077735744
8	0xbe40acae	-0.18815872
9	0xbebf2db6	-0.37339562
10	0x3e6137ee	0.21993992
11	0xbe9eceb5	-0.3101708
12	0xbf4dbcee	-0.8036641
13	0x3e730036	0.23730549
14	0xbf65ee84	-0.8981707
15	0xbe98e06b	-0.29858717
16	0x3d3a8df4	0.045545533
17	0xbf65a768	-0.89708567
18	0xbf2ab309	-0.66679436
19	0x3e820046	0.25390834
20	0xbf096e5e	-0.5368403
21	0x3e74e064	0.23913723
22	0xbe9c06cc	-0.30473936
23	0xbf4da154	-0.8032429
24	0x3e6bf104	0.23041159
25	0xbf07f9a5	-0.531153
26	0xbe6a9d4d	-0.22911568
27	0x3f3a3e81	0.72751623
28	0x3e55c9d8	0.20877779
29	0xbeb12b0d	-0.34603158
30	0xbe6e26bc	-0.23256963
31	0x3ed12285	0.4084665
32	0xbec98049	-0.39355686
33	0xbf7c7eab	-0.9863078
34	0xbf63476b	-0.8878085
35	0x3f5ee2e7	0.87064976
36	0xbee815cb	-0.45329127
37	0xbec51fc9	-0.38500813
38	0xbf4bba5d	-0.7958124
39	0xbe35968a	-0.17733207
40	0x3f5160bf	0.8178825
41	0x3f7c5b84	0.9857714
42	0x3ec28453	0.3799158
43	0xbf28efe9	-0.65991074
44	0xbf723455	-0.946111
45	0x3e8391d5	0.256972
46	0x3f391ab8	0.72306395
47	0xbef2dcf0	-0.47434187
48	0xbf62de24	-0.8862021
49	0x3f2e163d	0.6800268
50	0xbf65f174	-0.89821553
51	0xbf3adcdb	-0.7299325
52	0x3f1e9edf	0.6196117
53	0x3ef5fdae	0.48045105
54	0xbea8c203	-0.3296052
55	0x3f570117	0.8398604
56	0x3eba1df5	0.3635098
57	0x3f6e4ec7	0.93088955
58	0xbf2110ee	-0.6291646
59	0x3e8dea7e	0.27717966
60	0x3f55d994	0.8353512
61	0x3e978ece	0.2960114
62	0xbf7c4a06	-0.9855045
63	0xbe83eda3	-0.2576724
64	0xbeb5b745	-0.35491386
65	0xbe01654f	-0.12636302
66	0xbf428550	-0.7598467
67	0x3f25e174	0.6479714
68	0xbe53087c	-0.20608705
69	0xbc74af87	-0.014934427
70	0x3f1c7acd	0.6112488
71	0xbfa3b770	-1.2790356
72	0x3df8b84e	0.12144528
73	0x3f7bc4c1	0.983471
74	0x3e860be6	0.26180953
75	0x3ee59ae6	0.4484474
76	0x3e693f07	0.2277795
77	0x3f5cea50	0.8629503
78	0x3ea5761a	0.32316667
79	0x3f115afc	0.56779456
80	0x3e5442b4	0.2072857
81	0x3da2ebf8	0.07955164
82	0xbf5d3034	-0.8640168
83	0xbf6ba45d	-0.92047673
84	0xbd945f5f	-0.07244753
85	0xbef5b728	-0.479913
86	0xbe40736f	-0.18794034
87	0xbeaf2119	-0.3420494
88	0xbf351df6	-0.7074884
89	0xbf656d0a	-0.89619505
90	0x3e6f7978	0.2338618
91	0x3dff73c4	0.124732524
92	0x3f101efc	0.5629728
93	0xbf3e5f03	-0.74363726
94	0x3f48b151	0.78395563
95	0xbf4a6def	-0.79073995
96	0xbf567fd0	-0.83788776
97	0xbe79cd20	-0.24394655
98	0x3e8f5577	0.27994892
99	0x3f06f34f	0.5271501
100	0xbe8395a2	-0.25700098
101	0xbf0915e8	-0.5354905
102	0x3f745848	0.95447206
103	0x3ed64343	0.41848192
104	0xbf4dd334	-0.80400395
105	0x3f745bc8	0.9545255
106	0xbe1b60f1	-0.15173699
107	0x3f61f027	0.8825707
108	0xbdf74453	-0.12073579
109	0x3f0e586c	0.5560367
110	0x3edb1b57	0.42794296
111	0xbce7d444	-0.028299458
112	0x3dd40209	0.10351951
113	0xbe8ec365	-0.2788345
114	0x3eb18ee3	0.34679326
115	0xbe1212fb	-0.14265053
116	0xbeea5460	-0.45767498
117	0x3e70fd12	0.23534039
118	0xbe9ca2e4	-0.30593026
119	0x3f817a3a	1.0115426
120	0x3e49e9d1	0.197181
121	0x3ef59694	0.47966444
122	0xbf530f94	-0.82445645
123	0x3e90bbca	0.28268272
124	0x3e11623b	0.14197628
125	0xbf36f689	-0.7146993
126	0xbf605883	-0.8763506
127	0xbf030444	-0.51178384
128	0xbe77ddb5	-0.24205668
129	0xbe162cca	-0.14665523
130	0x3c1743e3	0.009232494
131	0x3dd030c5	0.10165552
132	0x3f494aba	0.7862965
133	0xbf1e2ba5	-0.61785346
134	0x3ebdb6a5	0.3705341
135	0xbee588c0	-0.44830894
136	0xbf17929f	-0.592081
137	0x3e001182	0.12506679
138	0xbf2c9bea	-0.67425406
139	0x3f1025a6	0.56307447
140	0x3eac87e5	0.3369743
141	0x3f472a01	0.7779847
142	0xbeab9fb6	-0.33520287
143	0xbf26e17f	-0.6518783
144	0xbeb24dcd	-0.34824982
145	0x3ccdd6a8	0.02512677
146	0xbf098a3c	-0.53726554
147	0x3f6a0a58	0.91422033
148	0xbeeb3156	-0.45936078
149	0xbee151ac	-0.44007623
150	0xbf7bf31c	-0.9841783
151	0x3ec734a5	0.38907352
152	0xbf60ed31	-0.87861925
153	0x3edb8b0f	0.4287953
154	0x3ec87153	0.3914896
155	0xbeef8423	-0.467805
156	0x3e7e27c7	0.24819861
157	0x3f293f41	0.6611214
158	0xbe6243f7	-0.22096239
159	0x3f5f04c3	0.8711664
160	0x3f43ba5a	0.76456225
161	0x3f3838b5	0.7196153
162	0x3d4dd7e4	0.050254717
163	0xbf602d9f	-0.8756961
164	0xbdc6e3ed	-0.09711442
165	0x3f4c59fb	0.798248
166	0xbf1601f3	-0.58596724
167	0x3cb15631	0.021647545
168	0xbedd8580	-0.43265915
169	0xbeaa7ce0	-0.33298397
170	0x3f3d5628	0.7395959
171	0x3f1a9899	0.60389096
172	0xbf2752b0	-0.65360546
173	0xbf24ee9d	-0.64426595
174	0x3f198381	0.59966284
175	0xbf1b8799	-0.6075378
176	0x3ee7c61c	0.45268333
177	0x3f6a577d	0.91539747
178	0x3f15f420	0.5857563
179	0x3eef10d4	0.46692526
180	0xbf5348c2	-0.82532895
181	0x3e46c7cf	0.19412158
182	0xbf01b820	-0.5067158
183	0xbe3f2959	-0.18668117
184	0x3e1f6c91	0.15568759
185	0x3e97e15c	0.29664123
186	0xbf4d6cb4	-0.8024399
187	0x3e044272	0.12915972
188	0x3e88f0cf	0.26746222
189	0xbe8840e5	-0.2661201
190	0xbe36e067	-0.1785904
191	0x3f636f89	0.88842064
192	0xbe2b5a34	-0.16733629
193	0x3f79443d	0.9736975
194	0x3ea475ae	0.32121032
195	0xbf7f52e2	-0.99735844
196	0x3f2b31c8	0.66872835
197	0xbf595753	-0.8489887
198	0xbe4d38f6	-0.2004126
199	0xbefc4b1a	-0.49276048
200	0x3d9ca5c0	0.07648802
201	0x3e9e7759	0.3095043
202	0x3cdde27a	0.027085532
203	0xbd974b54	-0.073874146
204	0xbf58ad33	-0.8463928
205	0x3e921ceb	0.28537688
206	0x3f041c55	0.5160573
207	0x3f7cc9a9	0.9874521
208	0x3f44f364	0.76933885
209	0x3f16ef08	0.5895848
210	0x3ed524ec	0.41629732
211	0x3f3bc3af	0.73345464
212	0x3efe5c32	0.49679714
213	0xbf774be4	-0.96600175
214	0x3d235212	0.03987319
215	0x3f3c7ead	0.7363079
216	0xbf86556f	-1.0494822
217	0x3f46ab22	0.7760488
218	0x3f177eed	0.5917805
219	0x3ed77b98	0.42086482
220	0xbe1288d7	-0.14310013
221	0x3f547cb7	0.830028
222	0x3f0fcde9	0.5617357
223	0xbf183b13	-0.5946514
224	0xbf62a3fb	-0.88531464
225	0xbd789fc9	-0.060699258
226	0xbf6ee7a0	-0.9332218
227	0x3f0abe68	0.54196787
228	0xbf153da6	-0.58297193
229	0xbf6c30b9	-0.92261845
230	0xbf32a254	-0.69778943
231	0x3e5535ad	0.20821257
232	0x3f49315f	0.7859096
233	0xbf6b9fcc	-0.92040706
234	0xbeac4d4a	-0.33652717
235	0xbdbe7966	-0.09300499
236	0xbf18840a	-0.59576476
237	0x3dffc8bb	0.12489458
238	0xbed1b45d	-0.4095792
239	0x3ec6282c	0.38702524
240	0x3e8f3954	0.27973425
241	0xbe08d74f	-0.13363384
242	0xbdf8ecde	-0.12154554
243	0x3f3d35a5	0.7390998
244	0xbecbfcba	-0.39841253
245	0x3dc2f96c	0.0952023
246	0x3f3427eb	0.7037341
247	0xbebeabd7	-0.37240478
248	0x3f4413c1	0.7659264
249	0x3ee81c02	0.45333868
250	0x3f0fc328	0.5615716
251	0x3f310da5	0.69161445
252	0xbf829945	-1.0203024
253	0x3f1bd136	0.60866106
254	0x3f5e4be3	0.86834544
255	0x3c9318a3	0.017956084

Operation_7_B f4 [20]
0	0x3f50811e	0.8144702
1	0x3f0122e7	0.5044388
2	0xbef46a85	-0.47737518
3	0x3e6e2e20	0.23259783
4	0xbd97eb5b	-0.07417937
5	0xbf43460e	-0.7627877
6	0x3dca4792	0.09876932
7	0x3f706387	0.93901867
8	0xbd93d869	-0.07219011
9	0x3e3a4b4c	0.18192786
10	0xbf342981	-0.7037583
11	0xbf19acf6	-0.6002954
12	0xbf2c45a2	-0.6729375
13	0xbf6f3bb9	-0.93450505
14	0xbee9328f	-0.45546386
15	0xbf1b80bc	-0.6074331
16	0xbe6661e0	-0.22498274
17	0xbf3b0ec2	-0.73069394
18	0x3f83d4ef	1.0299357
19	0xbca8aef1	-0.020591231
