code/nnv/examples/Submission/ARCH-COMP2024/benchmarks/CartPole/model.onnx (onnx, 19185 bytes, 5 tensors)

layers.0.weight f4 [64, 4]
000000 d5 a5 58 3e 70 5b 94 3e f0 a4 a5 3f 9b bc 18 3e
       0.2115701 0.2897601 1.294096 0.14915697
000010 a7 db e4 3e f1 a5 a1 3d 91 cd c5 3e ff 7d 2f 3e
       0.4469883 0.07892979 0.38633397 0.17137907
000020 9d 83 88 3d 82 99 d1 bc f0 25 a6 bf 50 ef ac be
       0.06665728 -0.025585894 -1.2980328 -0.3377633
000030 b4 60 33 bf 6f 77 d9 bd e6 bf e4 be 33 0e 32 3e
       -0.7006943 -0.10618483 -0.44677657 0.17388229
000040 de 80 bf 3e 16 dd c4 3e 85 7d 3d 3f 0f 61 2c bd
       0.37403005 0.38449925 0.7401965 -0.04208475
000050 b8 c6 8d be b5 79 e6 3c bb e2 b1 bf 35 1f 14 be
       -0.27690673 0.028134206 -1.3897318 -0.1446503
000060 01 1d 84 3e a8 9c 25 3e 71 b4 93 3f 92 07 9d 3e
       0.25803378 0.16173041 1.1539441 0.30669838
000070 bc 27 94 be 4d b9 50 be 7a 0a 8e bf 10 f7 aa bd
       -0.28936565 -0.20383187 -1.1096947 -0.08347905
000080 73 ef 88 3e 38 22 e0 3d 7c 0f 86 3e f1 b1 d9 bd
       0.26745185 0.10944027 0.2618369 -0.10629643
000090 5c b3 b0 3e dc e6 17 3f da d5 7f 3e 93 50 03 3b
       0.3451184 0.5933664 0.24983922 0.002003704
0000a0 93 04 a2 be 69 38 a9 be 77 4e e0 be 49 13 b1 3d
       -0.31644115 -0.3305085 -0.43809864 0.086462565
0000b0 c5 4f ca bd 43 f0 18 bf 77 3d 86 3d b3 db 49 3d
       -0.09878496 -0.5974161 0.06554692 0.049281787
0000c0 7b b1 8b be 1d 78 62 bd d9 52 bd bf ff a8 68 be
       -0.27283844 -0.05529033 -1.4790908 -0.22720717
0000d0 22 a0 a6 3e c7 43 3e 3f 72 97 6c 3f e3 cf c5 3d
       0.32544047 0.7432217 0.9241859 0.09658792
0000e0 dc 87 b1 be af c8 40 bf 61 0f 19 bf c8 8e 9e 3d
       -0.34673965 -0.7530622 -0.5978909 0.07742077
0000f0 86 90 d7 be 9e c7 97 be de c7 4a bf b9 95 84 be
       -0.4210245 -0.29644483 -0.79211223 -0.2589548
000100 84 ae 0e bd cf 66 d3 3d 46 73 50 3f 67 c3 ed bc
       -0.0348344 0.103223436 0.81425893 -0.02902384
000110 26 03 b3 3e 8e 24 41 3e 24 25 95 3e 70 e3 af 3e
       0.3496334 0.18861601 0.291299 0.3435321
000120 dd 5d 10 be 00 39 c2 bd 1b 20 f8 be 91 55 a2 be
       -0.14098306 -0.09483528 -0.48461995 -0.31705907
000130 56 f9 a7 be 69 4d c4 bd 03 9e 1d bf 02 5a 8e be
       -0.32807416 -0.09585077 -0.6156923 -0.27803046
000140 39 0c 97 be 66 f9 90 be ac b6 9d bf f8 dc b5 bd
       -0.29501513 -0.28315276 -1.2321372 -0.08880037
000150 83 87 36 3e 11 2f 63 be 6c a6 a3 bf c5 4e fc be
       0.17825131 -0.22185923 -1.2785163 -0.49278846
000160 61 4c 26 3e 3e 55 9c be 01 cc 7a bf 83 9f a8 be
       0.16240074 -0.30533785 -0.97967535 -0.32934198
000170 36 c9 b4 be de 45 86 be 94 3b 56 bf a5 86 67 3d
       -0.35309762 -0.2622518 -0.8368466 0.05652489
000180 17 9b ce be fa b3 b7 be a8 ad 3b bf 66 20 bb 3c
       -0.403527 -0.358795 -0.73311853 0.022842597
000190 44 39 82 be 71 a0 44 bd c5 e8 99 bf 46 9a 0a bf
       -0.25434315 -0.04800457 -1.2024161 -0.5414165
0001a0 44 c5 de bd 29 8a 46 3e 30 6c 9e 3f 43 64 24 3e
       -0.10877469 0.19388641 1.2376766 0.16053872
0001b0 59 38 95 be f1 7e 25 be b7 4a 53 be e6 f8 83 be
       -0.29144552 -0.16161706 -0.2063397 -0.25775832
0001c0 c1 53 c0 bc 66 47 ce 3e e7 96 b5 3c 11 50 de 3d
       -0.023477437 0.40288848 0.022166682 0.10855115
0001d0 b3 ac 10 3f 6d 97 c1 3d 6e f5 a0 3f a8 e2 5d 3e
       0.5651352 0.0945271 1.2574899 0.21668494
0001e0 56 e2 df be 69 19 0f 3e 36 ef 88 bf 11 86 fd be
       -0.43727368 0.13974537 -1.0698001 -0.49516347
0001f0 4f 68 41 3e a1 03 80 3e e6 36 86 3f 2c 43 31 3f
       0.18887447 0.2500277 1.0485504 0.6924312
000200 32 5b 08 3f 2e 6d 70 3f 10 b6 41 3f 1f 24 71 bb
       0.53264153 0.93916595 0.7566843 -0.0036795211
000210 fd 13 dc be 9c 0f 5c be 60 27 0d bf fe 6e 4c be
       -0.42984 -0.2149033 -0.55138206 -0.19964215
000220 44 ec 6c be b2 b3 18 be 3c 7f 62 bf cf b6 2a bf
       -0.23137003 -0.14912298 -0.88475394 -0.66685194
000230 dc 2e 7f 3e 3d 0d 25 3f ce 5e 70 3e d0 7d 1f 3e
       0.24920219 0.64473325 0.23473665 0.15575337
000240 00 49 bc 3e c2 64 21 3d 84 5a 96 3f 99 76 b4 3e
       0.36774445 0.03940273 1.1746373 0.35246733
000250 69 0c 76 bd bc fc 8a be 44 ed 3e bf af d8 16 3d
       -0.06007043 -0.27145946 -0.7458079 0.03682774
000260 b4 35 9f 3e e9 d1 0d bd a9 ec 24 3f 21 72 87 3e
       0.3109566 -0.034624014 0.64423615 0.2645426
000270 60 97 a2 be f2 f9 c3 be e3 7c 06 bf c7 1f 59 be
       -0.31756115 -0.3827663 -0.5253431 -0.21203528
000280 c2 80 7f 3e b0 47 15 3f 03 08 ec 3e 8e 0a 9d be
       0.24951461 0.5831251 0.46099862 -0.30672115
000290 77 3f 0e 3e 1d c1 a9 3e 05 82 a8 3f 16 21 94 3e
       0.13891397 0.33155146 1.3164679 0.28931493
0002a0 ca 6e 0d be 9d 66 cd be a1 01 a6 bf 2d 2a b6 bd
       -0.13811794 -0.4011735 -1.2969247 -0.08894763
0002b0 69 0f eb be 31 49 0a bf cc 73 96 be 85 af f0 bb
       -0.45910195 -0.5401793 -0.2938522 -0.0073451423
0002c0 84 24 e1 be 00 01 23 be 57 23 57 bf da 6a 72 bd
       -0.43973172 -0.1591835 -0.840383 -0.059183933
0002d0 d2 00 57 be e1 20 ba be 60 9c b5 be 13 f0 a8 be
       -0.20996407 -0.3635321 -0.35470867 -0.32995662
0002e0 27 c8 a3 be 69 34 b1 be 93 83 30 bf 9b 7d 4c 3e
       -0.31988642 -0.34610298 -0.68950766 0.1996979
0002f0 e4 89 ec be 5a bc b3 be 0c 90 6f be 65 26 91 bd
       -0.46198952 -0.35104638 -0.23394793 -0.07087401
000300 53 ab 05 3f 3a 6f 5c 3e cb 79 d7 3e cc 57 ee 3d
       0.52214545 0.21526805 0.42085108 0.1163784
000310 b7 ca 43 3e 3d 68 6e be 1d 12 b5 3e c5 b3 6a 3e
       0.19120298 -0.23281951 0.35365382 0.22920139
000320 1c 0c e0 3e 35 8a c1 3e 19 c1 ce 3e 86 17 d4 be
       0.4375924 0.37800756 0.40381697 -0.41424197
000330 f8 99 24 3e c6 4b 04 3d f1 ef 8c bf a4 75 e1 be
       0.1607436 0.032298826 -1.1010724 -0.44035065
000340 71 a2 93 3e 6b 6c 7f 3e 7d f8 54 3f af 12 fe bd
       0.2883487 0.24943702 0.83191663 -0.12405907
000350 43 f9 70 be df b0 4b be 18 cf 87 bf 3b 81 77 be
       -0.23532586 -0.1989169 -1.0610075 -0.24170391
000360 27 cc 37 be cb bb ea be 2d 9a a6 bf e4 f4 37 bd
       -0.17948972 -0.458464 -1.3015801 -0.04491128
000370 57 21 bd be 2e f1 62 3d a6 1c 7d bf 4e 89 a3 be
       -0.369395 0.055405788 -0.9887184 -0.31940693
000380 9b 0f c3 be 26 ff 9a be 68 03 ab bf a8 95 52 be
       -0.38097844 -0.30272788 -1.3360415 -0.20564902
000390 87 02 34 be cc 25 91 be 03 57 85 bf bf bb 46 be
       -0.17579089 -0.2834915 -1.0417179 -0.19407557
0003a0 2c 61 1a be 08 40 ee bd 4d 8a 80 bf b6 55 5e be
       -0.1507613 -0.11633307 -1.0042206 -0.21712384
0003b0 88 30 99 be ab 89 15 be 84 6d 0d bf 98 27 a7 3d
       -0.2991984 -0.14603297 -0.5524523 0.08161849
0003c0 0e d1 ff be 37 42 31 bf bd fa 26 be 86 09 be 3d
       -0.49964184 -0.6924166 -0.16306587 0.0927916
0003d0 a1 aa 42 be 9d de 1e be f2 2c 8c bf 7e c6 dc bd
       -0.19010402 -0.15514608 -1.0951216 -0.10780047
0003e0 be 3a c9 3e 03 7e ef 3e 3c 9b b0 3e e1 4d ab 3e
       0.3930263 0.46775827 0.34493434 0.33457854
0003f0 6b 4b 9b 3e df d6 41 3f 8c ea 90 3f a5 a9 59 3e
       0.30330977 0.7571849 1.1321578 0.2125612

layers.0.bias f4 [64]
000000 50 43 af 3a bb de c3 bc 7e ea 95 3b 1d b7 68 3c
       0.0013371501 -0.023909917 0.004575073 0.014203814
000010 3a e2 36 bc 54 db 5d 3a 5e 50 3f 3b be bb 82 3b
       -0.011162335 0.00084631634 0.002919219 0.003989666
000020 23 3e 4c bc 39 db e1 bb c4 8d 98 3c bd 57 e0 3c
       -0.012465986 -0.0068925885 0.018622287 0.027385587
000030 05 54 cf 39 3e a8 2e 3c 28 6f 96 bc 02 d6 05 ba
       0.00039544716 0.010660229 -0.01836355 -0.0005105437
000040 4f 7c f3 3b 8d 7c af bc 56 c6 6d bb da 23 e6 3b
       0.00743059 -0.021421695 -0.0036281548 0.007023317
000050 73 5e 0a bc 45 cd 82 bb 3e 90 6e bc 06 f2 e3 3a
       -0.00844537 -0.003991755 -0.014560757 0.0017390854
000060 32 5e 00 3a 3a 1c b9 bb 2b 0c 4a 3c 38 07 b0 3b
       0.00048968487 -0.005649117 0.012332003 0.0053719543
000070 41 a5 e6 3c b0 53 f3 bb 5e a9 44 3c 45 60 46 3b
       0.028154971 -0.007425748 0.012003271 0.0030269783
000080 b2 f3 2f 3c c1 88 c8 3b b8 9e 7c 3c 91 88 a0 bb
       0.010739254 0.006119818 0.015418701 -0.0048990925
000090 50 0a aa 3a 99 f2 9b bb 98 04 e4 bc 80 d9 3e 3c
       0.0012973044 -0.0047591445 -0.027834222 0.011648536
0000a0 bf b9 70 bc 26 dd f5 3a da c3 0c bb 68 1d 08 3b
       -0.014692723 0.0018757924 -0.0021479041 0.002076948
0000b0 a1 53 12 ba 19 1b 37 bc 78 8d ce 3a 93 c2 55 3c
       -0.00055819197 -0.011175894 0.0015758714 0.013046878
0000c0 2c c1 b6 bb b5 05 10 bc a6 72 02 bd 47 7a 9c bb
       -0.005577227 -0.008790423 -0.03184762 -0.004775319
0000d0 53 9d 86 bb 20 26 ec bb 90 3c 4f bb e6 b3 d3 ba
       -0.00410811 -0.0072066933 -0.0031621791 -0.0016151636
0000e0 a2 73 e4 ba a5 19 0d 3c d2 8a a1 bb 11 7f 93 3a
       -0.0017429481 0.008612071 -0.0049298787 0.0011253079
0000f0 05 d8 7e 3c 19 72 22 bb 0f 7a 16 3c 40 81 32 3c
       0.015554433 -0.0024787246 0.0091843745 0.010895073

layers.2.weight f4 [64, 64]
000000 42 4d e1 3d c0 fd 44 be 1e 3c 36 3e 8e 1f 86 3e
       0.11001064 -0.19237423 0.1779637 0.2619595
000010 41 42 6e bd 1c 2e c6 3a e1 c6 aa 3e f1 23 ba 3c
       -0.058168653 0.0015119943 0.33354858 0.022722216
000020 9c 2a b1 3e ca f3 94 bd 08 a0 53 3e d4 21 ca 3d
       0.3460282 -0.072730616 0.20666516 0.098697335
000030 5a 4c a7 bd be 9b 1e 3e 76 89 d0 3d b0 a5 3f 3d
       -0.0816886 0.15489098 0.101824686 0.04678887
000040 c2 26 62 bc 25 dd 5c be e8 d1 59 3e 69 52 42 bd
       -0.013803186 -0.21568735 0.21271479 -0.047441874
000050 bb 29 2f be 3d 65 b8 bd 1c 38 17 be 32 47 71 3d
       -0.17105763 -0.09003685 -0.14767498 0.058905788
000060 f3 cd 6c 3b ed ed 64 be 62 c6 a1 be 73 29 ff 3d
       0.0036133497 -0.22356386 -0.31596667 0.12459078
000070 1d 73 af be ec c2 91 3d f0 01 4f 3e 4e be 4d be
       -0.34267512 0.071172565 0.20215583 -0.20092127
000080 df 99 8f 3d 77 58 c3 bd d5 17 93 be 40 84 9e bd
       0.070117705 -0.09538358 -0.2872912 -0.077400684
000090 3f da 62 3c eb bd 89 3e c0 22 6d 3d c6 d6 a7 be
       0.013845979 0.26902708 0.05789447 -0.32781047
0000a0 f9 0a c1 3e 9b aa 3f be 97 61 c3 3d f6 56 a7 3e
       0.37703684 -0.18717425 0.09540098 0.32683533
0000b0 6e 81 7a be 9f 09 13 3e 32 2e eb 3c 91 2a 13 3e
       -0.24463436 0.14359139 0.028708551 0.14371707
0000c0 b4 67 4b 3e db 11 30 3e 27 28 e6 3d 9d 65 08 3d
       0.19863778 0.17194311 0.11238127 0.03330003
0000d0 ab 87 75 3e 70 57 a1 bd 37 43 c7 bc 86 4f 28 be
       0.23977534 -0.078780055 -0.024324043 -0.16436586
0000e0 89 4d 38 3c 51 d4 2d 3e 2d ae 48 3e 51 fc bc 3d
       0.011248955 0.16975524 0.19597693 0.09227813
0000f0 9c 6f 08 be bd e9 48 be f4 ff 01 bc 62 47 08 3d
       -0.13323826 -0.19620414 -0.007934559 0.0332712
000100 ad ed 41 3e 29 0b 7d 3e b4 65 e7 bd e0 6b 02 3e
       0.18938322 0.24711289 -0.11298695 0.12736464
000110 69 28 1f be e7 6a 8e bc 58 7a 96 be f5 a1 c5 3e
       -0.15542759 -0.01738496 -0.29390216 0.38600126
000120 1a d5 2f be fb fd e0 bd 79 15 81 3e 8f 1a c3 3c
       -0.17171136 -0.10985943 0.25211695 0.023816375
000130 30 8c 49 bb 55 29 32 3c 4f bf 0d 3e d6 b1 11 3e
       -0.0030753724 0.010874112 0.1384251 0.14227995
000140 ca 4c 88 bd 61 20 90 bd 03 6f 86 3e b2 34 ab bb
       -0.06655271 -0.07037426 0.2625657 -0.0052247876
000150 fd 19 a0 3d 80 38 57 3e d4 aa df bc 48 9d 00 be
       0.07817457 0.21017647 -0.027303137 -0.12559998
000160 e9 60 c2 bc 12 78 76 be 16 f6 56 bc 63 05 ad 3d
       -0.023727851 -0.2406924 -0.013120195 0.08448293
000170 f9 a9 41 be 08 eb 46 be 02 7f 26 be 69 ae 75 bd
       -0.18912496 -0.19425595 -0.16259387 -0.059980784
000180 2f 31 e5 bd 70 de c3 3e 6f 17 e5 3d 7c 15 83 3d
       -0.11191022 0.38255644 0.1118611 0.06400582
000190 3f 95 62 3e 13 a4 f2 3d 72 60 2b be 30 86 91 be
       0.22127245 0.11847701 -0.1673601 -0.2842269
0001a0 b3 99 19 3b 9f ae 3b 3c 81 26 89 3e 3f 8d e8 bc
       0.002343756 0.011455207 0.2678719 -0.028387664
0001b0 ee fe 30 be 6b 27 1c bd c2 64 21 be 50 1b ea 3e
       -0.17284748 -0.03812353 -0.15761092 0.45723963
0001c0 65 15 1d be 07 79 80 be 66 c8 4e be 2c 2a 6b 3d
       -0.15340193 -0.25092337 -0.20193633 0.057413265
0001d0 9e 91 6a bd 23 96 8c 3e c9 e2 8c be 88 29 06 3e
       -0.057267778 0.27458295 -0.27516773 0.1310178
0001e0 54 6c 4f be 58 94 5a 3e 00 3b 00 3e 88 b5 57 be
       -0.20256168 0.21345651 0.12522507 -0.21065342
0001f0 b0 27 63 3e b5 31 a0 3e fe a6 03 bd 24 45 af be
       0.22183108 0.31287923 -0.032141678 -0.34232438
000200 e6 72 1d be c8 d4 84 3e b8 03 b4 bc 45 84 dd be
       -0.15375862 0.2594359 -0.02197443 -0.43264976
000210 be 89 53 3e 18 71 b8 3c 43 b2 58 3e 83 d6 57 3e
       0.20658013 0.022514865 0.21161751 0.21077923
000220 5d 98 d3 3e c3 dc c0 3d 92 20 20 3d 85 1e bb 3e
       0.4132718 0.09417107 0.03909356 0.36546722
000230 ef 26 03 be a2 8a 87 bd 96 f3 5b 3e 65 0f 78 be
       -0.1280782 -0.06618239 0.2147964 -0.24224623
000240 1a 67 ef 3c 35 34 44 bd c0 66 76 3e cb 67 b5 3d
       0.029223967 -0.04790135 0.24062634 0.088576876
000250 6a b3 ea bd f6 4a 13 3d ac 4d 8e bc 8a 99 dc bd
       -0.11460002 0.03596016 -0.017371021 -0.10771473
000260 77 03 95 bd 66 cc 44 3e 8f 12 67 be 23 a8 ec 3c
       -0.072760515 0.19218597 -0.22565673 0.028888768
000270 9a 2d 43 3c 9e 38 40 be 86 0b a4 be a8 a7 68 3e
       0.011912728 -0.18771598 -0.32040042 0.22720206
000280 09 89 c6 3e 3f c7 e0 3c 75 09 1c 3e f9 89 26 be
       0.38776425 0.027438758 0.15237983 -0.1626357
000290 9b cd 8a be 63 ce 02 3e 44 9a 33 3e ad 51 60 bd
       -0.2710999 0.12774043 0.17539316 -0.054765392
0002a0 ef de a4 bd 00 f1 78 3c ff 8a e4 bd 93 04 08 3e
       -0.08050334 0.015194178 -0.11159324 0.13282995
0002b0 4e 4f 8f 3d ff 29 da 3d ae d4 40 be 2e 10 44 3e
       0.06997548 0.10652541 -0.18831131 0.19146797
0002c0 aa bd 1e be c0 af 82 3e 08 a7 cd bd 94 71 3e be
       -0.15502039 0.25524712 -0.10041624 -0.18598014
0002d0 70 25 41 3d a0 aa b0 be ff f6 3b be 59 6f 54 3e
       0.047154844 -0.34505177 -0.1835594 0.20745601
0002e0 ea d0 d2 bc 5b 5d d4 3d b4 e5 5c 3d f4 c4 7d bc
       -0.025734384 0.10369369 0.05393 -0.015488852
0002f0 9f de ae 3d ce b9 89 3e 93 d2 c7 3d 63 85 88 3c
       0.08538555 0.2689957 0.09756961 0.016665166
000300 9c 5e 71 be 8d c9 84 be 41 0f 5f 3d 07 50 c9 bb
       -0.23571247 -0.2593502 0.054457907 -0.006143573
000310 1c a0 31 3e 71 25 a7 bd 76 fd e4 be e0 89 a7 be
       0.17346233 -0.08161438 -0.44724625 -0.32722378
000320 d0 35 99 3e d9 14 c1 bc 21 c0 05 3e 3c ae bc bd
       0.29923868 -0.023569511 0.13061573 -0.0921292
000330 9a be 99 bd 53 0c 21 be a5 fd d6 3d 8d 2c 27 be
       -0.075070575 -0.15727358 0.104975976 -0.16325589
000340 0f 90 f8 3d 09 3a 7c bd be 70 96 3e b8 40 b6 bd
       0.12136852 -0.061578784 0.2938289 -0.08899063
000350 3b 63 82 3c 98 2a 16 be 22 10 69 bc 1e 5a 26 3e
       0.015916457 -0.14664686 -0.014225038 0.16245314
000360 fb fc 43 3c b0 82 06 3c 68 ce 71 3e b7 7f 1c 3e
       0.011962171 0.008209869 0.23613894 0.15283094
000370 62 98 95 bd 00 85 1d 3e b7 d3 fb 3d 3c 40 17 3e
       -0.07304455 0.15382767 0.12296241 0.14770597
000380 77 a8 16 3e 18 b3 ea 3e 36 08 6b be 36 1a b8 bd
       0.14712702 0.45839763 -0.22952351 -0.08989374
000390 4c 8c c3 bd d1 4e 16 3d b3 a3 5c 3e 74 35 66 3d
       -0.09548244 0.03669626 0.21546821 0.05620332
0003a0 c0 d2 86 bd ba 81 51 3e ef bc a4 bd 0f d8 0e 3e
       -0.06583166 0.20459643 -0.08043849 0.13949607
0003b0 41 7d 2d bb 20 60 4b 3d 49 6a 49 be ea 8f 2e be
       -0.0026472362 0.04965222 -0.19669451 -0.17047086
0003c0 cb 3c 05 bd 88 91 ab 3d bf 66 86 bd ab 74 c0 3d
       -0.03252868 0.08377367 -0.06562566 0.09397253
0003d0 26 d0 0e be 5b 23 e0 3e 79 19 51 bd 24 f0 bd bd
       -0.1394659 0.43776974 -0.051049683 -0.09274319
0003e0 db 57 66 be 4f f5 ea bc 67 06 68 3e f2 63 7f bc
       -0.22494452 -0.028681425 0.22658692 -0.015587794
0003f0 09 d0 4d be c4 fc e1 3d b9 0c 7a 3e 5c 52 0b be
       -0.2009889 0.11034539 0.24418916 -0.13605636

layers.2.bias f4 [64]
000000 e7 a7 b9 bb fb 2f 0b 3c b5 ca a8 bc 87 20 2e 3c
       -0.0056657675 0.008495326 -0.02060447 0.010627872
000010 36 d1 fc 3b 8b 55 8b 3c 72 1d 0f 3d e5 49 47 3b
       0.0077153696 0.017008564 0.03494019 0.0030409035
000020 17 e6 af 3b 10 17 e4 ba 76 e8 0f bc 2b a6 22 3b
       0.005368005 -0.0017401893 -0.00878345 0.0024818282
000030 55 2a 51 3a d9 af a2 3c e4 20 33 bc 70 3a 0a bc
       0.0007979025 0.019859241 -0.010933135 -0.008436784
000040 43 19 bc bc da fe ae bb 15 98 d4 bc 12 cf e4 39
       -0.022961264 -0.0053404393 -0.025951425 0.00043641828
000050 aa cd b5 3c 71 f1 d5 bb fb a5 08 bb c7 2b b3 3c
       0.022192795 -0.006529026 -0.0020850885 0.02187146
000060 96 31 bf bc 9a 7f b8 3b ab ea 0a bd 5d be 8b 3c
       -0.023339074 0.0056304457 -0.033915203 0.017058546
000070 25 d6 86 bc ec 37 35 3c 31 f8 7c bb 0c e7 da 3c
       -0.016459534 0.011060696 -0.0038600082 0.0267215
000080 25 56 25 bc ac fa d1 3a a4 d7 8e 3c 2b ba 01 bc
       -0.010091339 0.0016020141 0.01743681 -0.007917921
000090 bb 41 8d bc 18 35 1f bc 0a bf 0d 3d 75 2a dd bb
       -0.017243257 -0.009717248 0.034606017 -0.006749446
0000a0 1a e2 ef ba d9 23 33 3c ad fe 83 ba 00 c1 3f 3c
       -0.0018301636 0.01093384 -0.0010070406 0.01170373
0000b0 e6 92 82 bc 0c 95 03 3c 7f 46 27 bc a6 42 8b bb
       -0.015939187 0.008031141 -0.010209679 -0.0042498885
0000c0 a5 bf d0 3c 60 15 7c bc b1 1e 2a bb 1a 7b 01 3c
       0.025482008 -0.015385956 -0.0025958235 0.007902885
0000d0 60 b6 89 bc 36 d6 5e bc b6 8e 77 bc 48 89 40 3a
       -0.016810596 -0.013600877 -0.0151097085 0.0007344675
0000e0 1e 59 c6 bc 70 49 02 bb d5 b5 85 3b 48 39 fb 3c
       -0.024212416 -0.0019880198 0.004080514 0.030666962
0000f0 04 e6 b7 bc df 99 90 bc 0c 47 02 bc 34 c9 be b9
       -0.022448547 -0.017651496 -0.007951509 -0.00036389532

action_head.weight f4 [1, 64]
000000 e0 df 2d bb f4 82 2f 3d 9d 43 4e bc e1 61 0b 3b
       -0.0026531145 0.042849496 -0.012589362 0.0021268057
000010 8c 14 08 3b 88 4d 38 3b da e2 2d be 54 3a b5 3d
       0.00207642 0.0028122384 -0.16981068 0.08849016
000020 1d cf 9d bb aa 40 94 bd c1 b9 0b bd 9a 7b df 3d
       -0.0048159496 -0.07238896 -0.034112696 0.10912247
000030 96 00 a2 3d 01 8d 5c bb b4 6d 0d 3c b0 87 a7 bb
       0.07910268 -0.003365338 0.008632112 -0.0051126108
000040 ca 60 11 bb 16 59 01 be fa cf 6b bd e7 31 44 ba
       -0.0022182935 -0.1263164 -0.05757139 -0.00074842427
000050 a5 26 84 be bf 90 0e 3b ee d2 ad bd 22 41 b4 bb
       -0.25810733 0.0021753756 -0.08487497 -0.0055009285
000060 ff 1f 7d 3a 14 77 22 3e 6b 5c 49 3e 21 52 25 3c
       0.0009655952 0.15865737 0.19664161 0.010090382
000070 4b ea 2a 3c 2d f5 88 3d df c5 dc bd 01 19 3d be
       0.010431836 0.066873886 -0.107799284 -0.1846657
000080 11 3b 83 bc 0e d3 b5 bd dd c6 9b be 46 49 42 bd
       -0.016019376 -0.08878146 -0.30425158 -0.04743316
000090 39 f0 9a bd c1 5e ad 3e 4d f3 e9 3c ed 16 cd 3d
       -0.0756535 0.33861354 0.028558398 0.10014138
0000a0 99 52 bc bd 28 8b ad b9 dc 49 3a 3c 4f ca 85 bb
       -0.09195442 -0.0003310081 0.0113701485 -0.004082955
0000b0 8b ad 2d bb 7c fa ae bd 5d ae f6 39 bb 01 c2 bd
       -0.0026501145 -0.0854387 0.00047050687 -0.09472986
0000c0 5b 71 dc bd 24 41 34 bf 06 d0 0a 3c 23 28 3a 3d
       -0.10763808 -0.70411897 0.008472448 0.045448434
0000d0 7c 84 06 bd a1 cf 68 bc 87 3b bb 3b 49 f3 3f 3c
       -0.03284119 -0.014209659 0.0057138833 0.011715719
0000e0 00 95 68 3e 25 42 de bd 42 f9 de be 43 d8 6c 3b
       0.22713089 -0.1085246 -0.43549544 0.0036139644
0000f0 b5 74 db 3b f5 9d 70 bd 13 90 4e 3c d1 bd a9 bd
       0.006697262 -0.05874439 0.012607592 -0.08288158
