nnv0.1/examples/Submission/ARCH2019/Other/Benchmark 1/controller.onnx (onnx, 3228 bytes, 10 tensors)

input_AvgImg f4 [1, 1, 1, 2]
0	0x3f800000	1.0
1	0x3f800000	1.0

Operation_1_W f4 [50, 2]
0	0xbf917636	-1.13642
1	0xbebe80e0	-0.372077
2	0xbe3c903f	-0.184144
3	0x3e9285ec	0.286178
4	0xbeac5d85	-0.336651
5	0xbe0ee0f4	-0.13953
6	0x3e012989	0.126135
7	0x3f377308	0.716599
8	0xbfa70996	-1.30498
9	0xbf8fee4e	-1.12446
10	0xbf0f954f	-0.560872
11	0xbe7941c8	-0.243415
12	0xbfa68827	-1.30103
13	0xbf03e9ea	-0.515288
14	0xbfa9fb40	-1.32798
15	0xbecc3569	-0.398845
16	0xbf09361e	-0.535982
17	0xbe74ccab	-0.239062
18	0xbec469f9	-0.383621
19	0xbe240bbb	-0.160201
20	0xbed50ebb	-0.416128
21	0xbe29ee46	-0.165948
22	0x3f21d063	0.632086
23	0x3f46a887	0.776009
24	0xbf1ce38a	-0.612847
25	0xbe8371da	-0.256728
26	0xbf041c93	-0.516061
27	0xbe5e518f	-0.217108
28	0xbf0a3ee2	-0.540022
29	0xbe6a2a0b	-0.228676
30	0xbf16f512	-0.589677
31	0xbe6a40d9	-0.228763
32	0xbdc5aacf	-0.0965172
33	0x3c8631de	0.0163812
34	0xbf24204f	-0.641118
35	0xbe6feb8e	-0.234297
36	0xbfa91cc1	-1.32119
37	0xbef6ca25	-0.482011
38	0xbf280a18	-0.656404
39	0xbe6e920c	-0.232979
40	0xbf19d1c4	-0.600857
41	0xbe7d2fe4	-0.247253
42	0xbf0db76b	-0.55358
43	0xbf1d3975	-0.614158
44	0xbf07b0e6	-0.530043
45	0xbe636007	-0.222046
46	0xbf4f9820	-0.810915
47	0xbe0b484d	-0.136018
48	0xbda7ee5c	-0.0819976
49	0xbcbdb106	-0.0231557
50	0xbeefb720	-0.468194
51	0xbe3511e0	-0.176826
52	0xbee62691	-0.449513
53	0xbe4f79c8	-0.202613
54	0xbf1d6367	-0.614798
55	0xbe871b26	-0.263879
56	0xbf8e5c3e	-1.11219
57	0xbeadaa71	-0.339191
58	0xbf2fcf2d	-0.686755
59	0xbe0acde2	-0.135551
60	0xbebf8705	-0.374077
61	0xbe1e492c	-0.154576
62	0xbe9e8709	-0.309624
63	0xbe195853	-0.149751
64	0xbf1e132b	-0.61748
65	0xbe63db7f	-0.222517
66	0xbf323da3	-0.696253
67	0xbe72684d	-0.236726
68	0xbde589ad	-0.112079
69	0x3cbf1ac8	0.0233282
70	0xbeeb1fef	-0.459228
71	0xbe2ac6ce	-0.166774
72	0xbf189396	-0.596002
73	0xbe7d0b31	-0.247113
74	0xbf1995ff	-0.599945
75	0xbe60b913	-0.219456
76	0xbf1c2d38	-0.610065
77	0xbe837de9	-0.25682
78	0xbed37fbf	-0.413084
79	0xbe2ac040	-0.166749
80	0xbf0aa1f9	-0.541534
81	0xbe33eb3a	-0.175702
82	0xbecbb7b7	-0.397886
83	0xbe352696	-0.176905
84	0xbf0be964	-0.54653
85	0xbe515486	-0.204424
86	0xbf45feeb	-0.773421
87	0xbe457c4e	-0.192857
88	0xbf086c66	-0.532904
89	0xbe60df16	-0.219601
90	0xbe7f2389	-0.249159
91	0x3f003266	0.500769
92	0xbf81adeb	-1.01312
93	0xbdddfb94	-0.10839
94	0xbdf2bb23	-0.118521
95	0x3ddc5ef6	0.107603
96	0xbfa0d402	-1.25647
97	0xbe92a9d6	-0.286452
98	0xbf92ee0f	-1.14789
99	0xbe0500d6	-0.129886

Operation_1_B f4 [50]
0	0x3ef3313c	0.474985
1	0x3cc2c75b	0.0237767
2	0x3e069942	0.131444
3	0x3d966a7d	0.0734453
4	0x3cf1f220	0.0295344
5	0x3e65b813	0.224335
6	0x3efe1672	0.496265
7	0x3eb1c66d	0.347217
8	0x3e77a850	0.241853
9	0x3e1f9ce9	0.155872
10	0x3e351a00	0.176857
11	0x3e9e51f4	0.309219
12	0x3e7438d2	0.238498
13	0x3e4969a1	0.196692
14	0x3e57f562	0.210897
15	0x3e872bcb	0.264006
16	0xbdb8eb39	-0.0902924
17	0x3e99eaff	0.300621
18	0x3ee9b3f2	0.456451
19	0x3ea10796	0.314511
20	0x3e7a60d4	0.24451
21	0x3e0cad58	0.13738
22	0x3e572713	0.21011
23	0x3e61eeaa	0.220637
24	0xbd3ba619	-0.0458127
25	0x3e5ab3ee	0.213577
26	0x3e5fd71b	0.218594
27	0x3e71c326	0.236096
28	0x3ef05122	0.469369
29	0x3e2a26a2	0.166163
30	0x3e17be55	0.148187
31	0x3e4e1deb	0.201286
32	0x3e95ee9a	0.292836
33	0x3ea85b5b	0.328822
34	0xbde45996	-0.111499
35	0x3e61c758	0.220487
36	0x3e769a4e	0.240823
37	0x3e904e62	0.281848
38	0x3e7342ee	0.23756
39	0x3e2b3d4b	0.167226
40	0x3de2eec8	0.110807
41	0x3e43e5b8	0.191306
42	0x3e819ac8	0.253134
43	0x3ed5818c	0.417004
44	0x3e5d05af	0.215842
45	0x3d68ab1a	0.0568038
46	0x3eaef30a	0.341698
47	0x3c05f93e	0.0081771
48	0x3e7578e6	0.239719
49	0x3ec32db2	0.381208

Operation_2_W f4 [1, 50]
0	0x3f45fd9c	0.773401
1	0xbe6bd61f	-0.230309
2	0x3d5a9197	0.0533615
3	0xbf589aaa	-0.84611
4	0x3fb2ef5f	1.39793
5	0x3dff993d	0.124804
6	0x3f74d994	0.956445
7	0x3f8b4e12	1.08832
8	0x3e04ab60	0.12956
9	0x3db6eb9f	0.0893166
10	0x3de5e3da	0.112251
11	0xbf8f1ee2	-1.11813
12	0x3dffdd66	0.124934
13	0x3df2d01c	0.118561
14	0x3dfd1eda	0.123594
15	0x3e37eae6	0.179607
16	0xbd176b71	-0.0369677
17	0x3e704fb1	0.234679
18	0x3f84a32f	1.03623
19	0x3e853c36	0.260225
20	0x3e12ae08	0.143242
21	0x3eb9b75a	0.362727
22	0x3e0040c0	0.125247
23	0x3ea25d29	0.317117
24	0xbc9803cd	-0.0185565
25	0x3e1c2e34	0.15252
26	0x3e08bd66	0.133535
27	0x3e095704	0.134121
28	0x3f3bc276	0.733436
29	0x3e59aae7	0.212566
30	0x3da3f1fd	0.0800514
31	0x3e01ef74	0.12689
32	0x3e6c36db	0.230678
33	0x3e969a2c	0.294145
34	0xbd6b7854	-0.0574878
35	0x3e313c68	0.173082
36	0x3e12c98e	0.143347
37	0x3e5abe6a	0.213617
38	0x3e095d0b	0.134144
39	0x3dd0b392	0.101905
40	0x3d91b336	0.0711426
41	0x3df9f5e0	0.122051
42	0x3e380d80	0.179739
43	0x3efce2d2	0.493918
44	0x3e06b767	0.131559
45	0xbf161e2e	-0.586398
46	0x3f0ec908	0.557755
47	0xbd8dce98	-0.0692417
48	0x3f80d845	1.0066
49	0x3f2964c7	0.661694

Operation_3_W f4 [2, 1]
0	0x3f800000	1.0
1	0xbf800000	-1.0

Operation_3_B f4 [2]
0	0x00000000	0.0
1	0x00000000	0.0

Operation_4_W f4 [1, 2]
0	0x3f800000	1.0
1	0x3f800000	1.0

Operation_5_W f4 [2, 1]
0	0x3f800000	1.0
1	0x3f800000	1.0

Operation_5_B f4 [2]
0	0x00000000	0.0
1	0xc1000000	-8.0

Operation_6_W f4 [1, 2]
0	0x3f800000	1.0
1	0xbf800000	-1.0
