code/nnv/examples/Submission/ARCH-COMP2021/benchmarks/Double_Pendulum/controller_double_pendulum_more_robust.onnx (onnx, 4081 bytes, 6 tensors)

dense_3/kernel:0 f4 [25, 2]
-0.48292586 -0.15094295 0.06047111 -0.035306264 0.02364469 0.015387966 0.38087648 0.27162108
-0.32110506 -0.27051964 -0.47930813 -0.58085006 0.3178911 0.28679055 -0.30591828 -0.030195318
-0.11011278 -0.5260993 0.11668523 -0.2195527 -0.09016321 -0.34578282 2.274006 1.0616333
0.04796208 0.24262543 -0.3459119 -0.23639499 -0.25153217 -0.68731797 0.31471097 0.1713125
0.47862878 -0.17235017 0.008856488 0.49812293 -0.18143535 0.37648565 -0.3690609 0.28722954
1.2282404 1.1454777 0.007662698 0.17160985 0.22090879 0.32568124 0.4715686 0.112481155
0.7672547 0.14659055
00000000: 0f42 f7be ca90 1abe 8eb0 773d 4d9d 10bd
00000010: 82b2 c13c cf1d 7c3c 3e02 c33e eb11 8b3e
00000020: e267 a4be 8d81 8abe e067 f5be 97b2 14bf
00000030: 9fc2 a23e 36d6 923e 52a1 9cbe 2c5c f7bc
00000040: cf82 e1bd 72ae 06bf aaf8 ee3d 6cd2 60be
00000050: 7da7 b8bd 720a b1be 5089 1140 9ae3 873f
00000060: e373 443d cd72 783e 5d1b b1be 8711 72be
00000070: d3c8 80be 12f4 2fbf cc21 a13e 8b6c 2f3e
00000080: d50e f53e 907c 30be ce1a 113c f809 ff3e
00000090: 30ca 39be bac2 c03e 8df5 bcbe c00f 933e
000000a0: fb36 9d3f 039f 923f 5f17 fb3b 7eba 2f3e
000000b0: ea35 623e b1bf a63e 7171 f13e 855c e63d
000000c0: ce6a 443f d51b 163e

dense_3/bias:0 f4 [2]
-1.0585409 -1.3380529
00000000: 457e 87bf 5145 abbf

dense_2/kernel:0 f4 [25, 25]
-0.10257851 0.11913213 0.13344502 0.018736968 -0.0942875 1.50692 -0.22414702 -0.13071668
0.44243038 -0.06041827 -0.14465088 -0.85726964 -0.21886669 0.34352767 0.20931855 -0.3047314
-0.50036937 -0.28326517 -0.41049314 -0.24657446 -1.6242378 0.07545148 0.39731413 -1.4303808
0.07028993 -0.24838321 -0.30372202 -1.0269495 0.44423336 -0.13608856 0.21002042 0.36144438
0.31099653 -3.1408494 -0.82768035 -0.45744604 0.04965815 0.124221385 -0.69203955 -1.0480485
0.21065244 0.23183134 0.4769091 0.15426531 -0.51702386 -0.01839724 -0.10929176 -0.541581
0.7607485 -0.65586114 -1.1940755 -0.3850102 -0.6079635 0.820982 -0.089704156 1.6601837
-0.6114205 -1.6537569 -1.0079186 0.14040333 0.9866392 1.0668863 0.65631473 -1.013168
-1.1259409 0.011900375 -0.8172104 0.07065118 0.00031669956 -0.27770862 0.59612566 0.01518487
0.73435646 -0.23817876 0.033914458 0.32202852 0.0039898446 -0.48779285 -1.1792212 -0.5223359
-0.7958127 1.1022408 0.4219002 -1.6403522 -0.3537922 0.054602545 1.0766833 -0.067895524
1.160879 0.17715387 0.34130454 -0.44235724 -0.136969 -0.7194157 -0.2999138 0.014900306
-0.19422096 0.77264947 1.0167199 0.72134364 -0.054865174 0.18770678 -0.09039708 0.49353346
-0.123755604 -0.14218098 -0.62317395 -0.101711996 -0.5719568 -0.7381293 -0.5443722 -2.2811453
-1.5135231 -0.15295805 -0.37882856 0.10152781 -0.29615936 -1.6207254 0.25287196 -0.07706733
-0.80382234 0.13894926 1.5225863 0.20674534 0.0024008665 -0.92652524 -0.31573382 0.32463297
0.2492366 0.03936432 -0.33675694 0.3958564 -0.44904175 0.70977056 0.30595684 1.1796346
-0.80986524 0.19747625 0.19572355 0.24644168 -0.08742965 0.18930203 -2.3755555 0.20222493
-0.29421976 -0.40124637 -0.16239786 -0.798396 -1.1874106 0.93639296 0.8626329 -0.0011040309
-0.185587 -2.388598 -0.23260742 -0.8667321 -0.1211607 0.22040068 -0.04364057 -0.239179
-0.6914184 0.6922363 -0.15295465 0.31870693 0.57313305 -0.3313294 0.1950671 0.08533162
0.015431125 -0.08719887 0.91099167 0.004006173 -0.4040721 0.20271574 -1.0394441 -0.3452172
-0.2791842 -0.49684432 -0.70643353 -0.15374044 -0.6185913 -0.13050008 -1.4422463 0.35542
0.012842249 0.44399655 0.12432832 -0.079820484 -0.09880006 0.48386642 0.46655902 0.47877175
-2.0594847 -0.7609437 -0.02486623 0.61384755 -0.041284446 -4.1258593 -0.52338237 0.23261215
0.37472555 -0.15205112 -0.09698275 0.85253197 0.015908606 -2.548259 0.67693174 0.28832197
-0.45213592 -0.034552295 0.20395465 -0.05184792 -0.18454237 0.41668594 0.21195671 -0.78213084
0.83625937 -0.1332769 1.0392674 -0.22747712 -1.2054818 -0.2582507 0.36627534 -0.14746675
0.13434792 0.1831236 -0.36622065 -0.48191085 0.9054202 -0.050656807 -0.8317363 0.27519348
-0.2641408 0.018580731 -0.05976799 0.53502834 0.38243514 0.06807254 0.21244626 -0.38845196
0.25482294 -0.18406504 -0.16982083 -0.42290017 -0.13818319 0.08329648 0.2176709 -0.42733607
-0.1080177 -0.21882297 -0.28195646 -0.34477642 -0.144448 0.09119069 -0.16493826 -5.34671
00000000: af14 d2bd 8cfb f33d d0a5 083e 457e 993c
00000010: ce19 c1bd c1e2 c03f cc86 65be 98da 05be
00000020: 3c86 e23e 2679 77bd 5c1f 14be 0676 5bbf
00000030: 971e 60be dce2 af3e 9a57 563e c105 9cbe
00000040: 3518 00bf 2208 91be 282c d2be 047e 7cbe
00000050: 06e7 cfbf 4e86 9a3d c26c cb3e b816 b7bf
00000060: 2bf4 8f3d 2b58 7ebe 7481 9bbe 1573 83bf
00000070: 8e72 e33e cd5a 0bbe 980f 573e 3d0f b93e
00000080: f03a 9f3e ad03 49c0 dce2 53bf 5e36 eabe
00000090: 5866 4b3d c867 fe3d 8129 31bf 7426 86bf
000000a0: 46b5 573e 3265 6d3e 6e2d f43e baf7 1d3e
000000b0: ad5b 04bf cfb5 96bc 5cd4 dfbd 0da5 0abf
000000c0: 6ac0 423f 84e6 27bf 77d7 98bf 0f20 c5be
000000d0: 7fa3 1bbf e02b 523f d0b6 b7bd e680 d43f
000000e0: 0e86 1cbf 4eae d3bf 7a03 81bf e4c5 0f3e
000000f0: 6394 7c3f bb8f 883f 3e04 283f 7daf 81bf
00000100: d51e 90bf caf9 423c b334 51bf 91b1 903d
00000110: b20a a639 d32f 8ebe b19b 183f f6c9 783c
00000120: c9fe 3b3f 22e5 73be e3e9 0a3d ece0 a43e
00000130: 3ebd 823b fcbf f9be b8f0 96bf ceb7 05bf
00000140: 62ba 4bbf 3a16 8d3f 4e03 d83e 10f7 d1bf
00000150: 4024 b5be eba6 5f3d c2d0 893f cf0c 8bbd
00000160: af97 943f d367 353e 78bf ae3e a67c e2be
00000170: 9a41 0cbe a12b 38bf 4d8e 99be 6a20 743c
00000180: dce1 46be 5bcc 453f e123 823f faa9 383f
00000190: 4eba 60bd 3536 403e 1b22 b9bd 6bb0 fc3e
000001a0: 9473 fdbd e497 11be 5488 1fbf 614e d0bd
000001b0: c36b 12bf 0bf6 3cbf fa5b 0bbf 49fe 11c0
000001c0: 20bb c1bf 09a1 1cbe d1f5 c1be d0ed cf3d
000001d0: 33a2 97be ee73 cfbf 6f78 813e 7ad5 9dbd
000001e0: 4dc7 4dbf b748 0e3e 1ce4 c23f 0db5 533e
000001f0: db57 1d3b c230 6dbf dda7 a1be 4b36 a63e
00000200: e137 7f3e 7b3c 213d 686b acbe b1ad ca3e
00000210: cde8 e5be 86b3 353f 60a6 9c3e 44fe 963f
00000220: 5453 4fbf 3737 4a3e c16b 483e 355b 7c3e
00000230: 510e b3bd 64d8 413e 1a09 18c0 0d14 4f3e
00000240: f9a3 96be 2a70 cdbe a04b 26be ae63 4cbf
00000250: 12fd 97bf 73b7 6f3f 82d5 5c3f 21b5 90ba
00000260: 850a 3ebe cade 18c0 a430 6ebe 28e2 5dbf
00000270: 1a23 f8bd b7b0 613e 74c0 32bd 57eb 74be
00000280: cc00 31bf 6636 313f 25a0 1cbe 8e2d a33e
00000290: d9b8 123f 02a4 a9be abbf 473e 58c2 ae3d
000002a0: d4d2 7c3c 5295 b2bd c036 693f 3746 833b
000002b0: 8ae2 cebe b794 4f3e 810c 85bf 4fc0 b0be
000002c0: 3bf1 8ebe 6162 febe d4d8 34bf 226e 1dbe
000002d0: 005c 1ebf d0a1 05be 879b b8bf 9cf9 b53e
000002e0: 4c68 523c 8453 e33e d99f fe3d ec78 a3bd
000002f0: b057 cabd 57bd f73e d3e0 ee3e 9221 f53e
00000300: 99ce 03c0 35cd 42bf 44b4 cbbc 1d25 1d3f
00000310: e119 29bd 0a07 84c0 63fc 05bf e131 6e3e
00000320: 07dc bf3e 4ab3 1bbe e49e c6bd 893f 5a3f
00000330: c452 823c ad16 23c0 664b 2d3f f09e 933e
00000340: 5c7e e7be b586 0dbd 7dd9 503e 7c5e 54bd
00000350: adf8 3cbe dc57 d53e 2e0b 593e ba39 48bf
00000360: 1815 563f bd79 08be b706 853f c3ef 68be
00000370: 3a4d 9abf 7039 84be 7188 bb3e 8601 17be
00000380: 8092 093e c184 3b3e 4681 bbbe 05bd f6be
00000390: 9ec9 673f 837d 4fbd acec 54bf 29e6 8c3e
000003a0: 773d 87be 9e36 983c 48cf 74bd 9ef7 083f
000003b0: 8ace c33e 9e69 8b3d 838b 593e 2de3 c6be
000003c0: 2778 823e 8c7b 3cbe 83e5 2dbe 5f86 d8be
000003d0: e57f 0dbe 5897 aa3d 1fe5 5e3e cbcb dabe
000003e0: 6238 ddbd 2113 60be 995c 90be 8986 b0be
000003f0: 2dea 13be 2fc2 ba3d 93e5 28be 4018 abc0

dense_2/bias:0 f4 [25]
1.5199981 -0.3013824 0.29733607 0.1522589 -0.12107427 0.29951593 1.2542611 1.1147223
1.52959 -0.20106456 -0.97486854 0.37101004 0.498427 1.3235478 1.4399245 0.50424045
1.155863 0.7090852 1.0783089 -0.21623813 0.7925704 -0.53453636 -0.26614332 1.4526123
-0.4621135
00000000: 4c8f c23f cb4e 9abe 6f3c 983e c2e9 1b3e
00000010: c9f5 f7bd 275a 993e a18b a03f 38af 8e3f
00000020: 9bc9 c33f dee3 4dbe fc90 79bf 07f5 bd3e
00000030: d331 ff3e 046a a93f 724f b83f e715 013f
00000040: 52f3 933f 9c86 353f 0706 8a3f 876d 5dbe
00000050: e5e5 4a3f 60d7 08bf f043 88be 33ef b93f
00000060: 249a ecbe

dense_1/kernel:0 f4 [4, 25]
-0.65321743 -0.1391653 -0.8157318 0.21058306 -0.13610668 -1.451243 0.9564083 0.0049623717
0.7580585 -0.47205606 -1.2287748 0.86699075 -0.17207083 0.85945845 0.20474033 0.094953634
0.21600461 0.3632648 -0.38632998 -0.7879591 -0.3684769 -1.8068123 -0.2688065 1.9440895
1.2032881 0.56347877 -0.2747124 -0.80160606 -2.0728257 -1.2757024 0.44155076 0.7872146
0.8141355 -1.5629699 -0.6769993 0.9445264 0.12439443 -0.45276985 -0.33742413 -0.20941246
-0.5204447 -2.7141578 -0.14623778 0.4064175 -0.6120178 0.09990986 0.40541402 0.15617858
-1.868766 0.44237512 0.11143174 -0.30453253 -0.06326001 -0.041411962 -0.72408456 -0.43696377
0.13760087 -0.27888712 0.10995947 -0.041219898 -0.24356467 0.34557876 0.1707209 0.16125123
-0.3417175 0.033849757 -0.4874787 0.51307034 -0.10366702 -0.7860901 -0.08277469 -0.064324334
-0.7018037 0.32473198 0.13064614 0.4374528 -0.37445506 -0.08244971 0.45585513 0.3814555
-0.15127806 0.34907824 0.39848518 0.11834839 0.11930885 0.10124591 -0.22081117 -0.014083258
0.24754141 -0.7830054 0.010212504 -0.16733427 -0.34693417 1.3222029 -0.4047234 0.13027824
-0.42338026 0.5605852 -0.30235234 0.113601886
00000000: 4239 27bf 5981 0ebe cdd3 50bf 16a3 573e
00000010: 8d5f 0bbe 55c2 b9bf 2dd7 743f 649b a23b
00000020: 1f10 423f 55b1 f1be 7e48 9dbf 1bf3 5d3f
00000030: 5633 30be 7805 5c3f 73a7 513e 0d77 c23d
00000040: 5030 5d3e d8fd b93e 0bcd c5be b0b7 49bf
00000050: 01a9 bcbe a045 e7bf 01a1 89be edd7 f83f
00000060: 5805 9a3f 2540 103f 1ba7 8cbe 0e36 4dbf
00000070: 2da9 04c0 374a a3bf f112 e23e e586 493f
00000080: 2f6b 503f 660f c8bf d34f 2dbf 7bcc 713f
00000090: 82c2 fe3d 73d1 e7be dbc2 acbe 3870 56be
000000a0: dd3b 05bf c3b4 2dc0 5bbf 15be f415 d03e
000000b0: 33ad 1cbf 8a9d cc3d 6d92 cf3e 47ed 1f3e
000000c0: b933 efbf fe7e e23e 5336 e43d b0eb 9bbe
000000d0: 778e 81bd 979f 29bd 9b5d 39bf b7b9 dfbe
000000e0: 3ee7 0c3e 4bca 8ebe 6e32 e13d 32d6 28bd
000000f0: 0469 79be b3ef b03e 76d1 2e3e 0b1f 253e
00000100: 99f5 aebe 0ba6 0a3d cf96 f9be 9458 033f
00000110: 604f d4bd 333d 49bf c785 a9bd 7abc 83bd
00000120: 68a9 33bf 4543 a63e 1ac8 053e d0f9 df3e
00000130: 93b8 bfbe 65db a8bd d865 e93e 234e c33e
00000140: a3e8 1abe 62ba b23e 4006 cc3e a460 f23d
00000150: 3358 f43d 045a cf3d 531c 62be 77bd 66bc
00000160: 7f7b 7d3e 0b73 48bf 5952 273c ad59 2bbe
00000170: 5ba1 b1be f23d a93f e837 cfbe a967 053e
00000180: 4cc5 d8be 8382 0f3f edcd 9abe 1ba8 e83d

dense_1/bias:0 f4 [25]
0.07032944 1.2329164 1.2100934 0.8137444 -0.0047800303 0.5503941 0.11128466 -0.098267294
-0.11808427 -0.3656907 -0.13559799 -0.36352175 -0.55360174 -1.3133373 -0.0041279886 -0.31611344
0.13549301 0.19501355 -3.3760831 -0.12817071 -0.98037165 0.5781909 0.0028544765 0.18374573
-0.6240081
00000000: e208 903d 34d0 9d3f 57e4 9a3f 8e51 503f
00000010: cda1 9cbb a1e6 0c3f 36e9 e33d 5d40 c9bd
00000020: 2ad6 f1bd d03b bbbe 33da 0abe 861f babe
00000030: d8b8 0dbf 701b a8bf 1444 87bb 9fd9 a1be
00000040: aebe 0a3e a2b1 473e bf11 58c0 2f3f 03be
00000050: a3f9 7abf 5204 143f 2b12 3b3b d727 3c3e
00000060: ffbe 1fbf
