code/nnv/examples/NNV3.0/codeocean/data/ProbVer/yolo_2023/onnx/TinyYOLO.onnx (onnx, 372826 bytes, 25 tensors)

backbone.backbone.conv_1.0.downsample_opt.weight f4 [16, 3, 1, 1]
000000 f0 8f 9b 3c 05 4f 1d be 20 25 59 3e 23 f1 af bc
       0.018989533 -0.15362175 0.21205568 -0.021477288
000010 51 6c cf bc dc 0a 42 bd 5c ff 2a be 11 cf f1 bc
       -0.025320204 -0.047373638 -0.16698974 -0.029517682
000020 80 e6 72 be 82 25 03 3c 1d 60 15 3e d0 f1 18 3e
       -0.23720741 0.008004548 0.14587446 0.14935994
000030 5e 3c f1 3e a1 01 fb bd 6d da cd be d7 bd 56 3d
       0.4711637 -0.1225617 -0.40205708 0.05242714
000040 ff 29 2d be 48 14 af 3c ec 18 52 bd b2 2a 9a bd
       -0.16910551 0.021371976 -0.0512933 -0.07527675
000050 9b 59 db bc 66 aa 92 bc f3 ac 49 3e 0a 0a 2d 3e
       -0.026776126 -0.017903518 0.19694881 0.16898361
000060 1a 11 f5 bc b9 c1 b0 bd 69 68 a1 bd 85 0c e6 bc
       -0.029915381 -0.086307 -0.07881243 -0.028082142
000070 90 e1 06 3d ab 3f af 3d 67 f6 90 3d 28 8e 7a be
       0.032929957 0.085570656 0.070782475 -0.24468291
000080 6b 48 12 bb a2 dd 61 3a 11 12 1c bb 42 97 82 bb
       -0.0022320997 0.0008616095 -0.002381448 -0.0039853165
000090 eb 4f 54 bd ca 76 43 be 67 47 10 be 1e 50 61 bd
       -0.05183403 -0.19088283 -0.14089738 -0.055008046
0000a0 02 b5 a8 bc 39 59 dd bb ae c0 a1 be 8b 94 b4 3e
       -0.020594124 -0.006755021 -0.31592315 0.3526958
0000b0 fd c5 69 be 4d f5 51 3e 8f 88 0d bc d6 9f a8 ba
       -0.22829433 0.20503731 -0.008638515 -0.0012865018

backbone.backbone.conv_3.downsample_opt.weight f4 [32, 16, 1, 1]
000000 1f 17 ce be 5a d8 cb bc 21 49 04 bb f9 a4 8f ba
       -0.40252015 -0.024883438 -0.002018519 -0.00109592
000010 8b 81 29 3e 94 91 47 3a cc 04 1e be 7c 76 33 3e
       0.16553323 0.00076129404 -0.15431517 0.17525667
000020 7d f9 5f 3d 05 98 87 bb d4 93 92 be cf d5 b4 b9
       0.05468129 -0.004137995 -0.2862841 -0.00034491575
000030 b9 9e 01 3b ff ed d3 bc 7c 95 78 3e e4 5a cc 3b
       0.0019778444 -0.025870321 0.24275774 0.006236421
000040 72 05 4e 3c 15 dc 18 be a8 09 0a 3e 84 1d 97 3c
       0.01257454 -0.14927705 0.13480246 0.018446691
000050 9d d4 78 3d 15 60 26 3e 30 09 ec bd 4d 01 b1 be
       0.06074964 0.1624759 -0.1152519 -0.34571305
000060 f8 d9 0e be 54 c5 5a 3d a2 d0 da ba 09 2c 81 3c
       -0.13950336 0.053410843 -0.0016694258 0.015768068
000070 0f 27 a1 bc 31 5e b5 ba 43 b9 eb 3d 4a 48 35 ba
       -0.019671945 -0.0013837275 0.11509945 -0.0006915374
000080 60 78 99 3d df 3e d8 bb 48 bc 94 bb 92 0a 8a 3c
       0.07493663 -0.0065992917 -0.0045390464 0.016850743
000090 75 c0 ab be 23 3d 8b 39 18 4a c9 3a e3 a1 fb bb
       -0.3354527 0.00026557696 0.0015357165 -0.0076792105
0000a0 71 1d 0d 3b 94 b4 1e 3b 2d bf 37 be bf ae c0 bc
       0.002153244 0.002421652 -0.17944022 -0.023520825
0000b0 6d dc 26 bb aa 55 2a bd 71 d5 84 bb 62 6a 6e b9
       -0.0025460974 -0.041585602 -0.0040537645 -0.0002273708
0000c0 ad be 0b bd 36 bf 1d 3a 46 e4 aa 3e 37 c5 5a be
       -0.03411739 0.00060175674 0.33377284 -0.21364294
0000d0 96 12 8a bd 11 b2 6f ba 09 3f 92 3a 8d fe a6 3a
       -0.06741826 -0.00091436604 0.0011157702 0.0012740657
0000e0 d2 3b de bc a1 ae ca 3a 1f 90 07 3d 3c d5 23 3d
       -0.027128134 0.001546342 0.03309643 0.039998278
0000f0 33 59 7d ba 82 12 8b ba a0 31 f7 bc 60 87 13 bd
       -0.0009664476 -0.0010610374 -0.03017503 -0.036017776
000100 2f 1e 58 bb 1d 46 c4 bd be c6 c7 bd 4f da 51 bb
       -0.0032976975 -0.095836855 -0.09754704 -0.0032020991
000110 9c 0e 1b be 19 58 a6 bd 41 0c 05 3a 7a d1 b0 3e
       -0.15142292 -0.08122272 0.00050753733 0.34534818
000120 b4 5d 61 3e 38 64 6b 3c e7 81 3e 3e 14 af 08 bc
       0.22008401 0.014367156 0.18604241 -0.008342523
000130 63 4d 99 be 04 21 2f be 32 c3 1b be e4 18 d3 bc
       -0.29941854 -0.17102438 -0.1521118 -0.025768705
000140 d6 a1 f8 3d c1 dc 84 be b3 81 96 bd 92 2a 0b 3d
       0.12140243 -0.25949672 -0.07348957 0.033976145
000150 86 c5 0c bf 44 b1 4a 3e 7d 24 6f bd cf 24 13 3c
       -0.54988897 0.19794184 -0.058384407 0.008980944
000160 a7 65 75 3e 86 ff f6 39 3e ba 3f bd 68 77 d5 ba
       0.23964559 0.00047111156 -0.046808474 -0.0016286196
000170 4f 25 d4 b9 8b cc 9a 3c ce 59 a7 3e e6 c4 0b bd
       -0.00040463588 0.018896362 0.32685703 -0.034123324
000180 9a 93 0d 3d ef 9b 83 3d 43 35 af bd 41 af ba bb
       0.034564592 0.06426226 -0.08555081 -0.0056971614
000190 5d 48 ce bc 9e 73 3b 3d b3 f4 c4 bd b8 01 4a 3d
       -0.02518099 0.045764558 -0.09616985 0.049318045
0001a0 11 b2 ef 3b fa 1f 73 3a a2 e4 92 3e 9c 55 85 bb
       0.0073149283 0.0009274479 0.28690058 -0.0040690433
0001b0 7c c7 f6 bd a6 5d 73 bc 5d a1 8d 3d 78 23 37 ba
       -0.120497674 -0.0148538705 0.06915543 -0.0006986181
0001c0 51 b4 a3 bd 69 9f 9b bd d1 41 9d 3e 8e a9 a1 bb
       -0.07993377 -0.075987644 0.30714276 -0.0049335426
0001d0 78 df c7 ba f9 26 09 be 04 51 7b 3e 90 fa 6a 3d
       -0.0015249094 -0.13393773 0.24542624 0.05736786
0001e0 3a 30 a2 bc 54 e3 ee bb 21 f0 6f 3d 5c cb 0d 3b
       -0.019798387 -0.007290283 0.058578614 0.0021636104
0001f0 da 44 47 3e 9a b1 cb bd a1 e3 16 3f fa c2 f1 bd
       0.19459859 -0.09945984 0.58941084 -0.11804767
000200 85 01 3c be f7 eb e0 bd e4 82 82 3d 77 47 38 3e
       -0.18359955 -0.10982507 0.06372622 0.17996012
000210 58 b4 ff 3d 6e 17 23 3e 2c ef f8 bb 50 28 16 bd
       0.1248557 0.15926906 -0.007596871 -0.03665954
000220 3b 25 84 bd 98 dd fc 39 3a 4e 42 b9 2a cb 9f 3c
       -0.06452414 0.00048230286 -0.00018530423 0.019506056
000230 23 77 df bd 60 ef 55 3c 47 75 82 ba 1a c1 17 3b
       -0.109113954 0.01305756 -0.0009953164 0.002315587
000240 ee 5f 32 3b 58 0c 38 3a a4 25 08 be 73 d0 89 3d
       0.0027217823 0.00070208823 -0.13295609 0.06729212
000250 e6 6d 8b 3d 65 99 7b 3e 1e 2e d6 39 c2 b4 79 3d
       0.06808071 0.24570234 0.0004085162 0.0609634
000260 96 42 e5 3d ae 75 aa bb da 1c b0 bd 6c 8c c7 3c
       0.11194341 -0.005202017 -0.08599253 0.02435895
000270 2f 79 a3 bd 94 a0 62 bd 15 b3 87 3d 75 b0 22 bd
       -0.07982098 -0.05532892 0.06625954 -0.039719064
000280 5f 3d 82 3c 90 87 87 3e c1 87 f1 3d 9a 9a 20 3d
       0.015898405 0.26470613 0.11793471 0.03920994
000290 6c 49 92 3e 30 66 b5 3c 20 57 9a bb 3f 45 e2 ba
       0.2857164 0.022143453 -0.004710093 -0.0017263069
0002a0 be 67 1a bc 3e 02 d9 ba 19 5a b4 3d 68 2f 63 bb
       -0.009424148 -0.0016556454 0.08806247 -0.0034665707
0002b0 41 bb 37 3e 37 69 26 be 1e a2 18 bb 11 19 61 3b
       0.17942525 -0.16251074 -0.0023289989 0.0034347216
0002c0 da fb 30 38 a6 6e 8a 3b dc db 81 3a 93 66 a8 bc
       4.2196225e-05 0.004224616 0.0009907442 -0.020556724
0002d0 11 86 3c be 38 dd 90 bc 36 0b b6 bb 6a 4d b2 bd
       -0.18410517 -0.01768361 -0.0055555357 -0.08706172
0002e0 bf 94 aa ba 8e 17 67 bd 43 fa 52 bd e0 39 ed bd
       -0.00130143 -0.056418948 -0.0515082 -0.115833044
0002f0 54 1c a2 3a c5 7d 9f 3d 9e 9b bb bd e8 f4 d2 bd
       0.0012368062 0.077876605 -0.09160541 -0.103006184
000300 22 ac 42 bc 77 9a 05 bb 2f c1 be bd 88 18 7c bd
       -0.01188186 -0.0020386258 -0.093141906 -0.061546832
000310 35 72 9c be 77 e5 2a 3e 71 77 28 3e 97 cc 31 bc
       -0.30555883 0.16689096 0.16451813 -0.010852001
000320 bc 19 fe bd cf 30 0c 3c a0 1c 66 3b 5a ea 6f 3c
       -0.12407252 0.008556559 0.0035112277 0.014643276
000330 b0 a6 4f be 86 cc 87 bb 4f e4 b6 bc 6b 1c 0a 3d
       -0.2027843 -0.004144254 -0.022325663 0.033718508
000340 f2 0b 4e 3e 01 7e 19 3b 05 04 05 3c 7b fe 0c 3b
       0.20121744 0.0023421051 0.008118634 0.0021513987
000350 e3 cb 1f 3b 9f 30 22 bd b7 24 a6 ba 4e e3 c9 bd
       0.0024383 -0.03959715 -0.0012675737 -0.09857808
000360 76 ee c7 3e 32 72 1c bd 11 b5 51 be b4 44 20 3e
       0.3904912 -0.038194843 -0.20479228 0.15651208
000370 11 49 8b 3a f1 bb fb 39 d3 63 82 3b bb 47 d1 3a
       0.0010626634 0.00048014478 0.003979185 0.0015966812
000380 b3 b7 75 be 94 b6 91 3b de 41 88 bc a1 7b 32 3b
       -0.23995857 0.004446814 -0.01663297 0.0027234333
000390 f4 6f 58 bb 6e 3d a0 3b 39 a2 d0 3b 94 d9 ec be
       -0.0033025714 0.0048901355 0.0063669947 -0.4625975
0003a0 f0 dd 25 bb 3f 50 45 3b e7 96 fc bb bc 0f 5a 3b
       -0.0025309287 0.0030107645 -0.0077084186 0.0033273539
0003b0 d8 e7 d4 be d7 cb 31 3d 09 43 45 3b 02 7e 8d 39
       -0.41583133 0.043407287 0.003009977 0.000269875
0003c0 14 fa 9d bc 9c d8 27 3b fc f4 a7 bc 15 3d a8 b8
       -0.019284286 0.0025611287 -0.02050256 -8.022242e-05
0003d0 1e 9b 83 be da cc 91 3e 8c 6c f8 bc 2b 05 18 3e
       -0.25704283 0.28476602 -0.030325197 0.14845721
0003e0 6a 13 b2 b7 8d 5a 8a bc 4d c8 a0 3d ce 42 db 3d
       -2.1228294e-05 -0.016888881 0.07850704 0.10706101
0003f0 7d 96 81 3e 3a 29 08 3f c7 c4 ca be 75 54 7e 3d
       0.25310126 0.53187907 -0.39603254 0.062092263

backbone.backbone.conv_6.downsample_opt.weight f4 [64, 32, 1, 1]
000000 95 0f d6 b9 19 a8 5b 3a 36 b8 12 ba df 1c 99 b8
       -0.0004082887 0.00083792355 -0.00055969076 -7.300986e-05
000010 11 84 33 ba 70 7d d5 b9 94 9b 0f b9 66 fc c5 ba
       -0.00068479875 -0.00040719984 -0.000136955 -0.0015105128
000020 72 8e 55 ba e5 56 e5 38 f1 72 da ba bd 1c 20 ba
       -0.0008146531 0.00010935756 -0.0016666335 -0.0006107798
000030 85 62 9d b9 1c 1e b3 37 cd 74 bb 3d 95 f4 5e 3a
       -0.00030018776 2.1352484e-05 0.09153137 0.00085050735
000040 15 59 d4 bc c2 34 0b ba 98 ee 36 ba 91 5b 72 3a
       -0.025921384 -0.0005310291 -0.0006978302 0.0009245212
000050 d9 5a cd 39 b0 68 44 3c c7 4c dd 39 63 25 e0 b8
       0.00039168334 0.01198785 0.00042209608 -0.00010688116
000060 09 ce 73 37 20 ca 9c 38 1b f2 6b b9 4c ec db b9
       1.45319e-05 7.4763084e-05 -0.00022501538 -0.0004194699
000070 4d bb a2 3c 37 7e 26 ba 5b 67 64 39 54 d8 0c ba
       0.019864703 -0.0006351205 0.00021782277 -0.00053728116
000080 c3 b7 76 bc 9a 0e 57 bd 88 51 7f 39 66 16 06 be
       -0.015058461 -0.05250416 0.00024349068 -0.13094482
000090 2f 29 e4 ba 7a 15 e2 3d aa cd 91 39 7f 9f ae b8
       -0.0017407293 0.110392526 0.00027809787 -8.326675e-05
0000a0 fa ac f5 bb 82 bc 8f 3d b1 be fc 3b fe d7 b4 b8
       -0.007497427 0.07018377 0.007713162 -8.6233005e-05
0000b0 ea 1e 8c 39 eb fe da 39 26 9f 41 be 59 67 9b 39
       0.00026725914 0.0004177013 -0.18908367 0.00029640904
0000c0 81 aa 0c b9 a9 b6 f4 39 44 46 c7 3d cb 87 27 3d
       -0.00013414958 0.000466754 0.09730199 0.040900987
0000d0 22 37 0d ba d8 a4 3a bd eb 3b 57 bb 46 a2 08 3a
       -0.00053869386 -0.045567364 -0.003284211 0.0005212169
0000e0 43 82 8a 3a 51 eb cc 39 71 53 76 b9 2d 70 07 bd
       0.0010567385 0.00039085236 -0.00023491473 -0.033065964
0000f0 d9 7a e1 ba a5 a6 0c b9 23 08 3c b9 e7 60 a6 ba
       -0.0017202749 -0.0001341352 -0.00017932108 -0.0012693674
000100 62 71 17 3d 38 ea c5 b9 2a 29 91 b9 62 db 2f ba
       0.036973365 -0.00037749275 -0.00027687225 -0.0006708411
000110 03 f3 fa b8 92 02 8d 3a 95 48 1e 3b 18 d7 49 3b
       -0.000119661934 0.0010758212 0.002415215 0.0030798372
000120 94 61 a0 3b 22 9d a0 39 41 bd 8f 3a 66 3d 5d 3a
       0.0048944447 0.0003063465 0.0010966436 0.000843963
000130 15 32 98 b9 8b 88 7f b9 cd c9 37 3e c8 80 a0 b9
       -0.00029029013 -0.00024369561 0.17948075 -0.00030613528
000140 d6 e3 8c bd e7 bd b7 3b 9c 1a 17 3a c9 8e 2f b9
       -0.06879394 0.005607355 0.0005764158 -0.00016742492
000150 77 d6 cd b8 35 ca a5 b9 9f 67 6b 3a a7 2a 7d b9
       -9.815109e-05 -0.00031621908 0.00089799793 -0.0002414385
000160 e3 a2 0c ba 15 49 8e 39 a8 6c de b9 bd 60 3f ba
       -0.0005364848 0.000271388 -0.00042424095 -0.0007300487
000170 7b 1d 7d bc 2c ab a3 bc bf f0 b2 b8 af 04 2f ba
       -0.015448923 -0.019979082 -8.532544e-05 -0.0006676418
000180 f2 5f f3 ba 7d cc b2 b9 e2 7b 78 ba 7a 82 8f 3d
       -0.0018568023 -0.0003410316 -0.0009478909 0.07007308
000190 b7 3f 97 b7 16 45 7d bc 3d 00 a8 b8 c8 88 1f 3b
       -1.8030272e-05 -0.015458366 -8.010909e-05 0.0024343003
0001a0 72 f9 87 b8 99 b9 0c 39 2c 12 14 3b 13 92 c5 b9
       -6.4837644e-05 0.00013420581 0.002259384 -0.00037683602
0001b0 af c6 af 3a 24 1b ce 3a 6f 40 4b bd 8e 5d 23 3b
       0.0013410653 0.0015724641 -0.049621996 0.002492759
0001c0 a2 af 85 39 55 e3 9d ba d7 83 70 3a 2f 8d 4d 3a
       0.00025498593 -0.00120459 0.0009174919 0.00078411674
0001d0 0e 89 49 39 79 72 f7 3a 11 7b f0 39 b0 2a d9 39
       0.0001921991 0.001887872 0.0004586806 0.0004142127
0001e0 97 49 e7 39 9d db 32 3a b4 9a 28 39 b5 52 01 be
       0.00044114582 0.0006822886 0.0001607936 -0.12629206
0001f0 57 b3 15 ba 90 f9 52 3d 34 61 25 ba 45 58 20 bb
       -0.00057106226 0.051507533 -0.0006308735 -0.0024466675
000200 91 a4 d0 3d bb 05 cd 3d 90 2d 5e 39 ba 62 82 3c
       0.101876386 0.100108586 0.00021188543 0.015916217
000210 01 5b 04 bf 9b a4 2f bb 4d d6 12 ba 31 e0 e8 39
       -0.5170136 -0.0026800993 -0.00056013913 0.00044417524
000220 51 4e 14 3d ae f7 46 be 63 cf e6 3a e6 6e 9d 3c
       0.0362075 -0.1943042 0.0017609413 0.01921792
000230 26 16 c9 b8 fe 58 39 bb 55 45 6f 3c d8 10 0a 3e
       -9.588552e-05 -0.0028281803 0.014603932 0.13482988
000240 6c 3d 90 bd 90 8c cd bd 77 4a 33 3c f8 7b 87 bb
       -0.07042965 -0.10036576 0.010943047 -0.0041346513
000250 af 2f e9 bc 7a c2 69 3d 66 98 8e bb 3c ce f2 bd
       -0.02846512 0.057070233 -0.0043516634 -0.11855742
000260 c3 2b 19 bd 22 7e ff 3c 56 a5 37 bd bb 43 00 3d
       -0.03739525 0.031188074 -0.04483541 0.031314593
000270 a4 5a 04 bf bd f5 1c bb f2 53 a1 3c a3 a8 8f 3c
       -0.51700807 -0.0023950182 0.019693349 0.017536467
000280 7d 5a 2a 39 1d 24 d7 b8 a9 7c 7a b9 4d 69 ac 39
       0.00016246173 -0.000102587255 -0.00023888297 0.00032884852
000290 bd 9a 11 b9 0e 66 af b9 52 08 dd 3d 57 08 96 39
       -0.00013885922 -0.00033454638 0.107926026 0.00028616443
0002a0 53 16 a4 39 0a 1d e5 37 49 3d c7 3c 0d 81 a9 38
       0.0003129715 2.731245e-05 0.024321215 8.0825856e-05
0002b0 a1 52 c8 b9 39 86 e5 ba 5b 20 18 3a 8b b4 9a 39
       -0.00038208536 -0.0017511315 0.0005803161 0.00029507684
0002c0 bc c9 59 ba 22 7f a9 bc 8f 72 a7 3a e9 28 b1 39
       -0.0008307954 -0.020690504 0.001277523 0.0003379055
0002d0 46 57 61 b9 83 8f 9f 38 a2 94 65 39 d4 e3 a0 b9
       -0.00021490184 7.608442e-05 0.00021894512 -0.00030687323
0002e0 8e 10 85 3a f4 0a bb b9 7e b0 15 3a d8 b1 35 b9
       0.0010152028 -0.0003567558 0.00057101983 -0.00017327757
0002f0 cc 03 30 ba 1b 1c 86 b9 63 12 9a 3a 33 18 59 38
       -0.0006714433 -0.00025579412 0.0011754747 5.175937e-05
000300 e6 19 67 bd 93 0d 19 b9 e1 0f 8b b9 f6 8a 15 bb
       -0.056421183 -0.00014596274 -0.00026523977 -0.0022818423
000310 e9 e1 e1 b8 7a 7b e4 3d b1 b4 34 3d 5e bb 77 3b
       -0.00010770915 0.11156364 0.044117633 0.0037800889
000320 c0 e4 91 39 a6 d6 ed 3a 50 06 57 3a 57 71 ca b8
       0.00027826987 0.0018145635 0.000820254 -9.653222e-05
000330 cb 21 61 3c 51 f5 11 3d 8b 0a 0b bb 55 dd ce b7
       0.013740967 0.035634343 -0.0021216 -2.466018e-05
000340 e7 6a d3 3a 03 f2 bd bd 14 3a 40 b9 aa f9 2b ba
       0.0016129882 -0.09274676 -0.00018332183 -0.0006560335
000350 14 3c b0 b9 56 f5 45 39 b9 a1 9f 39 c0 3c 78 ba
       -0.00033614098 0.00018878779 0.00030447336 -0.00094695017
000360 b6 ae 5d ba 92 b6 4e 39 3d d1 a4 b9 b6 0d 60 3a
       -0.0008456515 0.00019713704 -0.00031436412 0.0008546965
000370 da 9f d9 b9 a1 7b 3e 36 2d 88 1b ba bc 02 85 3a
       -0.00041508564 2.8384168e-06 -0.00059330725 0.001014791
000380 f9 d8 fa b9 8e 79 db 39 0d f1 0b 3a 44 ab 59 3c
       -0.00047845373 0.000418615 0.00053383486 0.013285462
000390 56 41 b9 3c f2 f1 8d 39 32 29 cf 39 68 0a 16 3e
       0.022614162 0.0002707388 0.0003951281 0.14652407
0003a0 63 df 89 38 07 e1 62 39 c3 da 02 3a e8 d6 82 39
       6.574278e-05 0.00021636869 0.00049917045 0.0002495565
0003b0 7e 3e 88 3a 90 47 1d ba ae d3 97 ba 9a cb 24 b8
       0.0010394601 -0.00059997384 -0.0011583471 -3.9290266e-05
0003c0 06 05 bd 3a 06 b0 7c 39 97 26 39 ba b3 27 ce b9
       0.0014421053 0.00024098167 -0.000706294 -0.0003932096
0003d0 aa 6d ba b9 d0 e9 8c 39 b4 bf 17 38 15 e3 d5 37
       -0.0003555839 0.00026877085 3.6179743e-05 2.5497322e-05
0003e0 13 58 28 38 0d f3 ea b8 b8 35 11 3a 21 19 6d b9
       4.0136347e-05 -0.00011203261 0.0005539316 -0.00022611443
0003f0 41 4b 2f b9 53 58 44 39 5e e5 59 ba 1c 51 3b 3a
       -0.00016717335 0.0001872492 -0.00083120714 0.000714557

backbone.pred.weight f4 [125, 64, 1, 1]
000000 3e fa 94 3d d1 d3 9c bd 99 55 ee bd d1 00 93 3d
       0.072742924 -0.07657588 -0.1163742 0.0717789
000010 42 90 10 be 55 09 17 bb 00 47 3a bc 68 4a 58 3c
       -0.1411753 -0.0023046334 -0.011369467 0.013201334
000020 0d 0d 27 bb 8b 19 a3 3d f9 dd 05 3d f5 60 c9 bc
       -0.0025489957 0.07963856 0.032682393 -0.024582366
000030 21 02 3f be e5 14 59 bc 37 8a e4 bb 24 4d a7 3d
       -0.18653156 -0.013249611 -0.0069744843 0.0816901
000040 66 87 cb 3d 16 1f 67 ba 24 f5 df 3d 03 5a ac bd
       0.099379346 -0.0008816583 0.10935429 -0.08415606
000050 6e d1 0f bf ed 3e 05 bd 46 44 f3 39 cd 2e a0 3e
       -0.5617894 -0.032530714 0.0004639944 0.31285706
000060 ce 0a e1 39 37 ad 8e 3b 8a e5 53 3b ff bf 89 bd
       0.00042923394 0.004354145 0.003233286 -0.067260735
000070 6a bf d3 b9 fa 40 91 be 2e c3 57 be 5d 29 33 3c
       -0.0004038767 -0.28369886 -0.21070549 0.010935155
000080 bd b0 f8 bc e6 03 dc b9 56 a5 94 bb f7 c2 dc bd
       -0.030357713 -0.00041964574 -0.004536311 -0.10779374
000090 7d 32 16 3b 33 9e 9c 3d 6b 8d 17 3d 86 35 2c 3e
       0.0022918277 0.076473616 0.0370001 0.16817293
0000a0 4f 96 30 be 84 ca 14 bd 52 d4 cd 3b 12 33 04 3b
       -0.17244838 -0.036325946 0.006281414 0.0020172042
0000b0 d8 a1 d9 3a 76 05 19 bc 07 08 80 be b0 a1 8d 3a
       0.0016604019 -0.009339681 -0.25006124 0.0010805633
0000c0 a1 4c 06 be 28 d5 9b bd 4c b3 8b b9 00 3c 40 bc
       -0.13115169 -0.07609016 -0.00026645733 -0.011733055
0000d0 ca a6 40 3c 2f e4 f7 3d d5 47 8b 3c 43 41 6f bb
       0.011758516 0.121040694 0.017002026 -0.0036507405
0000e0 b6 75 6f bc 40 71 4a 3e d7 58 5f bd f7 62 94 bb
       -0.014615467 0.19769764 -0.054528084 -0.004528399
0000f0 28 09 26 bf e9 44 78 bc 32 6c 00 3d 4d 10 06 3e
       -0.6485772 -0.015153148 0.031353183 0.13092156
000100 16 a7 7b bb ce 4f 7f bb f5 82 a1 3d 83 f9 3d 3d
       -0.0038399152 -0.003895748 0.07886306 0.04638053
000110 21 9a 02 bd 6d 75 81 39 51 29 b9 bc ef 9f 87 3a
       -0.03188527 0.00024692286 -0.022602709 0.0010347347
000120 46 0b 21 3b cf 04 48 3e 93 f7 0f bd f3 83 81 ba
       0.002457337 0.19533084 -0.035148215 -0.0009881243
000130 13 c0 e2 bd b0 32 00 bd c2 96 39 3b 81 38 78 3e
       -0.110717915 -0.03129834 0.0028318618 0.24240305
000140 ec a7 30 3a ca b6 b5 3c 26 79 f1 bc 0b af 2f 3e
       0.00067388895 0.022181887 -0.029476713 0.17156617
000150 11 df f6 3c 8a 32 79 3d cd 5a 60 3b 57 06 a2 3d
       0.030135663 0.060839213 0.003423381 0.079113655
000160 ff 93 42 3d 19 fa 0c bc 6e 44 c9 3c 8b 34 35 3d
       0.04750442 -0.00860455 0.024568763 0.044239562
000170 6b 85 3f bd 3f dc a8 bc 13 34 31 3b d2 93 dd 3a
       -0.046758097 -0.020612834 0.0027039095 0.0016905016
000180 e0 15 d1 3b 3b ce 58 bd 83 a2 1a bc 25 fd 7e 3b
       0.0063807815 -0.05293105 -0.00943816 0.003890821
000190 0e b7 9e bb 2e c2 59 3c 50 79 07 be 58 a7 c4 3e
       -0.004843599 0.013290925 -0.13229871 0.38408923
0001a0 55 d1 81 bb 3f 51 40 3b 11 4a 3e bd c7 d3 88 38
       -0.003961722 0.0029345301 -0.046457354 6.524432e-05
0001b0 32 43 67 bb 08 35 02 bd 11 7c 49 3d a7 25 90 b9
       -0.0035287854 -0.031788856 0.049190585 -0.00027493873
0001c0 30 9f e4 3d 56 01 ee bd b7 65 21 be 58 02 5f 3c
       0.11163175 -0.116213486 -0.15761457 0.013611399
0001d0 ac ff 3e 3d 2d b4 dc 3d 04 aa e7 bb 62 71 99 bb
       0.046630546 0.10776553 -0.007069828 -0.0046827057
0001e0 f4 77 bd 3b 6e 08 34 3a bf b4 95 3d 46 23 ae 3b
       0.005782122 0.0006867711 0.07309865 0.0053142635
0001f0 3f 23 6c bf c3 62 01 bd 5c 61 38 3d e6 3a 94 bc
       -0.9224128 -0.031588327 0.045014724 -0.018094491
000200 60 2c 85 bb 10 e9 22 3b 0d 5f 28 bb ba 17 99 bd
       -0.004064128 0.0024858154 -0.002569142 -0.074752286
000210 82 b5 ad bd 91 7f 11 bb c9 f7 7f 3c 22 69 2f bc
       -0.084818855 -0.002220128 0.015623041 -0.010706218
000220 aa 39 2d bc 11 b7 71 3b c0 4d 99 3d 2b 58 1d bb
       -0.01057283 0.0036882798 0.07485533 -0.002400885
000230 1a 0e 08 3e 24 58 07 bb bb 3b 3a 3d d7 42 2f 3d
       0.1328663 -0.00206519 0.04546712 0.042788353
000240 77 99 08 3e 5c 3a 13 3e 85 14 9a bb f3 79 a9 3e
       0.13339792 0.14377731 -0.004702153 0.33100852
000250 9d a5 94 3b a2 ac 88 bc a7 5b 91 3a 02 04 83 ba
       0.004536344 -0.01668388 0.0011089937 -0.0009995701
000260 92 5e fd 3d a6 93 b0 3d 5b 0d b6 3d 0e 16 66 bc
       0.123715535 0.08621912 0.08889266 -0.014043344
000270 25 a5 d7 bc 8c 66 ab bd a5 75 e3 bd 4f 93 50 bd
       -0.026323864 -0.08369169 -0.11106423 -0.050921734
000280 c9 2c 18 39 83 e2 2f bf cb ab a2 3a f6 58 18 be
       0.00014512533 -0.68705004 0.0012410817 -0.14877686
000290 85 cb 12 bb ca 12 e4 3b 26 9c af be cf 60 64 3b
       -0.002239914 0.0069602476 -0.3429882 0.0034847741
0002a0 45 dc 21 3d c4 04 e3 3a 12 2d 45 3c 58 7f 8d bd
       0.039516706 0.0017320146 0.012034671 -0.069090545
0002b0 fd 08 d3 3c b6 f5 c6 bd 08 80 76 be 21 c0 25 bd
       0.025761122 -0.097148344 -0.24072278 -0.04046643
0002c0 da c7 0c be 2e c7 1c bb f5 d6 53 be 26 e2 5e bb
       -0.13748112 -0.0023922431 -0.20687468 -0.0034009307
0002d0 9a 8f c6 3e 92 94 c6 bc 33 0f b0 ba 32 2d b7 ba
       0.38781434 -0.024240766 -0.0013432264 -0.0013975261
0002e0 b6 f0 14 bd 71 9d 9b 3c 4a 09 d2 bd 74 23 57 bd
       -0.036362372 0.018995972 -0.10255678 -0.052524045
0002f0 d3 25 fd be 5e f2 3f bb d8 7c 46 39 3c a6 ca be
       -0.4944292 -0.002928875 0.0001892926 -0.39579952
000300 3d 1e 97 3d c0 f9 54 3d 30 70 95 bb b9 d1 0e 3c
       0.07378814 0.051995993 -0.004560493 0.008716994
000310 93 62 3c 3d 40 88 60 b8 fc 1e 91 3a 3c 4a a7 3c
       0.045992445 -5.3532654e-05 0.0011071856 0.02042114
000320 8a 88 12 3a a5 13 7c bd 3b 14 5a 3d 85 22 02 3b
       0.0005589804 -0.061542172 0.05324195 0.0019857
000330 6b ed 65 3e c4 ee 98 bd 36 8c 2f 39 51 ae d1 be
       0.22453849 -0.07467416 0.00016741533 -0.40953305
000340 b1 79 96 bd a0 a4 0d bc c8 81 24 3b 61 9c 70 bb
       -0.073474295 -0.008645207 0.002510177 -0.0036714303
000350 12 e3 32 3c 5b a5 03 bd b2 03 bc 3c ab c5 82 3d
       0.010918396 -0.032140117 0.02295098 0.063853584
000360 89 57 74 3c 20 f5 96 3d 6e 32 03 bc e1 84 9b 3e
       0.014913448 0.07370973 -0.008007629 0.30374816
000370 a6 e9 1f bd cd 12 4f 3d 84 a2 7f 3b 79 0f eb bd
       -0.039041184 0.05055504 0.003900678 -0.114775605
000380 70 f0 5d 3c 8b a2 58 be 02 26 d7 3e 9c ae c6 3a
       0.013546094 -0.21155755 0.42021185 0.0015158239
000390 ec 19 ec 3a a4 a0 12 3b 29 c7 a8 bd 66 27 fe bc
       0.0018013096 0.0022373581 -0.08241112 -0.031024646
0003a0 c9 9a 9e 3d fb fd df bc 8d ae 0f bc 18 62 2e 3a
       0.07744367 -0.027342787 -0.0087696435 0.00066521903
0003b0 dd ee ea 3a dc 46 a6 3b 3d f0 77 bb 53 c0 49 ba
       0.001792397 0.005074365 -0.0037832402 -0.00076962
0003c0 e9 b0 09 3b 2c 32 8e bd 6e d0 e4 3c 63 14 a8 bb
       0.0021009988 -0.06943163 0.027931418 -0.0051293834
0003d0 e2 1f c5 3e 52 0e f5 bb 0b c9 5b bb 56 18 db 3b
       0.38500887 -0.0074785138 -0.003353658 0.0066862507
0003e0 c4 a0 cc ba 22 45 dc bc 90 ae 98 bd 57 cb 93 3a
       -0.0015611877 -0.026888434 -0.0745517 0.001127581
0003f0 3c 39 78 bf 9d 7f aa 3a f6 24 8c 3d e7 84 69 3d
       -0.9696233 0.0013008002 0.06842987 0.05701151

backbone.pred.bias f4 [125]
000000 af 09 24 c0 b4 04 24 c0 cb 81 46 c0 14 ae 37 c0
       -2.563091 -2.562787 -3.101672 -2.87
000010 58 6d 5b c0 03 d3 21 c0 76 4a 15 c0 13 30 ee bf
       -3.4285488 -2.5285041 -2.3326697 -1.8608421
000020 88 05 08 c0 8d 85 f4 bf de 13 1a c0 a9 59 e2 bf
       -2.1253376 -1.9103256 -2.4074626 -1.7683612
000030 c7 70 1c c0 f8 9a d7 bf 34 99 0a c0 d3 1f 25 c0
       -2.4443834 -1.6844168 -2.1656008 -2.5800674
000040 4b 1f 05 c0 f4 6f 14 c0 9b 51 1c c0 b5 7b 62 bf
       -2.080035 -2.319333 -2.4424808 -0.8847001
000050 2c 9f fe bf 21 d7 0a c0 83 73 26 c0 dc 0d 18 c0
       -1.9892325 -2.1693804 -2.6008003 -2.375846
000060 bd 03 13 c0 17 15 19 c0 7a ad 09 c0 70 3e 04 c0
       -2.2971032 -2.3919122 -2.1512132 -2.066311
000070 8e 1f 0b c0 ee 9b 0e c0 be c2 14 c0 41 26 f5 bf
       -2.173801 -2.2282672 -2.3243861 -1.9152299
000080 2d 9b 08 c0 f3 6b da bf 17 57 0f c0 d8 d7 13 c0
       -2.1344712 -1.7064193 -2.2396905 -2.310049
000090 f4 96 fe bf e9 26 0c c0 9e 12 17 c0 7a c2 c2 bf
       -1.9889817 -2.189875 -2.3605113 -1.52156
0000a0 eb 53 0a c0 4a 35 15 c0 c6 ed 0e c0 74 32 0b c0
       -2.161372 -2.3313775 -2.2332625 -2.1749544
0000b0 73 40 17 c0 02 3e 17 c0 6c 01 0e c0 ab 61 06 c0
       -2.3633087 -2.3631597 -2.2188368 -2.0997112
0000c0 63 9c 06 c0 5d 65 03 c0 56 b6 0a c0 6b 83 0c c0
       -2.103295 -2.0530617 -2.167379 -2.195521
0000d0 23 d1 07 c0 65 76 e4 bf 14 01 17 c0 57 4a 16 c0
       -2.1221397 -1.7848631 -2.3594408 -2.3482873
0000e0 d2 31 05 c0 bf 55 08 c0 fe ba 11 c0 cb 60 bd bf
       -2.0811658 -2.1302335 -2.277038 -1.4795164
0000f0 ed 4a 06 c0 10 2a 18 c0 f5 ba 10 c0 15 ff 0b c0
       -2.098323 -2.3775673 -2.261411 -2.187444
000100 0d b3 10 c0 98 d5 06 c0 79 fe 09 c0 db 52 07 c0
       -2.2609284 -2.1067867 -2.1561568 -2.114432
000110 f7 e0 04 c0 c7 33 1d c0 1d 0c 15 c0 67 79 03 c0
       -2.0762308 -2.4562852 -2.3288643 -2.0542848
000120 27 10 01 c0 30 13 ff bf 41 bb 15 c0 af 75 05 c0
       -2.0166109 -1.992773 -2.339554 -2.0853078
000130 6b 0b fc bf 3c ac 09 c0 22 01 14 c0 8e f2 f8 bf
       -1.9690984 -2.1511374 -2.3125691 -1.9449022
000140 b4 49 11 c0 af 50 16 c0 de 13 fa bf 28 ce 00 c0
       -2.2701235 -2.3486745 -1.9537313 -2.0125828
000150 b0 c2 11 c0 1d 6b 0d c0 43 51 0e c0 36 58 0a c0
       -2.2775078 -2.2096627 -2.2237098 -2.161634
000160 54 a6 00 c0 19 71 0c c0 13 b0 14 c0 a0 be 01 c0
       -2.0101519 -2.194403 -2.3232467 -2.0272598
000170 48 ac 02 c0 a5 97 02 c0 26 ad 18 c0 60 5d 0f c0
       -2.0417652 -2.0405056 -2.3855681 -2.2400742
000180 a9 3b 05 c0 93 f0 07 c0 53 2c 15 c0 79 b9 cf bf
       -2.0817664 -2.1240585 -2.3308303 -1.6228477
000190 41 70 13 c0 eb 2a 1b c0 db 9c 06 c0 7e d3 01 c0
       -2.3037264 -2.4244945 -2.1033237 -2.0285335
0001a0 fc b9 05 c0 6e a5 86 ba 4e fb 57 bb 00 5a 9c be
       -2.0894766 -0.001027269 -0.0032956186 -0.30537415
0001b0 17 0f a5 be 73 26 66 39 fd 8c 71 3a 43 5b 28 bb
       -0.32238075 0.00021948833 0.00092144293 -0.0025689162
0001c0 cc 30 1a be 2b d5 49 3a d5 54 dd 3a cf 49 aa ba
       -0.15057677 0.0007699306 0.0016886244 -0.0012991967
0001d0 c6 74 e8 bd ac a3 16 bb ff ce 2e 3b 04 07 1b be
       -0.11350398 -0.002298574 0.0026673672 -0.15139395
0001e0 44 ec ae bc c2 70 82 3a 31 fe 53 3a f0 5f 8a bc
       -0.021352895 0.0009951817 0.00080868887 -0.01689145
0001f0 5a a2 62 bd
       -0.05533061

onnx::Conv_110 f4 [16, 3, 3, 3]
000000 ad 06 01 bc 6d 2a aa be ed 8d 73 bc d5 57 7d 3c
       -0.007875127 -0.33235493 -0.014865381 0.015462835
000010 c3 4f a7 3e 0a d9 34 3c 22 20 62 39 cc be 1d 3c
       0.3267804 0.011038074 0.0002156501 0.009628009
000020 c5 fe a2 3a cc 0f 27 bb c1 60 4d be 09 8c 35 ba
       0.0012435546 -0.0025491593 -0.2005644 -0.0006925469
000030 10 0a 3a 39 be a3 54 3e 3e 99 46 3b 9c 44 f5 b9
       0.00017742091 0.20765588 0.0030303742 -0.0004678116
000040 7e 1d 80 3a 9d ea 10 3a ee 79 08 bc a5 4d 52 be
       0.0009774414 0.0005528124 -0.008329852 -0.20537432
000050 54 6a 14 bc 96 94 67 3a 00 23 4f 3e 4c 9f 12 3b
       -0.009058554 0.0008834092 0.20228195 0.002237278
000060 fa 0d 97 bb af 86 a6 ba 4f 15 a1 bb d4 b0 5b bb
       -0.0046098204 -0.0012704934 -0.0049158703 -0.0033522146
000070 f5 3a ad bb fe ed 68 bc 74 7a da 39 4c e8 cd bc
       -0.0052865692 -0.014216898 0.00041671435 -0.025135182
000080 6a 77 b6 bb 93 b5 31 bd 99 4c 28 be 59 01 3c bd
       -0.0055684345 -0.043386053 -0.1643547 -0.045899723
000090 e8 c0 2f 3b ed 7e a9 3c 9e c8 95 3b ca ce 92 3c
       0.0026817862 0.020690406 0.0045710346 0.01792087
0000a0 56 5a 19 3d f2 90 05 3c bb 72 38 3d 3f dc af 3e
       0.037439667 0.008152233 0.04503129 0.34347722
0000b0 bb 49 3d 3d 67 c4 cc bc c1 4b 70 bc 45 41 a8 bc
       0.046212893 -0.024995996 -0.014666499 -0.020538935
0000c0 8d 6a 0c bd 37 42 15 bd 55 74 0f bd 60 c4 e4 bc
       -0.034281302 -0.0364401 -0.035023052 -0.02792567
0000d0 5e 7f 7a 3d 6b 0b 97 bc a3 9c 3e bc 57 e7 5d be
       0.061156623 -0.018438062 -0.011634025 -0.2167028
0000e0 97 d6 1f bc c2 6d af bc 3f 64 bd bd 11 75 97 3d
       -0.009755752 -0.021414641 -0.09247636 0.073953755
0000f0 57 9d 97 3a 0f 2a bc bb f9 ff bd 3d 16 b2 88 bc
       0.0011567277 -0.0057423185 0.092773385 -0.01668648
000100 d5 8a 1d be 1d 69 21 bc 1c 3f 9f ba c6 a4 37 bd
       -0.15384991 -0.009851721 -0.0012149545 -0.044834875
000110 a2 5c 40 3d d3 f7 a0 3b c4 28 87 ba 19 ec 4a 3d
       0.04696334 0.0049123554 -0.0010311832 0.049541567
000120 5c 82 96 3a be b2 02 be 5e 10 f4 ba 14 1a 5c 3b
       0.0011482942 -0.12763497 -0.00186206 0.003358488
000130 0f e8 05 bd 9b f7 37 3d c5 52 aa 3c ec b6 9a ba
       -0.03269201 0.04491387 0.02079142 -0.0011803783
000140 41 ba 67 3d 9c 44 ae bc 29 3c d4 bc 4e 9b 22 bc
       0.05657411 -0.02127295 -0.025907593 -0.009924723
000150 ac 2b 78 bd bd 7b 8f bd 90 19 29 bd 74 a1 d0 bc
       -0.060588524 -0.07006023 -0.041284144 -0.025467612
000160 29 31 46 bd 30 3b 60 bb 42 37 cb 3c 37 8b 17 3d
       -0.048386727 -0.0034214966 0.024806622 0.036998
000170 08 6a ba 3c 56 66 e0 3c d8 4a 58 3d a4 68 96 3c
       0.022755638 0.027392548 0.05280575 0.018360443
000180 6f d3 83 39 17 c4 ad ba cb e7 29 3a fd d4 ce 3c
       0.00025143797 -0.0013257292 0.0006481378 0.025248045
000190 c0 59 ae 3c 87 c6 2e 3c c9 b4 34 3d 9c 76 68 3d
       0.02128303 0.01066745 0.044117723 0.05675374
0001a0 ac 70 57 3c 35 c6 11 39 6c 34 62 bb 2b 9d 4b 3a
       0.013149422 0.00013902115 -0.003451611 0.00077672553
0001b0 e8 d8 80 3b 9b 72 5e 3d b9 15 88 3c 58 37 de 3c
       0.0039321072 0.054308515 0.01661192 0.027126
0001c0 1d 03 32 3e 74 f8 82 3d 01 c7 89 ba ae 2b 49 39
       0.17384 0.06395045 -0.0010511578 0.00019185126
0001d0 af 93 0a bb 37 8b 40 bc 49 a9 a6 b9 9b 68 b8 bc
       -0.0021145155 -0.011751941 -0.00031788115 -0.022510817
0001e0 9a 85 15 bb f9 77 bf bd ec 7d 7e b9 0c d7 b8 3b
       -0.0022815228 -0.09349055 -0.00024270237 0.00564087
0001f0 20 7a 81 ba 90 f4 a3 b6 e0 2c 71 3a 5d 51 28 bc
       -0.0009878315 -4.8862494e-06 0.00092001073 -0.010273305
000200 b4 7e 68 3a ed 5a e2 bc 7d 0f a2 be 4d 55 56 bd
       0.0008868978 -0.027631247 -0.31652442 -0.052327443
000210 43 f5 b1 3b 82 0a 9a b9 40 0e d1 3a 8a c9 e4 ba
       0.005430849 -0.00029380998 0.0015949681 -0.0017455083
000220 1a d9 71 3b 92 1c 0a bb dd d0 94 ba 9c c3 a8 3e
       0.0036903084 -0.0021074158 -0.001135375 0.32961738
000230 b3 00 a9 be 1f ac e3 ba bc 46 de 3a 0f 7e 9e bb
       -0.33008346 -0.0017370022 0.0016958336 -0.0048368047
000240 a4 db a8 3a 52 d6 81 3b 49 3d df ba ad 77 af 3a
       0.0012882841 0.0039623166 -0.0017031814 0.0013387107
000250 c9 2b 51 3e 06 49 56 be f2 e1 be 3a 2a fc 9f 38
       0.20426859 -0.20926294 0.0014563187 7.62868e-05
000260 f1 f9 a2 ba e7 d1 94 ba 9e 8c cd 3a 02 e7 f6 ba
       -0.0012434107 -0.001135406 0.0015682166 -0.0018837156
000270 10 c8 9a ba 2e a4 66 3e 35 88 62 be f9 89 86 b8
       -0.0011808891 0.22523567 -0.22122271 -6.415317e-05
000280 59 37 09 3b d7 6e 3b ba 6f 4e b9 3d 19 15 b1 be
       0.002093753 -0.00071500003 0.09048163 -0.3458641
000290 6c 95 8a 3d 21 a0 12 3e f9 8e bd bd 67 d8 03 bc
       0.06766781 0.14318897 -0.092557855 -0.0080472
0002a0 1d 02 55 3d 81 eb 24 b9 11 7c 6c bc cf ec b3 3d
       0.05200397 -0.00015727991 -0.014433877 0.08785402
0002b0 d9 11 3d be ee ff 26 3d 89 b7 9b 3d 6c 44 23 bd
       -0.1846384 0.040771417 0.07603366 -0.039860174
0002c0 f3 ff 3d bb fd f1 17 3c be 6d 8f ba 80 98 a8 bb
       -0.002899167 0.009274003 -0.001094274 -0.0051451325
0002d0 1c 8c 25 3d 82 40 11 be 2d cb 3b 3d f6 d3 17 3d
       0.04041682 -0.14184764 0.04584806 0.037067376
0002e0 75 c1 3e bd 5f 1c 8a 39 a8 63 0f ba fd d2 0f bc
       -0.046571214 0.0002634255 -0.0005469867 -0.008778331
0002f0 0f c6 a1 bb c5 0c 80 3b 0a c7 e0 3b dc b3 76 36
       -0.0049369405 0.0039077722 0.006859665 3.6761548e-06
000300 05 18 c8 3c ea 66 55 3e bd 14 8b be 9a 03 8c bc
       0.024425516 0.2084004 -0.2716426 -0.017091561
000310 56 1a a0 be c3 71 67 3e 71 d5 c8 b9 83 77 0b 3b
       -0.31270093 0.2260199 -0.00038306 0.0021280951
000320 2b 5f 3e ba bf 07 60 3c 3c 5b 27 3e 06 89 04 be
       -0.0007262106 0.013673722 0.16343397 -0.12942895
000330 03 92 bf 39 29 e0 ef bd df 4d 14 3e f2 81 57 bc
       0.00036539146 -0.11712677 0.1448283 -0.01315354
000340 27 fa 43 bc ff 4f c5 b9 b8 bb 24 3b 6d ad f0 3d
       -0.011961496 -0.0003763437 0.0025136303 0.11751828
000350 dd d8 15 be 30 21 0d bc 8d 6b 15 be 16 24 09 3e
       -0.14633508 -0.00861387 -0.14591809 0.13392672
000360 3e b3 c9 3d 85 53 b0 3d 95 2a 2a 3d 6d e0 96 be
       0.09848641 0.0860968 0.041544516 -0.29468098
000370 d8 53 92 bc 92 b9 98 bc ac 5e a3 bc 39 03 73 bb
       -0.017862245 -0.018643174 -0.019942604 -0.0037080778
000380 f2 7c 94 bb 2f 52 27 3d 9a 63 d3 3b ea b0 95 ba
       -0.004531496 0.04084986 0.0064510824 -0.0011420522
000390 a7 4f c9 bd 95 1d 5e bb df 73 f5 bb fe b9 d8 3b
       -0.098296456 -0.0033892144 -0.0074906196 0.006613969
0003a0 f8 82 15 ba 3a e6 e2 bb 69 3f 25 3d 53 45 cf 3b
       -0.0005703415 -0.006924418 0.040343676 0.0063254028
0003b0 85 18 16 3b 2c ba 53 bc 5b 63 98 bb 3b 52 4e ba
       0.0022902798 -0.012922805 -0.004650516 -0.00078705297
0003c0 64 4b 8a 3c e1 75 ec 36 cb e1 31 b8 84 e6 35 bd
       0.016881652 7.047071e-06 -4.2410375e-05 -0.04440929
0003d0 83 f7 46 3d 5f b0 00 3d 4e c7 1d bf 33 08 12 3f
       0.04857589 0.0314182 -0.6163224 0.5704376
0003e0 58 57 01 3e 13 de 1c be f9 10 9d 3d 33 4a 10 3d
       0.12630975 -0.1531909 0.07669253 0.035227012
0003f0 02 33 cd 3b f4 12 6a bc bf c1 70 bc 91 42 2e 3d
       0.006262184 -0.014286745 -0.01469463 0.04254395

onnx::Conv_111 f4 [16]
000000 d2 0a 02 bd 2a c7 53 3e ce 93 b7 be a9 6f 8b 3e
       -0.0317486 0.20681444 -0.35854954 0.27233627
000010 5e bc 35 be 7d 6d 36 bd 44 f7 2d be e6 fa a4 bd
       -0.17747638 -0.04453801 -0.16988856 -0.080556676
000020 b1 18 0b 3e 99 84 90 bd e8 ff 2f 3e a9 7b fe 3e
       0.13583638 -0.07056541 0.17187464 0.4970372
000030 ee 80 f7 bd 25 76 3c bd 03 19 1e bd bc 11 33 bd
       -0.12085138 -0.04601111 -0.03859807 -0.043718085

onnx::Conv_113 f4 [16, 16, 3, 3]
000000 83 51 f8 3b 70 26 e9 3b 82 c8 80 3b 69 6c a8 3d
       0.0075780763 0.007115178 0.0039301524 0.082238026
000010 72 a1 20 bb 7f 5b bf 3c e7 e7 6a 3d 0c f3 55 3d
       -0.0024510291 0.023359058 0.057350066 0.05223374
000020 76 a5 30 3e 70 45 b9 3d c5 46 a1 3d a1 36 74 bb
       0.17250618 0.09046447 0.07874826 -0.0037264007
000030 84 7f 10 3e 2d 23 13 bb 7b 7a 7e bb 9d 5e c6 3d
       0.14111143 -0.0022451386 -0.0038830328 0.09686015
000040 a6 b5 e0 3d 64 63 57 3c e4 81 25 3d a1 aa 02 3e
       0.10972147 0.013146255 0.040407076 0.12760402
000050 27 f2 2e 3e 54 fd 09 bb 5f cd 52 3c 20 36 c8 3d
       0.17084561 -0.0021055536 0.012866347 0.097759485
000060 84 30 ac ba 21 d8 3d 3a 3a a1 51 3a 7e bf b5 bd
       -0.0013137017 0.00072419835 0.0007996742 -0.08874415
000070 ff 93 f2 bb 1f 28 a4 bb c8 67 bb bb a3 17 65 bb
       -0.0074028964 -0.0050096656 -0.005719159 -0.0034956716
000080 88 36 d9 ba 1d 2e 1e 3a 35 d6 fd b9 c7 23 b1 3a
       -0.0016572038 0.0006034093 -0.00048415517 0.0013514691
000090 22 bb 9d ba 82 ca 22 b9 4a 68 c0 3c 32 b2 46 3d
       -0.0012033919 -0.00015524964 0.023487229 0.048509784
0000a0 d8 fa 6c 3e 8b 0e 6c 3d 28 83 4b bc ce b2 d7 bb
       0.23142564 0.057631057 -0.012421407 -0.0065825945
0000b0 fa 7f e4 bb 25 8e 08 bb a8 a7 cb 3b d5 bc 97 3c
       -0.006973264 -0.0020836678 0.0062150545 0.01852266
0000c0 fd 2c b1 3b 43 c7 70 3b 0a cd b2 3b 8f 0c 80 3d
       0.0054069743 0.0036739863 0.0054565715 0.06252395
0000d0 4f 2d 99 3c 8f 38 9e 3d 33 2d 86 3c d7 0b 2b 3a
       0.018698363 0.077256314 0.016378975 0.00065248966
0000e0 7a b5 6a 3b 00 f9 6d 3a 83 b3 80 b9 cc 9d d2 3a
       0.0035813735 0.00090779364 -0.0002454781 0.0016068756
0000f0 b3 29 be bd 92 0f 6b 3a f1 09 1f ba 6a a7 41 be
       -0.09285297 0.0008966859 -0.000606685 -0.1891152
000100 d3 ca e7 3a ad 6f 45 3b e9 9b fc bb fa bc a4 3b
       0.0017684348 0.0030126378 -0.0077090156 0.0050274106
000110 2e d0 98 3c 67 8f e0 3b 75 a9 f0 3c 65 b6 c3 3c
       0.018653955 0.0068530324 0.029377678 0.023890683
000120 ff fe 7f 3b a3 e1 e4 39 6f c6 55 3d a8 eb 3c bd
       0.0039061902 0.0004365566 0.052191194 -0.046123177
000130 23 e0 02 be 0c 71 11 bd 47 94 f2 bd 76 dd 42 be
       -0.12780814 -0.0355082 -0.11844688 -0.19029793
000140 5c 35 87 bc 81 80 29 bc f9 3d 12 bd 9c 32 e6 39
       -0.016504936 -0.010345579 -0.035703633 0.00043906725
000150 42 dc 9c b9 aa 3b d0 3a 2b 42 49 3a 74 e1 13 3c
       -0.00029918744 0.0015886922 0.00076774013 0.00902592
000160 9e 15 17 3b 15 07 64 3b 08 1c 03 bc 17 d9 82 bc
       0.0023053656 0.003479426 -0.008002289 -0.015972657
000170 c0 90 d6 bc af fd 7d 3e 10 8a cb 3b cb 82 dd 3b
       -0.026192069 0.24803804 0.0062115267 0.0067599765
000180 34 10 90 3e b1 6a e0 3d 46 e1 c4 3d 9e db 0d 3c
       0.28137362 0.1095785 0.0961328 0.008658318
000190 39 94 c3 ba 34 3d 4b be bc 02 fa 3b ba a9 0e bc
       -0.0014921493 -0.19847566 0.0076297205 -0.008707458
0001a0 82 e7 aa bd 17 b5 f5 3d bc f9 9f 3b a9 01 02 3c
       -0.08344938 0.11997431 0.0048820656 0.007934966
0001b0 3c 30 ce ba 1d 66 cf 3a 6b bd 5f 3d 28 d6 3b 3c
       -0.0015730928 0.0015823279 0.054624002 0.011464633
0001c0 8e 94 78 3d 36 20 30 3d 34 8b 05 3b 5a 70 5f 3d
       0.060688548 0.04299947 0.002037716 0.054550506
0001d0 be 9b 8c 3d 15 a2 75 3b 5f d1 e0 39 cb 40 ec bb
       0.06865643 0.0037480642 0.00042880603 -0.0072098724
0001e0 bf 12 2d 3b 07 7a c3 3b ae cc 83 3b 99 a6 21 3c
       0.0026408879 0.0059654745 0.0040222025 0.00986638
0001f0 b3 ba 09 3c 8a 41 92 3c 32 c2 fe 3b 72 b0 13 3b
       0.008406329 0.017853517 0.0077746147 0.002253559
000200 a1 2c a8 3b 84 af 20 3c f0 7c ec 3a 4d 62 c7 3b
       0.0051322733 0.009807471 0.0018042605 0.0060847164
000210 c8 8e 42 3e ce 6e eb b8 4b df e8 3c fe 69 96 be
       0.18999779 -0.00011226312 0.028426787 -0.2937774
000220 28 66 01 be 24 ae 95 bd f6 db 58 be 75 1a 81 bd
       -0.12636626 -0.07308605 -0.21177658 -0.063038744
000230 21 58 2c bc 24 42 1a ba 13 6b 6d 3c d7 f2 00 3e
       -0.010519058 -0.00058844895 0.0144908605 0.12592636
000240 b5 ae 05 3c 9e 65 33 3d 5f d1 8b 3b 18 21 ae bd
       0.008159329 0.04379808 0.0042669023 -0.08502406
000250 5c 1c 90 bd 95 9a f6 bd 3e b4 1b 3c 1f fb df 39
       -0.07036659 -0.12041203 0.009503422 0.00042720974
000260 d1 81 06 3d ec fc 2b 3d 08 de f6 3b 16 16 13 3e
       0.032838646 0.041989252 0.0075337924 0.14363894
000270 ab 10 1d 3c e1 0d 6b bb b8 04 6b bb 8e 19 b8 bb
       0.0095864935 -0.0035866427 -0.0035860967 -0.0056182807
000280 21 90 df bb ea 4e 16 bc 84 30 5e be d9 7b 0d 3b
       -0.0068226014 -0.009174088 -0.21698195 0.0021588712
000290 3b 46 b7 3b 89 66 9c be cc 02 97 bc a7 b5 e5 3c
       0.005593089 -0.30546978 -0.01843395 0.02804072
0002a0 46 4a a7 bd e9 5e e0 bc 91 95 0a 3c 89 b6 85 bd
       -0.081684634 -0.027389007 0.008458511 -0.065289564
0002b0 7e df aa bb 61 4e 52 bb fc 83 a0 bd c6 d2 ab bb
       -0.0052146306 -0.0032090174 -0.07837674 -0.005243632
0002c0 b8 8f 86 bb 41 f8 9c bd 4e ef 48 bc 6c 3e 68 bb
       -0.004106488 -0.07664538 -0.012264086 -0.0035437597
0002d0 fe 52 d5 3b 54 82 93 3a 4c fe 80 3b 3c dc 25 3c
       0.0065101376 0.0011254051 0.0039365645 0.010123309
0002e0 d0 cf 74 3c 0d 55 7f 3b 7d fe 6d 3b 54 25 5a bb
       0.0149421245 0.0038960606 0.0036315017 -0.003328641
0002f0 5c ab 13 3b f8 c8 18 bc d6 3c b6 be 36 d9 08 3b
       0.0022532558 -0.009325258 -0.3559329 0.002088142
000300 1b d9 b5 3a f8 12 9d be 50 e5 1f 3d 7b 45 20 ba
       0.0013873907 -0.30678535 0.03903705 -0.0006113869
000310 33 cc 9b bc 08 72 8a 3b 76 96 38 3c 1b 63 93 3b
       -0.019018268 0.0042250194 0.011266341 0.0044978983
000320 a1 a3 28 be 1f 09 80 bb 8e 10 77 bd d3 a0 c1 be
       -0.1646867 -0.0039073373 -0.060318522 -0.37818012
000330 82 cf 45 3b 4e f4 a3 bd fe 7b 0f be 53 5b 39 be
       0.0030183499 -0.08005582 -0.14012143 -0.18101244
000340 0d 0c 03 be b4 90 c4 bc 23 ad 06 39 a6 42 a8 ba
       -0.12797566 -0.023994781 0.00012843734 -0.0012837246
000350 e7 b8 a6 3a 10 a0 8d 3d 9b 03 50 3d 3e 02 a1 3b
       0.00127199 0.06915295 0.05078469 0.0049135974
000360 a0 c3 db bb cd fd 61 bc 67 85 9e bb db 1e 51 39
       -0.00670667 -0.013793421 -0.00483768 0.00019943288
000370 4a d2 c7 bb 9a ce f3 bd ba 88 8f 3d 71 ab 94 3a
       -0.0060980665 -0.119046405 0.070085004 0.0011342597
000380 b1 59 de ba d7 3f f6 3b 4b 26 d9 bd 94 91 1f be
       -0.0016963986 0.0075149345 -0.10603007 -0.15582877
000390 03 45 c9 3c 8f bc 7a bc e3 6e 7e bd 8d 47 28 3d
       0.02456904 -0.015303745 -0.06211747 0.04108386
0003a0 20 b7 82 3c 5f 33 c1 ba b2 1b f9 ba 39 4a a9 3d
       0.015956461 -0.0014740041 -0.0019005446 0.0826611
0003b0 43 57 02 bb ff 75 bd 3c 80 55 8c 3d 67 6b b3 3b
       -0.0019888438 0.023127554 0.06852245 0.00547545
0003c0 9a e9 0c 3c c0 bb 9c 3b 70 3d 54 3b 8d 04 94 bc
       0.008600617 0.0047831237 0.0032385252 -0.018068576
0003d0 e2 c6 b8 b8 ae 81 fc 3a b6 58 01 bc 9c 3d ed ba
       -8.8108485e-05 0.0019264722 -0.0078946855 -0.0018100026
0003e0 fc a2 7a bb 21 06 f0 b9 ff e6 da b9 f1 1d 8c bb
       -0.003824412 -0.00045780934 -0.00041752306 -0.00427603
0003f0 e5 2f d8 bb d7 d9 81 3d 49 b6 9b 3d b5 60 83 bb
       -0.0065975063 0.06340378 0.076031275 -0.004009331

onnx::Conv_114 f4 [16]
000000 63 98 d9 3e 7e 51 58 3f 5e 78 42 3f 2a be 44 3f
       0.42499074 0.8449935 0.75964916 0.7685267
000010 35 71 44 3f a5 d6 ab 3e f0 70 32 bf 43 05 87 3f
       0.7673524 0.33562198 -0.6970358 1.0548481
000020 32 66 a1 3e 5d 9c 70 3f c4 5d be 3e 3b e3 66 3e
       0.3152328 0.9398859 0.37180912 0.22547619
000030 0e c8 e6 bd 38 09 62 3e 7b 89 3b be 00 8e 57 3c
       -0.11268626 0.22073829 -0.18314163 0.013156414

onnx::Conv_116 f4 [16, 16, 3, 3]
000000 14 37 82 3b ea 66 8d bb 6a 80 06 bd 17 61 f6 3b
       0.003973851 -0.004315247 -0.03283731 0.007518898
000010 95 b5 1c bb a4 bd 45 bb 45 3d 5d bb 6f 35 59 bd
       -0.0023911942 -0.003017285 -0.0033758443 -0.053029474
000020 b0 4a d8 bd 4e ca 5e 3b d5 09 84 3b f1 15 4c 3c
       -0.105611205 0.0033995095 0.0040294924 0.012456403
000030 c8 1d 5d 3c 80 86 9a 3d 0b c0 e7 ba cf 52 d5 3b
       0.01349587 0.07545185 -0.0017681135 0.0065101157
000040 6a b6 82 3d 7f 03 6d bb 4f ad 84 bc f6 5a 98 3b
       0.06382449 -0.0036165414 -0.016195921 0.0046495153
000050 e2 19 1c bd 09 ba 2f 3d 91 07 0b 3b 7b 6e bc 3c
       -0.03811062 0.042902026 0.0021214227 0.0230019
000060 85 90 12 bc 38 3b a8 ba dd d7 b8 3b 5b 9a c0 bb
       -0.008945589 -0.0012835031 0.0056409673 -0.0058777756
000070 08 c2 c2 bb c7 c9 06 bd a7 66 7c 3a 7b 50 53 3a
       -0.0059435405 -0.032907274 0.00096283335 0.0008061004
000080 91 ca 78 3d 53 30 7b 3d 0e 91 84 3a a2 4b a6 bb
       0.060740057 0.061325382 0.001011403 -0.005074934
000090 20 a4 9d b8 a0 a2 20 bd f3 56 c8 3c 1c ef df 3a
       -7.516914e-05 -0.03921759 0.024455523 0.001708481
0000a0 d1 0d 95 b9 0c 70 46 3c 0e a2 c5 38 3e 95 23 bd
       -0.0002842979 0.012111675 9.423877e-05 -0.03993725
0000b0 05 0a 1c bc bc dc 0c bd ee d2 7b 3d ae 9d fa 3b
       -0.009523873 -0.034390196 0.061480455 0.0076481914
0000c0 24 68 4d 3d c9 b0 c9 3d 99 ce 9b 3d a3 56 b2 bc
       0.050148144 0.09848172 0.07607765 -0.021769827
0000d0 a7 bf 41 bb ff a1 94 bc dc 63 59 bb c0 d9 90 3a
       -0.0029563697 -0.018143652 -0.0033171093 0.0011051223
0000e0 2b bc 92 bd 72 d1 51 bb b5 0f e9 3c 13 1a 6b bb
       -0.071647964 -0.0032015708 0.028449873 -0.0035873696
0000f0 d3 82 1b 3d 25 70 b7 3c 3d 9f 12 bc f3 95 63 bc
       0.03796656 0.022392342 -0.008949098 -0.013890731
000100 ad da 98 b9 28 af 73 3d 18 49 0b 3b 72 6a 03 3e
       -0.00029154625 0.059493214 0.0021253284 0.12833574
000110 87 79 b0 3c 16 26 36 be 6a 32 f8 bb b3 17 62 b9
       0.021542324 -0.17787966 -0.007574369 -0.00021561868
000120 b1 17 bb 3d e0 1c 0d 3d 72 be d1 3d 08 8f 27 be
       0.09135378 0.034451365 0.10241403 -0.16363156
000130 82 71 1d be 64 bf 7a 3b a7 05 00 bb 6c 8b 74 3b
       -0.15375331 0.003826105 -0.001953462 0.0037314547
000140 62 79 bc 3c 06 b4 0c 3b 50 8c 5f 3a 66 96 17 bc
       0.023007099 0.0021469607 0.0008527683 -0.009252166
000150 81 bc d8 bc c6 ab 46 bb 2f 4a 79 bd 7a 69 25 3a
       -0.026457073 -0.0030314787 -0.060861763 0.0006309968
000160 7b 49 d3 3d e8 9d 32 3d 03 8d e4 ba 2c cd bd bb
       0.1031675 0.043607622 -0.0017437044 -0.0057922807
000170 25 9e f3 bc c0 f2 df bc 4c 87 01 bb 89 be 45 bd
       -0.029738495 -0.027337432 -0.001976448 -0.04827741
000180 8f a9 19 bb c6 45 ba 3a 2e 26 1c 3c b9 d1 b4 3b
       -0.0023447012 0.0014211468 0.009530587 0.005518165
000190 17 a1 e2 3c 2b db 1e 39 3a ae 19 bb 93 15 6e 3b
       0.027664704 0.000151497 -0.0023449794 0.0036328777
0001a0 a6 3a e8 bb 0c bc 6c bb 4b 6b 21 3e bc eb 14 bb
       -0.0070870696 -0.0036122827 0.15763585 -0.0022723516
0001b0 22 30 48 bd 25 b1 99 3d 5d 13 87 3d 66 4d 41 bb
       -0.048874028 0.07504491 0.0659549 -0.0029495596
0001c0 93 2c e8 3c 56 3b c7 3b 63 5d 1e bc 02 d4 6d 3d
       0.028341567 0.0060800714 -0.00966582 0.058063515
0001d0 f3 67 85 3c 99 39 04 be ec 6f 8a 3a ec a0 2c be
       0.016284918 -0.12912597 0.001056192 -0.16858262
0001e0 9f 80 12 b8 8e e4 93 3e cb ce 85 3c ce 49 31 bd
       -3.49289e-05 0.2888531 0.016333958 -0.043283276
0001f0 3d 58 b1 3d e9 fb dd bd 9e ac 62 3b e8 0b 76 3c
       0.08659408 -0.10839064 0.003458775 0.015017487
000200 80 c7 cb 3b 56 8e ce bc e0 d6 90 3b 3e e8 2b bd
       0.0062188506 -0.025214355 0.0044201463 -0.04196953
000210 1c 90 91 3c 38 ef c3 3c e7 5e 18 bc 39 b7 75 3c
       0.017768912 0.02391778 -0.00929997 0.014997297
000220 dd a9 0d bd 38 e5 c3 3b c8 46 cc b9 d5 60 21 bb
       -0.034585822 0.0059782527 -0.00038962648 -0.0024624367
000230 4e 9f 42 3b 1d 33 86 3c f1 6b 9d bc d8 4a 31 3c
       0.0029697004 0.016381795 -0.01921651 0.010821067
000240 b9 75 63 ba 1b bf 33 bb a1 f5 0a bb 93 e0 cd 3b
       -0.0008676905 -0.002742714 -0.0021203535 0.006282875
000250 49 cc 14 ba 47 ca 43 3a 2b 7c 41 3c 3c 96 41 3b
       -0.0005676193 0.00074688013 0.011809389 0.002953901
000260 a3 49 32 3c 90 90 8a 3a 93 03 80 3d 6e 61 bf 3b
       0.010881814 0.0010571647 0.06250682 0.005840472
000270 fc d4 f9 b9 91 e2 33 ba a9 44 2a 3c a0 72 b2 bb
       -0.00047651667 -0.0006862069 0.010392346 -0.0054457933
000280 62 77 2f bd e0 b8 fc 3a fa 11 3b 39 89 bd 52 bc
       -0.04283846 0.0019281171 0.00017840407 -0.0128625715
000290 3b a3 5e 3c eb 0b c9 3b d4 f1 45 3b 59 c8 42 3c
       0.013588722 0.006135454 0.0030203955 0.011888587
0002a0 7e 4e ba 3c 7c af 21 3c 0d 8c d3 3b c8 59 f9 ba
       0.022742506 0.009868499 0.0064559043 -0.0019023949
0002b0 58 04 68 bc 6b ed 27 bd 8f cc 92 3c a9 2a 95 39
       -0.014161192 -0.040997904 0.017919807 0.0002845128
0002c0 39 d2 63 be dc 7b 6b bc e6 6a 7d bb cc 9e 78 bd
       -0.22248162 -0.014372792 -0.0038668453 -0.060698316
0002d0 d9 dd d3 bd 6a 41 dd 3a 88 b8 ce 3d cc 38 8b be
       -0.103450485 0.0016880457 0.1009379 -0.2719177
0002e0 62 de 79 3a 04 7e a8 3e e9 7e 2c be c6 0a 4f 3a
       0.0009531734 0.32908642 -0.16845287 0.00078980287
0002f0 b1 08 61 3e 3b 6d 82 3b 45 25 ef bb f0 c4 97 ba
       0.21975972 0.0039803064 -0.007298144 -0.0011579078
000300 d1 e9 b5 bb f3 61 e4 3c a8 65 bf 3a 55 a2 4f bc
       -0.0055515547 0.027878737 0.001460244 -0.01267298
000310 bc 39 2f 3d fd 56 cb bb f3 4d 4b 3d 34 73 23 bb
       0.04277967 -0.006205438 0.049634885 -0.0024940493
000320 ba a0 c3 bb c0 cc 91 3d 5b 94 a0 bb ee b5 79 bc
       -0.005970088 0.07119131 -0.004900498 -0.015241129
000330 f3 bd 1a ba 5d c8 ff bb af 96 f3 bc fc 41 0f 3d
       -0.00059029384 -0.0078058676 -0.029734937 0.034975037
000340 6f d6 ec 3a de 27 d3 3c af ab 66 3e c3 5e f0 b9
       0.0018069277 0.025775846 0.2252643 -0.0004584697
000350 72 fb f2 3d 2c c1 23 3e ea b2 28 3b c4 98 1f 3d
       0.11864366 0.15991658 0.0025741407 0.038964048
000360 2f de 8a 3b 37 8d 83 bc bf 15 fa bc 8f 5c 33 3c
       0.004237912 -0.016058547 -0.030527947 0.010947361
000370 d9 4f 65 bd 56 cc fa bd 3a 66 35 bc de 18 ad bc
       -0.05598435 -0.12246005 -0.011071736 -0.021130022
000380 c2 10 6a bd 5f d5 63 bc e0 d6 de bc d0 3b 83 bc
       -0.057144888 -0.013905852 -0.02720207 -0.016019732
000390 df 46 71 bd f0 ec 49 3b 2f 4e 78 ba 0b d1 73 bc
       -0.05890548 0.0030811392 -0.00094720995 -0.014881383
0003a0 43 79 e9 3b f5 9d 95 bd 20 ee 2f 3b b2 9b 2a 3b
       0.007125051 -0.073055185 0.0026844814 0.0026032743
0003b0 4e 8e a7 3d 12 63 bb 3d df 53 4e 3c 24 ba 1f 3e
       0.08181439 0.091497555 0.012593239 0.15598351
0003c0 cd ce 4a 3b c3 54 47 3b 7d 9a 9b 3d 36 0d 08 3d
       0.0030946017 0.0030415512 0.07597826 0.033215724
0003d0 8c 5a 75 3a f7 36 27 3d 39 73 45 3e 3b 30 41 bb
       0.0009359501 0.040823903 0.19282235 -0.002947821
0003e0 e1 0a 35 bb 1c 9d 80 3d 9c 71 33 3d 04 f2 4e 3d
       -0.0027624893 0.06279966 0.04380952 0.050523773
0003f0 af 7e 56 bb e5 54 a9 3c 09 c4 07 ba 3b 21 ea bb
       -0.0032729318 0.020670364 -0.0005179053 -0.0071450747

onnx::Conv_117 f4 [16]
000000 89 3f ca bd c8 10 fc be 7c 8e b2 3e bf 7a 0b bd
       -0.098753996 -0.49231553 0.34874332 -0.034052607
000010 15 3f 81 3d 42 ce 8e 3e b0 19 4e 3c 48 80 bf 3e
       0.0631086 0.27891737 0.012579367 0.37402558
000020 ac 9d 4b 3e 32 ed 12 3e c3 8f bb bd 14 f3 b7 be
       0.19884366 0.14348295 -0.0915828 -0.3592764
000030 20 86 10 3c bc 97 af be 28 08 e1 bd c8 93 83 bc
       0.00882104 -0.34295452 -0.10987884 -0.016061679
