code/nnv/examples/Submission/ARCH_COMP2020/benchmarks/VCAS/onnx_networks/VertCAS_noResp_pra04_v9_20HU_200.onnx (onnx, 10061 bytes, 13 tensors)

input_Mean f4 [1, 1, 1, 3]
000000 00 00 00 00 00 00 00 00 00 00 00 00
       0.0 0.0 0.0

Operation_1_W f4 [20, 1, 1, 3]
000000 1c 99 63 bf 21 1e 29 3e bf 9c 09 be f5 84 1f 40
       -0.889055 0.165154 -0.134387 2.49249
000010 d9 79 8b 3e 1a 1a cf bd b5 2a 02 3a 7b 85 a2 ba
       0.272414 -0.101124 0.000496547 -0.00123994
000020 fb a1 a3 bc d9 08 d0 3f 7c b5 ab be ae 40 89 3d
       -0.0199747 1.62527 -0.335369 0.0670179
000030 0e 32 29 3f bf 2a 87 be 1c 5c 3a be a9 4a 27 3f
       0.66092 -0.263998 -0.181992 0.653483
000040 f3 38 8c be a5 9f 30 be 5f 98 bc 3f d2 ac cc bd
       -0.273872 -0.172484 1.4734 -0.099939
000050 b3 53 ad bd f4 4d 42 3f 59 6c f3 bd 74 0a 32 be
       -0.0846323 0.759002 -0.118859 -0.173868
000060 9e 41 8b bf 6c cf 2c 3d f8 19 17 be 85 08 b0 bf
       -1.08794 0.04219 -0.14756 -1.37526
000070 f5 0e 27 be a4 8c 18 be 2e 38 13 3f 36 ee 24 3b
       -0.163143 -0.148974 0.575076 0.00251664
000080 89 b2 47 be 43 57 e2 bd df fc 66 3e 87 6a 82 be
       -0.195017 -0.110518 0.225574 -0.254719
000090 91 2c 8c 3f ce 38 5d be 44 be 1b be 43 3c 22 3f
       1.09511 -0.216037 -0.152093 0.633732
0000a0 10 f3 7b bd 56 11 ce bd ee 77 d4 3f 27 17 e3 3d
       -0.0615111 -0.100619 1.65991 0.110884
0000b0 97 74 f4 bd 1d ad 4e bf 81 0a c7 be 52 65 58 be
       -0.119363 -0.807329 -0.388752 -0.211324
0000c0 92 3c 6f 3f e7 06 89 bd 95 2c 67 bd ad 86 a8 3f
       0.934518 -0.0669077 -0.056439 1.31661
0000d0 33 f9 66 3c 52 80 e8 bd 08 c9 a6 3f 5f 0d 30 3e
       0.0140975 -0.113526 1.30301 0.171926
0000e0 1f 03 a8 bc d7 dd 94 bf d4 0a 23 be b1 15 54 be
       -0.0205093 -1.16302 -0.159221 -0.207114

Operation_1_B f4 [20]
000000 d4 7d e0 3d a2 b2 41 3d 12 c5 3f bc 77 8a c0 3d
       0.109615 0.0472895 -0.0117047 0.0940141
000010 75 cd 64 3d ce af 91 3d 01 bd 70 bc 74 a1 cd 3c
       0.05586 0.0711361 -0.0146935 0.0251014
000020 4b b1 a3 3d 8e 81 2b 3d 31 10 7f 3d 96 7a d6 3d
       0.079928 0.0418716 0.0622713 0.104726
000030 ea 64 44 3d c4 bb d2 3c c9 16 ae 3c dd 37 b8 bd
       0.0479478 0.0257243 0.0212511 -0.0899503
000040 2c 95 1c 3d ee 63 20 bd 24 d2 06 3e 4f f5 9a bc
       0.0382282 -0.0391578 0.131661 -0.0189158

Operation_2_W f4 [20, 20, 1, 1]
000000 32 aa 31 bc 68 ae a3 3e aa 34 18 bd 51 84 54 3e
       -0.0108438 0.31969 -0.0371596 0.207536
000010 60 5b df 3d 83 f3 9e 3d b3 ea 13 3e 50 fc c8 3d
       0.109061 0.0776129 0.14445 0.0981375
000020 39 df 1e 3d e8 f4 1c 3e 89 1d 17 3d 2d 70 c3 3c
       0.0387871 0.153278 0.0368934 0.0238572
000030 b5 dc d9 3d 7d 72 c9 3d d3 f5 24 3e c6 a5 7a 3e
       0.106378 0.0983629 0.161094 0.244773
000040 76 5d be 3d 68 92 28 3e 10 6d 71 3d 11 1e 0d 3e
       0.0929517 0.164621 0.0589419 0.13781
000050 40 7b ff bc d7 6c 05 3e ef 70 bb 3c 20 b4 1e 3e
       -0.0311867 0.130298 0.022881 0.154984
000060 80 9f 21 3e 04 e5 16 3e 2d 99 e3 3d d4 9b d1 3d
       0.157835 0.147358 0.111132 0.102348
000070 20 cf 8e 3d 19 56 31 3e d1 cc d3 3d e4 24 1e bd
       0.069731 0.17318 0.103418 -0.0386094
000080 08 00 1e 3e f9 9e f0 3b d2 1e ca 3d db 6a 66 3e
       0.154297 0.00734317 0.0986916 0.225017
000090 e4 f7 d6 3d d1 74 46 3e 20 0b d1 3d 94 f6 06 3e
       0.104965 0.193805 0.102072 0.1318
0000a0 45 96 71 3c 3d f0 89 3e e0 3c 2b 3d 63 f0 f0 3d
       0.0147453 0.269411 0.0418061 0.117646
0000b0 d8 e1 7e 3d dd d1 1f 3e b1 dc 72 3e 5d 19 14 3e
       0.0622271 0.156074 0.23717 0.144628
0000c0 e6 63 92 bc d9 eb 3d 3d eb c8 21 3e 66 df 70 3d
       -0.0178699 0.0463675 0.157993 0.0588068
0000d0 bf 2b 22 3e 60 b1 26 3e 24 b7 86 3e 6d fd d4 3d
       0.15837 0.162786 0.263116 0.103999
0000e0 7c 9b 2e 3e d1 3f 81 3e 47 cb 01 3e 72 a2 42 3d
       0.170515 0.25244 0.126752 0.0475182
0000f0 d6 8f 6d bd 33 34 7e 3e 4d 96 e4 3c 81 3f 2c 3e
       -0.0579985 0.248246 0.0279037 0.168211
000100 cb 12 0d 3e b4 3e e5 3d c5 ab 1c 3e 3b 73 2f 3e
       0.137767 0.111936 0.152999 0.171338
000110 ff 24 be 3c 37 df e8 3d 9b e6 0d 3e ba a4 ea 3c
       0.023211 0.113707 0.138575 0.028643
000120 04 c6 3a 3e 30 b9 11 3e 44 f8 17 3e 37 fc 1e 3e
       0.182396 0.142308 0.148408 0.155259
000130 31 96 e9 3d 8b fc 92 3e c4 ea cf 3d 75 6c 69 3d
       0.114056 0.287083 0.101522 0.0569882
000140 e5 99 af be fe b4 a9 3e 80 7d 74 bc e2 39 eb 3e
       -0.342971 0.331459 -0.0149225 0.459426
000150 fc 8d 56 3e 00 ca 1f 3e 70 77 16 3e 8c c2 89 3c
       0.209526 0.156044 0.14694 0.0168164
000160 b6 2e b5 be 87 c0 c1 be 66 94 88 bd 41 b8 72 be
       -0.353872 -0.378422 -0.0666893 -0.237031
000170 ca 17 f4 3d 05 2e 34 bc 3f c8 52 3e d3 87 0e be
       0.119186 -0.0109973 0.205842 -0.13919
000180 d7 86 9a 3d 25 1f 5b 3e 25 3f 22 3e e8 16 a2 be
       0.0754525 0.213986 0.158444 -0.316581
000190 a2 16 99 bd 5b ef 97 3e 57 e9 ae 3c 78 0b 64 3e
       -0.0747502 0.296748 0.0213515 0.2227
0001a0 ac 8f 07 3e 88 cc b6 3d 27 f8 66 3e 15 03 24 3e
       0.132384 0.0892573 0.225556 0.160168
0001b0 2c ef 2a bc f9 2b 89 3d a3 23 d9 3d 04 59 2f bd
       -0.010433 0.0669784 0.106025 -0.0428095
0001c0 2a ab 59 3e 22 a8 fa 3d 63 d1 64 3e b7 f0 0c 3e
       0.212567 0.122391 0.223455 0.137637
0001d0 54 ad e5 3d fa 0b 5d 3e 2f 4e fc 3d 5c 1d e0 3d
       0.112147 0.215866 0.123196 0.109431
0001e0 1a be 2a 3c e2 ae 5e 3e 25 f8 f0 bc a5 10 48 3e
       0.0104213 0.217464 -0.0294152 0.195376
0001f0 c1 4d bb 3d 1e a5 02 3e b3 98 38 3e 7c 64 d3 3d
       0.0914569 0.127583 0.18027 0.103219
000200 ad 3a a6 3d 22 e2 26 3e 99 a0 e6 3d 26 ba d7 bb
       0.0811666 0.162972 0.112611 -0.00658347
000210 13 0b 4c 3e 42 cf e6 3d d7 25 84 3d b4 ac 7b 3e
       0.199261 0.1127 0.0645253 0.245776
000220 15 c4 60 3e 45 2f 13 3e 70 61 1d 3e 4b e6 a8 3d
       0.219498 0.143735 0.153692 0.0824705
000230 4a f0 b6 3d 31 23 3c 3e 9f f7 90 bc 08 ab d2 bb
       0.0893255 0.183728 -0.0176962 -0.00642908
000240 bb b8 ed be 38 a0 01 bf e2 92 1b bf 31 b4 4a be
       -0.4643 -0.506351 -0.60771 -0.197953
000250 bc 20 02 3e 40 dc f5 3d 7d c1 38 bd 3f c5 d1 3d
       0.127078 0.120049 -0.0451064 0.102427
000260 87 df 09 bf 82 d0 c0 bd 4d 98 7a 3c 63 08 04 bf
       -0.538567 -0.0941477 0.0152951 -0.515753
000270 a5 a3 2c be e3 4f d4 bd 05 6f 98 3d 3c bd 72 3e
       -0.168593 -0.103668 0.0744305 0.23705
000280 0e 4f cf 3e 06 81 85 be f4 f7 b7 3c 96 5a 9f be
       0.4049 -0.26075 0.0224571 -0.311238
000290 b1 4e 25 be 9a 40 61 be 78 97 7b be f9 4c 06 be
       -0.161433 -0.219973 -0.245695 -0.131153
0002a0 84 7e ce 3e 9d d7 d8 3e 33 ac ad bd b6 d8 2d 3e
       0.403309 0.42352 -0.0848011 0.169772
0002b0 94 fa 72 be dc f3 5c be 1c 99 37 be 40 2f ac 3e
       -0.237284 -0.215774 -0.179295 0.336298
0002c0 71 3d 9a be 72 14 b0 be 17 9f 62 be 1e 8c a0 3e
       -0.30125 -0.343906 -0.22131 0.313569
0002d0 bf ee d9 bc 5c 93 de 3e 69 b6 61 3c c9 e8 50 3e
       -0.0266031 0.434718 0.0137764 0.204013
0002e0 cb 59 69 bc 12 a8 bc 3b f1 d6 81 3e 7e c7 00 3e
       -0.0142426 0.00575734 0.253593 0.125761
0002f0 24 5c ed 3c 42 22 ad bc fe b7 22 3e f9 db fe 3d
       0.0289746 -0.0211345 0.158905 0.124443
000300 69 56 06 3e 3b 1c 7d 3e c0 7b c7 3e e8 c4 b9 3d
       0.131189 0.247178 0.389616 0.0907076
000310 ab 97 0f 3e 44 8b c4 3e 87 14 83 3e 09 ff 1e 3c
       0.140227 0.383875 0.256016 0.00970436
000320 a9 a4 ce bc 80 d4 a6 3e 7e b6 84 bc f4 88 91 3e
       -0.025225 0.32584 -0.0162003 0.284248
000330 90 f8 75 3d 63 5e e7 3d d4 b7 6c 3e 31 7c e4 3d
       0.0600515 0.112973 0.23117 0.111565
000340 92 9f 83 bd bf 08 7f 3d 2b e5 6b 3d c0 f0 a5 3c
       -0.0642692 0.0622642 0.0575916 0.0202564
000350 44 33 2f 3e 54 90 ff 3d d8 49 5d 3e 8e 7b be 3d
       0.171094 0.124787 0.216102 0.0930091
000360 f8 18 3c 3e 06 13 a7 3e 67 40 b2 3d 87 cf 6c 3d
       0.183689 0.326317 0.0870369 0.0578151
000370 3c 4a 05 3d 92 07 12 be 05 44 92 3c 55 1d c8 bd
       0.0325415 -0.142607 0.0178547 -0.0977122
000380 fc c4 01 be 5e 81 e8 bd ec aa bc ba 45 fe ae bb
       -0.126728 -0.113528 -0.00143942 -0.00534037
000390 78 84 2a bb a4 9f 5a bd 36 3d 6b 3a f0 85 8e 3d
       -0.00260189 -0.0533749 0.000897366 0.0695914
0003a0 7c b9 ef bd 50 55 01 bd 2e c6 80 bc 58 1d 49 be
       -0.117053 -0.0315755 -0.0157195 -0.196401
0003b0 2f 92 6c bd 1d 76 3f bd 38 17 9a 3d ca e2 de bd
       -0.0577566 -0.0467435 0.0752396 -0.108831
0003c0 86 98 2b ba 1f d6 1b 3f 42 c4 17 bd c1 f4 87 3d
       -0.000654586 0.608736 -0.0370524 0.0663848
0003d0 85 2e d7 bc 98 4d c0 bc 5e 2d 27 3e 11 8d 6e 3e
       -0.0262673 -0.0234745 0.163259 0.23296
0003e0 69 02 c5 3c 22 60 be bc 1b a0 24 3e 87 52 3b 3e
       0.024049 -0.0232392 0.160767 0.182932
0003f0 7e 3a 1c bc ba dd 8b 3e fa 7f fd 3e 9a d0 14 3e
       -0.00953543 0.273176 0.495117 0.145327

Operation_2_B f4 [20]
000000 f9 b7 b0 bc 07 d5 23 3c 7e 7f 94 bc 94 1e 1b bc
       -0.0215721 0.00999952 -0.0181272 -0.00946774
000010 4a 9d bb 3d 65 e1 8c bb 73 3f 71 3c 17 4e 6d 3d
       0.0916086 -0.00429933 0.0147246 0.0579358
000020 3e 03 cf 3c 2f b2 93 bc cd 7c 02 bd 63 5f 22 3e
       0.0252701 -0.0180293 -0.0318573 0.158567
000030 55 ed e4 bc e3 11 81 3c 18 8a 05 bc ab 3c 07 3c
       -0.0279452 0.0157556 -0.0081506 0.00825421
000040 7b 32 1f 3e 6d f4 80 3a 54 fd 4a bc 68 59 16 bc
       0.155466 0.000983847 -0.0123895 -0.00917659

Operation_3_W f4 [20, 20, 1, 1]
000000 32 c7 32 bd 6e 70 1d 3d 93 d6 0c bc 25 d2 ae bb
       -0.043647 0.0384373 -0.00859608 -0.00533511
000010 f1 34 2f bd 14 a3 5d bd db ac 13 bc 5e 22 28 bc
       -0.0427751 -0.0541106 -0.00901338 -0.0102621
000020 a1 e8 8b 3c 85 01 10 bd 54 f0 4a bc 53 e3 ca bc
       0.0170787 -0.0351577 -0.0123864 -0.0247666
000030 8c 93 8c bc 64 4e 82 3b eb f5 18 bd 64 ca c9 bb
       -0.0171602 0.00397663 -0.0373439 -0.00615816
000040 bc 14 68 bc ed 18 0d bd 37 ab 19 3d 97 8f e4 3c
       -0.0141651 -0.0344476 0.0375168 0.0279005
000050 2e 92 b6 3c ff a9 7d bd 7d 1a 81 3c 1a 0e 50 bd
       0.0222865 -0.0619297 0.0157597 -0.0507947
000060 8c 4b 21 3f 0b 6e 15 bd 52 77 0a bd 5b 94 d9 3e
       0.630059 -0.0364819 -0.0338052 0.42496
000070 2b f7 46 3f 8f c0 c4 3c 24 1a 0e 3d 00 a8 12 3e
       0.777209 0.0240176 0.0346929 0.143219
000080 ea 5b a6 3d 55 95 b7 bd 31 0e 07 bc 55 23 85 3c
       0.08123 -0.0896403 -0.00824313 0.0162522
000090 c5 e2 f7 3d 5b 94 9d 3f ec f0 a1 3b 12 76 c0 3c
       0.121038 1.23109 0.00494205 0.0234938
0000a0 f2 99 ec 3d 3b 81 ba 3d fb c9 d8 3d 39 2a f7 3d
       0.115528 0.0910668 0.105854 0.120686
0000b0 4c 54 97 be 0f 26 35 3e 5a f1 9d 3d 53 40 12 bf
       -0.295565 0.176903 0.0771205 -0.571294
0000c0 eb c5 a0 bf cb f8 c2 3d 7b 31 d4 3d a9 50 c5 be
       -1.25604 0.0952011 0.10361 -0.385381
0000d0 5d 1c f0 3c 2b 6e 2c 3e ca de 12 3e 61 c5 09 3e
       0.0293104 0.168389 0.143428 0.134542
0000e0 61 36 b9 be 5f 24 38 bf ae d7 74 bc 8e fa 15 3d
       -0.361743 -0.719305 -0.014944 0.0366159
0000f0 e5 76 54 bd 3a 8a 1d bd ac d0 36 bd 25 94 1e bd
       -0.0518712 -0.0384619 -0.0446326 -0.0387155
000100 63 9c 3a bd ab 86 33 bd 75 eb 10 3d 61 0e cc bc
       -0.0455593 -0.0438296 0.0353808 -0.0249092
000110 fd 18 90 bb 7f 89 33 bd d7 61 37 3b bf 2d 33 3b
       -0.00439751 -0.0438323 0.00279819 0.00273405
000120 db c6 ba 3c 95 3e d9 3c 1b e3 18 bc b1 5e 96 3c
       0.0227999 0.0265191 -0.00933149 0.0183557
000130 c0 a9 d9 3c 8c 93 cc bc 9e b1 54 bc 3a be c7 3c
       0.0265702 -0.0249727 -0.0129818 0.0243827
000140 18 06 1c 3e 54 e3 e5 3d 8c d6 11 3e eb fd e6 3d
       0.152367 0.11225 0.14242 0.112789
000150 76 54 03 c0 99 69 c6 3d d6 00 e5 3d 97 7b d8 3b
       -2.05203 0.0968811 0.111818 0.00660653
000160 10 40 1a bf 99 0c ac 3d c6 f8 d0 3d 15 39 bc be
       -0.60254 0.0840084 0.102037 -0.367623
000170 18 52 8f 3d 8b fa c4 3d f0 59 6d 3d 37 55 07 3e
       0.0699808 0.096181 0.0579471 0.132161
000180 cb 4a db be cd 77 04 bf 92 75 b8 bc d6 a8 17 3e
       -0.428305 -0.517453 -0.022517 0.148105
000190 ab ed 81 3c 50 fa 67 3d 9f ad 03 be fa 6d 8e bd
       0.0158604 0.0566352 -0.128592 -0.0695457
0001a0 27 14 ba bf 5e 07 78 bd 52 04 7d 3d be bc 84 bf
       -1.45374 -0.0605539 0.0617717 -1.03701
0001b0 f5 f7 56 3f d8 7f 6d be ee 3f 12 be 6d c6 19 3e
       0.839721 -0.231933 -0.142822 0.150171
0001c0 0d 52 a8 be 3b 02 b3 3d ee 31 b7 bd f0 fd 28 3d
       -0.328751 0.0874066 -0.0894507 0.0412578
0001d0 23 4a 0b 3e 75 59 b0 bf 52 f6 31 3d 9e c9 a3 bc
       0.136025 -1.37773 0.0434478 -0.0199936
0001e0 57 26 1d bc 00 3a 0c 3d 53 fd af 3d 06 97 f3 3c
       -0.00959166 0.034235 0.0859324 0.0297351
0001f0 a4 aa d5 bf 62 4d a5 3c 29 a9 7d 3d 8c 86 ec 3d
       -1.66927 0.0201785 0.0619289 0.115491
000200 60 e5 0c bf c2 da f8 3d 76 a8 a6 bb c9 f1 f9 3c
       -0.550375 0.121511 -0.005086 0.0305108
000210 90 14 41 3e a5 7f 2e bd 60 9a bd 3c 8b 44 12 3d
       0.188555 -0.0426022 0.0231449 0.0357099
000220 a2 4d c4 3c c4 77 b2 bf a3 18 45 bc 47 e3 95 3d
       0.0239628 -1.39428 -0.0120298 0.0731874
000230 79 24 de 3d 42 3f 43 3e 66 84 d7 3d f5 6e c7 3d
       0.108468 0.190671 0.105233 0.0973796
000240 4b 02 80 bf 55 6a 26 3e 01 a2 30 3e c0 fa 89 3c
       -1.00007 0.162515 0.172493 0.0168432
000250 49 d7 ac bf ef d6 e8 3c e5 42 05 3e b7 98 bf be
       -1.35032 0.0284228 0.130138 -0.374212
000260 77 d0 51 bd e0 a1 58 3e b3 5c 8b 3d ae 66 2d 3e
       -0.0512242 0.211555 0.0680479 0.169337
000270 60 cb bb be 84 84 f8 be ae 52 10 bd 41 b6 31 3d
       -0.366786 -0.485386 -0.0352351 0.0433867
000280 c5 a9 8b 3d 20 ed 9f 3d ff ec 47 3d b2 74 34 3d
       0.0681949 0.078089 0.04881 0.0440566
000290 c0 ff ab 3d 2a 37 21 3e 41 9b 0c 3e 42 43 83 bf
       0.0839839 0.157437 0.137311 -1.02549
0002a0 0d c5 7d bf 0b 45 0a 3e a9 4e 07 3e 8a 76 55 be
       -0.991288 0.135029 0.132136 -0.20846
0002b0 7b da 31 3e 8d 0f 8e 3c 08 01 29 3e 1b fe 2a 3b
       0.173685 0.0173414 0.165043 0.00260914
0002c0 6c 23 86 be 9b 8f 8f bf 5a 58 c1 3c b7 d3 f6 3d
       -0.261989 -1.12157 0.0236017 0.120521
0002d0 bd 79 b5 3d db f1 b0 3d b0 12 ad 3d 93 18 b9 3d
       0.0886111 0.0863988 0.0845083 0.0903789
0002e0 cd 52 17 bd 82 e4 dd 3d 16 7e 5a 3d fc 6f 05 bf
       -0.0369442 0.108346 0.0533429 -0.52124
0002f0 d1 3f 8d bf 7f ec 3f 3d 02 2e e8 3d db 35 71 be
       -1.10351 0.0468564 0.113369 -0.235557
000300 f6 b7 a4 3d 4b ad 57 3d 0e 86 0a 3e 12 73 7f 3b
       0.080429 0.0526555 0.135277 0.00389785
000310 0d 35 82 be 8e 06 88 bf 98 ff 2b bd e5 25 44 3d
       -0.254311 -1.0627 -0.0419918 0.0478877
000320 e4 85 d4 3d 85 98 eb 3d 27 13 17 3d 44 f7 cc 3d
       0.103771 0.115037 0.0368835 0.100081
000330 c4 96 e6 be b6 a2 0d 3e 81 97 f9 3d a1 bb 84 3d
       -0.450369 0.138316 0.121871 0.064811
000340 31 b5 85 be 7a 6d 56 3d 1d 39 02 3e e5 8a 91 3d
       -0.261148 0.0523505 0.127171 0.0710657
000350 eb e4 cc 3d 29 75 e9 3d e1 61 3a 3d 13 6b 2c 3d
       0.100046 0.113993 0.0455035 0.0420943
000360 8b 3c 45 bb 6e 4c 93 bf 09 af 13 bc 96 65 9e 3d
       -0.00300959 -1.15077 -0.0090139 0.0773422
000370 d8 c2 07 3d 05 5b 9d 3b 10 01 2c bc fe 2f 6b 3a
       0.0331448 0.00480211 -0.0104983 0.000897169
000380 6e e6 c6 3c df f6 29 bc ef 71 a6 3b f7 70 0e 3d
       0.0242798 -0.0103738 0.0050795 0.0347757
000390 7d 74 8f bc ba 1e 3b bd 65 44 d8 bc 6e 2d b8 bc
       -0.0175116 -0.0456836 -0.0263998 -0.0224826
0003a0 db 26 09 bc 7b e5 b0 bc 4c 5e 70 bb ac 33 a3 bc
       -0.00837108 -0.0215938 -0.00366773 -0.0199221
0003b0 ba df 1c bd 13 42 ac 3c 29 6b 65 3c d8 8c 17 ba
       -0.0382993 0.0210276 0.0140026 -0.000578118
0003c0 3f 49 8b bc cb d5 cf bd b6 c5 a0 bd b8 ac 97 bd
       -0.0170027 -0.101482 -0.0785021 -0.0740599
0003d0 17 d9 62 3f ac 23 22 bd 71 4e 71 bd f8 a6 c1 3e
       0.886125 -0.0395848 -0.0589127 0.378227
0003e0 6f d8 0a 3f fb 86 d3 3c 54 6b 86 bc fd bc 81 3e
       0.542365 0.0258212 -0.0164086 0.253395
0003f0 9c a8 80 3c 72 a7 a4 bd 1b 4b 88 bd 84 a0 ae bd
       0.0157054 -0.0803975 -0.0665495 -0.0852671

Operation_3_B f4 [20]
000000 fa e4 72 bc 78 c6 48 3d b5 23 8b bc f5 bf d8 bb
       -0.0148251 0.0490174 -0.0169848 -0.00661468
000010 7f 19 47 bd 8d 44 08 3e 2f 15 7b 3d 75 9c 91 3c
       -0.0486083 0.133074 0.0612995 0.0177748
000020 0b 63 ea 3a 66 13 60 bc 39 63 f8 3d f5 0b d9 bb
       0.00178823 -0.0136765 0.121283 -0.00662374
000030 f2 c0 36 3d 5e 20 82 3d 37 93 a5 3c 18 95 a4 bd
       0.0446176 0.0635383 0.0202118 -0.0803625
000040 05 13 24 bc 34 a4 35 ba f8 c5 e5 3d fd 0a e3 bc
       -0.0100143 -0.000692907 0.112194 -0.0277152

Operation_4_W f4 [20, 20, 1, 1]
000000 91 51 54 bc 95 c1 ea bb 9a 8f 90 3b db c8 30 3d
       -0.0129589 -0.00716419 0.00441165 0.0431603
000010 1b c4 3d bd a4 16 2f bd b2 4a 29 bd 9f f4 b4 bc
       -0.0463296 -0.0427462 -0.041331 -0.0220893
000020 b4 d8 17 3d f4 29 91 3c e3 94 f3 bb ba 04 71 3c
       0.0370719 0.0177202 -0.00743352 0.0147106
000030 8b e1 2a bd ad a4 35 bd 36 9f 09 bd 21 35 f1 bb
       -0.041719 -0.0443465 -0.0335991 -0.00736107
000040 42 67 c8 3c c3 7a 48 3c 29 d9 40 bd 14 16 26 bd
       0.0244633 0.0122363 -0.0470821 -0.0405484
000050 79 7a a1 bb fc b2 ba bd ac 67 92 3d 78 6e d0 bc
       -0.00492793 -0.0911617 0.0714868 -0.0254433
000060 60 04 29 3f 3c 16 3b 3e f0 86 48 3f 62 be 3c 3e
       0.660223 0.182702 0.783309 0.18432
000070 22 83 41 3d be f6 0c be 60 01 1c 3e f5 29 68 3a
       0.0472442 -0.13766 0.152349 0.000885635
000080 99 29 c5 be b5 d7 97 bd de f5 e3 3c 1b 2c 3c bd
       -0.385083 -0.0741419 0.0278272 -0.0459405
000090 8e 43 98 bc 11 1e ed 3c 67 06 96 3d ba 2e 54 3f
       -0.0185869 0.028945 0.0732544 0.828838
0000a0 51 66 28 3d 1a 81 1d bd 67 49 db 3c 34 72 cc bc
       0.0411132 -0.0384532 0.0267684 -0.0249568
0000b0 ba b4 0b bd f1 bd 5a bd fe a5 7b bc 46 c6 34 3c
       -0.0341079 -0.0534038 -0.0153594 0.0110336
0000c0 f8 3a c4 bc c1 db e8 3c bd 5e 33 bb d1 9d 36 bd
       -0.0239539 0.0284251 -0.00273697 -0.0445841
0000d0 6c 0c 57 3b f0 35 84 bc 5d 6a 29 bd 6a 82 2d bd
       0.00328138 -0.016139 -0.0413612 -0.0423607
0000e0 59 62 2f 3c 34 35 64 3c 77 59 1d 3d 1f 18 b8 3b
       0.0107046 0.0139287 0.0384154 0.00561811
0000f0 cc a1 7b bc cd 78 a3 be d0 09 96 bd 22 81 d0 bc
       -0.0153584 -0.319281 -0.0732609 -0.0254522
000100 3e 92 08 ba d9 8f 39 bd 11 f1 20 3d 51 d8 fd be
       -0.000520978 -0.0453032 0.0392924 -0.495791
000110 50 55 81 3e ef c7 5d 3e b9 a5 65 3e 26 21 2c 3d
       0.252604 0.216583 0.224265 0.0420238
000120 07 d3 a0 be 05 52 a2 be 9e 42 0e bd fc c7 26 3f
       -0.31411 -0.317032 -0.0347315 0.651489
000130 9a 67 1b bd 70 fd 05 3c 73 4a 10 3e fe d6 ee bd
       -0.0379406 0.0081781 0.140909 -0.116621
000140 cc 45 1c 3d 22 74 9b bd fc fb ec 3d a6 0a c6 bc
       0.0381525 -0.0759051 0.115715 -0.024175
000150 d0 99 74 3f 5d 8a f3 be 27 4d 33 3f ba 74 a2 3d
       0.955472 -0.475665 0.700396 0.0793242
000160 ab cb ce 3c 88 11 32 3e 30 6d c3 3d 9f 3e c0 3b
       0.0252436 0.173895 0.0954231 0.00586684
000170 64 03 29 be 75 a5 ca bc 28 c6 05 3c 84 d7 ee 3e
       -0.165052 -0.0247371 0.00816492 0.466488
000180 17 f2 28 3d 13 26 31 bd f5 4c af 3c 6b 9a 93 3f
       0.0412465 -0.0432492 0.021399 1.15315
000190 27 66 22 3d 01 89 26 bc a4 7d 20 3c 28 5c f2 ba
       0.0396482 -0.0101645 0.00979558 -0.00184906
0001a0 80 16 41 3d 92 19 18 3b 5e 4e 64 3c c9 1f 4c bd
       0.0471406 0.00232086 0.0139347 -0.049835
0001b0 f4 7b ec bc 4c 48 35 bc 6e 23 50 3b 3a 75 a5 3c
       -0.0288677 -0.0110646 0.00317594 0.0201975
0001c0 16 49 00 3d f0 80 17 bd 54 59 af 3c c8 6f 3b bd
       0.0313197 -0.0369882 0.0214049 -0.0457609
0001d0 3f 65 86 bc c7 89 ca 3c 96 d0 9d bc f9 9d a6 bc
       -0.0164057 0.0247239 -0.0192645 -0.020339
0001e0 46 00 1e 3c 2c 66 d4 be 16 31 0c 3e 59 ec 80 3c
       0.00964362 -0.414842 0.136906 0.0157377
0001f0 7e aa 1e 3f cf fa 6f 3c 22 37 73 3e aa d7 0d 3e
       0.619789 0.0146472 0.237515 0.138518
000200 55 da 42 3e fd 16 dd 3d 30 4b 1b 3e 01 4c d9 bc
       0.190286 0.107954 0.151654 -0.0265255
000210 30 f6 0e bf e4 13 e2 be 26 a8 51 3e 2f 89 23 3e
       -0.558444 -0.441558 0.204743 0.159703
000220 c9 a4 eb 3c 39 b6 de bc 5a 66 51 3e bd 6d 02 3f
       0.0287651 -0.0271865 0.204492 0.509487
000230 ae 27 df bc 86 72 22 3e 81 6d ce 3c 7c 34 6b bd
       -0.0272406 0.15864 0.0251987 -0.0574231
000240 64 23 0c bf 56 61 1b bf 4c 16 17 bf 15 3a 97 3e
       -0.547415 -0.606954 -0.590184 0.295365
000250 a6 28 77 3e de 58 10 3e c2 12 2f be 1f d5 55 bc
       0.241366 0.140964 -0.17097 -0.0130513
000260 cd 95 a1 3e bc ce 26 3e 00 c7 8e 3e e2 dd 1b 3d
       0.315596 0.162898 0.278862 0.0380534
000270 22 ba 31 3c 88 5e ef 3b c1 74 aa 3e 9d f6 28 bf
       0.0108476 0.00730497 0.332922 -0.660013
000280 4f 6a 19 bd 13 2d f9 be 83 33 98 3e 0a cb 08 3c
       -0.0374549 -0.486672 0.297268 0.00834919
000290 b8 cc 89 3e 66 f2 82 bd 54 d9 91 3d ac 09 38 3d
       0.26914 -0.0639389 0.0712153 0.0449311
0002a0 ad 34 91 3e d4 98 d0 3e 43 38 16 3e 44 5e 40 bd
       0.283605 0.407416 0.146699 -0.0469649
0002b0 75 ab df be 2e c7 d3 be 6d 4d bf 3d 9d d4 c7 3e
       -0.436855 -0.413629 0.0934094 0.390294
0002c0 4e 08 80 3b 65 e1 4b 3d 36 3a 67 3e 29 5a 39 3e
       0.00390724 0.0497755 0.225808 0.181008
0002d0 d1 2b 34 bd 01 1e 2c bd cc 62 b2 3e 83 da ef bc
       -0.0439871 -0.0420208 0.34841 -0.029279
0002e0 18 b0 24 3e 8c f3 ab bf a9 87 88 3e ea 6f ae 3c
       0.160828 -1.34337 0.26666 0.0212936
0002f0 ff 93 07 3f 14 cb d5 3e 4b 94 dd bd 07 64 0a bc
       0.529602 0.417565 -0.108193 -0.0084467
000300 a9 33 77 3c 8b 87 7c bd 37 a9 98 3e 96 5b 1a bd
       0.015088 -0.0616527 0.298166 -0.037685
000310 88 f1 bb bb 91 78 9e bc 17 61 0a 3e c2 f6 13 3e
       -0.00573558 -0.0193446 0.135136 0.144496
000320 5d b1 35 3d 85 27 d3 3a 6f e0 04 bd a6 90 75 bc
       0.0443586 0.00161098 -0.0324406 -0.0149881
000330 23 f3 ed 3c 17 eb 61 bb 02 72 b8 3c ce 20 19 bd
       0.0290466 -0.00344724 0.0225153 -0.0373848
000340 37 50 00 3d 60 05 b6 ba 2f 88 48 3c d4 86 9e 3c
       0.0313265 -0.00138871 0.0122395 0.0193514
000350 4e 8b f0 bc e9 c9 46 bc 11 84 f5 bc 58 04 da bc
       -0.0293633 -0.0121331 -0.0299702 -0.0266134
000360 88 52 96 3c 7b 25 9c bb d4 b7 cc bc cf f2 61 bc
       0.0183499 -0.00476521 -0.02499 -0.0137908
000370 a4 ec c6 bb 16 f7 5f 3e 7d 59 5a 3e 61 d6 15 3d
       -0.00607069 0.218716 0.213232 0.0365814
000380 96 5e 9b be ad c3 c9 be d3 33 95 be 0a 13 0e 3f
       -0.303456 -0.394071 -0.291411 0.554978
000390 ae 9e 23 3e b0 54 37 3e 68 be 39 bc d3 a3 0a 3c
       0.159785 0.179034 -0.0113369 0.00846191
0003a0 ff 78 3f 3e 89 b2 57 3e af b3 31 3e 38 4b a9 3e
       0.186985 0.210642 0.173537 0.330652
0003b0 c6 a2 e9 3c 0f 9d b9 3c 30 96 a3 bd 02 47 82 be
       0.02852 0.0226579 -0.0798763 -0.254448
0003c0 d1 64 15 bd a9 4e f7 be 9b 38 49 3e 60 52 01 3d
       -0.0364731 -0.483022 0.196505 0.0315727
0003d0 15 56 1e 3f 39 f1 8d 3e 9c 89 29 3e b9 e4 c3 3d
       0.618501 0.277231 0.165564 0.0956511
0003e0 bb 0f 60 3e bd 8a 0c 3e 37 ff 0f 3e 92 96 4a 3d
       0.21881 0.137248 0.140622 0.04946
0003f0 e8 bb fb be cd b1 dc be 2b 6d 71 3e 46 dc 52 3d
       -0.491668 -0.431044 0.235768 0.0514796

Operation_4_B f4 [20]
000000 e9 0f 36 ba 00 85 24 3d 6c 32 99 ba 6e df e3 3d
       -0.000694512 0.0401659 -0.0011688 0.111266
000010 52 8c a2 bd a8 11 36 ba 95 c8 af 3d cf 92 71 3d
       -0.0793692 -0.000694538 0.0858318 0.0589779
000020 22 8e 15 3e 86 6b 8f 3d 40 90 72 bc d8 b8 de 3d
       0.14605 0.0700293 -0.0148049 0.108751
000030 1c 97 c1 3d bf d6 25 bc 76 1c 9f 3d 8d b3 e9 3d
       0.0945265 -0.010122 0.077691 0.114112
000040 6f cc db bb 04 16 b5 bd 0c b1 75 3d c2 bd b7 bd
       -0.00670772 -0.0884209 0.0599833 -0.0897174

Operation_5_W f4 [20, 20, 1, 1]
000000 44 5d 3a bd b5 d1 8a 3c 7f 11 39 bd 32 c7 d7 bc
       -0.0454991 0.0169457 -0.0451827 -0.0263401
000010 68 e8 5f bd d4 c4 0e bb 9d 3c 16 3d 61 4f a0 bc
       -0.054665 -0.00217848 0.0366789 -0.0195691
000020 99 84 4b bd 4b cd 5e bd 6b 9e 43 bd cf 5a 1f 3c
       -0.049687 -0.054395 -0.0477585 0.00972624
000030 5c e3 98 bc 3d 19 32 bd 36 f6 16 bd 67 5e f3 3c
       -0.0186631 -0.0434811 -0.0368559 0.0297081
000040 36 d3 13 3d 78 e1 18 3d 35 62 26 bd df a9 20 bd
       0.0360901 0.0373244 -0.040621 -0.0392245
000050 30 02 99 bc f8 e2 4b be fd 7c 25 bb a3 73 9e 3e
       -0.0186778 -0.199108 -0.00252515 0.309476
000060 08 56 01 bf 86 72 22 bd 52 27 e0 3d 20 21 6f 3c
       -0.505219 -0.03966 0.10945 0.0145953
000070 26 ea 3b 3c 7a a6 07 3e 1c 9f 64 3d bf cc c1 bc
       0.0114694 0.132471 0.0558158 -0.0236572
000080 d9 ee fe 3d db f6 62 bc 4f 03 8a bb cf db c8 3e
       0.124479 -0.0138528 -0.00421182 0.392302
000090 7f 01 d6 3b e5 b8 23 3f 19 1e 37 bf 76 bf af bc
       0.00653094 0.63954 -0.715303 -0.0214536
0000a0 49 ab 10 bd a4 53 03 3f 98 53 9d bc 21 ae 1c 3e
       -0.0353196 0.512995 -0.0192049 0.153008
0000b0 32 ac f2 3e b8 f5 44 bd 80 8f 8f bb 47 38 cd bd
       0.47397 -0.0480859 -0.00438112 -0.100205
0000c0 11 e4 00 be 2f 36 ad 3c 78 47 c6 bc 92 29 ba 3c
       -0.12587 0.021144 -0.024204 0.0227249
0000d0 15 08 a6 bd 7a 01 93 bb be 19 f3 ba 9f e7 9f be
       -0.0810701 -0.00448626 -0.00185471 -0.312314
0000e0 f0 dc 7f 3b 95 2c 6b bf 9c 16 58 3f 91 27 49 be
       0.00390416 -0.918649 0.844095 -0.19644
0000f0 50 7c ab 3c 55 bd dc bd fe a0 89 3c f8 2e 2a bd
       0.0209333 -0.107783 0.0168004 -0.0415487
000100 1c be 1b 3d 86 ee 08 bd ff 30 b3 3d 09 f3 63 3d
       0.0380231 -0.0334306 0.0874958 0.0556517
000110 f7 3d ea bd a1 69 c9 3e 60 5d b2 3b 17 e1 ac bd
       -0.114376 0.393384 0.00544326 -0.0844137
000120 05 7c ab 3b ee c9 e8 bc 95 46 ec 3d 74 eb cd 3e
       0.00523329 -0.0284166 0.115369 0.402187
000130 7b 53 ec 3c 97 aa 2c 3f 73 2e bd be f4 32 8a 3e
       0.0288484 0.674478 -0.369495 0.26992
000140 f3 3f 94 3c 8d 9b 92 3e 1d c7 2f bd 8e c8 0f 3f
       0.0180969 0.286343 -0.0429145 0.561654
000150 11 8e d9 3e d1 47 cf bc a2 60 66 3e 63 25 56 be
       0.424912 -0.0253028 0.224978 -0.209127
000160 25 92 c0 3e 0a d7 23 3e 57 a0 4c bd 44 36 20 be
       0.376115 0.16 -0.0499576 -0.156457
000170 e6 cc c6 3d 6f b6 5e 3c c1 e0 a2 3e 01 0d 80 3c
       0.0970705 0.0135933 0.318121 0.0156312
000180 16 6b 38 3c ef b9 92 bd 12 84 83 3e 00 1d 9e be
       0.011256 -0.0716437 0.256867 -0.308815
000190 80 72 a5 bc 9c 0e ae 3c ca e8 5b 3c 24 d5 f7 3b
       -0.0201962 0.0212472 0.0134222 0.00756325
0001a0 63 a2 b7 3c 49 ea 0e 3d e9 a2 9d 3a 21 a4 b8 bd
       0.0224163 0.0348914 0.00120267 -0.0901568
0001b0 2b a1 7d bb 44 01 b6 bc e6 87 5b 3c cc ef 74 bd
       -0.00387008 -0.0222174 0.0133991 -0.059799
0001c0 96 94 fb bc e8 0c 14 3b 64 36 0d bd 53 9d 84 3c
       -0.0307105 0.00225907 -0.0344757 0.0161883
0001d0 40 31 f2 bc cd 1f 33 bd d9 87 c8 bb fe 6a 04 bd
       -0.0295645 -0.0437315 -0.00611971 -0.0323286
0001e0 64 91 06 bd 3c 4a 9d 3e 21 a9 2a 3d b5 32 31 3e
       -0.0328535 0.307207 0.0416652 0.173045
0001f0 76 dd 5b 3c 73 fd b1 3c 3b 8b de 3d 1b 0e 7f bf
       0.0134195 0.0217273 0.108664 -0.996309
000200 d6 00 c5 3d 69 3b 02 bf f7 33 86 bc 99 9a dc be
       0.096193 -0.508719 -0.0163822 -0.430867
000210 a2 cf 47 3e 23 bc 1e bc b2 a5 01 bc 6c 5f 60 be
       0.195128 -0.00968841 -0.00791304 -0.219114
000220 08 cf 5f bb 70 99 03 bf bc 7a fd 3e 97 c5 8c bf
       -0.00341505 -0.51406 0.495077 -1.09978
000230 90 d0 20 3d 3f d1 0b bd ad d2 07 bd 95 23 09 3d
       0.0392614 -0.0341351 -0.0331599 0.0334812
000240 1d bd ab bc 67 48 15 bd b2 df 0e 3d 12 45 ad bc
       -0.0209642 -0.036446 0.0348813 -0.0211511
000250 31 59 01 3d 47 48 73 bd 3b d7 41 3c cb 4f 45 bd
       0.0315792 -0.0593951 0.0118311 -0.0481718
000260 78 dc 26 bc 83 9b 56 3b d8 21 08 bc 2a cf 72 bc
       -0.0101844 0.00327465 -0.00830885 -0.0148199
000270 04 d5 35 bd d1 51 98 bc 30 56 8a 3c dd a7 d3 3b
       -0.0443926 -0.0185937 0.0168868 0.00645922
000280 0e ee b5 3b 1d 91 cf 3d 75 5a 37 bd b5 8d aa bd
       0.00555206 0.101351 -0.044764 -0.0832781
000290 73 a1 32 3e f2 e1 43 bd 40 da d7 3e 17 6a 08 bd
       0.174444 -0.0478229 0.421587 -0.0333043
0002a0 ba dc d0 3e e8 f4 fc 3d f4 57 e3 3c c4 5d 3d 3c
       0.407934 0.123514 0.0277519 0.011558
0002b0 ee 77 b0 3e 92 cb 1f bd 4e f1 68 3e bd c6 02 3f
       0.344665 -0.0390125 0.227483 0.510845
0002c0 6b c5 ab bb 20 40 2b bc 59 3a ba 3c f6 a1 41 bc
       -0.00524204 -0.0104523 0.0227329 -0.0118184
0002d0 68 9c 41 3d 83 f8 30 be f6 e0 7f 3c c7 0f 55 3f
       0.0472683 -0.172823 0.0156176 0.832272
0002e0 d0 bb cc bd 36 7f 23 bc bf 86 bb 3d f4 6a 98 be
       -0.0999676 -0.00997906 0.0915656 -0.297691
0002f0 41 f1 cb 3e 46 7c 27 bc 69 8e 2c bc 19 c3 a1 bd
       0.398325 -0.0102225 -0.010532 -0.0789854
000300 c7 68 fc bb 75 ea 25 bd b5 8c 44 3e 12 f7 d8 3e
       -0.00770292 -0.0405068 0.191943 0.42376
000310 30 3d ab 3c 16 51 a3 3e d4 7d b8 be 9f 01 ad be
       0.0209032 0.318978 -0.360335 -0.337903
000320 73 9c db 3c f1 18 34 3d 7c 60 47 3d b9 19 ce be
       0.026808 0.0439691 0.048676 -0.40254
000330 55 6c 1c 3e a0 38 40 bd 04 14 94 bd 80 88 88 bd
       0.152757 -0.046929 -0.0723038 -0.0666666
000340 ba 53 85 bd 3a 94 21 3f a1 a8 c7 bc 20 f7 98 bd
       -0.0651011 0.631168 -0.0243724 -0.0746901
000350 d8 46 7c bd 8a b0 21 bd 99 32 bb 3d 6d c7 64 be
       -0.061591 -0.039475 0.0914051 -0.223417
000360 71 50 4a bb 63 99 0a bf 33 c2 17 3f 8f 36 16 3f
       -0.00308707 -0.541403 0.592807 0.58677
000370 89 dd 2d bc 21 d9 2d 3d 33 54 7a ba 71 90 a8 be
       -0.0106119 0.0424434 -0.000954929 -0.329227
000380 d0 d3 f0 3e 10 e6 36 bd 91 d2 1c 3e 0a 01 0f bd
       0.470366 -0.044653 0.153147 -0.0349131
000390 db 08 d5 bc 58 37 5e 3e dd 52 98 bc e2 15 c2 3d
       -0.0260052 0.217008 -0.0185942 0.0947683
0003a0 f2 ef 8e 3d 90 2d f0 bc 82 1a 1e 3e 0b 41 ce be
       0.0697936 -0.0293186 0.154398 -0.40284
0003b0 25 59 07 bd 89 9e ce 3a c5 76 07 be e9 26 11 3f
       -0.033044 0.00157638 -0.132289 0.567
0003c0 e2 64 11 bd ff 9f 79 bc c9 d8 3f bc 4b e6 d0 be
       -0.0354966 -0.0152359 -0.0117094 -0.408007
0003d0 bf d4 e7 3e a7 44 cc 3b 16 bf 19 3e 2e 1b bd bd
       0.452795 0.00623377 0.150143 -0.092337
0003e0 41 4a bc bd c9 9a b7 3d f0 b6 dc 3c 4c b5 85 3d
       -0.0919385 0.0896507 0.0269427 0.0652872
0003f0 0f 06 c3 3c 99 83 bb 3c 1d 03 02 3e 46 96 f4 be
       0.0238066 0.0228899 0.126965 -0.477709

Operation_5_B f4 [20]
000000 ec c3 95 bc bb c7 c3 3d 0e f1 f4 3c 65 b1 88 3d
       -0.0182819 0.0955958 0.0299001 0.0667446
000010 cc 10 02 bd 17 bd 91 bb 89 a2 f6 bc d1 7d c3 b7
       -0.0317543 -0.00444759 -0.0301068 -2.33044e-05
000020 5d 50 1f be d4 62 a0 3d 40 9f 0a 3c da 39 2c 3b
       -0.15558 0.0783135 0.00846082 0.00262796
000030 be 8c 3d 3d c8 65 37 3c 06 cb 22 3d 5c 38 f5 bc
       0.0462768 0.0111937 0.0397444 -0.0299341
000040 6d b7 a3 bd c3 f7 1b bc b9 45 ca 3d 43 34 af 3d
       -0.0799397 -0.00951952 0.0987658 0.0855489

linear_6_W f4 [9, 20, 1, 1]
000000 97 76 24 3b d2 ac ec 3d 00 fd b3 3d 32 8b 92 3b
       0.00250951 0.115564 0.0878849 0.00447216
000010 0e 37 5b 3d 6f 22 04 bd 57 b1 c8 be 00 02 96 bc
       0.0535193 -0.0322594 -0.391978 -0.0183115
000020 78 f2 d1 be 75 75 89 3b 8c a7 70 b9 06 d7 9c 3d
       -0.410053 0.00419491 -0.000229506 0.076582
000030 4a 97 2e 3e 8c dc 33 be e2 3f 6d be ac 01 4a be
       0.170499 -0.175646 -0.231689 -0.197272
000040 08 ae 42 be 60 c1 27 3d 4c c4 01 ba b1 20 c3 3c
       -0.190117 0.0409559 -0.000495021 0.0238193
000050 bf 88 11 bd 10 f1 c5 3c 61 7b 9c bc f0 c5 52 3d
       -0.0355308 0.0241628 -0.0191018 0.0514583
000060 ca c0 41 be b8 48 d0 bc 2d 26 9e bf e4 4a fd bc
       -0.189212 -0.0254253 -1.23554 -0.0309195
000070 71 38 f3 bd 74 44 5a bf 14 87 01 bc 1c b6 9d 3d
       -0.11876 -0.852607 -0.00790574 0.0770075
000080 6f c6 1f bc 5b 0a 88 3c f4 7a 96 bd 78 cf e9 be
       -0.0097519 0.0166065 -0.0734767 -0.456661
000090 09 82 81 3d 90 f4 a9 bc 6a 69 7e 3e a7 84 d6 bc
       0.0632363 -0.0207465 0.248449 -0.0261863
0000a0 4c 9d cf 3b e7 c7 cf be 30 2a 69 3e 2e e7 12 be
       0.00633589 -0.405822 0.2277 -0.14346
0000b0 d2 00 de bc d9 10 b7 3c e4 4b 14 bf 5e 01 bb 3c
       -0.0271 0.0223469 -0.579283 0.0228278
0000c0 c8 86 64 bd a9 dc 54 3e 49 67 28 bf 1a b8 c4 b9
       -0.0557926 0.207873 -0.657826 -0.000375212
0000d0 f2 e9 71 bd 36 cc 20 be 00 e5 0f be 9a 97 03 be
       -0.059061 -0.157029 -0.140522 -0.128508
0000e0 4c 8b b2 be 92 39 3b 3c 62 13 81 be cd ab df 3c
       -0.348719 0.0114273 -0.252101 0.0273036
0000f0 03 85 b0 bc 85 ec dc bd 29 96 a3 be 55 c2 13 be
       -0.0215478 -0.107873 -0.319505 -0.144296
000100 57 42 b7 be 12 c0 cd 3c 6d 8d e8 bd e4 c8 39 bc
       -0.357928 0.025116 -0.113551 -0.0113394
000110 13 0f 28 3e a2 b5 da be df 31 5c 3e 99 1b c2 bd
       0.16412 -0.427167 0.215034 -0.0947792
000120 8f 2f 38 3a d0 17 31 3c 8e 66 ab bd c0 42 fe be
       0.000702613 0.0108089 -0.0836917 -0.496603
000130 63 25 e6 3d d9 9e 8f bc f7 ea 93 3d f5 e8 57 bc
       0.112376 -0.0175318 0.0722255 -0.0131781
000140 7d 91 90 bc 88 34 b5 bd d1 a7 3f bd 4f 3b dc bd
       -0.0176475 -0.0884791 -0.0467909 -0.107535
000150 c0 86 86 bd ef 68 ad 3c 4f 07 ea 3e 05 36 27 3d
       -0.0656867 0.0211682 0.457087 0.040823
000160 c0 9e 45 bd f3 d0 72 3d ea 95 32 bf b4 e8 0d 3e
       -0.0482471 0.0592813 -0.6976 0.138583
000170 9a 0b 6c be 0a 80 d1 bd 7d 04 fe bd 92 23 0d be
       -0.230513 -0.102295 -0.124032 -0.137831
000180 fe d3 6d be cb a2 cb bc 9e ce 05 be 7d cd a2 be
       -0.232254 -0.0248579 -0.130671 -0.317974
000190 f2 fd dc bb 54 1b 8c 3e a1 bf 6c bf 2e 1e 3e 3e
       -0.00674414 0.273646 -0.924799 0.185662
0001a0 c2 67 c0 bd 2f d3 02 3b 83 14 1c 3e 82 85 9d 3c
       -0.0939479 0.00199623 0.152422 0.0192287
0001b0 ad 42 14 3d 91 48 b6 bc aa c0 7f bd bc 7f c7 bd
       0.0361964 -0.0222514 -0.0624396 -0.0974116
0001c0 5b d3 3c be e6 74 d9 bc a7 08 bb 3d 8b c1 b3 be
       -0.1844 -0.026545 0.0913251 -0.351086
0001d0 a1 c2 ec 3c 66 5b fc 3c 54 35 b1 3e 76 1a e9 bd
       0.0289014 0.0308053 0.34611 -0.11382
0001e0 aa b6 5b bd 42 77 09 be 53 25 8a 3e 48 a6 13 be
       -0.053641 -0.134244 0.269816 -0.144189
0001f0 ec 4c 31 be df 94 08 bd 52 b5 01 3f 2e 16 6b bd
       -0.173145 -0.0333451 0.506673 -0.0573942
000200 d0 77 9c bc 79 78 8f 3e 41 49 11 bf 62 a0 7b be
       -0.0191001 0.280216 -0.567524 -0.245729
000210 7b 12 c8 be 19 38 10 be 02 8f de bc d7 33 34 be
       -0.390766 -0.140839 -0.0271678 -0.175979
000220 d8 89 a6 bc 43 b1 ae bb 92 b8 92 3d 55 6b 51 3e
       -0.0203294 -0.00533119 0.0716411 0.204511
000230 48 8b f3 3c 4e 72 11 bd 98 a6 20 bf 38 32 6f be
       0.0297295 -0.0355094 -0.627542 -0.23359
000240 c0 b1 57 be 7b 39 02 bd d5 b4 1b 3e 3a d3 1f bd
       -0.210639 -0.0317931 0.152057 -0.0390198
000250 c6 8e 91 bd e8 6a 93 be ea b1 39 bf c1 1b 12 3e
       -0.0710731 -0.287925 -0.725371 0.142684
000260 ae 9e 03 3e 14 e0 c5 bd e4 68 2e 3e 7c d6 35 be
       0.128535 -0.0966188 0.170322 -0.177576
000270 a2 6d eb 3c 44 41 be 3a 03 cf dd 3d 18 b2 d2 be
       0.0287388 0.00145153 0.108305 -0.411515
000280 b8 4a 87 3b 31 e0 97 3b dc b7 ba be 83 e0 71 be
       0.00412878 0.00463488 -0.364684 -0.236208
000290 12 6b 51 be d5 71 21 3d 2b 6c 9e 3e 31 ba 17 bd
       -0.20451 0.0394152 0.309419 -0.0370428
0002a0 fb 20 1b be d2 a4 f9 bc bb 61 37 bf b1 fb 96 3e
       -0.151493 -0.0304741 -0.716335 0.294889
0002b0 29 cb 00 be 02 69 ba bd d8 40 9f bd 88 fe e0 ba
       -0.125775 -0.0910206 -0.0777604 -0.00171657
0002c0 96 aa b9 bd d5 c5 f7 3c aa 64 90 3e f6 9b 89 be
       -0.0906574 0.0302457 0.282018 -0.268768

linear_6_B f4 [9]
000000 43 28 e7 3b a1 1c 9a 3b 80 16 41 3d de e9 49 3d
       0.00705436 0.00470312 0.0471406 0.0492953
000010 f5 54 3d 3d 67 27 66 bb 05 a6 53 3c 23 9e 11 3d
       0.0462236 -0.00351187 0.012918 0.0355512
000020 ab 26 88 bc
       -0.01662
