code/nnv/examples/Submission/ARCH_COMP2020/benchmarks/VCAS/onnx_networks/VertCAS_noResp_pra01_v9_20HU_200.onnx (onnx, 10061 bytes, 13 tensors)

input_Mean f4 [1, 1, 1, 3]
0	0x00000000	0.0
1	0x00000000	0.0
2	0x00000000	0.0

Operation_1_W f4 [20, 1, 1, 3]
0	0x3f0318a8	0.512095
1	0x3c5e8fd8	0.0135841
2	0xbe83417d	-0.256359
3	0xbd47159e	-0.0486046
4	0xbecd99ed	-0.401565
5	0xbc07dbd7	-0.00829216
6	0x3f86d384	1.05333
7	0x3e1cc89b	0.153109
8	0xbe86e654	-0.263476
9	0x3f3182ba	0.693401
10	0xbe0adc0a	-0.135605
11	0xbe3146a2	-0.173121
12	0x3fa14aa1	1.26009
13	0xbeba8588	-0.3643
14	0xbe923b36	-0.285608
15	0xbed7d2c8	-0.42153
16	0xbe7c9c91	-0.246691
17	0xbe9c4d23	-0.305276
18	0x3fa7da51	1.31135
19	0xbe9d9c8d	-0.307835
20	0xbe175afb	-0.147808
21	0xbf2eec5b	-0.683294
22	0xbea175f3	-0.315353
23	0xbe05f634	-0.130822
24	0x3f731c11	0.949647
25	0x3d9d1061	0.0766914
26	0xbd9753da	-0.0738904
27	0xbecd0f1f	-0.400506
28	0xbd67566b	-0.0564789
29	0xbe729e4d	-0.236932
30	0x3f8d1783	1.10228
31	0xbb4465cb	-0.00299679
32	0xbe9e4e6a	-0.309192
33	0xbe8aa9b5	-0.270826
34	0x3c8bebfc	0.0170803
35	0xbe84ca2e	-0.259355
36	0x3e4c9d5a	0.199819
37	0xbc80f6d6	-0.0157427
38	0xbe89e94b	-0.269358
39	0x3f1bd5fe	0.608734
40	0xbd3390bc	-0.0438392
41	0xbe926fe7	-0.28601
42	0x3f10f356	0.566213
43	0xbceb536b	-0.0287263
44	0xbe71372a	-0.235562
45	0x3f532e5a	0.824926
46	0x3e368b5d	0.178266
47	0xbdae4ead	-0.085111
48	0xba045de2	-0.000504939
49	0xbc1f8353	-0.0097359
50	0x3a399799	0.000707978
51	0xbf56ce14	-0.839082
52	0xbe85a89c	-0.261052
53	0xbe8b3f42	-0.271967
54	0xbc5e6c9d	-0.0135757
55	0xba4447a1	-0.000748748
56	0x3b4c88af	0.00312094
57	0xbf869153	-1.05131
58	0xbc9d14ae	-0.0191749
59	0xbe7b063e	-0.245141

Operation_1_B f4 [20]
0	0xbe006749	-0.125394
1	0xbdc1e3d0	-0.0946728
2	0xbda15924	-0.0787833
3	0xbddd0742	-0.107924
4	0xbd3c0519	-0.0459033
5	0xbced2aa6	-0.028951
6	0x3da79ffa	0.0818481
7	0x3e06fe2e	0.131829
8	0x3e0b6523	0.136128
9	0xbdae711f	-0.0851767
10	0xbc60c38f	-0.0137185
11	0xbd4f50d6	-0.0506142
12	0xba7d7dbc	-0.000966992
13	0xbd7abda1	-0.061216
14	0xbda52c9d	-0.0806515
15	0x3dc7c9c3	0.0975528
16	0xbbcf3f18	-0.00632466
17	0xbd24f568	-0.0402731
18	0xbc1e8d09	-0.00967718
19	0xbdf54eb1	-0.119779

Operation_2_W f4 [20, 20, 1, 1]
0	0xbf01c476	-0.506904
1	0xbfaa9985	-1.33281
2	0x3ea9ed39	0.331888
3	0xbf5a7807	-0.853394
4	0x3ddbaa15	0.107258
5	0x3d334b6c	0.0437731
6	0x3e553869	0.208223
7	0x3d0603d5	0.0327185
8	0x3dfe4606	0.124157
9	0x3d9e2ddb	0.0772359
10	0x3eb8f8a5	0.361272
11	0x3e8b1b9b	0.271695
12	0x3e88c975	0.267162
13	0x3f146ab1	0.579753
14	0x3ef4a4f4	0.477821
15	0x3e03ab00	0.128582
16	0xbd0ef043	-0.0348971
17	0xbe83c643	-0.257372
18	0xbd3fe4a2	-0.0468489
19	0xbf98b0f2	-1.1929
20	0xbdd01190	-0.101596
21	0x3f3e53ca	0.743466
22	0xbe1a9436	-0.150956
23	0xbf12208a	-0.570809
24	0x3e8e4239	0.277849
25	0xbc2b6a11	-0.0104623
26	0x3f113f6c	0.567374
27	0x3dff1e08	0.124569
28	0xbdce5471	-0.100747
29	0xbf03e719	-0.515245
30	0x3bf65140	0.00751701
31	0xbee4f82f	-0.447206
32	0xbd4dccdd	-0.0502442
33	0x3e51f927	0.205052
34	0x3e748e47	0.238824
35	0xbd8bfaaa	-0.0683492
36	0x39167612	0.000143491
37	0xbe02e6eb	-0.127834
38	0x3d295b28	0.0413467
39	0xbf41ef0f	-0.757554
40	0xbf4726e1	-0.777937
41	0xbf0e6be8	-0.556334
42	0x3e798e11	0.243706
43	0xbf6fae79	-0.936256
44	0x3e116873	0.142
45	0x3dd70047	0.104981
46	0x3e5e9b39	0.217389
47	0x3d90bb2c	0.0706695
48	0x3e4a7efa	0.19775
49	0x3df0fbec	0.117668
50	0x3ea4fd09	0.322243
51	0x3e78f7db	0.243133
52	0x3e2a9692	0.16659
53	0x3eda5205	0.426407
54	0x3e8dd65a	0.277026
55	0x3e302a78	0.172037
56	0xbc9aef04	-0.0189128
57	0xbe057258	-0.130319
58	0xbd287b14	-0.041133
59	0xbf86dc0a	-1.05359
60	0xbd66f9ba	-0.0563905
61	0x3d1f7729	0.038932
62	0x3bbced1b	0.00576557
63	0xbcf457f6	-0.0298271
64	0xbc9fc19c	-0.0195015
65	0x3d1d879b	0.0384594
66	0x3c88b6be	0.0166887
67	0xbd1d03b1	-0.0383336
68	0xbce82477	-0.0283377
69	0x3bc4c4d6	0.00600491
70	0xbcf2d327	-0.0296417
71	0xbd540dd4	-0.051771
72	0xbc9230ba	-0.0178455
73	0xbd53b031	-0.0516817
74	0xbc97ab83	-0.0185144
75	0xbd4d4bc8	-0.0501211
76	0x3cddab0c	0.0270591
77	0x3ca376c8	0.0199541
78	0xbc913f22	-0.0177303
79	0xbcc775e0	-0.0243482
80	0xbea97ca2	-0.331029
81	0x3e0a7bd5	0.135238
82	0x3ea3f291	0.32021
83	0x3f371ee2	0.715315
84	0xbd2df3a9	-0.0424687
85	0x3e28255b	0.164205
86	0x3d713d3f	0.0588963
87	0x3e4e3865	0.201387
88	0x3ed7190d	0.420113
89	0x3e57fd3f	0.210927
90	0x3e6ff4ba	0.234332
91	0x3e43326a	0.190622
92	0xbc7cd680	-0.015432
93	0x3d877bb2	0.0661539
94	0xbd2de59c	-0.0424553
95	0x3eaa7568	0.332927
96	0x3d1358a2	0.0359732
97	0x3d53fcd7	0.0517548
98	0x3ce4a7eb	0.0279121
99	0x3e3aa2a1	0.182261
100	0xbeeff1b7	-0.468641
101	0x3e946a5d	0.289874
102	0x3eb0a6fc	0.345024
103	0x3f0eb2af	0.557414
104	0xbd9d2d6d	-0.0767468
105	0x3deccb3a	0.115622
106	0x3db21958	0.0869624
107	0x3be3f55d	0.00695674
108	0x3e94db16	0.290734
109	0x3ea52e73	0.32262
110	0x3e84abe7	0.259124
111	0x3e92a0cb	0.286383
112	0x3dac9a42	0.0842786
113	0x3d8dc4a2	0.0692227
114	0x3c82825c	0.0159313
115	0x3e807592	0.250897
116	0xbce23762	-0.0276143
117	0x3e0aa8eb	0.13541
118	0xbd1abba3	-0.0377766
119	0x3e4ee569	0.202047
120	0xbcf567f7	-0.0299568
121	0xbc254b7f	-0.0100888
122	0x3cbdd79c	0.0231741
123	0x3bed3bd8	0.0072398
124	0xbcfbd1d3	-0.0307397
125	0xbd5dce7d	-0.054152
126	0xbd019729	-0.0316383
127	0xbc5571b7	-0.0130276
128	0x3cc1c715	0.0236545
129	0x3c99cb4d	0.0187737
130	0xbcf8d4fe	-0.030375
131	0x3c4b36cb	0.0124032
132	0xbcca587e	-0.0247004
133	0x3bafc5c0	0.00536415
134	0xbd5542d8	-0.0520657
135	0x3c8127e8	0.0157661
136	0x3d45582f	0.0481798
137	0x3cc9359e	0.0245617
138	0x3b5c1392	0.0033581
139	0x3bdb200c	0.00668717
140	0x3f6ae7c5	0.917599
141	0x3f7d231c	0.988817
142	0x3e9a57eb	0.301452
143	0xbec1b110	-0.378304
144	0x3ec7dd44	0.39036
145	0xbf1764bf	-0.591381
146	0xbd056e19	-0.0325757
147	0xbf2ec1d3	-0.682645
148	0x3e88d003	0.267212
149	0xbe07cbb4	-0.132613
150	0x3e9c408e	0.30518
151	0x3e782279	0.242319
152	0xbd4aadbe	-0.0494821
153	0x3e599e52	0.212518
154	0x3ed37176	0.412975
155	0x3e835419	0.256501
156	0xbd2e1bb7	-0.0425069
157	0xbfaf890d	-1.37137
158	0xbd3183b6	-0.0433385
159	0xbea619b9	-0.324415
160	0xbac08312	-0.00146875
161	0x3ed52136	0.416269
162	0xbd606fe2	-0.0547942
163	0x3cb40ec6	0.0219797
164	0xbba7579d	-0.00510688
165	0x3e67192f	0.225682
166	0xbdc66b8a	-0.0968848
167	0xbc14768f	-0.00906147
168	0xbddb77c0	-0.107162
169	0xbc4c4db6	-0.0124697
170	0xbe25842b	-0.161637
171	0xbeb98117	-0.362313
172	0xbeb12a0f	-0.346024
173	0xbec5bad4	-0.386191
174	0x3d0d080b	0.0344315
175	0xbc7d8f0c	-0.015476
176	0xbd0a436b	-0.0337557
177	0x3e25edd0	0.16204
178	0x3c6509da	0.0139794
179	0x3ec1afc0	0.378294
180	0xbf4b99f6	-0.795318
181	0xbeb1b867	-0.34711
182	0x3e48b2ea	0.195995
183	0xbf1f51ad	-0.62234
184	0x3da5b4ab	0.080911
185	0x3d7a3429	0.0610849
186	0x3e61bcdc	0.220447
187	0x3dd51bd6	0.104057
188	0x3e425a68	0.189798
189	0x3d9517cd	0.0727993
190	0x3ea32895	0.318669
191	0x3e4a9479	0.197832
192	0x3e20dfdf	0.157104
193	0x3ec88b76	0.391689
194	0x3e3135db	0.173057
195	0x3e4fa094	0.202761
196	0x3cb9c9f0	0.0226793
197	0xbddd1b2e	-0.107962
198	0x3d38622c	0.0450155
199	0xbf82a9e7	-1.02081
200	0x3ece83c3	0.403349
201	0x3efab27d	0.489643
202	0x3e19b8cc	0.150119
203	0xbe982a56	-0.297198
204	0x3f12491b	0.571428
205	0xbe8ee419	-0.279084
206	0x3f1bd8cf	0.608777
207	0xbec28523	-0.379922
208	0x3d98d053	0.0746161
209	0xbe807b78	-0.250942
210	0x3ddbbf0e	0.107298
211	0xbe0f405f	-0.139894
212	0xbe149fd8	-0.145141
213	0x3e471bce	0.194442
214	0x3e7b3850	0.245332
215	0x3c764e3b	0.0150333
216	0x3cd155fe	0.0255537
217	0xbe9e8a93	-0.309651
218	0xbd255814	-0.0403672
219	0xbe5b6284	-0.214243
220	0xbe81ecd5	-0.25376
221	0x3e32c344	0.174573
222	0x3e8cf590	0.275311
223	0x3f4253da	0.759092
224	0xbe2b213e	-0.167119
225	0x3d035bba	0.0320699
226	0x3b042f4f	0.00201698
227	0x3e10b84a	0.141328
228	0x3eb549b6	0.354078
229	0x3e46bdf5	0.194084
230	0x3e831e9f	0.256093
231	0x3df3f7cf	0.119125
232	0xbc4b365f	-0.0124031
233	0xbd0a71f9	-0.0338001
234	0xbdf038e3	-0.117296
235	0x3e9f6dfc	0.311386
236	0xbcd16583	-0.0255611
237	0xbdb0f0a6	-0.0863965
238	0xbd041157	-0.0322431
239	0x3e1d46b2	0.15359
240	0xbf30ad36	-0.690143
241	0xbec9fcf4	-0.394508
242	0x3ea17acc	0.31539
243	0xbe8d7d7c	-0.276348
244	0x3d253ab8	0.0403392
245	0x3d4b9819	0.0497056
246	0x3e4375c9	0.190879
247	0x3da58da9	0.0808366
248	0x3e18850a	0.148945
249	0x3d54af19	0.0519248
250	0x3eb584f5	0.35453
251	0x3e454ac3	0.192668
252	0x3e2c1b54	0.168073
253	0x3ec4ac08	0.384125
254	0x3e89ccd9	0.269141
255	0x3e577ee5	0.210445

Operation_2_B f4 [20]
0	0xbe0858ff	-0.133152
1	0x3d03bc4d	0.032162
2	0xbe1646f1	-0.146755
3	0xbc1315dc	-0.00897738
4	0xbc81cf78	-0.015846
5	0xbe13e469	-0.144426
6	0xbcbbf792	-0.0229452
7	0xbd3b5b3b	-0.0457413
8	0xbd8ee16d	-0.0697659
9	0xbe142742	-0.144681
10	0x3c933963	0.0179717
11	0xbd034290	-0.0320459
12	0xbe036bd3	-0.128341
13	0xbe445133	-0.191716
14	0xbdcefc37	-0.101067
15	0xbe1e2691	-0.154444
16	0xbd8d56d8	-0.0690133
17	0xbd24bf9d	-0.0402218
18	0xbe0a6480	-0.135149
19	0xbe073abd	-0.13206

Operation_3_W f4 [20, 20, 1, 1]
0	0x3e495e9e	0.19665
1	0xbec70175	-0.388683
2	0x3e7895d1	0.242759
3	0xbb5acc3f	-0.00333859
4	0x3dfb1961	0.122607
5	0x3e84e0b9	0.259527
6	0x3c8b96a2	0.0170396
7	0xbe8c0208	-0.273453
8	0x3d9adb0a	0.0756131
9	0x3e48de6e	0.196161
10	0xbf51eebb	-0.820049
11	0x3e3f5b60	0.186872
12	0x3e74662c	0.238671
13	0x3d864dea	0.0655783
14	0x3d66327f	0.0562005
15	0x3dac2b0f	0.0840665
16	0x3e1698fe	0.147068
17	0xbf878423	-1.05872
18	0x3de13fd1	0.109985
19	0x3de3a861	0.111161
20	0x3d39587c	0.0452504
21	0x3d05f451	0.0327037
22	0x3beeeff8	0.00729179
23	0x3d1f203c	0.0388491
24	0xbd219348	-0.0394471
25	0xbccdf5c2	-0.0251416
26	0x3c9bd259	0.0190212
27	0xbd1869d4	-0.0372103
28	0x3cdcb4d7	0.0269417
29	0x3d4e6d16	0.050397
30	0xbcc59cf8	-0.0241227
31	0xbd301d19	-0.0429965
32	0xbd2a5e78	-0.041594
33	0x3cb80f05	0.0224681
34	0xbc704791	-0.0146655
35	0xbc4af485	-0.0123874
36	0xbd38cfa5	-0.0451199
37	0x3ce1f22e	0.0275813
38	0x3d04d1dc	0.0324267
39	0xbd50c88a	-0.0509725
40	0xbdcf6274	-0.101262
41	0xbe9a97c0	-0.301939
42	0x3dbbf488	0.091775
43	0xbcba1067	-0.0227129
44	0x3e8914d3	0.267737
45	0x3ed79874	0.421085
46	0x3c0b0892	0.00848593
47	0x3eba7d03	0.364235
48	0xbdf33b10	-0.118765
49	0x3de75ff6	0.112976
50	0xbf3fb9d0	-0.748929
51	0x3e87ae9b	0.265004
52	0x3da4c661	0.0804565
53	0x3e1bd44a	0.152177
54	0x3e0776c5	0.132289
55	0x3e9a6b0e	0.301598
56	0x3d2abd79	0.0416846
57	0xbf83707a	-1.02687
58	0x3e1bc233	0.152108
59	0x3e835d89	0.256573
60	0x3dd48ba8	0.103782
61	0x3eba14f0	0.363441
62	0x3e3a42f2	0.181896
63	0xbc8dd78f	-0.0173147
64	0x3e6d1cc1	0.231555
65	0x3caac033	0.0208436
66	0x3d3a4c7d	0.0454831
67	0xbf0a28cc	-0.539685
68	0x3e1e707e	0.154726
69	0x3e8dcd92	0.276959
70	0xbf0550ca	-0.520764
71	0x3e6b2895	0.229647
72	0x3e4c319c	0.199408
73	0x3e1a148c	0.150469
74	0x3e9366f9	0.287895
75	0x3e4ecbfb	0.20195
76	0x3e86596d	0.262401
77	0xbf186552	-0.595296
78	0x3eb63800	0.355896
79	0x3e484f90	0.195616
80	0x3e90fcb5	0.283178
81	0xbe817aee	-0.252891
82	0x3e8403de	0.257842
83	0x3c862a51	0.0163776
84	0x3e5ca0c3	0.215457
85	0x3db0c43e	0.0863118
86	0xbcc6af11	-0.0242534
87	0x3d6f95d5	0.0584925
88	0xbda9893e	-0.0827813
89	0x3e3a31e8	0.181831
90	0xbf7ce3de	-0.987852
91	0x3e1c6584	0.152731
92	0x3e59053a	0.211934
93	0xbd85b6c3	-0.06529
94	0x3db9e30e	0.0907651
95	0x3a013b99	0.000492984
96	0x3dc22ae8	0.0948084
97	0xbf9d0679	-1.22676
98	0xbca30db7	-0.019904
99	0x3e1da9ca	0.153968
100	0xbaca7c3b	-0.00154484
101	0xbbff1056	-0.00778393
102	0x3ca36d8e	0.0199497
103	0x3d1bd1d3	0.0380419
104	0xbc89906d	-0.0167925
105	0xbd1ee3a0	-0.0387913
106	0xbcff9f52	-0.0312039
107	0x3d2a98fb	0.0416498
108	0xbccbc7b4	-0.0248755
109	0x3d0a177b	0.0337138
110	0xbc9900b8	-0.0186771
111	0xbc2ecc31	-0.0106688
112	0x3d1be4cd	0.03806
113	0xbd44fb62	-0.0480913
114	0xbcf98fa3	-0.030464
115	0x3c653a82	0.013991
116	0xbd3b09a6	-0.0456635
117	0x3ca5e2b3	0.0202497
118	0xbcfda5b3	-0.0309628
119	0x3c6900e0	0.0142214
120	0x3cf6c26a	0.030122
121	0xbd155278	-0.0364556
122	0x3ccd9bca	0.0250987
123	0x3cc62e4d	0.024192
124	0x3a9284d2	0.00111785
125	0xbcfb90d0	-0.0307087
126	0x3d03b3ea	0.032154
127	0xbcbe27b9	-0.0232123
128	0xbcce5167	-0.0251853
129	0x3d51f1d0	0.051256
130	0xbc47c01e	-0.0121918
131	0xbd3d19ec	-0.0461673
132	0xbcb10e60	-0.0216133
133	0x3ace8a11	0.00157577
134	0xbc9e4be6	-0.0193233
135	0xbd4422a4	-0.0478846
136	0xbcad5893	-0.0211604
137	0x39d8fb7c	0.000413861
138	0x3c27c393	0.0102395
139	0x3c9c2f76	0.0190656
140	0x3e9a6a87	0.301594
141	0x3f088db0	0.533412
142	0x3ed46349	0.41482
143	0x3d30b1ae	0.0431382
144	0x3e006530	0.125386
145	0x3e29a4df	0.165668
146	0xbc4761be	-0.0121693
147	0xbf161240	-0.586216
148	0x3f20b567	0.627768
149	0x3ef96484	0.487095
150	0x3d967268	0.0734604
151	0x3d4a398f	0.0493713
152	0x3ecc4c38	0.399019
153	0x3f0060ee	0.501479
154	0x3ec4a6a8	0.384084
155	0x3ebef71a	0.372979
156	0x3ead31ba	0.33827
157	0x3dde9f27	0.108702
158	0x3f063f46	0.524403
159	0x3e9e542e	0.309236
160	0x3d0f177a	0.0349345
161	0xbd4d39bf	-0.0501039
162	0x3cf54923	0.0299421
163	0x3b1502dc	0.00227373
164	0xbd5ac513	-0.0534106
165	0x3cdb9339	0.0268036
166	0x3bba349a	0.00568254
167	0x3d25b714	0.0404578
168	0x3c786933	0.0151618
169	0xbb71b9c1	-0.00368844
170	0x3c97ead8	0.0185446
171	0xbd6309a0	-0.0554291
172	0xba168650	-0.000574206
173	0xbbd18c4f	-0.0063949
174	0xbd3c8b00	-0.046031
175	0xbd3255f3	-0.043539
176	0xbd2b9204	-0.0418873
177	0xbce2a511	-0.0276666
178	0x3c2acbf1	0.0104246
179	0x3cd033bf	0.0254153
180	0xbdcd117b	-0.100131
181	0xbdefdc16	-0.117119
182	0x3cab6b1e	0.0209251
183	0x3d21ac73	0.0394711
184	0x3e92fe1e	0.287095
185	0x3ed0ee8d	0.40807
186	0x3c81e4dd	0.0158562
187	0x3eb32a49	0.349932
188	0xbe9fd999	-0.312207
189	0x3df65ecc	0.120298
190	0xbf34e54f	-0.706624
191	0x3e6cc5fc	0.231224
192	0x3db575a6	0.0886033
193	0x3c45960c	0.0120597
194	0x3e05069a	0.129908
195	0x3e81333c	0.252344
196	0x3cd33adb	0.0257849
197	0xbf7f3ade	-0.996992
198	0x3e21f31f	0.158154
199	0x3e6de7a7	0.232329
200	0x3d28fda0	0.0412575
201	0xbe853672	-0.260181
202	0x3e629ed4	0.221309
203	0x3cfc565d	0.0308029
204	0x3d8a2cdf	0.0674684
205	0x3dc10d46	0.0942636
206	0xbca2fa6b	-0.0198948
207	0xbe9d2f3c	-0.307001
208	0x3ecec56d	0.40385
209	0x3e440af2	0.191448
210	0xbf5568b6	-0.833629
211	0xbdc554d4	-0.0963532
212	0x3dd3cab8	0.103414
213	0x3e9edb73	0.310268
214	0x3e025fe9	0.127319
215	0x3e0fa2ad	0.140269
216	0x3d62d7b6	0.0553815
217	0xbf89984a	-1.07496
218	0x3df44dcb	0.119289
219	0x3e835fe5	0.256591
220	0x3d140a79	0.0361428
221	0x3c3cead7	0.0115306
222	0x3b6730d1	0.00352769
223	0xbc26c3b9	-0.0101785
224	0xbd26eeed	-0.0407552
225	0x3c3c536d	0.0114945
226	0xbc9681b7	-0.0183724
227	0x3a45d25d	0.00075463
228	0xbd4b4f54	-0.0496362
229	0x3c829b50	0.0159432
230	0x3b50edef	0.00318801
231	0xbd204047	-0.0391238
232	0xbc7ce81e	-0.0154362
233	0xbc7a2779	-0.0152682
234	0x3c80f020	0.0157395
235	0xbc320cc3	-0.0108673
236	0x3caedb15	0.0213447
237	0x3c4e8e6e	0.0126072
238	0xbd1cab17	-0.0382491
239	0xbc808d8f	-0.0156925
240	0x3f19a30a	0.600144
241	0x3eac5693	0.336598
242	0x3f25744f	0.646306
243	0xbd1526f4	-0.0364141
244	0x3d8bf254	0.0683333
245	0xbe55753a	-0.208455
246	0xbd0ddf87	-0.034637
247	0xbf134f72	-0.575431
248	0x3f332218	0.699739
249	0x3f0630ec	0.524184
250	0x3f868b6e	1.05113
251	0x3d8a890b	0.0676442
252	0x3f036ae8	0.51335
253	0x3ed7dac7	0.421591
254	0x3efc0b9a	0.492276
255	0x3dd11383	0.102088

Operation_3_B f4 [20]
0	0xbd7fa369	-0.0624117
1	0xbc875742	-0.0165211
2	0xbca784a9	-0.020449
3	0xbcee4b6d	-0.0290887
4	0x3c9783e0	0.0184955
5	0xbc12092c	-0.00891332
6	0xbc11b077	-0.00889217
7	0xbe2b87be	-0.16751
8	0xbc122a04	-0.00892115
9	0x3b9d4637	0.00479963
10	0x3c302130	0.0107501
11	0xbc4961de	-0.0122914
12	0xbd958a26	-0.0730174
13	0xbd4d1d8a	-0.050077
14	0xbce53bc4	-0.0279826
15	0xbe35bab2	-0.17747
16	0xbc3cba30	-0.011519
17	0x3ce9691a	0.0284925
18	0x3e2e61d0	0.170295
19	0x3d21de5c	0.0395187

Operation_4_W f4 [20, 20, 1, 1]
0	0x3eabb59e	0.33537
1	0xbd079c41	-0.033108
2	0x3ed33376	0.412502
3	0x3e548f54	0.207578
4	0x3eda3876	0.426212
5	0x3c23a785	0.00998867
6	0xbb76ceff	-0.003766
7	0x3ea79314	0.327294
8	0x3d00cbf3	0.0314445
9	0x3eaa47cb	0.332579
10	0x3f323593	0.69613
11	0xbd21d756	-0.039512
12	0x3e9222f7	0.285423
13	0x3ea7c7e7	0.327697
14	0x3ed53b08	0.416466
15	0x3e9ffac2	0.31246
16	0x3e9006f2	0.281303
17	0x3e8a55f3	0.270187
18	0xbcfe9b7c	-0.03108
19	0xbe3695d9	-0.178306
20	0xbe915981	-0.283886
21	0xbcc5407c	-0.0240786
22	0xbec8cf9e	-0.392209
23	0x3dd66278	0.10468
24	0xbe6f8833	-0.233918
25	0x3caf5ec8	0.0214075
26	0xbc48cc22	-0.0122557
27	0x3d4f1d5a	0.0505651
28	0x3c93b0ed	0.0180287
29	0xbe0979e1	-0.134254
30	0xbf56a162	-0.8384
31	0xbbe50c5f	-0.00699
32	0x3e233615	0.159386
33	0x3bdcfe48	0.00674418
34	0xbd131ef6	-0.0359182
35	0xbdd64b66	-0.104636
36	0x3e43ae68	0.191095
37	0xbe7e6afd	-0.248455
38	0xbe373b00	-0.178936
39	0x3dc76b8c	0.0973731
40	0xbd33ece7	-0.0439271
41	0x3b99d62a	0.00469472
42	0xbcf65d1f	-0.0300737
43	0x3be40751	0.00695888
44	0xbcd90a28	-0.0264941
45	0xbbcc5833	-0.0062361
46	0xbd3fe7c7	-0.0468519
47	0xbd299f51	-0.0414117
48	0x3cadcedb	0.0212168
49	0xbc856e69	-0.016288
50	0x3cb5a533	0.0221735
51	0xbc3b8f22	-0.0114477
52	0xbc802371	-0.0156419
53	0xbcec70a1	-0.0288623
54	0xbc05ce76	-0.0081669
55	0x3d170260	0.0368675
56	0x3ba0193b	0.00488582
57	0xbc0f8752	-0.00876029
58	0x3c0e8d82	0.00870073
59	0x3b83df33	0.00402441
60	0xbcf09990	-0.0293701
61	0xbc9eee38	-0.0194007
62	0xbba6f1c7	-0.00509474
63	0x3c98b3f6	0.0186405
64	0x3d3612fc	0.0444517
65	0xbbed85bf	-0.00724861
66	0x3d49d785	0.0492778
67	0x3c94709b	0.0181201
68	0x3a6270b4	0.000863801
69	0x3d2c715d	0.0421003
70	0x3d1df1ee	0.0385608
71	0xbd2cf221	-0.0422231
72	0xbcdc5b4b	-0.026899
73	0xbd275071	-0.0408482
74	0xbd3e7d7f	-0.0465064
75	0x3cdbf08c	0.0268481
76	0xbd4a5340	-0.0493958
77	0xbd2133f7	-0.0393562
78	0x3d1de559	0.0385488
79	0x3cec04a0	0.0288108
80	0x3eb1613d	0.346445
81	0xbcd98725	-0.0265537
82	0x3ea4a750	0.321589
83	0x3e2822bc	0.164195
84	0x3ec15b57	0.37765
85	0x3c349675	0.0110222
86	0x3d1a6df0	0.0377025
87	0x3eac1bb9	0.336149
88	0xbce97072	-0.028496
89	0x3edf2171	0.435802
90	0x3eb08d09	0.344826
91	0xbd57ca06	-0.0526829
92	0x3e78a58b	0.242819
93	0x3e84d8fd	0.259468
94	0x3eddcbff	0.433197
95	0x3ead2cbf	0.338232
96	0x3e8d2674	0.275684
97	0x3ea832fd	0.328514
98	0x3e0a493d	0.135045
99	0xbba6050d	-0.00506652
100	0xbf266b61	-0.650076
101	0x3d13f7b4	0.0361249
102	0xbf128790	-0.572381
103	0x3e37a637	0.179345
104	0xbf15f645	-0.585789
105	0x3cb1f1b5	0.0217217
106	0xbcd5d702	-0.0261035
107	0x3ef364bf	0.475378
108	0xbc3bc4d2	-0.0114605
109	0xbee97a68	-0.456012
110	0xbe9f8162	-0.311534
111	0xbc3283e1	-0.0108957
112	0x3f81c726	1.01389
113	0xbde2fcf0	-0.110834
114	0xbf301b43	-0.687916
115	0x3f70b839	0.940311
116	0xbcfe35fb	-0.0310316
117	0xbedf0308	-0.43557
118	0x3dec9753	0.115523
119	0xbe52178f	-0.205168
120	0x3eddcf46	0.433222
121	0xbd1db2ce	-0.0385006
122	0x3eeed9be	0.466505
123	0x3ec25f42	0.379633
124	0x3eed7ecc	0.463858
125	0xbd2333fd	-0.0398445
126	0xbd5a950c	-0.0533648
127	0x3e9a4745	0.301325
128	0xbcdd8623	-0.0270415
129	0x3ed0904f	0.407351
130	0x3ee086be	0.438528
131	0x3c206f97	0.00979223
132	0xbe6aac54	-0.229173
133	0x3eed2c5a	0.463229
134	0x3f0db7bf	0.553585
135	0xbedf8d0d	-0.436623
136	0x3e9f950c	0.311684
137	0x3ecac775	0.396053
138	0xbded3177	-0.115817
139	0xbda59d99	-0.080867
140	0x3efa3337	0.488672
141	0xbcfbabdd	-0.0307216
142	0x3ee490e6	0.446418
143	0x3e1d2179	0.153448
144	0x3edb3765	0.428157
145	0xbd34bb94	-0.0441242
146	0xbd0983bd	-0.0335729
147	0x3e820946	0.253977
148	0xbb3e0000	-0.00289917
149	0x3e822ee4	0.254264
150	0x3f5c2f0e	0.860093
151	0xbd977667	-0.0739563
152	0xbdbcf206	-0.0922585
153	0x3e98203e	0.297121
154	0x3e3d3847	0.184785
155	0xbf34850a	-0.705155
156	0x3e499913	0.196873
157	0x3ec46973	0.383617
158	0xbe6eb9e5	-0.233131
159	0xbee3a861	-0.444644
160	0x3ca28383	0.0198381
161	0xbcdd381f	-0.0270043
162	0x3be6b516	0.00704063
163	0x3cdaad60	0.026694
164	0xbd297ab8	-0.0413768
165	0xbc811e0d	-0.0157614
166	0xbcd65f88	-0.0261686
167	0x3ce06bb0	0.0273951
168	0xbd4eea2e	-0.0505163
169	0xbc73f3ee	-0.0148897
170	0xbc690801	-0.0142231
171	0xbd1540da	-0.0364388
172	0xbccc008a	-0.0249026
173	0x3b1b84d6	0.00237303
174	0x3cd42983	0.0258987
175	0xbc1c3489	-0.00953401
176	0xbc8afdf5	-0.0169668
177	0xbd42f90e	-0.0476008
178	0xbc046d0d	-0.00808264
179	0x3ce57eaa	0.0280145
180	0x3a634215	0.000866921
181	0xbbee00fa	-0.0072633
182	0x3c9e0935	0.0192915
183	0xbb7993aa	-0.00380824
184	0xbd55c8da	-0.0521935
185	0xbcbdc3e6	-0.0231647
186	0x3bf65d3f	0.00751844
187	0xbd3aed72	-0.0456366
188	0x3c9a246e	0.0188162
189	0x3cd8cc14	0.0264645
190	0xbca5643e	-0.0201894
191	0x3c56f03c	0.0131188
192	0xbc6fb52f	-0.0146306
193	0xbd618216	-0.0550557
194	0x3c6b7c50	0.0143729
195	0xbd33e1ff	-0.0439167
196	0xbc0cc083	-0.00859082
197	0xbd64cd24	-0.0558597
198	0x3cfea770	0.0310857
199	0xbd1c96da	-0.0382298
200	0x3ea857b0	0.328794
201	0x3d1ffcdb	0.0390595
202	0x3e826959	0.25471
203	0x3eb0ce92	0.345326
204	0x3ea3f1e9	0.320205
205	0x3d0a780e	0.0338059
206	0x3c97d7f8	0.0185356
207	0x3d925cdf	0.0714662
208	0xbd08a307	-0.0333586
209	0x3ea030c2	0.312872
210	0x3e6cbbc3	0.231185
211	0xbd05f146	-0.0327008
212	0x3e095cc8	0.134143
213	0x3e8b29a2	0.271802
214	0x3f1df31f	0.616991
215	0x3df93251	0.121678
216	0x3e9a1cce	0.301001
217	0x3eaab170	0.333385
218	0x3d239fe3	0.0399474
219	0xbf04db7b	-0.518974
220	0xbeb24acf	-0.348227
221	0xbccc0592	-0.024905
222	0xbee8a84c	-0.454409
223	0xbd51ee90	-0.0512529
224	0xbf63c276	-0.889686
225	0x3d3df655	0.0463775
226	0xbb9ce467	-0.00478797
227	0x3e5589ad	0.208533
228	0x3d38712b	0.0450298
229	0xbe7844d0	-0.24245
230	0xbec1029b	-0.376973
231	0x3c36303e	0.0111199
232	0x3e5a1123	0.212956
233	0x3c17bccb	0.00926132
234	0xbf30c5ca	-0.690518
235	0x3e8c8f75	0.274532
236	0x3d35d8af	0.0443961
237	0xbee1248d	-0.439732
238	0x3f2ff056	0.687261
239	0x3efd640f	0.494904
240	0xbe3b2032	-0.18274
241	0xbd0d6883	-0.0345235
242	0x3e297e56	0.165521
243	0x3e727dcc	0.236808
244	0x3e0f5558	0.139974
245	0x3cf04aec	0.0293326
246	0x3c2d5bee	0.010581
247	0x3ef4ea29	0.478349
248	0xbd0f8b3e	-0.0350449
249	0x3df19ac8	0.117971
250	0xbde934ad	-0.11387
251	0x3c2777a9	0.0102214
252	0x3e85614e	0.260508
253	0x3ec10753	0.377009
254	0x3ef8daa1	0.486043
255	0x3e000b46	0.125043

Operation_4_B f4 [20]
0	0xbce171d5	-0.0275201
1	0x3dd39b02	0.103323
2	0xbbbfd71b	-0.0058545
3	0xbc26768c	-0.0101601
4	0xbd797064	-0.0608982
5	0x3d9398c1	0.0720687
6	0xbdf9d66b	-0.121991
7	0x3c4f9717	0.0126703
8	0xbc303cdf	-0.0107567
9	0xbc1b575f	-0.00948128
10	0xbb6d51d3	-0.00362121
11	0xbe1d6cb5	-0.153735
12	0xbd99a06a	-0.075013
13	0xbd2303a6	-0.0397984
14	0x3de1e03f	0.110291
15	0xbd91e13e	-0.0712304
16	0xbc54207e	-0.0129472
17	0xbc0a0d95	-0.00842609
18	0xbcd5f103	-0.0261159
19	0xbc016220	-0.00789693

Operation_5_W f4 [20, 20, 1, 1]
0	0x3c9aa8f9	0.0188794
1	0x3d40c664	0.0470642
2	0xbd2aa616	-0.0416623
3	0x3d26c8dc	0.0407189
4	0x3c548c49	0.0129729
5	0xbc0e9c05	-0.00870419
6	0x3c5c3230	0.0134397
7	0x3ce5aff3	0.028038
8	0x3cacae7f	0.0210793
9	0x3c3005ed	0.0107436
10	0xbd90290d	-0.0703908
11	0x3d25168b	0.0403047
12	0xbd13fe34	-0.0361311
13	0xbd36aa81	-0.0445962
14	0xbd189fd4	-0.0372618
15	0x3c84b6e9	0.0162005
16	0x3a88e190	0.00104432
17	0xbb92616c	-0.00446718
18	0x3b9ebe06	0.00484443
19	0xbcd4da17	-0.0259829
20	0xbd500806	-0.0507889
21	0x3d230bee	0.0398063
22	0xbcbb56ee	-0.0228686
23	0xb8ecc181	-0.000112894
24	0xbccef8f7	-0.0252652
25	0xbd215fe7	-0.0393981
26	0x3c071b5d	0.00824627
27	0xbce7429a	-0.02823
28	0x3c40d97a	0.0117706
29	0x3d0d93ed	0.0345649
30	0x3cc03b24	0.0234657
31	0xbcaeceb5	-0.0213388
32	0x3c9e46a8	0.0193208
33	0xbbc85d67	-0.00611465
34	0x3ba0c6df	0.00490652
35	0x3cf73704	0.0301776
36	0xbd2a0939	-0.0415127
37	0xbc9e23a2	-0.0193041
38	0x3b8ce99d	0.00430031
39	0xbbda4922	-0.00666155
40	0x3e503b82	0.203352
41	0xbecc506a	-0.399051
42	0xbd2851f9	-0.0410938
43	0xbcf8e3e2	-0.0303821
44	0x3e2552e3	0.161449
45	0xbe461fe2	-0.193481
46	0xbd65a9f9	-0.0560703
47	0xbcdc0915	-0.0268598
48	0x3ccd7fb0	0.0250853
49	0x3be80171	0.00708025
50	0x3e641f21	0.222775
51	0xbf583f92	-0.84472
52	0x3ca418e4	0.0200314
53	0x3e35ff61	0.177732
54	0x3eff4752	0.498591
55	0xbe4eb8d8	-0.201877
56	0x3e4f0f5a	0.202207
57	0x3d12f372	0.0358767
58	0xbe700cd8	-0.234424
59	0x3da071b8	0.0783419
60	0x3c9affcb	0.0189208
61	0xbe869271	-0.262836
62	0xbc47cd8a	-0.012195
63	0x3bea80a7	0.00715645
64	0x3ce3eb98	0.0278223
65	0xbf38b168	-0.721457
66	0x3e91dc0e	0.284882
67	0x3de7e38f	0.113227
68	0x3d2a3c7f	0.0415616
69	0x3d2efb60	0.0427202
70	0x3d407937	0.0469906
71	0xbed96a6a	-0.42464
72	0x3e3fa483	0.187151
73	0x3d26e222	0.040743
74	0xbf047cd9	-0.51753
75	0x3ed7aede	0.421256
76	0xbb72e7bf	-0.00370644
77	0x3c1b2307	0.0094688
78	0xbed51c5c	-0.416232
79	0x3e25bf27	0.161862
80	0x3e43150e	0.19051
81	0xbeda105a	-0.425906
82	0xbcc08e30	-0.0235053
83	0xbb02532c	-0.0019886
84	0x3dde3d1d	0.108515
85	0xbf793aa3	-0.973551
86	0x3e4e5ffa	0.201538
87	0x3e897764	0.268489
88	0x3d12c585	0.0358329
89	0xbbe516f1	-0.00699126
90	0x3e4e17e3	0.201263
91	0xbdec857f	-0.115489
92	0xbd90a0da	-0.0706193
93	0x3e323a6d	0.174051
94	0x3fb3b891	1.40407
95	0x3e494899	0.196566
96	0x3e0306a3	0.127955
97	0xbd2a8eea	-0.0416402
98	0xbfd4110a	-1.65677
99	0x3e044e51	0.129205
100	0x3e3bb0e6	0.183292
101	0xbea1c843	-0.315981
102	0x3b31f3ae	0.00271533
103	0x3ca38bc1	0.0199641
104	0x3e038d1e	0.128468
105	0x3e2787cf	0.163604
106	0x3df97d4a	0.121821
107	0x3e380dc3	0.17974
108	0x3c889134	0.0166708
109	0xba966156	-0.00114731
110	0x3dd03d9b	0.10168
111	0xbf6cefcc	-0.925534
112	0x3dadde7a	0.084897
113	0x3e2dedf2	0.169853
114	0xbf814706	-1.00998
115	0x3e1e8a72	0.154825
116	0x3e16a3be	0.147109
117	0x3d1220ff	0.035676
118	0x3e7aa540	0.244771
119	0x3e182a13	0.148598
120	0xbd0e68e4	-0.034768
121	0x3d6deabf	0.0580852
122	0x3d111318	0.0354186
123	0xbd158157	-0.0365003
124	0xbd4f33ca	-0.0505865
125	0x3e25aea3	0.161799
126	0xbe82b14f	-0.255259
127	0xbf34aec9	-0.705792
128	0x3c22d7b1	0.00993912
129	0x3d139c5f	0.0360378
130	0xbd0ef7d0	-0.0349043
131	0x3e971f15	0.295159
132	0x3e6090f7	0.219303
133	0xbd284889	-0.0410848
134	0x3e8f09fa	0.279373
135	0xbec0a527	-0.37626
136	0xbb9699b5	-0.00459596
137	0x3ca3c6af	0.0199922
138	0x3e9d9b80	0.307827
139	0xbe239607	-0.159752
140	0xbc8879b7	-0.0166596
141	0x3c3afb7f	0.0114125
142	0xbd3fdec3	-0.0468433
143	0x3cbc1087	0.0229571
144	0xbd516781	-0.0511241
145	0x3c9fdf2e	0.0195156
146	0xbcf59a81	-0.0299809
147	0x3d049485	0.0323682
148	0xbcf6706a	-0.0300829
149	0x3d428714	0.0474921
150	0x3abe4e5a	0.00145192
151	0xbd1cd284	-0.0382867
152	0xbd26277c	-0.040565
153	0xbb98cf2f	-0.00466337
154	0xbd30cb7a	-0.0431628
155	0xbc7bde9e	-0.0153729
156	0x3d0dc7ef	0.0346145
157	0xbbf0ca58	-0.00734834
158	0xbca5488f	-0.0201762
159	0xbd0cc21b	-0.0343648
160	0x3d852b40	0.0650239
161	0xbe606b7b	-0.21916
162	0x3b918869	0.00444131
163	0x3d24a68e	0.0401979
164	0x3b0eb4e4	0.00217753
165	0x3f303d9b	0.68844
166	0xbdbb2174	-0.0913724
167	0x3ceff343	0.0292908
168	0x3c2800d0	0.0102541
169	0x3cd5d554	0.0261027
170	0x3d02d88d	0.0319448
171	0x3b75a284	0.00374809
172	0x3d70ae39	0.0587599
173	0x3d24fac1	0.0402782
174	0xbd502024	-0.0508119
175	0xbe8f3cb4	-0.27976
176	0x3ce5402b	0.0279847
177	0xbca3666c	-0.0199463
178	0x3f117ba6	0.568293
179	0xbdd5475a	-0.10414
180	0x3d87d25c	0.0663192
181	0xbeee5a14	-0.465531
182	0x3c84f6e0	0.016231
183	0x3c8694da	0.0164284
184	0x3df036ca	0.117292
185	0x3eddd8b6	0.433294
186	0x3df3b081	0.118989
187	0x3e5d2bb2	0.215987
188	0xbd22c867	-0.0397419
189	0x3b26cb86	0.00254509
190	0xbc864ceb	-0.0163941
191	0xbd946108	-0.0724507
192	0xbab553df	-0.00138342
193	0x3da2cd70	0.0794934
194	0xbdb0a6ef	-0.0862559
195	0x3e0fd7e4	0.140472
196	0x3da57888	0.0807963
197	0x3cea780e	0.0286217
198	0x3e4b8d3f	0.198781
199	0x3d0a8199	0.033815
200	0x3e8432a9	0.258199
201	0xbe7fdf3b	-0.249875
202	0xbb44db92	-0.00300381
203	0x3d499956	0.0492185
204	0x3e744849	0.238557
205	0xbf1421f3	-0.578643
206	0x3ef36545	0.475382
207	0x3e571194	0.210028
208	0x3b801fcb	0.00391004
209	0x3c2ad95d	0.0104278
210	0x3e3bd1ab	0.183417
211	0xbe820f91	-0.254025
212	0x3edd84d3	0.432654
213	0x3e5660e5	0.209354
214	0xbeaef7e4	-0.341735
215	0x3ea5c444	0.323763
216	0x3e31b7e1	0.173553
217	0x3bd53490	0.00650651
218	0xbf16be38	-0.58884
219	0x3e3b76f7	0.183071
220	0x3cec30e0	0.0288319
221	0x3edbdd55	0.429423
222	0xbc64543d	-0.0139361
223	0x3cfb73df	0.0306949
224	0x3d819249	0.0632673
225	0x3e856649	0.260546
226	0xbf1527c4	-0.582638
227	0xbed9e929	-0.425607
228	0x3d598776	0.0531077
229	0x3ccede1f	0.0252524
230	0xbdc56f40	-0.0964036
231	0x3efed71f	0.497735
232	0x3e40c4df	0.188251
233	0xbd925793	-0.0714561
234	0x3ebe809d	0.372075
235	0xbe93dd55	-0.288798
236	0x3c2757c8	0.0102138
237	0xbcbbf869	-0.0229456
238	0x3eb25d8d	0.34837
239	0xbe64e832	-0.223542
240	0x3e40a4e3	0.188129
241	0xbf0e9878	-0.557014
242	0x3d274db7	0.0408456
243	0xbcaefcd8	-0.0213608
244	0x3e3283d3	0.174331
245	0x3f0a3183	0.539818
246	0x3e67f4dc	0.22652
247	0x3e81018e	0.251965
248	0xbd07e699	-0.0331789
249	0x3d2a2171	0.0415358
250	0x3de996b7	0.114057
251	0xbe601ffb	-0.218872
252	0x3dc42cf9	0.0957889
253	0x3de046c7	0.10951
254	0xbe5ed139	-0.217595
255	0x3e813fd1	0.25244

Operation_5_B f4 [20]
0	0xbbf3e0b8	-0.00744256
1	0xbc1f8247	-0.00973565
2	0xbc9ea282	-0.0193646
3	0xbca51cba	-0.0201553
4	0x3c80fa9c	0.0157445
5	0xbce1e4f7	-0.027575
6	0x3d6e5d40	0.0581944
7	0xbc1f8e50	-0.00973852
8	0xbd147caa	-0.0362517
9	0x3c880d80	0.016608
10	0x3d19150f	0.0373736
11	0xbd388583	-0.0450492
12	0x3c40ab56	0.0117596
13	0xbc8b376c	-0.0169942
14	0x3d97b84e	0.074082
15	0xba3611a8	-0.000694538
16	0xbc2668b5	-0.0101568
17	0x3c915ad1	0.0177435
18	0x00000000	0.0
19	0xbb099a73	-0.00209966

linear_6_W f4 [9, 20, 1, 1]
0	0xbc89c942	-0.0168196
1	0xbcadd774	-0.0212209
2	0x3c4fe79f	0.0126895
3	0x3d3ec6e5	0.0465764
4	0x3ecf9ca6	0.405492
5	0xbea677b4	-0.325132
6	0x3dc6a2cc	0.0969902
7	0xbc05b6a3	-0.00816122
8	0xbdcb6ef1	-0.0993327
9	0xbca30fd0	-0.019905
10	0x3e54ca4f	0.207803
11	0x3e4ed070	0.201967
12	0xbce766e2	-0.0282473
13	0xbeb9578a	-0.361996
14	0x3eb6b8d8	0.356879
15	0xbcbbcead	-0.0229257
16	0xbb8021ce	-0.00391028
17	0xbebfbce4	-0.374488
18	0x3d249bf6	0.0401878
19	0xbd323b6c	-0.0435137
20	0xbc3f0f75	-0.0116614
21	0x3bae8a01	0.00532651
22	0xbe76049f	-0.240252
23	0x3f3ed43d	0.745426
24	0x3ec8c005	0.39209
25	0xbe28a8f4	-0.164707
26	0xbda74696	-0.0816776
27	0x3cc9e450	0.024645
28	0x3dee9ccb	0.11651
29	0xbc559c14	-0.0130377
30	0xbd09295a	-0.0334867
31	0xbd182e2a	-0.0371534
32	0xbc8a6117	-0.016892
33	0xbeff20a7	-0.498296
34	0xbdf59e62	-0.119931
35	0x3d1597e2	0.0365218
36	0xbd499a48	-0.0492194
37	0xbdd05532	-0.101725
38	0xbd47e5dd	-0.0488032
39	0xbd18b4e8	-0.0372819
40	0xbc52f215	-0.0128751
41	0x3c3bef9a	0.0114707
42	0x3e0b367a	0.13595
43	0xbdce22a3	-0.100652
44	0x3e83a10a	0.257088
45	0xbe898677	-0.268604
46	0x3eacb2d9	0.337302
47	0x3c0e6bc9	0.00869269
48	0xbe9268b2	-0.285955
49	0xbe473797	-0.194548
50	0x3e5e1156	0.216863
51	0x3ee2eddd	0.443221
52	0xbe494291	-0.196543
53	0xbd38edd8	-0.0451487
54	0xbdbf9229	-0.0935405
55	0x3cbfd56e	0.0234172
56	0xbbe84d06	-0.00708926
57	0xbdfc0c20	-0.12307
58	0xbca639bb	-0.0202912
59	0xbc981890	-0.0185664
60	0x3ccfb00c	0.0253525
61	0xbb511963	-0.0031906
62	0xbdb2f0d3	-0.0873734
63	0x3f57506e	0.841071
64	0x3ec65259	0.387347
65	0xbe5ec8d6	-0.217563
66	0x3d294376	0.0413241
67	0x3cdcdd51	0.026961
68	0x3e5be447	0.214738
69	0xbb845edf	-0.00403963
70	0xbed10f0f	-0.408318
71	0xbe4b588e	-0.19858
72	0xbd8d973a	-0.0691361
73	0xbd40d365	-0.0470766
74	0xbec412f1	-0.382957
75	0xbd215dce	-0.0393961
76	0x3d08ba33	0.0333807
77	0xbe0c8a37	-0.137246
78	0x3a980fd7	0.00116014
79	0xbcc467d9	-0.0239753
80	0x3ce4cb91	0.0279291
81	0xbbaa16aa	-0.00519069
82	0x3a8ab901	0.00105837
83	0x3dbd1b06	0.0923367
84	0xbddb1423	-0.106972
85	0xbe0a187a	-0.134859
86	0x3e6743e9	0.225845
87	0x3cadf67e	0.0212357
88	0xbf2255f3	-0.634124
89	0xbdbdef41	-0.0927415
90	0x3e66f08d	0.225527
91	0x3f1c57f3	0.610717
92	0xbd958b5a	-0.0730197
93	0xbd97c188	-0.0740996
94	0xbf12d96a	-0.57363
95	0xbca2298b	-0.0197952
96	0x3c4cfeb6	0.0125119
97	0x3ed66d9c	0.418805
98	0x3b00a1fc	0.00196278
99	0xbab1b9cc	-0.00135594
100	0x3cbe9ed7	0.0232691
101	0x3cf2e672	0.0296509
102	0xbe5362a6	-0.206431
103	0x3e9b4ce4	0.303321
104	0x3eea1709	0.457207
105	0xbd6062c7	-0.0547817
106	0x3d7d102c	0.061783
107	0x3cf10236	0.02942
108	0xbcc73c6a	-0.0243208
109	0xbe14a9ce	-0.145179
110	0xbdec00da	-0.115236
111	0x3e819a20	0.253129
112	0xbe387ce9	-0.180164
113	0xbdaf66f6	-0.0856456
114	0xbcb76486	-0.0223868
115	0xbd0a1c33	-0.0337183
116	0x3cb3b0d2	0.0219349
117	0xbdaf9493	-0.0857326
118	0xbd027906	-0.0318537
119	0x3ca992d6	0.0206999
120	0x3be254b4	0.00690707
121	0xbcf549c4	-0.0299424
122	0xbd885d74	-0.0665845
123	0x3eb53ac5	0.353964
124	0x3ea0fece	0.314444
125	0xbe54c7b0	-0.207793
126	0x3db31bdf	0.0874555
127	0xbc18e7ee	-0.00933264
128	0xbd136827	-0.035988
129	0xbe362e90	-0.177912
130	0x3d2d3c0e	0.0422936
131	0x3e930ff1	0.287231
132	0xbe5b2208	-0.213997
133	0xbde100e7	-0.109865
134	0xbd5f9577	-0.0545859
135	0x3d1334fc	0.0359392
136	0x3b72de2e	0.00370587
137	0xbd3363f5	-0.0437965
138	0xbd4b1283	-0.0495782
139	0x3d42354a	0.0474141
140	0xbc3c5ca8	-0.0114967
141	0xbd2dbb5a	-0.042415
142	0xbebf455a	-0.373576
143	0x3e833333	0.25625
144	0x3f1225ea	0.570891
145	0x3d91eb42	0.0712495
146	0xbecc8777	-0.399471
147	0x3bb5da2d	0.00554969
148	0xbdd719f8	-0.10503
149	0xbd92f82a	-0.0717624
150	0xbebd2f1b	-0.3695
151	0x3ea595bc	0.323408
152	0xbd9f4187	-0.0777617
153	0x3c827195	0.0159233
154	0x3bbd90da	0.00578509
155	0xbcec4d9c	-0.0288456
156	0x3d0e1ec2	0.0346973
157	0x3f168b8f	0.588067
158	0x3c291c59	0.0103217
159	0xbc952e9b	-0.0182107
160	0xbd3262be	-0.0435512
161	0xbc503247	-0.0127073
162	0x3d12e276	0.0358605
163	0x3d8aadd9	0.0677144
164	0xbdc936b8	-0.0982489
165	0xbd99831c	-0.0749571
166	0x3eb2c732	0.349176
167	0x3c72d143	0.0148204
168	0xbeaaa865	-0.333316
169	0xbe8917b5	-0.267759
170	0x3e6f9874	0.23398
171	0x3ef309c8	0.474684
172	0xbe47d673	-0.195154
173	0xbcaf9a21	-0.0214358
174	0xbe4bdad7	-0.199077
175	0xbd2f95f0	-0.0428676
176	0x3d3c31c5	0.0459459
177	0x3de5dfa8	0.112243
178	0xbd46e7cb	-0.0485609
179	0xbd2a951a	-0.0416461

linear_6_B f4 [9]
0	0x3c354a65	0.0110651
1	0x3d056042	0.0325625
2	0x3bd68d2a	0.00654759
3	0x3d351d18	0.0442172
4	0x3cc98d12	0.0246034
5	0xbcb21709	-0.0217395
6	0xbcb79314	-0.022409
7	0xbc47ff73	-0.0122069
8	0xbd1bbf0e	-0.038024
