code/nnv/examples/Submission/ARCH-COMP2021/benchmarks/Airplane/controller_airplane.onnx (onnx, 55199 bytes, 8 tensors)

dense_4/kernel:0 f4 [20, 6]
000000 09 e4 df bd 33 c1 07 3e d4 78 6b be 5a 99 66 bc
       -0.10932166 0.13257293 -0.22995311 -0.014074648
000010 97 c6 1e 3c 2d bd a2 bb a7 a9 9e 3c 3d 0f 21 be
       0.009690902 -0.004966399 0.019368006 -0.15728469
000020 fe bc cb 3c 9f 1e e5 bc 4d ed 93 bc b9 be 72 3d
       0.024870392 -0.027968703 -0.01805749 0.05926392
000030 2b d9 a2 be e8 62 f7 3c af 8b 8b 3d f8 b4 9c bc
       -0.3180631 0.03019853 0.06813752 -0.019129261
000040 e9 f7 7c bd 02 c1 9b 3c 7b 67 7c bb 9b 07 bb 3d
       -0.061759863 0.019012932 -0.0038513828 0.0913231
000050 b6 4f 65 3c 1f 34 a4 3c 73 b0 19 3c 16 28 92 bc
       0.013996055 0.020044385 0.009380448 -0.01784138
000060 49 31 2c bc 79 0e 12 3c 8a 5f 2e bc 26 2e 76 3c
       -0.010509797 0.008914583 -0.0106428955 0.015025651
000070 64 2d 22 3d d7 b6 90 3e 92 9d 78 3d d4 40 75 3c
       0.03959407 0.28264496 0.060697146 0.0149690695
000080 e3 76 26 bc 6f 7a 9f 3a 0a e8 32 3a 34 36 48 bb
       -0.010160181 0.0012167225 0.00068247376 -0.0030549886
000090 a2 e3 06 3e d2 09 07 be 9d 4d a5 bd 82 00 4c 3c
       0.13172773 -0.1318734 -0.08071444 0.012451293
0000a0 1b 15 87 3d 80 8e e2 bb 6b 06 34 bc 2c 71 92 3a
       0.065958224 -0.00691396 -0.010987858 0.0011172644
0000b0 4b 71 ac bc 08 53 65 be 13 1d 4a 3d e2 07 ac bc
       -0.021050116 -0.22394955 0.049344134 -0.020999853
0000c0 d3 b9 00 3d f4 15 54 3b 55 fe 5b 3d 5f f6 44 bb
       0.031427216 0.0032361718 0.053709347 -0.0030054075
0000d0 7e ae 5f ba 9e 82 26 38 f0 de 85 be 90 ca 3e be
       -0.0008532776 3.969913e-05 -0.2614665 -0.18631959
0000e0 c6 99 16 3e 8c ac 8c 3c eb 8d f0 3c 16 4e 9f bc
       0.14707097 0.01717212 0.029364547 -0.019446414
0000f0 27 3a 3a 3e 91 ec 95 3d 6a 7e 66 3e 4c cf 9a 38
       0.18186246 0.07320512 0.2250916 7.381904e-05
000100 a5 d6 cf 3b eb 83 02 bb 26 33 89 bd 76 d9 64 3d
       0.0063427263 -0.0019915055 -0.06699209 0.05587145
000110 8f b8 c8 bd 13 4f a6 3a 4c a5 a5 3b 2c 8d 31 3b
       -0.09800827 0.0012688361 0.0050551053 0.0027092202
000120 dd 42 ab be 41 d7 e9 bd 81 c2 0c 3e 81 37 e7 3d
       -0.3344945 -0.114180095 0.13746072 0.112898834
000130 f6 8e 5f bd 0b d5 8e bd 4d bf 85 be 6a d7 63 bd
       -0.054579698 -0.069742285 -0.26122513 -0.055625357
000140 6d 71 af be e8 21 4c 3b 33 40 d5 bb 2d d8 01 bb
       -0.34266225 0.003114814 -0.0065078973 -0.0019812689
000150 96 cd aa 3c a4 29 84 be 76 77 e8 bd 71 3f dd 3b
       0.020849984 -0.2581302 -0.1135091 0.0067519476
000160 e9 63 00 bd 95 50 cb bb 4d 67 88 bd a5 15 95 3e
       -0.03134528 -0.0062046745 -0.06660328 0.29118076
000170 be 3c c5 3d 2c 8a 39 3c 4d 2d c1 3c 4d b3 04 bc
       0.09630726 0.011324447 0.023581171 -0.008099389
000180 7b 5c 45 bb f2 39 cc 3d 69 6a eb bd 51 f3 5a bc
       -0.0030114937 0.0997199 -0.114949055 -0.013363675
000190 67 6f 9c bb 49 2e 93 39 4a ca 45 3e 00 a6 20 3e
       -0.0047740224 0.0002807251 0.19315448 0.15688324
0001a0 52 be 35 be 55 e0 c1 3b ce c7 86 bc 47 2a 95 ba
       -0.17748383 0.005916635 -0.016452696 -0.0011380397
0001b0 9f ce 48 3e a2 9c 0e bd 64 03 89 3e 1a a0 e7 3b
       0.1961007 -0.034817345 0.267604 0.007068646
0001c0 b3 a5 f7 bc 38 4d 22 bc a2 72 08 bf 68 07 d5 bc
       -0.030230379 -0.009906106 -0.53299916 -0.026004508
0001d0 35 9c 5e bf 67 7f 0f 3c ff 34 0e 3d a9 c3 be ba
       -0.86957103 0.008758402 0.03471851 -0.0014554161

dense_4/bias:0 f4 [6]
000000 15 ee 56 40 38 45 c6 3e 59 6e 90 40 f9 8c 60 bd
       3.3582814 0.38724685 4.51347 -0.054821942
000010 a2 1f b3 3d b3 f1 ea 3c
       0.08746268 0.028679704

dense_3/kernel:0 f4 [100, 20]
000000 3f 87 a2 be b1 c4 04 bd 29 75 e1 3e 9d 0d 42 be
       -0.3174381 -0.032414142 0.440347 -0.18950506
000010 ad 18 63 3d f2 b0 50 bf d1 6a 31 be 49 37 d1 3d
       0.055443455 -0.8152 -0.17325903 0.10215623
000020 19 7e a0 bf d0 7c e3 3d d3 d5 0d bf 5b c3 d1 bd
       -1.2538482 0.111077905 -0.55404395 -0.10242339
000030 86 d7 ac be d1 cd f2 b9 f7 13 a5 be 3f c5 2b 3f
       -0.3375818 -0.00046311182 -0.32241794 0.6709785
000040 aa 60 7e 3e 46 eb 47 3e 45 0e c0 3e 16 45 ad be
       0.24841562 0.19523343 0.37510887 -0.3384177
000050 0f fc 10 3e 06 38 cc be 1e a3 c8 bc 5f 4f f9 be
       0.14158653 -0.39886492 -0.024491843 -0.48693368
000060 99 11 4a bf 0a fa 20 bc a1 fa aa 3d cb cc a4 3d
       -0.789331 -0.009825239 0.08348585 0.08046874
000070 38 37 e8 be 14 53 e0 3d f2 bc 07 be 38 06 4b be
       -0.4535463 0.10953346 -0.1325567 -0.19826591
000080 c6 cf 39 be c8 fa a2 3c f4 9b 82 3d 5c 65 d0 3d
       -0.18145666 0.019894972 0.06377402 0.10175583
000090 a7 89 d6 3c 32 e1 bc 3c 49 14 76 bc f5 05 a0 bd
       0.026188685 0.0230566 -0.015019485 -0.07813636
0000a0 cb 5f db be 1a c8 d0 be 13 2b 95 3d e7 7b 80 3d
       -0.42846522 -0.40777665 0.072836064 0.062736325
0000b0 d4 4b e0 bb a3 bf a7 3f c2 bb 4b 3e a9 8a 1c 3d
       -0.006844977 1.3105358 0.19895843 0.038218174
0000c0 bd 67 8c bf fd f8 fe bd 23 ef 08 3d b7 fd 15 3e
       -1.0969158 -0.124498345 0.033431184 0.14647566
0000d0 39 a2 a5 bd 86 25 21 3e 85 47 ee be 2f 13 7a 3e
       -0.08087582 0.1573697 -0.4653894 0.2442138
0000e0 dd 3f 7c 3f 2f ac 5e 3e ac 7a 0b be a7 b0 1d be
       0.9853495 0.2174537 -0.13621014 -0.15399419
0000f0 21 d9 c0 3c 06 31 01 3f f2 df 1e be 91 82 60 bc
       0.023541035 0.5046543 -0.15515116 -0.013703004
000100 99 97 a0 3c 1a d8 ef 3e 2d c7 2e 3d 15 3d 8a 3c
       0.019603537 0.4684456 0.042670418 0.01687483
000110 8b da ea be 02 5c 03 3d 8c 66 c2 3e 8a 0e 1d bf
       -0.4586986 0.032070167 0.37968862 -0.6135031
000120 7e 33 b7 be 03 84 a9 3e 84 65 69 bd dc 57 c2 3e
       -0.35781473 0.3310853 -0.05698158 0.37957656
000130 db 9d a1 bf c9 cb 6a 3e c0 82 cb bc 6a 69 00 bf
       -1.2626299 0.229293 -0.02484262 -0.5016085
000140 61 23 bd be dc e6 55 3e 23 2f 08 be 87 92 fd 3d
       -0.36941054 0.20888847 -0.13299231 0.123814635
000150 df 91 5c 3d 7b 5c 25 3f 1c 45 ae 3d f7 22 8d bc
       0.05385005 0.6459424 0.08509275 -0.017228587
000160 bb 01 fb 3e 92 e9 69 3d 41 7a a2 3e ed 2c b6 be
       0.49024758 0.057107516 0.31733897 -0.3558115
000170 f4 8d 53 be d9 84 05 3e b2 08 12 3f f0 28 2f 3e
       -0.2065962 0.13038959 0.5704452 0.1710546
000180 aa d1 b4 be b2 ea 1c 3e 4e b1 26 be a7 a2 7b be
       -0.3531621 0.15323904 -0.16278574 -0.24573766
000190 98 8c 22 3e 5b bd 41 3e 75 d7 28 bd fc e6 dc bd
       0.15873945 0.1891989 -0.0412211 -0.10786244
0001a0 96 db 92 bc e4 a7 e1 3d 51 20 69 be 5c 82 3c 3e
       -0.017926972 0.11018351 -0.22766234 0.18409103
0001b0 9b 0c e2 3d 53 02 50 3e 12 cd 90 3d 66 e0 00 be
       0.110375606 0.20313387 0.07070364 -0.12585601
0001c0 a6 86 25 be 31 66 60 3d 65 81 bb 3d d8 39 be 3d
       -0.16164646 0.054784957 0.091555394 0.092883766
0001d0 4f 4f f4 bb ea a0 6f 3d 44 2a fb 3d 4a 91 7c be
       -0.0074557434 0.05850307 0.12263921 -0.24664798
0001e0 20 0d 60 3e 62 ec 24 be 24 4f 61 3c 40 2f 6c ba
       0.21880007 -0.16105798 0.013751779 -0.00090097263
0001f0 24 1a 5b 3e 15 b4 2b 3e 0b bc bd bd 3a 74 cc 3d
       0.2139669 0.16767915 -0.09264382 0.09983106
000200 f8 5f 35 3e ab c8 00 be 18 27 02 3e 04 2a ad bd
       0.1771239 -0.12576549 0.12710226 -0.084552795
000210 e7 8d 0a bb 0e f9 60 3e 38 85 e1 3d 63 38 b0 3a
       -0.002114171 0.21970007 0.110117376 0.0013444539
000220 b7 14 0e bf 2a 96 60 bd 02 e6 67 bb 94 cc c9 be
       -0.5550036 -0.054830708 -0.0035384898 -0.39413893
000230 65 32 47 bd 4f 8c 0d be d2 fd 42 3e 85 ba c5 3d
       -0.048632044 -0.13823055 0.19042137 0.096547164
000240 4c a1 a6 3d e1 f5 bc bd 68 c6 25 3d dd 7c 96 3d
       0.08136234 -0.09226585 0.040472418 0.073480345
000250 f2 e7 cc bd 75 3d 8b 3e f4 52 2c be 40 37 32 be
       -0.100051776 0.27195325 -0.16828519 -0.17403889
000260 ef 2d 29 3e 80 b4 f2 3d 3d a2 00 be 52 54 40 bd
       0.16521429 0.11850834 -0.12561889 -0.046955414
000270 f6 e2 04 bd 4b 2a 2d be c0 3d 2c be 8a a6 f1 3d
       -0.03244301 -0.16910665 -0.16820431 0.11799343
000280 c0 f6 6c bf 66 3b 88 be c3 72 a1 bc 65 58 78 3e
       -0.9256401 -0.26607817 -0.019708043 0.2425247
000290 96 b0 08 bc df 71 a5 3f dc f9 76 3e 19 53 0a 3c
       -0.008342883 1.2925376 0.24118751 0.008442664
0002a0 41 e4 cc 3f d0 1d cf bd 6d 4c ae be 01 dd 42 3d
       1.6007158 -0.10113108 -0.34042683 0.047574047
0002b0 59 13 c2 be 27 28 be 3d 7d b2 d4 bd 18 ef 65 be
       -0.37905386 0.09285002 -0.103856064 -0.22454488
0002c0 17 48 51 3e eb 87 95 be 65 d3 f8 3d 98 cc 7d bf
       0.20437656 -0.2920526 0.12149695 -0.9914031
0002d0 a9 65 16 be c7 1d 2b bf 80 49 b8 be ee ba 96 be
       -0.14687218 -0.6684231 -0.35993576 -0.2943949
0002e0 3c 24 22 3e 81 dc 9d 3e 5a 7c 6e 3e d8 89 1d bf
       0.15834135 0.30832294 0.23289624 -0.6153846
0002f0 47 4f d3 be 86 7d 1e 3e b8 98 bd 3d 26 a3 08 bd
       -0.4127142 0.15477571 0.092576444 -0.033358715
000300 29 26 d5 bd e9 20 94 3c 16 7f e7 bd 7d 5a 29 3e
       -0.10407669 0.018082099 -0.113035366 0.16538425
000310 d2 f5 be be 07 75 a9 bd 45 ae e6 bd 09 bb 3f bc
       -0.3729692 -0.08274274 -0.11263708 -0.0117023075
000320 72 14 a2 be 9a c2 35 be 8d 5d 4c bf 8a 9f 6b be
       -0.31656224 -0.17750016 -0.7983025 -0.23010078
000330 ac dc 83 bd c4 e1 9a 3f e8 77 2e bf 56 28 12 be
       -0.06438574 1.2100148 -0.6815171 -0.142732
000340 38 ea 0f be cf ab 43 bf be 4e 71 3f b4 ec d5 be
       -0.14054191 -0.76434034 0.94260776 -0.41782153
000350 39 c6 f3 ba 08 98 14 3f 62 81 4b 3f dc b4 ee be
       -0.0018598504 0.5804448 0.794943 -0.4662236
000360 fc 41 5f bf 92 4c 32 bf 6a a5 a1 bf 3e 85 bd be
       -0.8721006 -0.6964809 -1.2628605 -0.37015718
000370 c2 4d 24 be 6e 51 77 3e 3f ae c4 3e 72 df 35 3e
       -0.16045287 0.24152157 0.3841419 0.17761019
000380 0d 63 1d bd fb a3 21 3f 5e 3b b7 3e dd 89 89 bc
       -0.03842454 0.6314084 0.3578748 -0.016789371
000390 8e 83 9c 3f b9 ae 86 bd 4a 56 31 be 6e 19 0c 3f
       1.2227647 -0.065762945 -0.17318073 0.547263
0003a0 53 de 76 bd 9b a9 50 be 1d dc 50 3e 47 f9 b9 3e
       -0.06027062 -0.203772 0.20396467 0.36322996
0003b0 b1 92 f7 be 93 61 e6 3d 92 32 b4 3e aa 98 37 3f
       -0.48354104 0.112490796 0.35194832 0.7171732
0003c0 cf 1d d1 be d3 4a 68 be 9d dc 69 be de 59 e2 3d
       -0.40843055 -0.22684793 -0.22838064 0.11052297
0003d0 71 59 c1 3c ec 72 0a be 1d df d8 3e 48 a1 82 3d
       0.02360222 -0.13520402 0.42357722 0.06378418
0003e0 67 d5 d7 be 60 c2 e6 3d 71 e5 70 bf d4 42 c6 3e
       -0.42155 0.11267543 -0.941001 0.3872286
0003f0 7f b4 19 bd 25 68 97 3d c4 8c 84 3c 77 56 bf 3e
       -0.03752565 0.07392911 0.016180404 0.37370655

dense_3/bias:0 f4 [20]
000000 41 a7 91 bf ad 05 33 bf 89 ed 08 3f 59 31 8a 3f
       -1.1379167 -0.69930536 0.5348745 1.079631
000010 cc 0c 72 3e 6c 36 ac be 6f 83 2c 40 b6 a9 70 bf
       0.23637694 -0.3363527 2.695522 -0.9400896
000020 28 4e 2f 3e d2 e2 f8 3f aa 73 90 bf d9 e2 28 bf
       0.17119658 1.944422 -1.1285298 -0.6597114
000030 76 8c b0 bd ff 1c 6d c0 4c 84 39 3e fb b6 3e 40
       -0.08620541 -3.7048948 0.18116874 2.9799182
000040 33 20 85 bf 75 ae 02 c0 4b 25 8b 40 18 8f 32 3e
       -1.0400451 -2.041898 4.3483024 0.17437398

dense_2/kernel:0 f4 [100, 100]
000000 64 42 0e 3d 4e 66 8b bc d9 3b 81 3d fe 70 07 bf
       0.034731284 -0.017016556 0.06310243 -0.5290679
000010 4e 06 16 bf 7c d2 5a bd b3 aa 46 bc 5d 2f 2e 3c
       -0.5860337 -0.05342339 -0.012125659 0.0106314095
000020 c1 30 a4 3e cb b1 1c bc 05 d1 89 3e 3e 73 56 bd
       0.32068446 -0.0095638735 0.26917282 -0.052355997
000030 5a 5f 71 bd 4d 64 9f bd e8 dd 8c 3e a8 e5 9f 3c
       -0.058928825 -0.07782803 0.2751305 0.019518688
000040 fc 57 d5 bf 4f da c0 be d9 e2 9c bd 79 b0 3d be
       -1.6667476 -0.37666556 -0.07660455 -0.1852435
000050 9c 83 22 3c a7 ad 84 c0 e3 ab e4 ba 7f 99 97 be
       0.009919073 -4.146198 -0.0017446246 -0.29609296
000060 1c 14 81 3f e2 5b eb 3d 15 c6 4f be df b0 25 bf
       1.0084262 0.11492135 -0.20290406 -0.6472301
000070 53 4a b0 bd 51 67 55 bd 08 8b 55 3c c1 d5 1e 3d
       -0.08607926 -0.052100483 0.013033636 0.03877807
000080 59 20 46 3d fe ca 8b 3c 27 21 a6 be 51 45 4c 3d
       0.048370693 0.017064568 -0.32447168 0.049870793
000090 7d ba 8f be 11 61 2a bf 39 c1 26 be be 91 87 be
       -0.28071967 -0.6655436 -0.16284646 -0.2647838
0000a0 47 65 c7 bc 63 01 a0 be 1d f4 d5 3d 2d ee e2 3f
       -0.024340285 -0.31251058 0.104469515 1.7728935
0000b0 00 2a 70 be 8f 0e 04 bd 22 15 02 3e f8 6e 36 bc
       -0.23453522 -0.032240447 0.12703374 -0.011134855
0000c0 07 ac 2f bc 85 eb bd bf 2e ec 0a be 42 b6 9b 3c
       -0.010722167 -1.48375 -0.13566658 0.019007806
0000d0 c5 f8 ed be 0c 4a 4a be 33 77 49 3e 08 03 06 40
       -0.4647886 -0.19754809 0.19674377 2.093935
0000e0 21 fc 63 bd 18 86 df be 4d c5 b9 be b7 9f 6c 3d
       -0.05566037 -0.43656993 -0.3628334 0.057769503
0000f0 12 57 a9 bd f9 0b 0a bf be ad 9d 3d 36 96 0b bd
       -0.082685605 -0.5392452 0.07699154 -0.0340788
000100 92 1d 2f bc ca 24 2e 3d 7e 20 30 bc 73 b1 22 40
       -0.010688202 0.042515554 -0.010749934 2.5420806
000110 45 34 3b 3e 1b a8 5e bb 71 d7 20 3e 0d b9 80 bc
       0.18281658 -0.003397471 0.15707184 -0.01571324
000120 34 5b fa bd 0d ed 8d bd b4 31 63 bf d3 ed 1c bd
       -0.12224427 -0.069299795 -0.88747716 -0.038312744
000130 92 fa 27 bd bf d8 ec 3b 8a f0 f4 be 57 6e dc 3e
       -0.041010447 0.0072279866 -0.47839767 0.43052933
000140 d6 48 ab be d2 de c8 bd 8e 56 9f bd 2e df 86 be
       -0.33454007 -0.098081246 -0.07780181 -0.26342148
000150 3a 24 c7 3d 2e 5b eb bd d9 e5 3d be b7 44 29 3f
       0.097237065 -0.114920005 -0.18544711 0.66120476
000160 41 5d c8 3d aa 1e a5 3b eb 33 d9 3f c0 31 39 be
       0.09783412 0.005039056 1.6968969 -0.18085384
000170 15 10 e2 bc ae 43 a0 3d a3 d1 31 bd 04 a5 f3 bd
       -0.02759556 0.07825409 -0.043412816 -0.118967086
000180 65 42 24 bf a3 a2 05 3e a4 1e c5 be 89 c1 4a 3e
       -0.6416381 0.13050322 -0.3849994 0.1980039
000190 a4 d4 0f 3f 1d 8d 6c bd f2 9e 82 3c 6b e3 71 3e
       0.5618384 -0.057751764 0.015944932 0.2362191
0001a0 5e 2c 80 ba 75 99 8c be ae 66 1b bf f4 f5 61 be
       -0.0009778847 -0.27460828 -0.6070355 -0.2206648
0001b0 2b 36 ad be fd 5b be 3d 35 5a 42 bf e2 4b 93 3e
       -0.3383039 0.09294889 -0.75918895 0.28768831
0001c0 93 6a 3e 3d 18 fa 9a 3c 7c 0e b7 bb af 5b 6d bd
       0.046488356 0.018918082 -0.0055864435 -0.057948764
0001d0 42 28 6c bf d0 64 06 3c ba 5a d8 bc e8 78 7f 3d
       -0.9224893 0.0082027465 -0.02641045 0.062371165
0001e0 f0 7d 67 c0 d1 08 12 be 8f 7a 0c bc c3 8c 04 3f
       -3.6170616 -0.14261176 -0.008574142 0.51777285
0001f0 7e 42 0b c0 2d 18 16 3f 82 42 2a be 1f cf 0a c0
       -2.1759334 0.5863064 -0.16626933 -2.1688917
000200 2a 79 8b bf 9f 5d 5d 3d 80 c9 49 bf f9 34 0b 3e
       -1.0896351 0.054044362 -0.7882309 0.13594426
000210 90 5c 20 bf 10 e1 1b be e0 f2 5e bc cb 99 de bd
       -0.6264124 -0.15222573 -0.013607711 -0.108691774
000220 6f 14 4d be 83 bd 0d 3f 3b de 13 bf 68 6f 99 bd
       -0.20027326 0.55367297 -0.5776097 -0.07491952
000230 bf b9 85 be 59 9d eb be cb a3 99 3e 90 c1 c9 bf
       -0.26118276 -0.46018484 0.30007777 -1.5762196
000240 49 af 27 c0 f6 5b d1 bf c7 ae ab bd 35 f1 2e 3e
       -2.6200736 -1.6356189 -0.083829455 0.170842
000250 9a ad 9a 3e 88 de 38 bd 2c a2 0a bf 0b 18 cd 3c
       0.30210572 -0.045134097 -0.54153705 0.025035879
000260 cc e3 3a 3f ab fd 1f be 5a 9a 8b bf 00 35 6b bf
       0.7300384 -0.1562411 -1.0906479 -0.91877747
000270 25 34 df be 04 9c 49 be 07 2e c1 be 93 1b d9 be
       -0.4359447 -0.19688421 -0.3773043 -0.4240385
000280 70 1b 8a be f1 81 10 c0 1b 0c 92 3d 37 e8 fa be
       -0.26974058 -2.257931 0.07131215 -0.4900529
000290 09 1f 05 3e 51 62 d9 3d f8 ac bd be 16 1c e4 bf
       0.1300012 0.106144555 -0.37046027 -1.7821071
0002a0 a4 a9 9a 3d 07 55 43 be d2 16 c4 be 25 a2 05 be
       0.07551888 -0.19075404 -0.3829866 -0.13050134
0002b0 94 fe 70 bf 65 07 f3 be c0 72 b2 c0 fe 6b 96 3e
       -0.94138455 -0.4746658 -5.5765076 0.29379267
0002c0 c4 e8 61 3b 8d 01 27 3e 77 6e 46 bf 98 b4 b5 3e
       0.0034471015 0.16309185 -0.77512306 0.35489345
0002d0 e6 28 b1 bf a6 78 b7 be 34 e9 40 be 05 4f 0e be
       -1.3840606 -0.35834235 -0.1883896 -0.13897331
0002e0 6a 36 6d bf 50 db 05 3e 28 fb 3a 3e 79 80 41 be
       -0.92661154 0.13071942 0.18259871 -0.18896665
0002f0 9b 2f 8f be 5d 10 5b be a0 6d a0 bd 69 48 65 be
       -0.27966008 -0.21392961 -0.07833409 -0.22390904
000300 ae cf 38 c0 96 9a 09 3c 45 77 35 bd 12 64 4a bd
       -2.8876758 0.008398673 -0.044303197 -0.04941184
000310 23 2b be be 2e cc 2d 3e f5 68 7a 3e 6d bc f6 be
       -0.37142286 0.1697242 0.244541 -0.48190632
000320 e5 ec f7 3d 30 72 d2 3d 84 ef 14 be 3f 00 e5 bc
       0.12105731 0.10275686 -0.14544493 -0.027954219
000330 c5 69 a7 3d 77 0f eb 3d 1d c6 67 3e 75 b1 1a be
       0.08174471 0.11477559 0.22634168 -0.15106757
000340 ef 37 18 3d 9c c7 7e 3d 83 df 6b be 9d 26 80 3e
       0.037162717 0.06220208 -0.23034482 0.2502946
000350 8c a6 19 3d 4a fb 31 3d 96 bb 4b be 55 38 40 3c
       0.037512347 0.04345254 -0.19895777 0.011732181
000360 0e ec ac 3d bb 78 fd 3d 20 51 46 be 19 d9 59 be
       0.08443461 0.12376543 -0.19366884 -0.21274222
000370 34 7e 26 3e 0d ab b5 3d 2f d3 95 be 91 ea 87 3d
       0.1625908 0.08870516 -0.29262683 0.06636537
000380 df c9 b3 bd 52 02 b3 be c0 08 15 3e 50 b0 4a be
       -0.08778738 -0.34962708 0.14554119 -0.1979382
000390 44 62 40 be 9b d1 2e bc 0d 58 77 be 09 8c 03 bd
       -0.18787485 -0.010670091 -0.24154682 -0.03211597
0003a0 f1 ab 68 be 0a f5 80 b9 64 f2 b9 3d 3f 3f 50 3d
       -0.2272184 -0.0002459663 0.090794355 0.050841566
0003b0 53 b9 12 be ac 7d 04 be 81 8b c6 3d 6d e4 05 bf
       -0.14328508 -0.12938565 0.09694577 -0.52301675
0003c0 57 df 36 be 12 3a de bd cd a6 e1 3c 2d 13 83 3e
       -0.17858635 -0.1085092 0.027545357 0.25600567
0003d0 c3 03 92 3d 60 82 54 bd 49 ee b0 bd 47 4b 25 3d
       0.07129624 -0.051882148 -0.08639199 0.040354993
0003e0 0c 25 a0 be 2e 22 38 3d 08 8b 1f 3d cc dd 23 be
       -0.31278265 0.04495447 0.03895095 -0.16002578
0003f0 8c 13 e0 3b b0 c7 9c 3d 05 ae bf 3e 9e f8 cd 3d
       0.0068382677 0.07655275 0.37437454 0.100571856

dense_2/bias:0 f4 [100]
000000 46 56 12 40 e1 74 6a 3f 51 0b c9 bf eb 44 5d c0
       2.2865157 0.91584593 -1.5706578 -3.4573314
000010 ba c5 45 be fd 28 19 3c 06 ab 75 3d 93 97 1d be
       -0.19313708 0.009348151 0.059977554 -0.15389852
000020 ca 34 72 bf 08 c1 7f 3e 0c 90 ab bf ed 25 07 bf
       -0.946118 0.2497598 -1.3403335 -0.52792245
000030 5b e8 f5 bf a0 87 1d be bf e3 d3 bf 09 7c 15 40
       -1.9211534 -0.15383768 -1.6553878 2.3356955
000040 d2 6d 03 c0 e4 fc a3 3f 45 37 ff bd d9 ed 0c be
       -2.053578 1.2811551 -0.12461714 -0.13762607
000050 6f 23 82 c0 d0 47 11 3f 49 be 13 3f be 5c 11 be
       -4.0668254 0.567502 0.5771223 -0.14195535
000060 5b 8a 97 bf 8b 49 9a 3f 62 98 6e be cd 94 6f 3f
       -1.1839098 1.2053694 -0.23300317 0.93586427
000070 0b 7f 4d be 56 de 66 c0 f1 cf f7 3e b9 f0 37 c0
       -0.20067994 -3.6073203 0.48400834 -2.8740675
000080 43 9c 7c be b5 fd cd bd be 82 09 be a0 b4 c6 bd
       -0.24668984 -0.100581564 -0.1342878 -0.0970242
000090 c0 a1 2e bf 4a 24 9b be 08 88 e4 bd ee b8 ed be
       -0.6821556 -0.30301124 -0.111587584 -0.46430153
0000a0 9e c9 b5 3e f9 98 84 3e 54 54 a0 bf 59 82 a6 bf
       0.35505384 0.2589796 -1.2525735 -1.3008529
0000b0 82 5a 73 bf cf 69 a3 bc dd 67 32 c0 d0 2c 96 bf
       -0.9505998 -0.019947914 -2.7875893 -1.1732426
0000c0 db 5a 06 40 89 9a ec bf 0f 41 08 bf 08 73 ab bd
       2.0992954 -1.848466 -0.5322427 -0.0837155
0000d0 12 13 c1 3e 06 d8 20 be 67 14 d2 bf ef 11 d6 be
       0.37709862 -0.15707406 -1.6412476 -0.41810557
0000e0 4e 5f 7e 3e bd cd cc be 7f d7 40 bf 12 3b 87 c0
       0.24841043 -0.40000716 -0.7532882 -4.2259607
0000f0 cb cf 9f 3d fd 21 62 bf 1c 3b 55 c0 bb 78 3a bd
       0.07803305 -0.8833311 -3.3317327 -0.045525294
000100 6c ee db be 9f 4d 46 3f 6a a3 ca bd e2 1b 7b bf
       -0.4295534 0.7746219 -0.0989445 -0.9808942
000110 c4 8f 19 bf 36 ee a8 be d1 d6 f5 bf e8 80 c8 bf
       -0.59984994 -0.3299424 -1.9206182 -1.5664339
000120 53 f4 49 be 8b b6 18 40 d2 30 1b 3f 57 3c 8e bf
       -0.19722109 2.3861415 0.6062137 -1.1112164
000130 79 49 38 bf a8 89 35 c0 bd 9b 73 be 8e 32 87 bf
       -0.7198711 -2.8365269 -0.23789878 -1.0562303
000140 8a 48 ab bd 31 0a fa bf 73 dd 3c be 17 dd ce 3e
       -0.08363445 -1.953436 -0.18443851 0.40403053
000150 55 45 f0 bf dc 4f 18 bf e9 31 5a bf da 72 25 3e
       -1.8771158 -0.59496856 -0.85232407 0.16157094
000160 cf ec ed 3f 38 1d 3c c0 07 c8 db bf ea 77 40 be
       1.8587893 -2.9392834 -1.7170419 -0.18795744
000170 b1 62 de be 2f dd f6 bf c2 93 68 bf 46 ab 8e bf
       -0.4343467 -1.928625 -0.9085046 -1.1146019
000180 6d 20 b1 bf 65 da 01 bf e8 b5 d9 bf 05 ef 94 3d
       -1.383802 -0.5072387 -1.7008638 0.07272152

dense_1/kernel:0 f4 [12, 100]
000000 23 f7 7c 3d 81 c3 70 be 22 4a 20 bd 5f aa 64 bd
       0.061759125 -0.23512079 -0.0391332 -0.05582654
000010 e7 a8 2a be d9 96 8b bd b1 98 46 bd 4d 21 8d be
       -0.16665994 -0.06815881 -0.04848546 -0.2756447
000020 9d d8 86 3d 2f c8 fa 3c c3 a6 4f be 74 71 51 3c
       0.065842845 0.030613033 -0.20278458 0.012783397
000030 e4 2b c3 3e e6 85 24 bd f5 94 66 3d 3d e2 a5 bb
       0.38119423 -0.040166758 0.0562944 -0.00506237
000040 6f 86 50 3d ab d3 8f 3e ec 4e 71 bd 86 ed f6 3b
       0.050909456 0.28091177 -0.058913156 0.007535639
000050 8e 78 aa bd ab 48 15 3c 2e 53 90 be a1 9b ab 3d
       -0.08323775 0.009111564 -0.2818846 0.08379293
000060 b2 30 05 3e f8 8e 9d bc 86 d0 5a 3d 1c 76 6c be
       0.13006857 -0.019233212 0.05342152 -0.2309193
000070 1b 1c 00 be fb ec ae bd 76 30 3f bd 4a 46 18 bd
       -0.12510721 -0.08541294 -0.046677075 -0.037176408
000080 0f 66 a3 ba ef 2e 56 3d 4b 67 51 bd 37 42 12 bf
       -0.0012466329 0.052290853 -0.0511239 -0.57132286
000090 f7 ab 44 bd fb ee aa be fd 02 a1 bd c8 dd d8 be
       -0.04801556 -0.33385453 -0.07861898 -0.42356706
0000a0 f4 ad 0c bd a6 44 9c 3b 2e 9b 3e bd 05 ce 83 bd
       -0.034345582 0.0047689257 -0.04653471 -0.064357795
0000b0 39 97 16 be af d6 70 be a8 39 8b bc 54 9a 19 bd
       -0.14706124 -0.23519395 -0.016995266 -0.037500694
0000c0 04 bb 09 bd e6 d9 f9 38 fd 4e da be aa 1f c5 bc
       -0.033625618 0.00011913832 -0.42638388 -0.02406295
0000d0 01 94 10 3d 25 43 a3 3d a1 1b 24 bd 85 0c 57 be
       0.035297398 0.07971791 -0.04006541 -0.2100087
0000e0 c4 01 13 be 99 67 67 bc 23 c0 06 3e 44 6f 13 3e
       -0.14356142 -0.014123821 0.13159232 0.14397913
0000f0 68 e0 39 be a5 9a dc bc 95 71 e5 be 4a c3 2e 3e
       -0.1815201 -0.026929209 -0.4481322 0.17066684
000100 22 17 20 bd 24 98 72 3e 3d 6a 71 3e b6 43 b3 3c
       -0.03908456 0.2369085 0.23575683 0.021882873
000110 33 fb f4 bc 42 c7 05 3e 1e 08 d5 bd e5 2d d9 be
       -0.029904937 0.13064292 -0.10401939 -0.42417827
000120 d8 6c 95 be d3 4d 1a bb 06 05 19 3d ac 37 ec bd
       -0.29184604 -0.0023544922 0.037358306 -0.11534056
000130 9b a3 0d 3e dc 74 ad 3d 9e 8f 3e 3e e6 66 30 3e
       0.13831942 0.08469555 0.18609473 0.17226753
000140 1e 71 fa be b0 7a 20 be 1c 3d 14 be b1 17 c4 3e
       -0.48914427 -0.15671802 -0.14476436 0.38299325
000150 4b 00 a5 3c f3 bc bc bd 65 1b 6f be 8f 39 12 be
       0.020141741 -0.09215727 -0.23350294 -0.1427977
000160 63 db ed bd 06 f9 16 bd 7b 6a 5b 3c 37 db 8e be
       -0.1161411 -0.03685858 0.013392086 -0.27901623
000170 9d 75 0e bd 82 68 34 3b e5 42 6d 3d a2 63 09 bf
       -0.034780134 0.0027528112 0.057925124 -0.5366765
000180 71 d6 1d 3c 1d 89 ad bc 37 36 e6 be ea 15 c8 bd
       0.009633646 -0.021183545 -0.44963238 -0.09769805
000190 1c 86 0a be 2d b2 22 3b 83 c8 92 3c 87 88 27 3d
       -0.13527721 0.002482544 0.017917877 0.040901687
0001a0 83 d6 ef be 0b 5c 8d bd 37 fe b4 bd f9 27 20 3d
       -0.46843347 -0.069023214 -0.0883755 0.03910062
0001b0 2d 5e 97 bd 30 64 b2 3d d6 b9 48 bb 24 d2 0e 3d
       -0.073910095 0.087105155 -0.0030628345 0.034868374
0001c0 28 3c f4 3c da 2b 29 bc 18 bc 63 3d a6 c3 b6 bc
       0.029813841 -0.010325396 0.055599302 -0.02231009
0001d0 c0 6e ec bd df 74 f6 be b9 c7 14 3c 6f a4 6b bd
       -0.115445614 -0.4813604 0.009080821 -0.057529863
0001e0 ba 7b 62 3d e3 76 43 3d c2 f1 3a be 9e ef 0f 3d
       0.055293776 0.0477208 -0.18256286 0.035140626
0001f0 71 d2 95 be 8f 9b 85 ba 84 c4 ef bc f6 cd b1 3e
       -0.29262117 -0.0010193455 -0.02926851 0.34727448
000200 31 b1 6a be 6f e9 ae be 2e 7e 05 3e a1 6d 1c bc
       -0.22919156 -0.3416247 0.13036415 -0.009547622
000210 bb 42 9a 3d b2 97 77 be e9 ed 58 be 0e 18 79 bd
       0.07532259 -0.24178961 -0.21184506 -0.060813956
000220 0c a4 f2 bc 47 91 1e 3e b3 d7 78 be a4 75 9f 3c
       -0.02961924 0.15485106 -0.24301033 0.019465275
000230 2e 49 39 be 17 92 9b 3c 2e ee 7d bd 11 76 38 bd
       -0.18094322 0.01899056 -0.061994724 -0.045034472
000240 8c 6f 88 3e 9c 60 b0 bd 4d de 13 bb d7 3d 3b bd
       0.26647604 -0.08612177 -0.0022562922 -0.045713272
000250 f3 64 02 3d 1a 42 5d bb c5 09 81 be 68 03 3c bc
       0.031834554 -0.0033761323 -0.25202766 -0.0114754215
000260 0a 55 43 3d 0e 7a 4b be 55 0d ab be 39 ed b0 3c
       0.04768852 -0.19870779 -0.3340861 0.021597492
000270 81 da 93 bd 9f 85 1c be cd 03 9a 3c 64 f2 55 3f
       -0.07219411 -0.15285347 0.01880064 0.83572984
000280 2c 44 41 bd 31 56 91 bc f0 1c 2e be a8 7b ae be
       -0.047184154 -0.017741295 -0.17003226 -0.34078717
000290 ca 9e 21 be 11 e1 34 3e a9 94 1d be c6 8d e0 3c
       -0.1578323 0.17663981 -0.1538874 0.027411353
0002a0 39 fa 3d be 29 90 86 3e 40 3c 14 3d c9 12 85 be
       -0.18552484 0.2628186 0.03619027 -0.25990894
0002b0 16 24 9b 3e a4 fb 63 3d b8 45 04 3e b9 6b ff 3d
       0.3030097 0.055659905 0.1291722 0.12471718
0002c0 b7 ea 5c be 5c 12 bf bb 16 bb 56 bc af a2 75 3d
       -0.21573912 -0.005831046 -0.013106128 0.0599696
0002d0 12 9a 0d 3f df 45 09 3f 15 46 94 bd 58 dc 26 be
       0.5531322 0.5362224 -0.072399296 -0.16294992
0002e0 a0 ff 86 3b fa 23 07 be e9 88 3f 3e 50 d7 8b 3d
       0.0041198283 -0.13197318 0.18704571 0.06828177
0002f0 49 a9 78 bd 20 3e 85 bb 72 2b 60 3d c7 15 a9 3e
       -0.060708318 -0.004066244 0.054728933 0.33024427
000300 c8 fc 9a 3e a2 90 35 3e 32 23 08 3e b9 9a 07 be
       0.30270982 0.17730954 0.13294676 -0.13242616
000310 0b 05 ae 3b 56 6c 4a bd 8f 93 6c 3e c7 3e 01 3e
       0.0053106598 -0.049419723 0.23103164 0.12621604
000320 7f 10 04 3d 7f ea 75 be 18 3c 13 3d 1e bc 64 3c
       0.032242294 -0.24015234 0.03594598 0.013960866
000330 b9 4c 42 be 9f 72 cf be fc 4f bd bd e7 09 c0 3d
       -0.1897458 -0.40517136 -0.092437714 0.09376889
000340 da 31 5e 3e 1f 8d a4 bb 70 10 ca 3d 7d 93 2d bd
       0.21698704 -0.0050217058 0.098664165 -0.042376984
000350 81 a0 08 bf a9 e0 5b 3c a0 f2 f2 bd 78 3b 99 bc
       -0.5336991 0.013420262 -0.11862683 -0.018705115
000360 f4 d4 49 bd ee 90 e4 bd 51 e0 83 3c 96 3d a0 bd
       -0.049275354 -0.11160456 0.016098173 -0.078242466
000370 9a 99 5a bd 93 79 29 3d c2 a9 92 be 79 51 1f bc
       -0.053369142 0.041375708 -0.2864514 -0.009724014
000380 01 b5 fc bd 55 a8 a1 3a 6a ff 39 bd 73 67 93 3e
       -0.12339211 0.0012333492 -0.045409597 0.28789863
000390 33 4b 62 be b6 80 61 3d 04 4c 5f 3c 77 72 96 bd
       -0.22098999 0.05505439 0.013628963 -0.07346051
0003a0 cd 3c 9f be 60 aa a3 bd ef a1 c5 3d a7 6b 9f 3e
       -0.31101075 -0.07991481 0.09650027 0.3113682
0003b0 62 ef 3b bc 36 f3 ab be 54 7d cb bc 75 f9 cd be
       -0.0114706475 -0.33583993 -0.024840035 -0.40229383
0003c0 4f 8a cc 3c 1c 33 73 bb 1c 61 14 3c e5 db fd bc
       0.024968294 -0.003710932 0.009056356 -0.030988643
0003d0 ff d3 18 be 14 db c0 3d 5e 6e 9a 3b 12 7e 76 bb
       -0.1492462 0.09416786 0.004712864 -0.0037611765
0003e0 eb 77 40 ba d2 17 32 bd 2c d8 a2 be ef 07 27 bb
       -0.0007342088 -0.043479748 -0.3180555 -0.0025486907
0003f0 ad 57 b6 bd 73 92 8f 3d d9 ae 0b 3e 68 cb 3c bd
       -0.089034416 0.07010355 0.13640918 -0.04609242

dense_1/bias:0 f4 [100]
000000 30 5c f1 bf c7 b3 af bf b8 2b 69 bf 71 4b 8d bf
       -1.8856258 -1.3726739 -0.91082335 -1.1038648
000010 05 c1 80 bf d8 3e 9d 3f a1 73 9f bf ba cf 9c be
       -1.0058905 1.2284803 -1.2457162 -0.30627233
000020 99 41 96 c0 3e 7e 58 bf a9 8c bd bf ad c6 78 bf
       -4.6955075 -0.8456763 -1.4808551 -0.97178155
000030 14 8a 07 c0 28 16 95 bf 67 08 92 bf 98 96 1b bf
       -2.1178026 -1.1647387 -1.1408814 -0.6077666
000040 bd dd 36 3f a2 b5 d0 bf e8 e6 0d bf a6 c5 7f 3f
       0.71432096 -1.630543 -0.5543046 0.9991096
000050 8b 2d 4f bf 45 19 0f c0 b8 87 df bf 56 bc 0c bf
       -0.8092887 -2.2359173 -1.7463293 -0.5497488
000060 ea cd 9e bf 0b 4f 29 bf af 32 06 c0 bc c2 cc bf
       -1.240659 -0.66136235 -2.0968435 -1.5996928
000070 40 8b f3 bf c2 8a 0f 3e 08 62 45 bf bc 6d 29 bf
       -1.9026871 0.14017776 -0.7710271 -0.66183066
000080 8c 30 ea bf f1 df 08 40 63 c8 49 c0 bd b1 47 c0
       -1.8296065 2.1386683 -3.1528556 -3.1202233
000090 4b b9 1b be 77 a5 fd bf 54 bd 5f bf 47 01 27 bd
       -0.15207402 -1.9816121 -0.87398267 -0.040772703
0000a0 73 4d 38 3b 4c e0 5f bf 55 1b 30 bf 72 78 c7 3f
       0.0028122335 -0.87451625 -0.68791705 1.5583632
0000b0 75 ea d8 bf 1b c5 2f bf a9 e9 ea be 60 85 ee be
       -1.6946551 -0.68660134 -0.45881394 -0.46586132
0000c0 f8 70 7a bf 56 bf 2e bf 43 e3 04 c0 28 6b 0e bf
       -0.97828627 -0.68260705 -2.076371 -0.5563226
0000d0 e6 49 49 40 03 15 03 c0 a6 74 2d c0 55 a0 33 40
       3.1451354 -2.0481575 -2.7102447 2.806661
0000e0 7b e0 fa bf d3 cd d7 bf ec 91 54 bf a2 28 8f c0
       -1.9599756 -1.6859688 -0.8303516 -4.47371
0000f0 23 f9 85 be f8 7e 68 bf 8f b9 f9 bf e2 1a c1 bf
       -0.2616664 -0.9081874 -1.9509753 -1.5086329
000100 54 4a 48 bf 01 41 ee bf 73 2b 00 bf 21 65 1c be
       -0.78238416 -1.8613588 -0.500663 -0.15272953
000110 93 96 e6 bf 16 05 e2 bf be 21 bb bf 34 f3 01 c0
       -1.8014702 -1.7657802 -1.4619672 -2.030469
000120 16 f1 ae bf 3c b1 8b bf 31 84 41 3e bb 83 cb bf
       -1.3667324 -1.0913463 0.18898083 -1.5899576
000130 5e 6c 18 bf a7 8e d9 bf 82 52 d5 bf 05 0f 5c bf
       -0.59540355 -1.6996659 -1.6665804 -0.8596042
000140 10 fd c6 bf ad 77 db bf 51 4f 76 bf e6 1d f8 bf
       -1.5545979 -1.7145897 -0.9621478 -1.9384124
000150 f4 2e 00 bf 60 07 ff bf 33 da b8 bf ac ef 83 bc
       -0.50071645 -1.9924126 -1.4441589 -0.016105495
000160 61 e0 0b bf 1d 1c 95 bf 82 0e 98 bf d4 c4 9b be
       -0.5463925 -1.1649204 -1.1879427 -0.30423605
000170 6f 9a c7 bf 1a b0 a9 bf 9b 92 9d 3b 6d d0 f7 bf
       -1.5594004 -1.3256867 0.0048087365 -1.9360482
000180 af 47 df bf e6 4c 8c bf dd 28 06 c0 a1 5d 8b bf
       -1.7443751 -1.0960968 -2.096244 -1.0887948
