code/nnv/examples/Submission/WiP_3d/other/Single_Pendulum/controller_single_pendulum.onnx (onnx, 3775 bytes, 5 tensors)

dense_6/kernel:0 f4 [25, 1]
-0.3975703 -0.4756311 -0.13952702 0.32202107 -0.25362366 0.3206327 0.013880598 -0.12681383
0.4311807 -0.3347165 0.09568031 0.00016407264 0.45845154 -0.01793126 -0.0047329264 -0.30082956
-0.16589807 0.3284364 -0.36318544 -0.33401766 0.4524179 0.3428647 0.052813154 -0.12741226
0.4062424
00000000: 568e cbbe eb85 f3be 2ce0 0ebe f2df a43e
00000010: f6da 81be f829 a43e 736b 633c 7cdb 01be
00000020: b7c3 dc3e f65f abbe 0af4 c33d ea0a 2c39
00000030: 29ba ea3e 94e4 92bc aa16 9bbb 5506 9abe
00000040: 2fe1 29be d128 a83e 71f3 b9be 5d04 abbe
00000050: 52a3 e73e f68b af3e 9b52 583d 5c78 02be
00000060: 01ff cf3e

dense_5/kernel:0 f4 [25, 25]
0.06736352 0.29358 0.020197533 0.082236625 0.30681932 -0.34396216 -0.28358454 -0.07720854
0.117609605 0.1498881 0.16697764 0.34477735 0.23845023 -0.21038371 0.14025334 -0.34466138
0.26428646 -0.1350924 0.30447602 0.33511335 -0.105686635 0.08708412 0.24511772 0.30642903
-0.34193408 -0.054221928 0.335715 0.21657449 -0.3030344 -0.0036929413 -0.0013107919 -0.23711188
-0.33845526 -0.2604364 -0.12266086 -0.06614889 0.02178964 0.07345458 -0.33310637 0.00667876
-0.2816947 0.11103392 -0.09735451 -0.30410603 -0.31478578 0.001996147 0.028972626 0.041840125
0.26364568 -0.20699736 0.14573893 -0.29688412 -0.23129782 -0.063452795 -0.12623893 0.32711
-0.00079136837 -0.22595666 0.31300163 0.2142176 0.18133281 -0.0691031 0.07716786 0.058293343
-0.30073696 0.16045344 -0.28124788 0.06823476 0.17793676 0.21450591 0.23894559 -0.3233082
-0.31656006 0.075071454 0.07864525 0.21674804 -0.023120252 0.08048371 0.1350153 -0.13524367
0.23731041 -0.20362584 0.1435143 0.187473 0.31553674 -0.20182182 0.22159393 0.09820249
-0.11247556 -0.07440439 -0.29124963 0.20281981 -0.2258096 -0.1935828 0.22260408 0.1286838
-0.19755177 0.19614254 0.077065 -0.016689433 0.22926371 -0.27223855 0.16009516 -0.01830588
-0.2307237 0.13850278 0.26582953 -0.037368897 -0.12190855 -0.30337942 -0.005077167 0.35295945
-0.20819622 -0.39031234 -0.3306641 -0.30501533 0.094869375 -0.17998071 0.19373716 0.14512146
-0.016175166 0.14713264 0.17454903 -0.14626083 0.048451584 -0.11144064 0.12862083 -0.10221124
0.28009853 -0.19829741 -0.19803455 -0.2592271 0.09296223 0.23744231 0.13623357 -0.06447129
-0.34437215 -0.14210704 0.24017502 -0.066000104 0.21992677 0.00014523005 0.15446597 0.24928537
-0.3351937 -0.0112019805 -0.24031256 0.0033701416 0.1562848 -0.066835955 0.56496286 0.12963074
0.17048728 -0.3521821 0.5192166 0.2663697 -0.01991774 0.34078357 -0.42516735 -0.22871642
-0.3127132 -0.17795847 0.051016968 0.31533292 0.011656366 0.0017707348 0.17683004 -0.16209082
0.5210331 -0.19354904 0.09951348 -0.39770195 0.038926017 0.31864905 -0.496038 -0.051181093
-0.1519903 0.060404517 -0.062579855 0.13625272 -0.13582505 0.30822122 0.025028339 -0.11878154
-0.08665755 0.052113205 -0.13640708 -0.08046769 0.3159127 0.24954194 0.005627483 -0.19715457
0.17372268 0.14052175 0.24852408 0.012887429 0.07246722 -0.33624598 -0.16473912 -0.026754254
-0.029683724 -0.3358435 -0.2037214 -0.05898403 0.30686393 -0.09830959 0.19844848 0.17648669
-0.15641855 -0.02001286 -0.19533445 -0.01191616 0.20787472 0.21842407 -0.22035001 -0.15462747
0.17583232 -0.2722522 0.122449815 0.23520085 0.19420111 0.29314315 0.017573971 -0.15438573
0.07013074 0.101444095 -0.17085306 -0.04220578 -0.32436004 0.19325578 0.08030093 -0.026829455
0.24141347 0.22697908 -0.122502044 0.30837175 -0.0115404725 0.26361376 0.11105942 -0.3151828
0.0685336 0.14676335 -0.0050436715 0.08575328 -0.11799011 0.14725724 0.278252 0.034531906
-0.028041018 -0.15788408 0.23500058 0.21234931 -0.06663447 0.3200336 -0.28603575 0.14046606
00000000: e3f5 893d 1e50 963e 4c75 a53c ad6b a83d
00000010: 6c17 9d3e cf1b b0be fe31 91be 831f 9ebd
00000020: 4edd f03d 447c 193e 30fc 2a3e a886 b03e
00000030: 4c2c 743e d46e 57be 929e 0f3e 7577 b0be
00000040: 8e50 873e a955 0abe 48e4 9b3e fa93 ab3e
00000050: 3c72 d8bd 2959 b23d 2400 7b3e 44e4 9c3e
00000060: fc11 afbe d017 5ebd d6e2 ab3e b4c5 5d3e
00000070: 5327 9bbe 4605 72bb e1ce abba 75cd 72be
00000080: 024a adbe eb57 85be 9e35 fbbd 1279 87bd
00000090: 3080 b23c 5b6f 963d eb8c aabe 80d9 da3b
000000a0: 4a3a 90be c065 e33d cd61 c7bd c9b3 9bbe
000000b0: 9a2b a1be cad1 023b 0058 ed3c 8d60 2b3d
000000c0: 91fc 863e 1ef7 53be 963c 153e 3201 98be
000000d0: 56d9 6cbe 8af3 81bd c744 01be f67a a73e
000000e0: d573 4fba 2f61 67be c041 a03e dc5b 5b3e
000000f0: 4faf 393e ed85 8dbd 2f0a 9e3d 00c5 6e3d
00000100: 32fa 99be e84d 243e b9ff 8fbe aabe 8b3d
00000110: 0e35 363e 70a7 5b3e 27ae 743e a788 a5be
00000120: 2914 a2be 10bf 993d c310 a13d 33f3 5d3e
00000130: af66 bdbc a5d4 a43d 7341 0a3e 517d 0abe
00000140: 8001 733e 4b83 50be 6af5 123e ecf8 3f3e
00000150: 088e a13e 61aa 4ebe 85e9 623e 631e c93d
00000160: 9659 e6bd 5461 98bd ac1e 95be ffaf 4f3e
00000170: a23a 67be 923a 46be 53f2 633e b0c5 033e
00000180: 034b 4abe 97d9 483e 41d4 9d3d 47b8 88bc
00000190: 1bc4 6a3e da62 8bbe fcef 233e 36f6 95bc
000001a0: d542 6cbe acd3 0d3e cf1a 883e 2110 19bd
000001b0: 31ab f9bd 8c54 9bbe 5d5e a6bb 1ab7 b43e
000001c0: 6431 55be 05d7 c7be ce4c a9be f82a 9cbe
000001d0: e04a c23d dd4c 38be 0963 463e b89a 143e
000001e0: c881 84bc f0a9 163e fbbc 323e 66c5 15be
000001f0: 2b75 463d fe3a e4bd 2eb5 033e 2054 d1bd
00000200: 1369 8f3e 7a0e 4bbe 92c9 4abe 6ab9 84be
00000210: fb62 be3d 1424 733e d080 0b3e 8609 84bd
00000220: 8c51 b0be 8284 11be 71f0 753e 102b 87bd
00000230: 7c34 613e e548 1839 542c 1e3e aa44 7f3e
00000240: 829e abbe 8388 37bc 7f14 76be 98dd 5c3b
00000250: 1f09 203e 4ae1 88bd 68a1 103f ecbd 043e
00000260: 3894 2e3e 3651 b4be 61eb 043f 9c61 883e
00000270: 872a a3bc 2f7b ae3e 89af d9be a334 6abe
00000280: f21b a0be bf3a 36be 2bf7 503d 5173 a13e
00000290: 58fa 3e3c 0018 e83a ef12 353e 23fb 25be
000002a0: 6d62 053f b831 46be b9cd cb3d 979f cbbe
000002b0: e370 1f3d f825 a33e b1f8 fdbe 44a3 51bd
000002c0: 58a3 1bbe ba6a 773d de29 80bd d585 0b3e
000002d0: b915 0bbe 2ccf 9d3e 3b08 cd3c bc43 f3bd
000002e0: 8379 b1bd a874 553d 4cae 0bbe 3fcc a4bd
000002f0: 4fbf a13e ec87 7f3e c066 b83b e3e2 49be
00000300: 5ce4 313e efe4 0f3e 197d 7e3e cc25 533c
00000310: b269 943d 6f28 acbe 5fb1 28be bd2b dbbc
00000320: 482b f3bc aef3 abbe 589c 50be 3d99 71bd
00000330: 451d 9d3e 8a56 c9bd 1436 4b3e edb8 343e
00000340: 2f2c 20be 02f2 a3bc c105 48be ff3b 43bc
00000350: 1cdd 543e 8faa 5f3e 6fa3 61be aa56 1ebe
00000360: 630d 343e a464 8bbe f8c6 fa3d 7ed8 703e
00000370: a8dc 463e dc16 963e 4af7 8f3c 4b17 1ebe
00000380: b5a0 8f3d ecc1 cf3d 1bf4 2ebe f8df 2cbd
00000390: 8512 a6be d8e4 453e d074 a43d 72c9 dbbc
000003a0: 1835 773e 346d 683e 5ae2 fabd e7e2 9d3e
000003b0: 4014 3dbc 62f8 863e 1f73 e33d a45f a1be
000003c0: 585b 8c3d 2249 163e 6245 a5bb 6a9f af3d
000003d0: cca4 f1bd 9aca 163e 0c77 8e3e 5471 0d3d
000003e0: 47b6 e5bc 5dac 21be fea3 703e 1972 593e
000003f0: a777 88bd 72db a33e 4773 92be 56d6 0f3e

dense_5/bias:0 f4 [25]
0.0036837466 -0.0051607667 -0.0037454546 0.005103661 0.0030600172 -0.005517644 -0.0037817308 -0.00579587
0.006480308 -0.006961177 -0.00640755 0.00060269993 -0.005626239 -0.0058910884 0.0018919852 0.0
-0.003957485 -0.005355621 0.003662436 -0.0046598413 -0.005625972 0.010474476 -0.0073301494 0.0019724353
0.0020817425
00000000: 036b 713b a61b a9bb 4d76 75bb 9d3c a73b
00000010: 928a 483b 5acd b4bb ead6 77bb 48eb bdbb
00000020: c358 d43b 961a e4bb 6df6 d1bb 82fe 1d3a
00000030: 505c b8bb 080a c1bb 7dfc f73a 0000 0000
00000040: caad 81bb 357e afbb 7b05 703b 95b1 98bb
00000050: 135a b8bb 239d 2b3c c031 f0bb f943 013b
00000060: d86d 083b

dense_4/kernel:0 f4 [2, 25]
-0.24300581 -0.2635023 0.14822765 -0.32725778 -0.034663934 0.37591168 0.72290516 0.035614233
-0.12026392 -0.1687181 -0.43471956 -0.13991182 -0.40639266 0.2794092 -0.40474886 -0.34816587
0.078243285 -0.36376315 0.65687895 -0.18364927 -0.31043538 -0.075917974 0.42164168 -0.51295847
-0.08457779 -0.18771303 -0.30369183 -0.3547264 0.23397 -0.19297715 0.4620949 0.6935185
0.26641932 0.21469742 -0.30651194 -0.18382215 -0.16938765 0.069833346 -0.20359613 -0.4368431
-0.58015066 -0.34544688 -0.39287278 0.18937173 0.15440081 -0.1321834 -0.431003 -0.025597269
-0.6785275 0.15043154
00000000: 84d6 78be c6e9 86be fdc8 173e 558e a7be
00000010: c5fb 0dbd 7f77 c03e 5010 393f 3be0 113d
00000020: ee4c f6bd 70c4 2cbe 9093 debe 0b45 0fbe
00000030: b312 d0be b90e 8f3e 3e3b cfbe cc42 b2be
00000040: 043e a03d 2a3f babe 3829 283f 8e0e 3cbe
00000050: 63f1 9ebe e27a 9bbd 6be1 d73e 3f51 03bf
00000060: 1f37 adbd d837 40be 7f7d 9bbe b39e b5be
00000070: d595 6f3e cd9b 45be b497 ec3e 6e8a 313f
00000080: 1d68 883e a4d9 5b3e 22ef 9cbe e03b 3cbe
00000090: f573 2dbe c904 8f3d 817b 50be e6a9 dfbe
000000a0: c184 14bf 6ade b0be 9f26 c9be aaea 413e
000000b0: 3f1b 1e3e 165b 07be 6dac dcbe 5db1 d1bc
000000c0: fab3 2dbf ba0a 1a3e

dense_4/bias:0 f4 [25]
-0.004186242 -0.0054611294 -0.009485767 -0.0056529813 -0.0024129304 -0.005285233 0.0029061518 -0.004540703
-0.0019726625 -0.0067345533 -0.0037296498 -0.0055869026 -0.004451902 -0.008424397 -0.0031902378 0.005506468
-0.007011025 -0.0055950247 0.0037082408 -0.004185747 0.0052660652 -0.0063492693 -0.009366881 0.0051219724
-0.0061022057
00000000: be2c 89bb 46f3 b2bb 316a 1bbc a53c b9bb
00000010: 4122 1ebb bf2f adbb 2375 3e3b 2dca 94bb
00000020: c947 01bb 87ad dcbb 246d 74bb 5612 b7bb
00000030: 43e1 91bb 7b06 0abc 4f13 51bb 9a6f b43b
00000040: bebc e5bb 7856 b7bb f505 733b 9728 89bb
00000050: f58e ac3b 880d d0bb 8c77 19bc 38d6 a73b
00000060: 03f5 c7bb
