code/nnv/examples/Submission/VNN_COMP2025_NH/ml4acopf_benchmark-main/onnx/14_ieee_ml4acopf.onnx (onnx, 35453 bytes, 10 tensors)

layers.0.weight f4 [32, 22]
0.08845837 0.026175937 -0.20141362 -0.008789707 0.11935258 0.014515834 -0.1344329 0.0022460578
-0.18606485 -0.094040684 -0.14147185 0.021073386 -0.108202174 0.18616618 0.18323539 0.08605193
-0.20678352 0.12140343 0.07799519 -0.20934889 0.14654109 0.1395161 -0.09551243 -0.25638065
-0.17063092 0.0071673584 0.3209987 0.03834019 0.11764667 0.13497631 0.3176743 0.22634163
0.12689495 0.096878074 -0.22898631 0.10893317 -0.12815605 0.16506232 0.11919461 0.12954295
0.24420686 -0.088132836 0.21099369 0.31225735 0.064613484 0.16018377 0.009797195 0.19526096
-0.19079304 -0.07269389 -0.0935958 0.09970043 0.056717016 0.038257148 -0.059100963 -0.15629967
-0.20213643 -0.07871141 0.18793552 -0.0903549 -0.15988874 -0.06909698 0.09210305 -0.025918148
0.06358995 0.051745538 0.18850909 0.035435263 -0.008585104 0.109968446 -0.0869616 0.0054103257
-0.13438433 0.11081456 -0.18166114 -0.1952168 0.12633339 0.071891524 -0.2087003 0.19198482
0.101478934 -0.20551576 0.014662434 0.12306305 0.07453664 -0.10875074 0.19145831 -0.0004664508
0.14845115 0.10170255 -0.081874035 0.017626913 -0.18754688 -0.06479601 -0.18744121 0.15037064
0.12683138 0.0016418179 0.16374665 0.07159618 0.085022 -0.01950635 -0.050250433 0.055026993
-0.1721521 0.13076024 0.11186028 -0.06934688 -0.12805764 -0.17962642 0.053863667 -0.028882487
-0.10399537 0.06339313 0.06574519 0.004217932 -0.14748564 -0.20339926 0.1865914 0.14605314
-0.15807134 0.17339937 -0.14945571 0.041907474 0.20575821 -0.1429925 0.031691484 -0.20779373
0.14779519 -0.006947659 0.012554955 0.17890343 0.11389673 0.177606 -0.116455436 -0.20066638
-0.06914978 -0.07686129 0.115748994 -0.18863393 -0.0026840756 -0.08290786 -0.017099347 0.17920136
-0.02770522 -0.03381901 0.14491369 0.09867512 0.14950724 -0.03212353 0.0697719 5.3071373e-05
-0.027724141 -0.042708337 -0.25837702 0.046111546 -0.15922104 -0.43448433 -0.24120463 -0.056506466
-0.095678315 -0.11991147 -0.2828272 -0.3422452 -0.13401686 0.023024071 -0.2120692 -0.124620445
-0.41921592 -0.15833576 0.050471265 -0.019256553 -0.21272083 -0.46248358 -0.36529678 -0.31358343
-0.13080746 0.09611361 -0.15248168 -0.13684435 -0.13927612 0.024552908 0.0932647 0.17968386
0.07573503 -0.096832454 0.16986741 -0.147446 -0.18693003 0.014161763 -0.19812201 0.15242814
0.1639758 -0.15013564 -0.16835114 0.09859724 0.16788754 0.19948919 0.31670824 0.08884225
0.12068621 0.33337396 0.16469242 0.3646207 0.2618727 0.25859654 0.23243037 0.24761671
0.3209097 0.4868462 0.044236626 -0.27049786 0.23522976 0.20962498 0.0135546345 0.11072202
0.12072825 0.3516774 0.12842488 -0.026314327 -0.01760771 0.024852477 -0.19785036 0.20578381
-0.18393649 0.14992274 0.17419496 0.16092657 -0.10242256 0.023777934 0.06618 -0.011562403
0.02788719 -0.14625356 0.021654544 0.00612257 0.21127379 -0.20934786 -0.11297612 -0.17355181
0.15184683 0.0050083543 0.005948423 -0.15095891 -0.03582862 -0.017869618 0.02138148 -0.18545529
0.06514452 -0.12921752 0.16944876 0.08349416 -0.0074315956 0.04538223 -0.19876799 0.19727938
00000000: a929 b53d eb6e d63c 5f3f 4ebe b402 10bc
00000010: 206f f43d d2d3 6d3c c7a8 09be 9932 133b
00000020: c987 3ebe 6798 c0bd ffdd 10be 18a2 ac3c
00000030: 1a99 ddbd 59a2 3e3e 0fa2 3b3e ff3b b03d
00000040: 0fbf 53be 5da2 f83d f1bb 9f3d 8e5f 56be
00000050: de0e 163e 4fdd 0e3e 059c c3bd 5344 83be
00000060: dfb9 2ebe 29dc ea3b f159 a43e 9a0a 1d3d
00000070: bdf0 f03d 3b37 0a3e 35a6 a23e 1ac6 673e
00000080: c0f0 013e 0368 c63d 637b 6abe 5b18 df3d
00000090: 573b 03be 1906 293e 4e1c f43d e8a6 043e
000000a0: 5d11 7a3e fd7e b4bd bb0e 583e 32e0 9f3e
000000b0: 1354 843d 3707 243e 6a84 203c 7df2 473e
000000c0: 405f 43be 89e0 94bd 28af bfbd bd2f cc3d
000000d0: 1a50 683d 87b3 1c3d da13 72bd 050d 20be
000000e0: dafc 4ebe 7333 a1bd 2b72 403e fd0b b9bd
000000f0: e0b9 23be b882 8dbd 86a0 bc3d 4c52 d4bc
00000100: 733b 823d 21f3 533d 8708 413e 9124 113d
00000110: 89a8 0cbc 2337 e13d ec18 b2bd 1a49 b13b
00000120: 0c9c 09be bef2 e23d 6105 3abe eae6 47be
00000130: 8a5d 013e dd3b 933d 88b5 55be ab97 443e
00000140: 30d4 cf3d b972 52be b53a 703c 7b08 fc3d
00000150: aaa6 983d b5b8 debd a60d 443e f78d f4b9
00000160: 9403 183e 6d49 d03d 93ad a7bd 5166 903c
00000170: 4a0c 40be c5b3 84bd 97f0 3fbe c3fa 193e
00000180: 16e0 013e 4432 d73a 34ad 273e 05a1 923d
00000190: 0420 ae3d c8cb 9fbc 66d3 4dbd fc63 613d
000001a0: a448 30be 03e6 053e 0117 e53d bd05 8ebd
000001b0: 8b21 03be fdef 37be 26a0 5c3d f79a ecbc
000001c0: 86fb d4bd 42d4 813d 6aa5 863d 9436 8a3b
000001d0: 7a06 17be e547 50be d111 3f3e f48e 153e
000001e0: 74dd 21be 9b8f 313e eb0a 19be 2ca7 2b3d
000001f0: 48b2 523e a06c 12be eece 013d e1c7 54be
00000200: 9f57 173e 30a9 e3bb 4cb3 4d3c 7632 373e
00000210: b042 e93d 59de 353e 3080 eebd 7d7b 4dbe
00000220: 669e 8dbd 7469 9dbd cf0d ed3d 4129 41be
00000230: 51e7 2fbb 99cb a9bd ee13 8cbc 9080 373e
00000240: 0ff6 e2bc cd85 0abd 4164 143e 2e16 ca3d
00000250: 6d18 193e f693 03bd 92e4 8e3d f498 5e38
00000260: bd1d e3bc f0ee 2ebd fe49 84be 76df 3c3d
00000270: d70a 23be bb74 debe 59fe 76be 5373 67bd
00000280: fef2 c3bd 2594 f5bd bace 90be c33a afbe
00000290: b73b 09be fa9c bc3c ab28 59be 0139 ffbd
000002a0: 78a3 d6be c522 22be f5ba 4e3d ebbf 9dbc
000002b0: 7dd3 59be a6ca ecbe 2e08 bbbe 028e a0be
000002c0: 64f2 05be 36d7 c43d 2824 1cbe ed20 0cbe
000002d0: 669e 0ebe 2e23 c93c 9001 bf3d 0cff 373e
000002e0: f81a 9b3d 1850 c6bd b9f1 2d3e 16fc 16be
000002f0: 966a 3fbe bd06 683c 7fe0 4abe 1f16 1c3e
00000300: 46e9 273e 28bd 19be 3e64 2cbe 5aed c93d
00000310: b6ea 2b3e e546 4c3e 9527 a23e edf2 b53d
00000320: 552a f73d feaf aa3e 21a5 283e 90af ba3e
00000330: 2e14 863e c466 843e 3a02 6e3e 3c8f 7d3e
00000340: 474e a43e e843 f93e 7731 353d b27e 8abe
00000350: 12e0 703e eea7 563e 4214 5e3c 3ac2 e23d
00000360: 5f40 f73d 0f0f b43e d081 033e 2591 d7bc
00000370: 0b3e 90bc 6c97 cb3c 4999 4abe feb8 523e
00000380: d959 3cbe 5985 193e 2a60 323e efc9 243e
00000390: ebc2 d1bd f1c9 c23c 6189 873d 3c70 3dbc
000003a0: ad73 e43c 7ec3 15be df64 b13c d79f c83b
000003b0: 2858 583e 495f 56be 0660 e7bd 91b7 31be
000003c0: bc7d 1b3e 1f1d a43b fdea c23b f994 1abe
000003d0: 08c1 12bd 4e63 92bc 3728 af3c fee7 3dbe
000003e0: 7d6a 853d 9951 04be fa83 2d3e fcfe aa3d
000003f0: be84 f3bb b8e2 393d d689 4bbe 9b03 4a3e

layers.0.bias f4 [32]
0.07061634 0.23154959 -0.096422695 -0.13101503 -0.11626883 0.013689376 -0.17627259 0.40788382
-0.028715873 -0.5986608 -0.09079014 0.004144583 -0.3270485 -0.18730606 -0.0830456 -0.058289014
-0.010313512 -0.25926706 -0.18758841 0.20766547 -0.11939541 0.112830214 -0.2129731 -0.1576701
-0.23280747 -0.05971096 0.0041632378 -0.17606676 -0.5683616 -0.21689548 0.045210905 -0.11318575
00000000: 4d9f 903d 561b 6d3e 4379 c5bd ce28 06be
00000010: 5a1e eebd 6849 603c cd80 34be 26d6 d03e
00000020: 8d3d ebbc d641 19bf 2ef0 b9bd 48cf 873b
00000030: e772 a7be 29cd 3fbe d013 aabd 76c0 6ebd
00000040: 01fa 28bc a7be 84be 2d17 40be 42a6 543e
00000050: 9585 f4bd 8713 e73d 9f15 5abe 4574 21be
00000060: 1565 6ebe 7b93 74bd c56b 883b d84a 34be
00000070: 2580 11bf d919 5ebe 122f 393d eecd e7bd

layers.2.weight f4 [32, 32]
0.12744202 0.07522129 -0.10437087 -0.07616662 0.068937935 0.0884734 0.15376331 0.066645004
0.06743802 -0.12903109 -0.13165788 -0.16263415 0.014904155 -0.028396709 -0.16554645 0.14132538
-0.10198717 -0.054741755 -0.16577275 0.093813576 -0.018482784 -0.20656615 0.1746237 -0.14135191
0.01224051 -0.19759966 0.006536133 0.019383188 -0.09203825 -0.17580916 -0.024123613 0.1361963
-0.15506949 0.16615592 -0.17374168 0.048948884 0.056361232 0.086008064 -0.077001214 0.045738813
-0.17544982 0.10802551 -0.07431629 -0.1718383 -0.014673678 0.11648674 0.1708664 0.15488847
0.0063518463 -0.03719116 -0.1411652 -0.16544874 0.06284734 -0.07309258 -0.047839474 -0.14433669
-0.17674255 -0.13088214 0.061583456 -0.10191386 0.15178506 -0.17143458 0.0033412967 0.0584774
0.073922515 0.011965785 -0.11192186 -0.044742502 -0.0024700372 0.10840289 -0.022560723 0.058160514
0.15888216 -0.14683181 0.16708674 -0.08454053 0.09713331 0.09541321 -0.15753253 0.09519997
0.16005108 -0.13432927 0.052893743 0.10143779 -0.034421477 -0.029932732 -0.047245245 -0.14243634
-0.09986827 0.0113044735 0.06447829 -0.004458778 0.12103463 0.043488078 -0.16035312 0.014234107
-0.061290346 0.11804385 -0.080077894 -0.15527976 0.094654486 0.06598038 0.07420861 0.068548895
0.0021121893 -0.022526955 -0.10063378 -0.028572423 0.24496469 0.006150851 -0.06681835 -0.061539225
0.28506857 -0.10708226 0.25766832 0.022790823 0.08724073 0.1706625 0.112664215 0.17169344
0.25309867 -0.29869282 0.15439703 0.04648521 -0.050377883 0.19195226 -0.14567934 -0.16536334
-0.14713562 -2.526886 -0.0073125833 -0.046818025 -0.16340594 -0.08748769 -0.16923262 0.8905471
0.17153649 1.2021514 -0.17646329 0.04817526 0.03141535 -0.019127453 0.045787726 0.14399658
0.34941083 0.31862947 0.076348044 -0.023526728 -0.083633736 0.10194106 -0.10760246 0.0863827
0.038616393 0.39489067 0.09695155 -0.15072647 1.2903798 0.16374516 -0.0893997 -0.15250096
-0.013049495 -0.61923987 -0.17034808 0.0554819 -0.19941916 -0.1481114 -0.12165725 -0.1545902
0.15420537 -0.050371997 0.12195517 -0.0776597 -0.3348071 0.13090576 0.119960636 -0.11940149
-0.91589046 0.5376451 0.13803172 -0.1056145 -0.0568471 1.0613747 -0.12528625 0.17659388
0.293991 -0.15688366 0.13901487 0.05318555 -0.14407277 0.08331131 -0.123190224 -0.1750841
0.088255554 1.0955784 0.0965941 -0.112234525 -0.094233476 0.05685694 0.068385586 0.19428362
-0.062123068 0.7765545 -0.08884996 0.052318946 0.08162832 0.033898562 -0.010455895 -0.08711802
0.5932182 0.44279408 -0.028582714 0.0050333664 0.14156774 0.085836016 -0.06222765 -0.1126345
-0.63508403 0.19065118 0.02832167 0.13895556 0.8238065 -0.11302 0.16649276 0.13913701
-0.13122043 0.35801604 -0.08667503 -0.13980375 0.010625875 -0.122196816 -0.024610959 -0.29082263
0.16352051 0.017209 -0.10624126 0.121618204 -0.31217167 0.047192473 0.13757962 0.08525723
0.7637196 -0.0231571 0.070668355 -0.08146398 0.06543916 0.20908162 0.14432476 0.1410002
0.26857707 0.32765818 -0.031966172 0.129971 0.2512983 0.0041013313 -0.13623865 -0.0027267325
00000000: 2980 023e 9f0d 9a3d 65c0 d5bd 3ffd 9bbd
00000010: 552f 8d3d 8b31 b53d 2174 1d3e 2d7d 883d
00000020: f21c 8a3d ba20 04be 53d1 06be 9189 26be
00000030: 8f30 743c 37a0 e8bc 0285 29be 9ab7 103e
00000040: a6de d0bd e438 60bd 55c0 29be 5521 c03d
00000050: 3569 97bc 1486 53be 8ed0 323e 8ebe 10be
00000060: 6c8c 483c 9157 4abe 0f2d d63b 7ec9 9e3c
00000070: 8d7e bcbd 5107 34be e29e c5bc 0b77 0b3e
00000080: 89ca 1ebe c724 2a3e 57e9 31be a07e 483d
00000090: 09db 663d ff24 b03d d0b2 9dbd 9f58 3b3d
000000a0: 1ea9 33be 7b3c dd3d 2433 98bd 61f6 2fbe
000000b0: de69 70bc 9a90 ee3d 9af7 2e3e 159b 1e3e
000000c0: 2623 d03b c255 18bd 9c8d 10be 656b 29be
000000d0: 1bb6 803d 90b1 95bd 53f3 43bd ffcc 13be
000000e0: 00fc 34be f805 06be ef3e 7c3d 37b8 d0bd
000000f0: 8b6d 1b3e 8c8c 2fbe a8f9 5a3b 0086 6f3d
00000100: b064 973d 240c 443c 4a37 e5bd ea43 37bd
00000110: 59e0 21bb 5602 de3d 44d1 b8bc b839 6e3d
00000120: 01b2 223e 145b 16be c918 2b3e 9623 adbd
00000130: d4ed c63d 0068 c33d 3550 21be 34f8 c23d
00000140: 6ee4 233e 9d8d 09be 1ca7 583d 9ebe cf3d
00000150: 89fd 0cbd 7d35 f5bc 3b84 41bd d5da 11be
00000160: bc87 ccbd 6636 393c 320d 843d f11a 92bb
00000170: 01e1 f73d 8e20 323d 9c33 24be 2c36 693c
00000180: 960b 7bbd f9c0 f13d e1ff a3bd a801 1fbe
00000190: 36da c13d b920 873d affa 973d 5d63 8c3d
000001a0: a86c 0a3b 738a b8bc 1519 cebd b710 eabc
000001b0: 06d8 7a3e 148d c93b 0fd8 88bd 8e10 7cbd
000001c0: 82f4 913e f24d dbbd 1aed 833e d2b3 ba3c
000001d0: 45ab b23d 27c2 2e3e 7fbc e63d 68d0 2f3e
000001e0: 2696 813e 44ee 98be 411a 1e3e 4767 3e3d
000001f0: 0a59 4ebd 228f 443e f72c 15be 0255 29be
00000200: b8aa 16be 80b8 21c0 659e efbb 42c4 3fbd
00000210: e353 27be bf2c b3bd 514b 2dbe e5fa 633f
00000220: 43a7 2f3e 19e0 993f cbb2 34be 6c53 453d
00000230: 62ad 003d 2db1 9cbc e98b 3b3d d773 133e
00000240: fae5 b23e 6723 a33e 5d5c 9c3d 20bb c0bc
00000250: 2a48 abbd 79c6 d03d ae5e dcbd 6ae9 b03d
00000260: 392c 1e3d 1c2f ca3e 898e c63d 0a58 1abe
00000270: 2a2b a53f d0ac 273e 3117 b7bd 3629 1cbe
00000280: 8dcd 55bc 8186 1ebf ba6f 2ebe fd40 633d
00000290: 8934 4cbe 84aa 17be 7027 f9bd e54c 1ebe
000002a0: 03e8 1d3e de52 4ebd a2c3 f93d 0c0c 9fbd
000002b0: d66b abbe 290c 063e ecad f53d c588 f4bd
000002c0: cc77 6abf 1ca3 093f 3058 0d3e 6a4c d8bd
000002d0: 81d8 68bd 20db 873f 0a4b 00be 07d5 343e
000002e0: fd85 963e 1ca6 20be ea59 0e3e 17d9 593d
000002f0: d087 13be 1f9f aa3d 284b fcbd 3f49 33be
00000300: 54bf b43d ea3b 8c3f 21d3 c53d 37db e5bd
00000310: 7bfd c0bd d3e2 683d be0d 8c3d 49f2 463e
00000320: c274 7ebd 47cc 463f f8f6 b5bd 644c 563d
00000330: c02c a73d 38d9 0a3d 344f 2bbc ef6a b2bd
00000340: 26dd 173f e8b5 e23e 4c26 eabc f0ee a43b
00000350: 22f7 103e cbca af3d 6ce2 7ebd ebac e6bd
00000360: de94 22bf 103a 433e d902 e83c 5e4a 0e3e
00000370: fce4 523f 0877 e7bd 147d 2a3e ef79 0e3e
00000380: a65e 06be e14d b73e ae82 b1bd b728 0fbe
00000390: 2618 2e3c 5342 fabd ec9c c9bc b4e6 94be
000003a0: ec71 273e e4f9 8c3c 0595 d9bd f712 f93d
000003b0: f7d4 9fbe e54c 413d ace1 0c3e 589b ae3d
000003c0: 2183 433f f5b3 bdbc 92ba 903d 96d6 a6bd
000003d0: f704 863d 7e19 563e dfc9 133e 5b62 103e
000003e0: ef82 893e d0c2 a73e f6ee 02bd 1e17 053e
000003f0: 2caa 803e 7664 863b 2582 0bbe fbb2 32bb

layers.2.bias f4 [32]
0.068491176 -0.08988222 -0.17081854 -0.25409663 0.09354792 0.059396744 0.075447515 0.0049940096
0.01049724 -0.6326375 -0.19350335 0.3562419 0.07905634 -0.18187368 -0.14492957 0.05884415
-0.1584452 -0.5607005 -0.042174686 -0.12344879 -0.09777236 -0.14861077 -0.32501474 -0.21087524
-0.06467897 -0.07261407 0.04297714 -0.41704643 -0.15674946 -0.1702724 -0.09172566 -0.10753438
00000000: 1a45 8c3d 2b14 b8bd 0eeb 2ebe f418 82be
00000010: 0d96 bf3d 004a 733d 3a84 9a3d caa4 a33b
00000020: 9efc 2b3c 88f4 21bf be25 46be 5765 b63e
00000030: 4ae8 a13d 183d 3abe 6b68 14be 9006 713d
00000040: 753f 22be 118a 0fbf 5dbf 2cbd b8d2 fcbd
00000050: e03c c8bd 6c2d 18be 5568 a6be aeef 57be
00000060: 6876 84bd afb6 94bd cc08 303d 1c87 d5be
00000070: ee82 20be e35b 2ebe aada bbbd fc3a dcbd

layers.4.weight f4 [32, 32]
0.11412934 0.17426571 0.13984323 0.04257439 -0.19659203 -0.12551449 -0.18458784 -0.12704687
0.039505694 0.114501745 0.007662571 0.02634551 -0.021880325 -0.10958147 -0.06461527 -0.026624236
-0.14174171 0.12668447 -0.011520441 0.039396156 -0.020886904 -0.041807987 0.106174104 0.04960535
0.09626278 9.223838e-05 0.13988468 -0.1739615 -0.040857114 0.029684173 0.046888728 0.08800003
0.16427602 -0.0936217 0.14674553 0.104136914 -0.0011489756 -0.011098776 -0.06762561 -0.11170119
-0.02143888 0.025060002 0.12669757 0.11044718 0.087080985 -0.027392058 0.09442932 -0.13124794
0.12813382 0.05103153 0.03242159 -0.15123525 -0.161562 -0.008515855 -0.06331652 0.13998035
0.03577568 -0.13142662 0.04642052 0.13849954 -0.14319555 0.069948405 -0.07567075 -0.067282595
-0.085169464 -0.1086959 0.006193669 -0.079642676 0.13330232 -0.13932818 0.08871341 -0.15749961
0.021350307 0.12534416 0.03318611 -0.035198204 -0.06906108 0.16731389 0.121961884 -0.029405838
-0.15784292 -0.03337305 -0.1565421 0.09751111 0.14413927 0.063073896 0.107950345 -0.0756597
0.032200977 -0.08568429 -0.13750298 0.109349646 0.13133685 -0.02834974 -0.10817488 0.12542216
-0.031162305 0.13779637 -0.13366129 -0.12392351 0.12410611 -0.08769458 -0.033392373 0.06303724
-0.06094687 0.12745497 0.14906466 -0.023639873 -0.20732322 -0.113680944 -0.010137178 -0.041566987
-0.0990769 0.102550976 0.09019604 0.06010035 0.01402508 0.09480421 -0.13060288 -0.18204698
-0.0027534943 0.09275086 0.057883635 0.05303782 0.071778044 -0.08710477 -0.0091999825 0.10905817
0.036517568 0.01344143 -0.05932009 0.068576194 -0.077843234 -0.1309294 0.11988295 -0.10241695
-0.11446934 -0.11132875 -0.055259533 -0.018195806 0.09762669 -0.103255644 0.017359035 -0.13160409
0.10591713 0.0029834774 -0.043017264 -0.107953146 0.04182687 -0.123126134 -0.0010491058 -0.02377891
0.06440008 -0.17658705 0.11114415 -0.05044048 -0.124146596 0.09030051 0.06908614 0.16542697
0.022814615 -0.107390486 -0.058669593 0.023952724 -0.13607956 -0.10366942 -0.1346633 0.02942422
0.10315129 -0.114752546 0.07366137 -0.00090112066 -0.064093664 -0.010186113 0.10900983 0.027676893
0.0762742 0.042471536 0.109796144 0.021721937 0.124234684 -0.003077626 0.09863896 -0.11087326
0.026531458 0.021486947 -0.12511268 0.13985315 -0.07299124 0.1054645 -0.07064476 -0.13132821
-0.009052363 0.06984502 -0.117729716 0.1565503 0.15317234 -0.10227153 -0.18633246 0.12556851
0.010974828 -0.033056807 -0.17587654 0.15579598 0.09680235 0.009929566 0.08659271 -0.1544838
0.050992228 0.14045525 0.060680356 0.08754353 0.038169913 -0.022077804 -0.15438457 -0.11371406
-0.08304109 -0.14111866 0.019533386 -0.11675171 -0.018431006 -0.1728559 0.05205475 -0.042699542
-0.13123016 -0.0022908286 -0.09277139 0.17207846 -0.16192351 -0.17051114 0.05520283 0.08276277
-0.0528532 -0.13019103 0.17230634 -0.06781986 0.1273429 -0.039618608 0.025289755 0.105258204
0.053356856 -0.030862557 -0.0992867 0.17520256 -0.13444862 -0.005820838 -0.15893638 -0.12335824
-0.14021192 -0.152857 -0.15636717 -0.06714132 -0.044960447 0.095096394 0.16781731 0.08407986
00000000: a5bc e93d b672 323e 1033 0f3e 7c62 2e3d
00000010: 6c4f 49be df86 00be 9804 3dbe 9318 02be
00000020: b9d0 213d e47f ea3d 4e16 fb3b 8ad2 d73c
00000030: 5e3e b3bc 406c e0bd 0355 84bd 121b dabc
00000040: bd24 11be 93b9 013e 3bc0 3cbc dd5d 213d
00000050: 031b abbc da3e 2bbd cf71 d93d fb2e 4b3d
00000060: 6c25 c53d 1a70 c138 ee3d 0f3e f722 32be
00000070: ca59 27bd 392c f33c 650e 403d 5c39 b43d
00000080: f937 283e bcbc bfbd 7644 163e bc45 d53d
00000090: 3999 96ba a4d7 35bc 4c7f 8abd 98c3 e4bd
000000a0: 97a0 afbc a24a cd3c 02bd 013e 2232 e23d
000000b0: 8457 b23d 4f65 e0bc 2964 c13d dc65 06be
000000c0: 8335 033e 7006 513d 80cc 043d 6add 1abe
000000d0: 8270 25be 1686 0bbc 17ac 81bd 0257 0f3e
000000e0: 8589 123d b394 06be 7123 3e3d d3d2 0d3e
000000f0: dba1 12be 1c41 8f3d 44f9 9abd 75cb 89bd
00000100: 546d aebd f59b debd 43f4 ca3b b31b a3bd
00000110: 6780 083e 0cac 0ebe 60af b53d 9447 21be
00000120: d7e6 ae3c 385a 003e 29ee 073d fe2b 10bd
00000130: e56f 8dbd 5554 2b3e 27c7 f93d 83e4 f0bc
00000140: 93a1 21be 2eb2 08bd 924c 20be e8b3 c73d
00000150: 3f99 133e e32c 813d 1215 dd3d 79f3 9abd
00000160: 2ce5 033d 3f7b afbd 95cd 0cbe b5f2 df3d
00000170: 2b7d 063e b73d e8bc cb8a ddbd ab6e 003e
00000180: 1748 ffbc 7e1a 0d3e 81de 08be 9ccb fdbd
00000190: 582b fe3d 3799 b3bd 71c6 08bd ab19 813d
000001a0: 6da3 79bd 8e83 023e 68a4 183e 68a8 c1bc
000001b0: 8a4c 54be 8ed1 e8bd 6816 26bc 2542 2abd
000001c0: d4e8 cabd 3f06 d23d b4b8 b83d c92b 763d
000001d0: 73c9 653c b628 c23d c3bc 05be 866a 3abe
000001e0: f873 34bb 2af4 bd3d 6417 6d3d 2f3e 593d
000001f0: 5e00 933d fc63 b2bd 86bb 16bc e459 df3d
00000200: 7293 153d 7239 5c3c 9ff9 72bd ad71 8c3d
00000210: 466c 9fbd 5b12 06be 3185 f53d fabf d1bd
00000220: e76e eabd 5400 e4bd d257 62bd 5f0f 95bc
00000230: 81f0 c73d b277 d3bd 8934 8e3c 39c3 06be
00000240: 15eb d83d 7286 433b df32 30bd 8a16 ddbd
00000250: a752 2b3d 8e29 fcbd 2682 89ba fdcb c2bc
00000260: 30e4 833d 3cd3 34be 8b9f e33d ad9a 4ebd
00000270: 9240 febd 79ef b83d 097d 8d3d b065 293e
00000280: b7e5 ba3c 8bef dbbd 874f 70bd 8138 c43c
00000290: 7158 0bbe a250 d4bd 2de5 09be 100b f13c
000002a0: fc40 d33d 6203 ebbd c6db 963d 2f39 6cba
000002b0: 8a43 83bd a8e3 26bc 8c40 df3d a7ba e23c
000002c0: a635 9c3d a2f6 2d3d cddc e03d 34f2 b13c
000002d0: c16e fe3d ffb1 49bb 3903 ca3d 8511 e3bd
000002e0: 8058 d93c 6505 b03c 8a1d 00be aa35 0f3e
000002f0: 6e7c 95bd c6fd d73d 33ae 90bd e77a 06be
00000300: 5d50 14bc e80a 8f3d 471c f1bd b94e 203e
00000310: 36d9 1c3e bc73 d1bd f0cd 3ebe 0895 003e
00000320: c4cf 333c 9366 07bd fb18 34be fb88 1f3e
00000330: 4f40 c63d 9eaf 223c 8557 b13d 0031 1ebe
00000340: 3add 503d 80d3 0f3e f78b 783d 064a b33d
00000350: 0e58 1c3d 83dc b4bc fd16 1ebe ebe2 e8bd
00000360: 7211 aabd 6981 10be 7b04 a03c 851b efbd
00000370: 9ffc 96bc 2301 31be 5d37 553d b7e5 2ebd
00000380: 3361 06be ba21 16bb edfe bdbd 5635 303e
00000390: 47cf 25be 799a 2ebe 5d1c 623d 877f a93d
000003a0: 997c 58bd cc50 05be 1371 303e 24e5 8abd
000003b0: 2d66 023e 1f47 22bd 762c cf3c 9d91 d73d
000003c0: b88c 5a3d 79d3 fcbc d356 cbbd 4d68 333e
000003d0: e6ac 09be babc bebb 38c0 22be 3fa3 fcbd
000003e0: b793 0fbe 8c86 1cbe b71e 20be 6381 89bd
000003f0: 7228 38bd e6c1 c23d 4dd8 2b3e 1032 ac3d

layers.4.bias f4 [32]
-0.042019937 -0.07583262 -0.20126718 -0.157775 -0.09249749 -0.09713778 -0.12855703 -0.07472598
-0.062178727 -0.0673156 0.10280346 0.14862601 0.0752842 -0.15834442 -0.008408468 0.07095603
0.013313391 -0.033656947 -0.026265733 -0.020528706 -0.0044359956 -0.17021106 -0.070136644 -0.014016582
-0.0077326177 -0.111588694 -0.031117987 -0.030429624 -0.16166246 0.025271818 -0.041463435 -0.013908733
00000000: 191d 2cbd 224e 9bbd fc18 4ebe c58f 21be
00000010: 536f bdbd 2cf0 c6bd 74a4 03be ef09 99bd
00000020: 1faf 7ebd c3dc 89bd 9f8a d23d 6b31 183e
00000030: 9a2e 9a3d 0a25 22be acc3 09bc 6551 913d
00000040: 6920 5a3c dedb 09bd 3c2b d7bc d12b a8bc
00000050: d45b 91bb cf4b 2ebe cda3 8fbd cea5 65bc
00000060: e661 fdbb 9d88 e4bd 26eb febc 8c47 f9bc
00000070: d88a 25be d806 cf3c 90d5 29bd 74e1 63bc

layers.6.weight f4 [38, 32]
0.058802556 -0.063318804 -0.104071796 -0.028352298 -0.058992237 -0.003518851 0.016998835 -0.14042166
1.0059015 -0.12340247 -0.7592646 0.8644577 1.1161929 0.081788845 0.039326616 -0.032190446
0.7057832 -0.10162961 0.7873566 0.8313635 0.95648843 -0.14168324 1.0427483 -0.12432613
-0.09313778 0.68010706 -0.14041609 -0.13804172 0.14450051 0.4507296 1.1172825 0.5470612
-0.1570898 -0.15048096 -0.002431634 0.053745925 0.012086216 0.06444663 0.16283077 0.10011471
-2.3950732 0.00032929028 -1.2543199 -4.818727 -3.0484207 0.14858231 -0.15611736 -1.2784728
-0.7177367 -0.14710216 -1.4474479 -1.0176604 -1.7209511 -0.05332828 -3.315763 -0.033228185
-0.13291931 -0.40304488 0.08462942 0.17224443 -0.09433989 -1.5686501 -3.3081517 -1.5004817
-0.1157147 -0.0031839625 -0.15485035 0.110398695 -0.042832535 -0.17061767 -0.029338231 -0.08824444
0.072122954 -0.1205607 0.063011855 0.07624251 -0.09301598 -0.010193869 -0.0016724712 -0.13089883
0.16169986 -0.007979536 -0.04361668 -0.032674953 -0.13903847 0.13500634 -0.09531999 -0.10595188
0.08382479 -0.14577617 0.016361026 -0.029679684 0.011469021 -0.05427903 -0.049119726 -0.00020936447
0.08680601 0.048820525 0.17459626 -0.015167428 0.12648633 0.06661094 0.13310102 0.052605145
-0.15354648 0.0057116775 -0.070007876 -0.06902071 0.12953994 0.0074874507 -0.13691396 0.1384953
0.17174253 0.043536957 -0.13866039 0.08895598 -0.029415317 0.016449746 -0.17537878 0.1429196
-0.02826237 0.03546221 -0.029205784 -0.10134273 -0.071530685 0.052932773 0.084388845 -0.13188857
-0.13516591 0.09158198 -0.16968814 0.16735063 0.12206749 -0.0061134635 -0.07274339 -0.042142633
0.024037506 0.029020086 -0.07085715 0.034675602 -0.15223686 0.15118553 0.068113096 0.12143253
-0.16822225 -0.16179599 0.088400945 -0.14210206 -0.121014684 -0.12716973 -0.068595424 -0.17608428
-0.0011116653 0.13056178 0.081752665 0.10525539 -0.17361024 -0.14234069 0.11818695 -0.030807301
-0.07269397 0.10273407 -0.15227614 0.0034546065 0.06719838 -0.17489518 0.028014865 0.14385606
3.4659617 -0.009159931 0.93362415 -15.055684 -9.303166 0.080949515 0.016152589 -2.4608278
4.7685804 0.07300839 2.6641674 5.1159782 2.387366 0.14595574 3.2462482 -0.14585783
-0.12890002 6.3367324 0.05839511 0.16787608 -0.084791824 1.2601448 2.0924459 2.057777
-0.07518201 0.17657804 0.081886925 -0.004573334 -0.015482503 -0.06581438 -0.020459097 0.02633819
3.9464197 -0.046055667 3.774035 -0.04239298 0.87555736 0.14544371 0.18279336 -3.3602242
6.4975185 0.1548807 1.863703 9.089804 3.9952538 -0.1555588 5.5434737 0.10506248
-0.074892096 33.005253 -0.052308243 -0.12255024 0.123855114 5.837474 3.9235535 10.619075
0.15709306 -0.11830296 0.08492031 0.09301505 0.15772812 -0.1518923 0.15100983 0.030904194
1.8852907 -0.05741595 -3.5419576 0.64431334 -0.058139723 0.037626535 -0.057547886 -2.2678962
-2.177548 0.13897452 1.5377643 0.14822356 3.365926 -0.074214354 -0.53036016 -0.07156854
0.08831559 1.7702501 0.06705523 -0.05959166 -0.03639116 9.156166 0.41864604 4.344708
00000000: f3da 703d 4aad 81bd 9823 d5bd 1443 e8bc
00000010: d8a1 71bd 869c 66bb 2441 8b3c b2ca 0fbe
00000020: 61c1 803f 6fba fcbd 2a5f 42bf 1a4d 5d3f
00000030: 69df 8e3f e980 a73d f214 213d 21da 03bd
00000040: 35ae 343f 2f23 d0bd 3490 493f 3dd4 543f
00000050: 6ddc 743f 6915 11be c778 853f b39e febd
00000060: 05bf bebd 7f1b 2e3f 3cc9 0fbe cf5a 0dbe
00000070: f1f7 133e 08c6 e63e 1d03 8f3f 340c 0c3f
00000080: 26dc 20be ae17 1abe 0d5c 1fbb b024 5c3d
00000090: 4405 463c 98fc 833d 1cbd 263e f108 cd3d
000000a0: e148 19c0 98a4 ac39 8e8d a0bf 0333 9ac0
000000b0: 5319 43c0 f625 183e 3bdd 1fbe ffa4 a3bf
000000c0: 98bd 37bf f3a1 16be f945 b9bf b242 82bf
000000d0: 2048 dcbf c16e 5abd 7635 54c0 471a 08bd
000000e0: 001c 08be e65b cebe 3052 ad3d d860 303e
000000f0: 4635 c1bd 87c9 c8bf c2b8 53c0 c90f c0bf
00000100: d4fb ecbd 07aa 50bb 1791 1ebe b618 e23d
00000110: 2b71 2fbd 66b6 2ebe bb56 f0bc 80b9 b4bd
00000120: 33b5 933d 87e8 f6bd 5c0c 813d 0825 9c3d
00000130: 2a7f bebd 2f04 27bc d236 dbba 580a 06be
00000140: a694 253e 9abc 02bc 67a7 32bd 2cd6 05bd
00000150: 1a60 0ebe 1a3f 0a3e 2037 c3bd 4dfd d8bd
00000160: 55ac ab3d 5946 15be 8f07 863c cf22 f3bc
00000170: 90e8 3b3c b053 5ebd c431 49bd d988 5bb9
00000180: 59c7 b13d 08f8 473d 5dc9 323e ce80 78bc
00000190: a285 013e 516b 883d a24b 083e 7e78 573d
000001a0: 4a3b 1dbe 0629 bb3b 4a60 8fbd bb5a 8dbd
000001b0: 1ea6 043e 4a59 f53b 2c33 0cbe b6d1 0d3e
000001c0: 46dd 2f3e cf53 323d fdfc 0dbe 8e2e b63d
000001d0: 64f8 f0bc 9ec1 863c 7f96 33be 8459 123e
000001e0: 7c86 e7bc d340 113d f840 efbc c78c cfbd
000001f0: ae7e 92bd 09d0 583d 0fd4 ac3d cc0d 07be
00000200: ef68 0abe 558f bb3d bac2 2dbe f75d 2b3e
00000210: 85fe f93d 7353 c8bb 7dfa 94bd c19d 2cbd
00000220: 4eea c43c 88bb ed3c 8e1d 91bd 0108 0e3d
00000230: fbe3 1bbe 61d0 1a3e e17e 8b3d 9eb1 f83d
00000240: 7442 2cbe d9ad 25be 8e0b b53d 3483 11be
00000250: 8cd6 f7bd c838 02be c27b 8cbd 704f 34be
00000260: 4cb5 91ba fdb1 053e f16d a73d 2390 d73d
00000270: e2c6 31be c2c1 11be 000c f23d 985f fcbc
00000280: 93e0 94bd 3d66 d23d 47ee 1bbe ae66 623b
00000290: 4e9f 893d b917 33be 6e7f e53c 014f 133e
000002a0: 51d2 5d40 8913 16bc fe01 6f3f 15e4 70c1
000002b0: c5d9 14c1 dcc8 a53d 6f52 843c 347e 1dc0
000002c0: 3698 9840 6c85 953d b881 2a40 18b6 a340
000002d0: 9bca 1840 6c75 153e 88c2 4f40 c15b 15be
000002e0: 5efe 03be 83c6 ca40 b62f 6f3d b5e7 2b3e
000002f0: 56a7 adbd 6d4c a13f a2ea 0540 9eb2 0340
00000300: 07f9 99bd e0d0 343e 55b4 a73d e8db 95bb
00000310: 53aa 7dbc b1c9 86bd d699 a7bc 30c3 d73c
00000320: 2492 7c40 dea4 3cbd ca89 7140 43a4 2dbd
00000330: 8724 603f 32ef 143e 2f2e 3b3e ea0d 57c0
00000340: aceb cf40 0c99 1e3e d28d ee3f d66f 1141
00000350: 3db2 7f40 ce4a 1fbe 2364 b140 ff2a d73d
00000360: 0761 99bd 6105 0442 2b41 56bd 9ffb fabd
00000370: c0a7 fd3d 96cc ba40 801b 7b40 bbe7 2941
00000380: 01dd 203e d348 f2bd b3ea ad3d ad7e be3d
00000390: 7b83 213e a889 1bbe 52a2 1a3e cb2a fd3c
000003a0: 3551 f13f fd2c 6bbd 6faf 62c0 b8f1 243f
000003b0: eb23 6ebd 481e 1a3d 55b7 6bbd 3625 11c0
000003c0: f25c 0bc0 564f 0e3e 76d5 c43f ebc7 173e
000003d0: 556b 5740 b2fd 97bd afc5 07bf 8792 92bd
000003e0: cede b43d 8e97 e23f 4154 893d 6216 74bd
000003f0: e60e 15bd a87f 1241 c658 d63e d907 8b40

layers.6.bias f4 [38]
0.38175052 -8.272606 -0.111328475 0.099927016 -0.05204889 -5.3470125 0.7851753 0.05800066
-0.76148725 -0.44248715 6.612765 1.1654134 0.11867757 0.4830168 0.6368029 7.435607
2.2248394 7.1285095 2.2493613 1.867042 2.2567656 2.0323863 1.6102452 1.6041946
-0.0053788135 -0.073966965 -0.15301044 -0.11386505 -0.087910704 -0.16987069 -0.14819837 -0.14768529
-0.17966689 -0.18528669 -0.17144671 -0.20350109 -0.20209686 -0.20037419
00000000: ce74 c33e 985c 04c1 2f00 e4bd 89a6 cc3d
00000010: 3831 55bd ba1a abc0 4001 493f 1a92 6d3d
00000020: d4f0 42bf ad8d e2be c59b d340 442c 953f
00000030: 3a0d f33d fa4d f73e 8405 233f 7ef0 ed40
00000040: c563 0e40 c01c e440 89f5 0f40 3bfb ee3f
00000050: d96e 1040 9e12 0240 841c ce3f 4056 cd3f
00000060: c240 b0bb fe7b 97bd c5ae 1cbe 1432 e9bd
00000070: 870a b4bd 95f2 2dbe 50c1 17be d03a 17be
00000080: 99fa 37be cbbb 3dbe ba8f 2fbe 9762 50be
00000090: 7bf2 4ebe e42e 4dbe

layers.7.lower_bound f4 [24]
0.0 0.0 0.0 0.0 0.0 0.0 -0.3 0.0
-0.06 -0.06 0.94 0.94 0.94 0.94 0.94 0.94
0.94 0.94 0.94 0.94 0.94 0.94 0.94 0.94
00000000: 0000 0000 0000 0000 0000 0000 0000 0000
00000010: 0000 0000 0000 0000 9a99 99be 0000 0000
00000020: 8fc2 75bd 8fc2 75bd d7a3 703f d7a3 703f
00000030: d7a3 703f d7a3 703f d7a3 703f d7a3 703f
00000040: d7a3 703f d7a3 703f d7a3 703f d7a3 703f
00000050: d7a3 703f d7a3 703f d7a3 703f d7a3 703f

onnx::Mul_195 f4 [24]
3.4 0.59 0.0 0.0 0.0 0.1 0.6 0.4
0.29999998 0.29999998 0.119999945 0.119999945 0.119999945 0.119999945 0.119999945 0.119999945
0.119999945 0.119999945 0.119999945 0.119999945 0.119999945 0.119999945 0.119999945 0.119999945
00000000: 9a99 5940 3d0a 173f 0000 0000 0000 0000
00000010: 0000 0000 cdcc cc3d 9a99 193f cdcc cc3e
00000020: 9999 993e 9999 993e 88c2 f53d 88c2 f53d
00000030: 88c2 f53d 88c2 f53d 88c2 f53d 88c2 f53d
00000040: 88c2 f53d 88c2 f53d 88c2 f53d 88c2 f53d
00000050: 88c2 f53d 88c2 f53d 88c2 f53d 88c2 f53d
