code/nnv/examples/Submission/VNN_COMP2021/test_benchmarks/verivital/Convnet_avgpool.onnx (onnx, 47454 bytes, 4 tensors)

conv1.0.bias f4 [32]
0	0xbf3522fe	-0.7075652
1	0x3edd35d7	0.4320514
2	0xbef45767	-0.47722933
3	0xbf6259fc	-0.88418555
4	0xbed78baa	-0.42098743
5	0xbe54eed4	-0.2079423
6	0xbeea7948	-0.45795655
7	0xbdf8fb1c	-0.1215727
8	0xbd0b74c7	-0.034046914
9	0xbf1c7fa0	-0.6113224
10	0x3ca0e162	0.01963872
11	0xbed0e549	-0.4079993
12	0xbef50f0a	-0.47863036
13	0xbc152d9a	-0.009105111
14	0xbecb2990	-0.39680147
15	0xbf374629	-0.7159143
16	0xbf0d7984	-0.55263543
17	0x3a871579	0.0010306082
18	0xbd8a371d	-0.06748793
19	0xbeee7e01	-0.46580508
20	0xbead3928	-0.3383267
21	0xbecbfe0c	-0.3984226
22	0xbe05ebf0	-0.13078284
23	0xbf4fc83e	-0.8116492
24	0xbe19751c	-0.1498608
25	0xbf2b0c22	-0.6681539
26	0xbddde83d	-0.108353116
27	0xbd30f970	-0.043206632
28	0xbe3e536f	-0.18586515
29	0xbeb8f695	-0.36125627
30	0xbf3005cb	-0.6875884
31	0xbe8d5240	-0.27601814

conv1.0.weight f4 [32, 1, 2, 2]
0	0x3ef3a527	0.4758694
1	0x3e85a7f8	0.26104712
2	0xbd110939	-0.035409186
3	0x3f01c1b0	0.5068617
4	0xc025ccfd	-2.5906365
5	0xbfc822dd	-1.563564
6	0xbf6acdda	-0.91720355
7	0xbfb5a1c4	-1.4189992
8	0x400c2912	2.1900067
9	0xc007eb43	-2.1237342
10	0x40122412	2.2834516
11	0xc020d6ee	-2.5131183
12	0xbf04a099	-0.5180755
13	0x3f89c86d	1.076429
14	0x3f698777	0.9122233
15	0xbe848cd8	-0.25888705
16	0xbf7267bf	-0.94689554
17	0x3f384864	0.7198546
18	0x3f522f11	0.8210307
19	0xbed5c710	-0.41753435
20	0xc07425ca	-3.8148065
21	0xbf67b5da	-0.9051186
22	0x3f72d2b2	0.94852746
23	0x403a467b	2.9105518
24	0x3d69c070	0.05706829
25	0xbc8a30e0	-0.016869009
26	0xbebc22e8	-0.3674538
27	0x3e089dc4	0.13341433
28	0x40544aa4	3.3170557
29	0xbf8c860f	-1.0978411
30	0xbdc6600a	-0.09686287
31	0xc05b46fc	-3.4262075
32	0xbf8b3eeb	-1.0878576
33	0xc0239295	-2.5558217
34	0x400b772f	2.1791494
35	0xbff957c2	-1.9479907
36	0x3f94151e	1.1568944
37	0xc0505f50	-3.2558174
38	0x402c02d9	2.6876738
39	0xbe2eb980	-0.1706295
40	0xc0352eb8	-2.8309765
41	0xc072b7de	-3.7924724
42	0x3fbab463	1.45863
43	0xbfcffd4d	-1.6249176
44	0x3f2be1f2	0.6714164
45	0x3f3e0e32	0.7424041
46	0xbf7ba73e	-0.98302066
47	0xbfb19b24	-1.387547
48	0xbd287a00	-0.041131973
49	0x3db78428	0.08960754
50	0xbe161430	-0.14656138
51	0x3eaf21e8	0.34205556
52	0xc088a533	-4.270166
53	0xbe557b2d	-0.20847769
54	0xc0477297	-3.116369
55	0x3ff38e06	1.9027717
56	0xbaa88400	-0.0012856722
57	0x3ca4d780	0.02012229
58	0x3e406ba4	0.18791062
59	0x3e3fcefc	0.18731302
60	0x3efceac2	0.49397856
61	0x3b5a1426	0.003327617
62	0x3e6f7d87	0.23387729
63	0x3ed9828d	0.42482415
64	0xbe1fd109	-0.15607084
65	0xc012594e	-2.2867007
66	0x3fe21abe	1.7664411
67	0x3ef528a8	0.4788258
68	0xc06ff1f0	-3.7491417
69	0xc060fbcf	-3.5153692
70	0x3f7c0c73	0.98456496
71	0x3e1a2511	0.15053202
72	0x400f1aa5	2.2360013
73	0xc0563312	-3.346867
74	0xbfedae9e	-1.8568914
75	0xc06b4472	-3.6760526
76	0x3e773eff	0.24145125
77	0xbe2b34c2	-0.16719344
78	0xbeced0d8	-0.4039371
79	0x3e05b4ad	0.13057204
80	0xc03514c1	-2.8293917
81	0x4021a33c	2.525588
82	0xc0053f06	-2.0819716
83	0x3ffd8f46	1.9809349
84	0xbea6678e	-0.3250088
85	0xbec13bac	-0.3774084
86	0xbe2d7974	-0.16940862
87	0xbefe3f16	-0.49657506
88	0xbecfe3e8	-0.40603566
89	0xbfffc4fa	-1.9981987
90	0x3ec60a0c	0.3867954
91	0x3fd38f79	1.6528159
92	0x3e97a97a	0.29621488
93	0x3f2f61c3	0.6850855
94	0x3ebe4991	0.37165502
95	0x3ee6904a	0.4503196
96	0xbd4a06f1	-0.049323026
97	0xc00cc950	-2.1997871
98	0x3fae4234	1.3613954
99	0xbfeebb14	-1.8650842
100	0x3f6b7a16	0.91983163
101	0x3fbe10c0	1.4848862
102	0xbee8821f	-0.45411775
103	0xbfee26af	-1.8605555
104	0xc02c05db	-2.6878574
105	0xc05e6e28	-3.4754734
106	0x40439115	3.05573
107	0x3ffa7b7b	1.9568933
108	0xbe81c1d4	-0.25343192
109	0xbd905fa0	-0.07049489
110	0x3d14de30	0.036344707
111	0xbe27a8c4	-0.16372973
112	0x3fb7aa61	1.434887
113	0x4054bf81	3.3241885
114	0xc093d94d	-4.620276
115	0xbf6d30e1	-0.9265271
116	0x3fc6849f	1.5509223
117	0xbff09292	-1.879473
118	0x4002470d	2.0355866
119	0xbfd7f3bc	-1.6871257
120	0x3ec8bcc9	0.39206532
121	0x3e981164	0.29700768
122	0xbe2c323a	-0.16816035
123	0x3f056a59	0.521154
124	0x3a87c600	0.0010358691
125	0x3d936850	0.071976304
126	0xbe9cf45c	-0.3065518
127	0xbe94c870	-0.29059172

out.bias f4 [10]
0	0x3d3d281a	0.046180822
1	0x3f410962	0.7540494
2	0x3d40c9bb	0.047067385
3	0xbca596a8	-0.02021344
4	0xbdc76898	-0.097367465
5	0x3e3fc551	0.18727614
6	0xbd49745e	-0.049183242
7	0x3eb90906	0.36139697
8	0xbf149bb2	-0.5805007
9	0xbe4ce0d2	-0.20007637

out.weight f4 [10, 1152]
0	0xbd809108	-0.062776625
1	0xbee66c01	-0.45004275
2	0xbf15a6f2	-0.58457863
3	0xbf0bd37e	-0.54619586
4	0xbfa5a01d	-1.2939488
5	0xbf5c9aea	-0.8617388
6	0xbf0a83ac	-0.54107165
7	0x3cc233da	0.023706365
8	0x3f07074a	0.527455
9	0x3bba04d9	0.0056768474
10	0xbe00cccd	-0.12578125
11	0x3f24cdec	0.6437671
12	0xbf151147	-0.5822949
13	0x3e40ac05	0.1881562
14	0xbe7a20b6	-0.2442654
15	0x3e08dee9	0.13366283
16	0x3e69d53a	0.22835246
17	0x3d8bca92	0.068257466
18	0xbf529112	-0.8225261
19	0x3e2ec0b9	0.17065705
20	0x3ea431de	0.32069296
21	0xbff9edce	-1.9525697
22	0xbe39c38c	-0.18141001
23	0x3eed3bc9	0.46334675
24	0xbf29d201	-0.66336066
25	0x3d6a2e8b	0.057173293
26	0x3efac783	0.4898034
27	0xbe626a2e	-0.22110817
28	0xbecea7f6	-0.4036252
29	0x3e77399d	0.24143071
30	0xbf395fc5	-0.7241176
31	0x3f4fa4c8	0.8111081
32	0x3e1b5746	0.15170011
33	0x3f0387ac	0.51378894
34	0x3e30ac34	0.1725319
35	0xbe8c8e49	-0.27452305
36	0x3cf27f03	0.02960158
37	0x3b99906e	0.004686407
38	0x3d0da364	0.03457965
39	0x3e0af0ec	0.13568467
40	0x3e176f9a	0.14788666
41	0x3d4053a2	0.04695476
42	0x3cddcccf	0.0270752
43	0xbdc5df99	-0.096617885
44	0xbc50aa08	-0.012735851
45	0xbdc4ac86	-0.09603219
46	0x3d45a646	0.048254274
47	0xbe1909af	-0.149451
48	0x3d0ea79d	0.034827817
49	0xbdfdceb6	-0.123929426
50	0xbefde836	-0.49591225
51	0xbf54b160	-0.8308315
52	0xbf23cc84	-0.6398394
53	0xbf0d9bdb	-0.5531594
54	0x3d461e38	0.048368663
55	0xbee452b0	-0.44594336
56	0xbf8ef407	-1.1168221
57	0x3f893f9b	1.0722536
58	0xbe84e745	-0.25957695
59	0xbf470ab1	-0.7775069
60	0x3d0ace50	0.03388816
61	0xbe54e128	-0.20789015
62	0xbf4d0698	-0.80088186
63	0x3d830a78	0.06398481
64	0xbee87488	-0.45401406
65	0xbe237736	-0.15963444
66	0x3d74e090	0.059784472
67	0xbe642ff7	-0.22283922
68	0xbf068d18	-0.5255904
69	0xbea74270	-0.32667875
70	0x3e5225e3	0.20522265
71	0x3e18ab10	0.14909005
72	0xbbad798b	-0.00529403
73	0xbe932a75	-0.2874333
74	0xbebb7fad	-0.36620846
75	0xbeb6b524	-0.35685074
76	0xbfe5b925	-1.7947127
77	0xbf03a1c5	-0.51418716
78	0xbd535584	-0.051595226
79	0xbf388ead	-0.72092706
80	0xbf8b4a23	-1.0882
81	0xbf0c1e49	-0.5473371
82	0xbe387785	-0.18014343
83	0xbda2f037	-0.079559736
84	0xbd36dd56	-0.044644676
85	0x3e937d48	0.2880652
86	0x3ea2c0f6	0.31787843
87	0x3f578ae6	0.8419632
88	0x3f962ceb	1.1732458
89	0x3f7aafb3	0.97924346
90	0xbd62bcaf	-0.055355724
91	0x3feb23a5	1.8370253
92	0x3f9b41f6	1.2129505
93	0x3fe49b5f	1.7859915
94	0x3f515ca6	0.81781995
95	0x3ee3d6a5	0.44499698
96	0xbdeffede	-0.11718534
97	0x3f51ecf2	0.82002175
98	0x3fa32d76	1.2748249
99	0x3f3f6537	0.74763817
100	0xbcf5932f	-0.02997741
101	0x3b26a633	0.0025428652
102	0xbc4cf5dc	-0.012509789
103	0x3e9763f0	0.29568434
104	0xbe578685	-0.21047409
105	0xbff672de	-1.9253805
106	0xbfc68567	-1.5509461
107	0xbfd50513	-1.6642174
108	0xbe3debc1	-0.18546964
109	0xbf34625d	-0.7046259
110	0xbf40545f	-0.7512874
111	0xbf683b8e	-0.90715873
112	0xbfc7006f	-1.5547007
113	0xbf6acf2f	-0.9172239
114	0xbf6c4745	-0.9229625
115	0x3d9bab7c	0.076010674
116	0x3f2bd213	0.6711742
117	0xbda2f8e7	-0.079576306
118	0xbd90ba88	-0.07066828
119	0x3e7d44aa	0.24733225
120	0xbf17a27d	-0.5923231
121	0x3eb97a15	0.36225954
122	0xbebdf725	-0.3710262
123	0x3e99ff69	0.30077675
124	0xbe9558c8	-0.29169297
125	0xbe47da0a	-0.19516769
126	0xbfca4efb	-1.5805353
127	0x3e9d8ffb	0.3077391
128	0x3f3b7052	0.7321826
129	0xc014adde	-2.323112
130	0xbc261e15	-0.010139008
131	0x3ecb5d46	0.397196
132	0xbf568102	-0.837906
133	0x3ea504ed	0.3223032
134	0x3d93f686	0.07224755
135	0x3e186d5b	0.14885466
136	0xbe99b194	-0.30018294
137	0x3f0e64cc	0.55622554
138	0xbec5ffb9	-0.38671663
139	0x3f16de65	0.589331
140	0x3e222650	0.15834928
141	0x3e362cf5	0.17790587
142	0x3ec661eb	0.3874658
143	0x3e189dd5	0.14903958
144	0x3cd9a1f3	0.026566481
145	0xbeaa04e5	-0.3320686
146	0xbdeab648	-0.11460549
147	0xbde5cb21	-0.112203844
148	0xbe5cd528	-0.21565688
149	0xbe8d949a	-0.27652436
150	0xbe6b1b56	-0.22959647
151	0xbda75dfb	-0.08172222
152	0x3e7e93ea	0.24861112
153	0x3c35303b	0.011058862
154	0x3e45d06a	0.19317785
155	0x3d5e6597	0.054296102
156	0xbe82a9a1	-0.25520042
157	0x3d9683c4	0.07349351
158	0xbe374d43	-0.17900567
159	0x3e1f2521	0.15541507
160	0xbf0f63a8	-0.5601144
161	0x3e910ae7	0.2832863
162	0xbf8c5a84	-1.0965123
163	0x3eb779f5	0.35835233
164	0x3eedeba2	0.46468836
165	0xbf9a3ec7	-1.2050408
166	0xbd3ddc39	-0.0463526
167	0x3e8543e0	0.26028347
168	0xbe9340ef	-0.28760478
169	0x3f064689	0.5245138
170	0xbd7fd8a4	-0.062462464
171	0x3e23ba0f	0.15988944
172	0xbea353a2	-0.31899744
173	0x3e367fc6	0.17822179
174	0xbe1425a1	-0.1446748
175	0xbc0fe726	-0.008783137
176	0x3dc977ed	0.09837327
177	0x3e612bd5	0.21989377
178	0x3dbe4694	0.092908055
179	0x3d0198db	0.031639915
180	0xbf481f83	-0.78173083
181	0x3e1751d1	0.14777304
182	0xbd1c3e05	-0.038145084
183	0xbf2da2e0	-0.6782665
184	0x3dedb2a8	0.116063416
185	0x3e761f56	0.24035391
186	0xc003f16b	-2.06161
187	0x3ea023b2	0.31277233
188	0xbea52385	-0.32253662
189	0xbf101afc	-0.56291175
190	0xbf90b234	-1.1304383
191	0xbf941972	-1.1570265
192	0xbfb8a09a	-1.4424012
193	0x3e402d93	0.18767385
194	0x3e2708f8	0.16312015
195	0xbf85edc2	-1.0463183
196	0xc01add22	-2.4197469
197	0xbfa41dfc	-1.282165
198	0xbe821e55	-0.25413767
199	0x3f52561f	0.8216266
200	0x3eb23aa6	0.3481037
201	0xbfe40c99	-1.7816344
202	0xbebdce7e	-0.37071604
203	0x3f08a497	0.53376144
204	0x3f385b09	0.7201391
205	0x3c90409a	0.01760893
206	0xbf32e6a1	-0.6988316
207	0x3e81ab45	0.2532598
208	0x3ebeb3c8	0.37246537
209	0x3f033ef1	0.51267916
210	0xbfc0baba	-1.5056984
211	0xbf8c4367	-1.095807
212	0xc04b73b9	-3.1789382
213	0xbfa9ba29	-1.3259937
214	0x3d8f40c9	0.06994779
215	0x3d91cdfc	0.071193665
216	0xbc68858f	-0.014191999
217	0x3b4ee98c	0.003157231
218	0x3c1cbb24	0.009566102
219	0xbcbade71	-0.022811146
220	0x3cc787dd	0.024356777
221	0x3cc551d1	0.024086865
222	0x3caa55ec	0.020792924
223	0xbbc74638	-0.006081369
224	0x3c5a0270	0.013306245
225	0xbbcbe9a1	-0.006222919
226	0xbcbb2916	-0.02284674
227	0xbbb5c030	-0.005546592
228	0x3cc36832	0.023853395
229	0x3ca9743c	0.020685308
230	0xbc7d91b3	-0.015476632
231	0xbc5b7a3c	-0.013395842
232	0xbc840186	-0.016114008
233	0x3cdb70ac	0.026787125
234	0x3ca19aa7	0.019727064
235	0xbc49e65e	-0.01232299
236	0xbca8f62c	-0.020625196
237	0x3c8aba7f	0.016934631
238	0x3ccd14fa	0.025034416
239	0x3c06d8ec	0.008230429
240	0x3c9ff58c	0.019526266
241	0xbc3f98be	-0.011694131
242	0x3bc3fbd9	0.0059809503
243	0x3cb39bf3	0.021924948
244	0x3cc3ab57	0.023885412
245	0xbc6ee020	-0.014579803
246	0xbc2483c0	-0.010041177
247	0x3cc36ad5	0.023854652
248	0xbc603b04	-0.013685945
249	0xbc6a8cd0	-0.014315799
250	0xbc951dc5	-0.018202672
251	0xbb308805	-0.0026936543
252	0x37a3338f	1.9455123e-05
253	0xbe783d60	-0.24242163
254	0x3d38e624	0.045141354
255	0xbf27b68b	-0.65512913
